checkpoints/Computer2-1-checkpoint-1.5936-actor.pth (torch, 193711 bytes, 8 tensors)

fc1.weight f4 [256, 24]
0.03873972 -0.098679975 -0.10138896 0.028331438 0.008697227 -0.14942472 0.044034258 -0.0679298
0.23782915 -0.28621536 -0.16649935 0.08126878 0.12011286 -0.023476675 0.021093221 0.00090384117
-0.09539269 -0.017086482 -0.064093135 0.121332474 0.3578507 -0.11648268 -0.035920583 0.083857454
0.23174226 -0.4148149 0.051848512 0.090533145 0.09390163 0.03381006 -0.1446252 -0.14852197
-0.039719995 -0.46336934 0.062361788 0.32353923 -0.10432839 -0.0043172073 -0.13572301 -0.051446125
-0.0888856 -0.37234038 -0.11547801 0.14038067 0.04509984 -0.24690339 -0.11171291 0.28756225
-0.032523338 -0.16985126 -0.04470458 0.24618818 -0.34220612 0.20614114 0.17350632 -0.03749187
-0.20820555 -0.07295538 0.06810401 -0.10888724 -0.3018956 0.014865635 -0.039326176 0.1342621
-0.16052303 -0.07806208 0.048832126 -0.0067679393 0.15366888 -0.23889574 -0.03685573 -0.066435516
0.11436307 0.26396137 0.0027819248 -0.13232625 -0.0517958 -0.23549402 0.12242925 -0.031253956
0.20200047 -0.052898075 0.17168275 0.031000726 -0.34010175 0.079236016 -0.15782975 0.1010235
0.17586833 -0.06554081 0.1312903 0.069044404 -0.27909204 0.25049895 0.11027445 0.15581398
-0.036217395 -0.15591387 -0.073808685 0.24779285 0.2178436 0.16952932 0.05589046 0.27603853
0.004952197 -0.21872434 0.2159356 -0.0023637337 -0.25091654 0.27312675 -0.13636993 0.0919102
0.011230768 -0.31706575 0.03529274 0.14476636 -0.40540707 0.31910703 -0.006397848 0.08143908
0.2988124 -0.10798365 0.10672693 -0.07780404 -0.16947901 0.09871633 -0.20368409 0.115646325
0.082909785 -0.26521388 -0.04883356 0.0034097224 0.12389798 0.138226 0.04305012 -0.079614125
-0.08299245 -0.19541475 -0.09999265 -0.12880315 0.1556186 0.316835 0.21227337 -0.06293216
-0.03817627 -0.093060456 0.08336874 0.11023205 0.045330733 0.30769736 -0.100351356 0.18542252
0.4053879 0.06365074 -0.153968 0.13127428 0.31875762 0.08982965 0.08660093 0.15196116
0.17965145 -0.059340682 0.06187097 0.059148088 0.43256176 0.46328434 -0.062395412 0.22412938
0.20353106 0.1975518 0.13667695 -0.13955441 0.020543262 0.016410377 0.16809832 0.14583306
0.111130685 0.09950365 -0.05579865 -0.024564104 -0.28756994 0.2446144 0.06620904 0.05933914
0.1939028 -0.07096569 0.17372344 -0.05885839 -0.13233161 0.39407346 -0.04305161 -0.0891752
-0.17158237 -0.058187876 0.07614787 -0.124103166 -0.15611589 0.020524265 -0.03666675 -0.122927696
0.20845392 0.1285367 -0.0739739 0.10329127 -0.04078413 0.2792176 0.0529547 0.08567322
-0.04376947 -0.13728274 0.029490737 -0.25344193 0.17991723 0.5539916 0.0046811 -0.27955258
0.10224728 0.054305896 -0.09553809 0.33436456 -0.006290487 0.034209594 0.062367465 0.36283043
0.27445248 0.3882766 0.15475383 0.007001876 -0.102693 0.22857273 -0.06972778 0.23612264
0.041148726 0.3523023 0.09724561 0.12676276 0.2466151 0.2586678 0.013007082 0.16771571
0.16310406 -0.5406503 -0.007874867 -0.17704879 0.240867 -0.0010949938 0.09045419 -0.06264603
0.38970396 -0.06944498 0.10809284 0.28737503 -0.19449657 0.11981298 -0.12180431 0.14376895
00000000: 8aad 1e3d ba18 cabd 04a5 cfbd 5517 e83c
00000010: d07e 0e3c cb02 19be 445d 343d c71e 8bbd
00000020: 7c89 733e d28a 92be ce7e 2abe 3f70 a63d
00000030: bbfd f53d 2852 c0bc b1cb ac3c c1ef 6c3a
00000040: 3e5d c3bd f3f8 8bbc 4343 83bd 297d f83d
00000050: 3538 b73e 798e eebd 7621 13bd 75bd ab3d
00000060: d84d 6d3e 9e62 d4be 1b5f 543d 7169 b93d
00000070: 7f4f c03d 6b7c 0a3d a118 14be 2516 18be
00000080: 6fb1 22bd bf3e edbe 136f 7f3d efa6 a53e
00000090: 1faa d5bd 5c77 8dbb f9fa 0abe 2cb9 52bd
000000a0: a709 b6bd 66a3 bebe bc7f ecbd f3bf 0f3e
000000b0: 9cba 383d 3ed4 7cbe bdc9 e4bd 5c3b 933e
000000c0: 3137 05bd 7ded 2dbe 261c 37bd c118 7c3e
000000d0: a435 afbe aa16 533e a4ab 313e 1391 19bd
000000e0: d633 55be a169 95bd 1d7a 8b3d 4600 dfbd
000000f0: 0f92 9abe fe8e 733c 7c14 21bd 017c 093e
00000100: 2660 24be 03df 9fbd 3204 483d 97c5 ddbb
00000110: 605b 1d3e 16a1 74be 09f6 16bd 580f 88bd
00000120: 2f37 ea3d f225 873e f450 363b 8880 07be
00000130: d527 54bd 5825 71be 30bc fa3d 2604 00bd
00000140: 36d9 4e3e a7ab 58bd 9acd 2f3e 3cf5 fd3c
00000150: d121 aebe 7e46 a23d 1f9e 21be 69e5 ce3d
00000160: d416 343e 433a 86bd f770 063e 2767 8d3d
00000170: 27e5 8ebe 6641 803e 92d7 e13d b38d 1f3e
00000180: b158 14bd e3a7 1fbe 0229 97bd 69bd 7d3e
00000190: 6512 5f3e 1899 2d3e 65ed 643d ec54 8d3e
000001a0: 0a46 a23b 46f9 5fbe 391e 5d3e dfe8 1abb
000001b0: 2278 80be 45d7 8b3e 8fa4 0bbe 6a3b bc3d
000001c0: 4101 383c 7156 a2be 1f8f 103d a23d 143e
000001d0: 8491 cfbe ff61 a33e 0aa5 d1bb 88c9 a63d
000001e0: f0fd 983e 8826 ddbd a693 da3d b957 9fbd
000001f0: e88b 2dbe ca2b ca3d 9092 50be fbd7 ec3d
00000200: 9bcc a93d 1dca 87be b305 48bd a675 5f3b
00000210: 39be fd3d 1e8b 0d3e 5355 303d bb0c a3bd
00000220: f2f7 a9bd ce1a 48be f2c8 ccbd f9e4 03be
00000230: 7b5a 1f3e 3238 a23e 315e 593e 94e2 80bd
00000240: b85e 1cbd 7b96 bebd 3bbd aa3d 57c1 e13d
00000250: b8ac 393d 828a 9d3e 0385 cdbd 67df 3d3e
00000260: 018f cf3e 525b 823d caa9 1dbe c46c 063e
00000270: 3334 a33e 9cf8 b73d d45b b13d b59b 1b3e
00000280: 8df6 373e 370f 73bd 6a6c 7d3d 4445 723d
00000290: bc78 dd3e 9b33 ed3e 5592 7fbd 2c82 653e
000002a0: 726a 503e 054b 4a3e 0bf5 0b3e 5ae7 0ebe
000002b0: 584a a83c 0e6f 863c f721 2c3e 4355 153e
000002c0: 7c98 e33d 92c8 cb3d 208d 64bd a93a c9bc
000002d0: 5e3c 93be 337c 7a3e 9b98 873d 990d 733d
000002e0: 758e 463e 7656 91bd 8fe4 313e 7f15 71bd
000002f0: f081 07be ffc3 c93e e356 30bd 7da1 b6bd
00000300: 4ab3 2fbe 6956 6ebd 6af3 9b3d cd29 febd
00000310: d8dc 1fbe 8122 a83c e02f 16bd 84c1 fbbd
00000320: f274 553e 209f 033e a17f 97bd 608a d33d
00000330: 430d 27bd 9cf5 8e3e 07e7 583d 7175 af3d
00000340: 9e47 33bd d993 0cbe 8f96 f13c 24c3 81be
00000350: 393c 383e 65d2 0d3f ea63 993b 8421 8fbe
00000360: 0667 d13d dc6f 5e3d 79a9 c3bd d531 ab3e
00000370: 6e20 cebb 5c1f 0c3d 0775 7f3d e9c4 b93e
00000380: 0985 8c3e 31cc c63e ca77 1e3e fe6f e53b
00000390: b550 d2bd f80e 6a3e 70cd 8ebd 22ca 713e
000003a0: 918b 283d f860 b43e b528 c73d 19ce 013e
000003b0: ab88 7c3e 1b70 843e a81b 553c abbd 2b3e
000003c0: c004 273e 0f68 0abf 9605 01bc 474c 35be
000003d0: d7a5 763e e585 8fba 0c40 b93d 904c 80bd
000003e0: 4787 c73e 2b39 8ebd c75f dd3d d222 933e
000003f0: 1c2a 47be 8260 f53d 8a74 f9bd 2b38 133e

fc1.bias f4 [256]
0.019951224 -0.05839072 -0.1659802 -0.21905443 0.11113586 0.13489589 -0.35434294 -0.047587134
-0.0006443959 0.044824354 0.050155666 -0.11075007 -0.14124914 -0.11424383 -0.12077787 -0.1679542
-0.1630565 -0.104745656 -0.07958459 -0.097768486 -0.07670186 0.031925008 0.10641535 0.028833358
0.04268143 0.020422842 -0.19704421 0.08344917 -0.015577191 0.2371358 -0.22606437 -0.1689266
-0.028028535 -0.19919418 0.2161218 -0.1448736 -0.0908886 -0.13877682 -0.2686094 -0.060664147
0.054190274 -0.23468556 -0.011758756 0.09744464 -0.100803316 -0.27555376 -0.13251936 -0.083978616
-0.25637227 0.18888879 -0.2581802 -0.08174707 -0.06976236 -0.036039896 0.14526185 0.063476354
0.21247116 -0.16145802 -0.31081134 -0.1615285 -0.14653341 -0.1847562 -0.004085107 -0.097312465
-0.21566333 0.16774796 -0.12616688 0.076480426 0.07334102 -0.27535412 0.13107078 0.0115865255
-0.022325022 -0.02013283 -0.10896284 -0.17135042 -0.08646532 0.058468122 -0.18736623 0.15471287
-0.070388995 -0.08577377 0.08182907 -0.27792618 -0.0789088 -0.014013248 -0.09667069 -0.1033525
0.07781999 0.010628979 0.14420241 -0.034030605 0.0037364734 -0.32855308 -0.09631788 0.017462546
0.15293653 -0.07980563 -0.22214043 0.16900754 -0.3096999 -0.025673857 0.14747575 -0.010641276
0.19877945 -0.033135813 -0.24215326 0.13094519 0.04167085 0.059651736 -0.27090096 -0.061354317
-0.13235007 -0.29301184 0.032831818 0.009426538 -0.181351 -0.002778301 0.03015358 -0.14808759
-0.13248488 -0.05289294 0.020890497 0.09834255 -0.2290022 -0.083224595 0.11559564 -0.024485353
0.051600136 -0.026616672 0.11170016 0.052204285 -0.2149534 -0.23809053 -0.084143855 0.20214817
0.2161042 -0.359271 0.10976799 0.14926109 0.0585261 -0.18268572 -0.3143577 -0.13693847
0.06568056 -0.07493994 -0.17109108 0.09136426 0.0021184604 0.1097458 -0.23607346 -0.08499104
-0.18506497 -0.0709962 -0.24548845 -0.16575827 0.031108739 -0.08354902 -0.32365167 0.041004315
-0.30524772 -0.14395665 0.1944899 -0.27391994 0.09630452 -0.19113398 -0.11570618 -0.18717644
0.08566369 0.1964532 -0.04051666 -0.011894761 0.07967704 -0.19614254 -0.032117404 0.099526554
0.12405947 0.2552768 -0.039788667 -0.20808844 -0.08614269 -0.00066766044 -0.0141613595 -0.17886868
-0.052436095 0.13018417 0.068933725 -0.07293617 -0.10594576 -0.051817458 0.09631556 0.12736747
0.09629454 0.038975205 0.08273754 -0.24852224 0.08689813 -0.19276941 0.13356397 0.04846989
-0.057166018 -0.005135861 -0.25752458 0.037378803 0.12872337 0.012087766 0.034111965 -0.109135486
0.10606407 -0.20758776 -0.2896527 -0.010495394 -0.15614712 -0.26685658 -0.3058799 -0.1485668
-0.092935845 -0.24653646 -0.055094454 -0.09744222 0.08690824 0.14068563 0.045542095 -0.15726572
-0.14686729 -0.30379543 -0.047908604 0.18300004 0.20280509 -0.05945502 -0.07394861 0.24005069
-0.09010334 0.03441945 0.08061191 0.016336465 0.25920016 -0.081162035 0.20058645 -0.18281011
-0.20766886 0.39463907 0.05281496 0.1883 -0.17880385 -0.22744098 -0.16528092 0.17218395
-0.2657816 -0.05516838 0.100679696 -0.15549348 -0.065025166 0.1353851 0.21122682 -0.06176771
00000000: c070 a33c 1c2b 6fbd b7f6 29be ce4f 60be
00000010: 339b e33d 2622 0a3e 706c b5be baea 42bd
00000020: adec 28ba be99 373d 0770 4d3d efd0 e2bd
00000030: 9da3 10be abf8 e9bd 635a f7bd 30fc 2bbe
00000040: 48f8 26be e484 d6bd 3ffd a2bd d83a c8bd
00000050: dd15 9dbd ccc3 023d 4bf0 d93d ef33 ec3c
00000060: b9d2 2e3d ce4d a73c f5c5 49be 66e7 aa3d
00000070: 7937 7fbc bad3 723e 6b7d 67be 18fb 2cbe
00000080: 199c e5bc 8ff9 4bbe 084f 5d3e bf59 14be
00000090: cd23 babd 831b 0ebe 2c87 89be f87a 78bd
000000a0: 9ff6 5d3d 6951 70be cca7 40bc 0e91 c73d
000000b0: f871 cebd 6215 8dbe 28b3 07be fbfc abbd
000000c0: 3a43 83be 106c 413e 3230 84be 026b a7bd
000000d0: 91df 8ebd 929e 13bd 86bf 143e e4ff 813d
000000e0: 0a92 593e 4055 25be aa22 9fbe ba67 25be
000000f0: db0c 16be bb30 3dbe 5cdc 85bb c24b c7bd
00000100: d9d6 5cbe 1fc6 2b3e e431 01be c5a1 9c3d
00000110: d133 963d 37fb 8cbe 6b37 063e 69d5 3d3c
00000120: f7e2 b6bc 9bed a4bc e927 dfbd 7c76 2fbe
00000130: bb14 b1bd 457c 6f3d efdc 3fbe 0d6d 1e3e
00000140: 1b28 90bd 29aa afbd 0096 a73d 574c 8ebe
00000150: f09a a1bd d297 65bc 48fb c5bd 7aaa d3bd
00000160: 1660 9f3d 2b25 2e3c cca9 133e ad63 0bbd
00000170: 9fdf 743b 1c38 a8be 4f42 c5bd 9d0d 8f3c
00000180: 659b 1c3e 2271 a3bd c878 63be 5010 2d3e
00000190: fc90 9ebe fb51 d2bc e203 173e bf58 2ebc
000001a0: d78c 4b3e 6bb9 07bd 06f7 77be 7f16 063e
000001b0: 0eaf 2a3d 6155 743d 88b3 8abe aa4e 7bbd
000001c0: c786 07be a605 96be a87a 063d c471 1a3c
000001d0: 14b4 39be 2814 36bb a404 f73c 46a4 17be
000001e0: 1eaa 07be 44a6 58bd 8c22 ab3c d267 c93d
000001f0: 8d7f 6abe a871 aabd 68bd ec3d 8295 c8bc
00000200: aa5a 533d 350b dabc 0ec3 e43d 29d4 553d
00000210: be1c 5cbe 01ce 73be 9d53 acbd eeff 4e3e
00000220: 6b4a 5d3e 5ef2 b7be 0ace e03d e6d7 183e
00000230: 10b9 6f3d f711 3bbe 7ef3 a0be 9939 0cbe
00000240: 8883 863d 1c7a 99bd 8032 2fbe 2f1d bb3d
00000250: ded5 0a3b 68c2 e03d 3ebd 71be c80f aebd
00000260: ac81 3dbe 7566 91bd 5361 7bbe 89bc 29be
00000270: c1d7 fe3c c01b abbd acb5 a5be 24f4 273d
00000280: 6e49 9cbe 5f69 13be 5c28 473e 3c3f 8cbe
00000290: 4e3b c53d a0b8 43be 5df7 ecbd 2eab 3fbe
000002a0: 7270 af3d 072b 493e ccf4 25bd 3ee2 42bc
000002b0: b72d a33d 97d9 48be 8a8d 03bd 94d4 cb3d
000002c0: e412 fe3d a4b3 823e 71f9 22bd 2315 55be
000002d0: 946b b0bd ef05 2fba 0c05 68bc 5a29 37be
000002e0: 3bc7 56bd 004f 053e 202d 8d3d 8f5f 95bd
000002f0: 17fa d8bd 8b3e 54bd 1841 c53d 9e6c 023e
00000300: 1236 c53d 77a4 1f3d 4d72 a93d 9d7c 7ebe
00000310: a6f7 b13d 5865 45be fec4 083e 5d88 463d
00000320: ea26 6abd ba4a a8bb 43da 83be 841a 193d
00000330: 0fd0 033e c40b 463c fdb8 0b3d 6d82 dfbd
00000340: 1e38 d93d e391 54be 5c4d 94be dff4 2bbc
00000350: 08e5 1fbe 6da1 88be 4a9c 9cbe e521 18be
00000360: 2655 bebd 0e74 7cbe b9aa 61bd c98f c7bd
00000370: f3fc b13d e50f 103e 598a 3a3d 440a 21be
00000380: 6164 16be 138b 9bbe d03b 44bd 5d64 3b3e
00000390: 23ac 4f3e 1b87 73bd 5e72 97bd d9cf 753e
000003a0: 1a88 b8bd 69fb 0c3d db17 a53d 0dd4 853c
000003b0: e2b5 843e 4838 a6bd 8966 4d3e 9332 3bbe
000003c0: 25a7 54be 220e ca3e 8054 583d b7d1 403e
000003d0: 5b18 37be 4ae6 68be 673f 29be fd50 303e
000003e0: 8714 88be 3df8 61bd 2831 ce3d af39 1fbe
000003f0: ea2b 85bd 64a2 0a3e d84b 583e 2300 7dbd

fc2.weight f4 [128, 256]
-0.018290931 0.03270608 0.038434878 -0.19189245 0.04351649 -0.08843804 0.115992434 -0.18100397
0.13167693 0.013257707 -0.08810959 0.018254189 -0.016849378 -0.043345068 0.05082684 -0.15715821
0.17270654 -0.06522755 0.085279375 -0.23157215 0.07363341 -0.02471059 0.046084918 -0.33084977
-0.0076296995 0.069641806 -0.06597668 -0.09356013 0.055690505 0.044625904 -0.109843075 -0.0061962
-0.052554082 -0.033832774 -0.17872272 0.08292257 0.06254612 -0.01998915 -0.15216643 0.17912365
-0.0002199007 -0.06951209 -0.014878851 0.116133615 0.07707453 0.06056103 0.051866956 -0.06516536
0.018119382 0.02666463 -0.007855635 -0.12121522 -0.05020447 -0.16229436 -0.06339152 -0.055245515
-0.013758233 -0.023280157 0.030295327 0.048761047 0.003389288 -0.14064267 -0.07313205 0.10260267
0.09179611 -0.29198122 -0.3218146 -0.08544193 -0.13717617 -0.034197662 0.08211851 0.029582147
-0.12833449 0.09138661 0.0025779249 -0.05265692 -0.018145569 -0.024987759 0.0908916 0.063527554
0.07222097 -0.29518542 0.08196989 -0.016819665 -0.004331994 0.016541036 -0.11042758 0.037591245
0.0018239977 -0.0103479 0.081091 0.012444725 -0.015397416 0.097488195 0.09262787 0.04600748
-0.13727106 0.103078276 -0.02289563 -0.10974497 0.090548106 0.044434685 0.10948133 -0.03440856
-0.100705095 0.007384736 -0.053353425 0.036913093 -0.030223308 -0.18994272 0.02603378 0.0036859915
-0.21840373 0.044447478 -0.08627005 -0.05264783 -0.035443977 -0.07663559 -0.029368047 0.033594258
-0.035776276 -0.1047447 0.08517466 0.04991334 0.107503034 -0.05911622 -0.102766104 0.32982513
-0.014205137 0.0943089 -0.1362337 -0.07532335 -0.22818689 -0.023487428 0.014348184 0.053707328
-0.21011662 0.025479274 0.06651799 -0.118259445 -0.0645959 -0.081085384 -0.09618845 0.06057514
-0.009622785 0.11328954 0.08174385 0.042908646 -0.010051975 0.08199375 0.0417296 -0.010609796
-0.021087332 -0.012650009 0.09910284 0.06192637 -0.14245059 0.0535737 0.06054854 0.0069528418
-0.0033214795 0.05949878 -0.028385848 0.059346423 -0.047248863 -0.07170048 0.009650293 -0.002832953
0.065369286 -0.35159215 0.09371654 -0.047240146 0.083226964 -0.12044223 0.011147881 0.093283266
-0.3665713 0.12351469 0.03532415 0.1239654 -0.09971391 -0.0739854 -0.067791946 -0.24152279
0.018675277 -0.3337816 -0.13533513 0.11971162 -0.036856446 -0.04597727 -0.13146268 0.04053396
0.021211153 -0.11487725 -0.005707068 0.099602506 -0.21760733 -0.031879958 -0.069546424 -0.00053354417
0.048708335 0.18435365 -0.079834454 -0.03004189 -0.08071467 0.01874815 0.022469105 -0.16988301
-0.026208686 -0.0592785 0.042401288 -0.04674161 -0.21794613 0.015824107 -0.36705607 0.091962785
0.07132073 -0.20760745 0.116344005 -0.1505196 -0.017868161 -0.028599914 0.0040405374 -0.25109696
0.035678897 0.021222107 0.027533827 0.47248766 -0.1418818 -0.082500756 -0.18919112 0.07827982
0.079622746 -0.061927985 -0.10009673 -0.05082784 -0.0070739444 0.031527396 0.11038079 0.076725975
-0.00038995026 0.07931521 -0.11846912 -0.020846518 0.008167613 -0.00850354 -0.31002465 -0.055710066
-0.044050157 -0.010919924 -0.04234026 -0.022042086 -0.030870888 -0.091985874 -0.22525865 -0.050310824
00000000: ddd6 95bc cff6 053d e46d 1d3d 747f 44be
00000010: 593e 323d 011f b5bd 718d ed3d 1b59 39be
00000020: 51d6 063e da36 593c cd72 b4bd cf89 953c
00000030: b507 8abc 998a 31bd ce2f 503d 15ee 20be
00000040: fcd9 303e 0696 85bd f4a6 ae3d 4021 6dbe
00000050: 1dcd 963d dd6d cabc 8ac3 3c3d 2465 a9be
00000060: 8f02 fabb 5da0 8e3d c81e 87bd 749c bfbd
00000070: ba1b 643d a7c9 363d 68f5 e0bd 7e09 cbbb
00000080: f342 57bd 3c94 0abd 1703 37be 4fd3 a93d
00000090: 2e18 803d 49c0 a3bc 84d1 1bbe 316c 373e
000000a0: 2595 66b9 5b5c 8ebd 6dc6 73bc 76d7 ed3d
000000b0: 40d9 9d3d d80e 783d 7272 543d 6b75 85bd
000000c0: 196f 943c c86f da3c ecb4 00bc af3f f8bd
000000d0: 34a3 4dbd 7e30 26be 6ad3 81bd 1f49 62bd
000000e0: 366a 61bc 07b6 bebc e82d f83c aab9 473d
000000f0: d11e 5e3b a204 10be 42c6 95bd 5921 d23d
00000100: 99ff bb3d 907e 95be e2c4 a4be 2efc aebd
00000110: e977 0cbe d912 0cbd c02d a83d 4256 f23c
00000120: 1e6a 03be e728 bb3d 67f2 283b c8ae 57bd
00000130: 04a6 94bc 21b3 ccbc 6025 ba3d bc1a 823d
00000140: 97e8 933d 8b22 97be d4df a73d 65c9 89bc
00000150: 66f3 8dbb 1181 873c db27 e2bd 47f9 193d
00000160: 3513 ef3a 3d8a 29bc 0a13 a63d f6e4 4b3c
00000170: 7245 7cbc e4a7 c73d aeb3 bd3d 5772 3c3d
00000180: c990 0cbe b41a d33d 9e8f bbbc f9c1 e0bd
00000190: 4971 b93d 2501 363d bf37 e03d fdef 0cbd
000001a0: 793e cebd a8fb f13b 1f89 5abd 2f32 173d
000001b0: df96 f7bc 5880 42be cb44 d53c ad90 713b
000001c0: 3aa5 5fbe 8f0e 363d 5aae b0bd 40a5 57bd
000001d0: b42d 11bd 1ff3 9cbd 4295 f0bc 229a 093d
000001e0: 258a 12bd 6484 d6bd 0d70 ae3d ee71 4c3d
000001f0: 8d2a dc3d d923 72bd 0977 d2bd d7de a83e
00000200: aabc 68bc 0625 c13d d980 0bbe 2143 9abd
00000210: d3a9 69be b568 c0bc a514 6b3c 37fc 5b3d
00000220: d028 57be e9b9 d03c 953a 883d 0232 f2bd
00000230: db4a 84bd 1810 a6bd 73fe c4bd a31d 783d
00000240: e3a8 1dbc 5904 e83d 5269 a73d fac0 2f3d
00000250: 0ab1 24bc 57ec a73d a8ec 2a3d b6d4 2dbc
00000260: 57bf acbc fc41 4fbc 6ef6 ca3d 81a6 7d3d
00000270: 91de 11be 1970 5b3d bf01 783d aad4 e33b
00000280: 2ead 59bb feb4 733d 7089 e8bc 3c15 733d
00000290: 0688 41bd b4d7 92bd 431c 1e3c 10a9 39bb
000002a0: 55e0 853d e303 b4be 75ee bf3d e27e 41bd
000002b0: e672 aa3d 6aaa f6bd 9aa5 363c 4c0b bf3d
000002c0: 3caf bbbe 45f5 fc3d 0eb0 103d 92e1 fd3d
000002d0: ce36 ccbd a885 97bd 81d6 8abd c051 77be
000002e0: e5fc 983c 6ce5 aabe 4b95 0abe 5e2b f53d
000002f0: c9f6 16bd a952 3cbd 279e 06be f006 263d
00000300: 03c3 ad3c c344 ebbd 5b02 bbbb 66fc cb3d
00000310: 75d4 5ebe 8f94 02bd 5b6e 8ebd 8bdd 0bba
00000320: 6482 473d 34c7 3c3e 3f80 a3bd 691a f6bc
00000330: bc4d a5bd b895 993c 2111 b83c d0f5 2dbe
00000340: 99b3 d6bc 03ce 72bd f9ac 2d3d 2174 3fbd
00000350: 452d 5fbe 8fa1 813c c6ee bbbe fc56 bc3d
00000360: 9a10 923d 0c97 54be c445 ee3d cf21 1abe
00000370: 4060 92bc 5e4a eabc 7c66 843b c88f 80be
00000380: 0924 123d fcd9 ad3c 9f8e e13c e7e9 f13e
00000390: 7649 11be 28f6 a8bd 51bb 41be 2c51 a03d
000003a0: 4011 a33d 33a8 7dbd 84ff ccbd da30 50bd
000003b0: 8ccc e7bb df22 013d 530f e23d 8222 9d3d
000003c0: 3d72 ccb9 0370 a23d f09f f2bd 51c6 aabc
000003d0: 74d1 053c 6f52 0bbc 8dbb 9ebe 3d30 64bd
000003e0: f06d 34bd 7be9 32bc fb6c 2dbd 9b91 b4bc
000003f0: f2e4 fcbc 1763 bcbd 34aa 66be b912 4ebd

fc2.bias f4 [128]
-0.0046931934 0.034799453 -0.057384696 0.042034343 -0.07402528 0.046642218 -0.080320716 -0.12857962
0.05585597 -0.007580127 -0.03108353 0.009798058 0.10613378 -0.07816785 -0.0038622206 0.06533863
-0.026065074 -0.012218606 -0.13294843 -0.058627773 0.033692338 -0.029872298 -0.08375144 0.01656514
0.057644784 0.03809927 -0.10841319 -0.025257217 0.008857895 0.009897244 -0.07446974 -0.0075963945
-0.017931255 -0.12124121 -0.007505726 -0.1096725 0.031872977 0.028905317 0.045924768 -0.040347748
0.0076459697 0.00552541 0.0995898 -0.009427196 -0.025249781 -0.08381538 -0.021113053 -0.00019118401
-0.02189033 0.137587 0.07077187 -0.18838924 0.026307767 -0.014424094 -0.039129045 0.06224802
0.028113818 -0.0066287518 0.110113695 -0.07818088 -0.11749977 0.01996406 0.03258501 -0.028030694
-0.0038670169 0.14317763 -0.037779763 0.06877885 0.0018763777 0.038056336 -0.009201462 -0.13577548
-0.056609828 0.033780254 -0.018254707 -0.054501392 0.017720234 -0.048210565 0.05063795 -0.009920533
-0.013392613 0.0049452125 0.107757576 0.13756977 0.006724414 -0.05379877 0.05769151 0.053606022
-0.019648958 0.0013305781 -0.06738433 -0.004722148 0.029025104 -0.027114889 0.046030607 -0.03512461
-0.0746452 -0.06048751 -0.021997659 -0.017407397 -0.04834419 -0.12486302 0.0028647932 0.048137136
0.026799265 0.0061472664 -0.0030243674 0.022162918 0.037347447 0.027946372 0.022397567 0.03391871
0.08818688 0.109567195 0.073526606 -0.006883637 -0.024610767 -0.025601622 -0.0013983287 -0.055706847
-0.004057912 -0.09533126 -0.005865428 0.010675238 0.062192727 0.0096388655 -0.0035174037 -0.047909357
00000000: 5cc9 99bb df89 0e3d 370c 6bbd 342c 2c3d
00000010: 919a 97bd e90b 3f3d 307f a4bd 60aa 03be
00000020: 3bc9 643d b762 f8bb e3a2 febc 0988 203c
00000030: ab5c d93d 7716 a0bd 4f1d 7dbb 42d0 853d
00000040: 6c86 d5bc 8c30 48bc a223 08be ad23 70bd
00000050: fa00 0a3d c0b6 f4bc e085 abbd 9eb3 873c
00000060: f01c 6c3d fb0d 1c3d bc07 debd 39e8 cebc
00000070: b420 113c 0d28 223c 9783 98bd 2deb f8bb
00000080: 91e4 92bc 504d f8bd 98f2 f5bb fa9b e0bd
00000090: 3d8d 023d d8ca ec3c 9c1b 3c3d ae43 25bd
000000a0: 0b8b fa3b 800e b53b bdf5 cb3d 8774 1abc
000000b0: a1d8 cebc 66a7 abbd 48f5 acbc 9178 48b9
000000c0: 5953 b3bc 9be3 0c3e d8f0 903d 1ce9 40be
000000d0: 6383 d73c 0953 6cbc c745 20bd c8f7 7e3d
000000e0: f34e e63c 0036 d9bb 4a83 e13d 4c1d a0bd
000000f0: b8a3 f0bd ab8b a33c dc77 053d a0a0 e5bc
00000100: c76d 7dbb 289d 123e f4be 1abd eddb 8c3d
00000110: caf0 f53a f6e0 1b3d bbc1 16bc ba08 0bbe
00000120: b5df 67bd 2a5d 0a3d e58a 95bc da3c 5fbd
00000130: 062a 913c 7178 45bd bd69 4f3d bb89 22bc
00000140: b16c 5bbc 730b a23b 01b0 dc3d 17df 0c3e
00000150: 7958 dc3b 195c 5cbd ef4d 6c3d fd91 5b3d
00000160: daf6 a0bc cb66 ae3a cc00 8abd 40bc 9abb
00000170: 0ec6 ed3c 0b20 debc 978a 3c3d d3de 0fbd
00000180: 95df 98bd c0c1 77bd 6f34 b4bc f599 8ebc
00000190: 8f04 46bd 2fb8 ffbd 41bf 3b3b 722b 453d
000001a0: 228a db3c 026f c93b 7734 46bb 028f b53c
000001b0: a3f9 183d caef e43c 1a7b b73c 58ee 0a3d
000001c0: 539b b43d c464 e03d 1e95 963d 2290 e1bb
000001d0: 859c c9bc 7eba d1bc 2048 b7ba dd2c 64bd
000001e0: 3cf8 84bb 093d c3bd c732 c0bb 32e7 2e3c
000001f0: cdbd 7e3d 55ec 1d3c 3e84 66bb 9a3c 44bd

fc3.weight f4 [64, 128]
0.15108186 -0.008529193 0.056005705 0.07941079 -0.1453549 0.0013976968 0.061845418 -0.087167904
0.095647536 -0.010223125 0.023591878 -0.013287074 0.13124098 0.053109895 -0.0066133556 0.13243186
-0.061199795 0.06220479 0.03322581 0.09504952 0.12820874 0.090086356 -0.06793984 0.02303308
-0.044296738 0.009630441 0.3237304 0.04726727 0.020417655 -0.12947062 0.16324015 0.0074666124
0.07756507 0.14188844 0.09090054 0.117784664 -0.016749933 -0.036160078 0.10937155 -0.10246201
-0.09421439 0.07966114 0.011200043 -0.07360648 0.049130768 0.027635321 0.08132696 -0.060417924
0.0327315 0.010879738 0.086028546 0.014605066 0.104031146 -0.00351926 0.16359802 -0.023514878
-0.03483475 -0.19925945 -0.06885579 -0.25087756 -0.04455836 -0.1106166 0.044347588 -0.04222745
-0.16882168 0.027700726 -0.056572784 -0.14418875 -0.2970933 0.04526721 -0.073828965 -0.060501564
0.13147826 0.007005234 -0.0035727627 0.017158195 -0.05600502 0.10718757 0.075806245 0.09859229
-0.056899097 0.06471075 -0.0017879617 -0.023756048 -0.03363552 0.12193799 0.06884175 0.004468353
-0.030691411 0.109773606 -0.051864646 0.12505029 0.039750405 -0.055924516 0.07242757 0.09772498
0.44260892 -0.03703234 0.07071924 0.004462644 -0.20780258 -0.0669267 0.076087914 -0.078769825
-0.071304165 0.06746215 0.03018872 -0.03579132 0.14663027 -0.011838665 -0.06533674 0.04168036
-0.1121166 0.089405894 -0.047999505 -0.12636909 0.26937294 -0.06523283 0.056202557 -0.07160825
-0.022450065 0.07766096 0.25595886 -0.09804974 0.028672667 -0.07475757 0.064743556 -0.03642493
0.039040063 -0.04705251 -0.06705171 0.022587897 -0.06340281 -0.11374086 0.11016785 -0.08080727
0.05275937 -0.043122385 0.031242069 0.10137703 -0.017663578 0.06064758 0.09270898 0.094771795
-0.064237885 0.08258953 0.13006757 0.0076769134 0.05456086 0.0132298665 -0.10907768 0.12125418
0.05184365 -0.0024871249 0.25647423 -0.10216334 -0.014671847 0.05098525 0.026046885 -0.084774636
-0.04478415 0.19919132 0.0030584321 0.0652114 -0.09280103 -0.11073594 0.059710786 -0.013243016
-0.004704807 0.03718853 -0.046983194 -0.12859729 0.069309674 0.075310595 0.11036792 0.005692071
-0.09295329 -0.038316276 0.042766757 0.080642775 0.0719387 0.016036997 0.042282052 -0.015502204
-0.09379773 -0.05053406 0.049885567 0.02367978 0.14481105 -0.12558821 -0.10236386 -0.15074657
-0.16839992 0.050030228 0.012294598 -0.10029579 -0.14906588 0.051915023 0.011081831 0.03889723
0.06676624 -0.01065549 -0.14378653 -0.13543841 -0.092989735 -0.004096882 -0.06983939 -0.04281551
0.08393045 -0.08413301 0.101981975 0.16463247 -0.087015525 -0.03352139 0.059437957 0.024147453
0.07429677 -0.008290895 -0.020167524 0.27224913 0.088662 0.020837823 0.16485518 0.028248915
0.27071208 0.024814563 -0.0345258 0.0273056 -0.07102407 0.077634044 0.008082518 -0.011432918
-0.017663263 0.01430833 0.077487245 0.013312292 0.01962943 -0.07691822 -0.05579502 0.023585372
-0.03302399 0.02129043 -0.02488414 0.04686251 0.2800453 0.07980714 0.11194656 -0.07985728
-0.007688781 -0.29714027 0.09988872 -0.040689744 0.052937537 0.04787723 -0.023701182 -0.09653107
00000000: 34b5 1a3e 07be 0bbc 3d66 653d 20a2 a23d
00000010: ead7 14be ec32 b73a 9f51 7d3d 1685 b2bd
00000020: dbe2 c33d e57e 27bc c143 c13c 07b2 59bc
00000030: 0964 063e c389 593d d9b4 d8bb 389c 073e
00000040: a3ac 7abd 73ca 7e3d c917 083d 53a9 c23d
00000050: 2749 033e 327f b83d 0b24 8bbd dfaf bc3c
00000060: 7f70 35bd ffc8 1d3c febf a53e 539b 413d
00000070: ed42 a73c f293 04be 6d28 273e 7caa f43b
00000080: 6fda 9e3d 344b 113e 102a ba3d 1639 f13d
00000090: 2837 89bc 971c 14bd 31fe df3d 9ad7 d1bd
000000a0: 79f3 c0bd 6125 a33d 6380 373c ffbe 96bd
000000b0: 583d 493d 7863 e23c c08e a63d c978 77bd
000000c0: 7711 063d ee40 323c bc2f b03d 164a 6f3c
000000d0: 480e d53d 63a3 66bb 3d86 273e 46a2 c0bc
000000e0: e2ae 0ebd ab0a 4cbe 4404 8dbd 0673 80be
000000f0: d482 36bd f58a e2bd d1a5 353d b1f6 2cbd
00000100: 97df 2cbe a2ec e23c ddb8 67bd 37a6 13be
00000110: 9d1c 98be 1c6a 393d a433 97bd 7dd0 77bd
00000120: 3da2 063e 298c e53b 0325 6abb 588f 8c3c
00000130: 8565 65bd 2885 db3d 4e40 9b3d c1ea c93d
00000140: 070f 69bd 1287 843d 0a5a eaba 0b9c c2bc
00000150: 66c5 09bd a0ba f93d e7fc 8c3d 436b 923b
00000160: 8e6c fbbc fcd0 e03d 0670 54bd 2f0d 003e
00000170: 52d1 223d 1b11 65bd e854 943d 0924 c83d
00000180: a39d e23e 39af 17bd 40d5 903d 5f3b 923b
00000190: 33ca 54be de10 89bd fbd3 9b3d 1352 a1bd
000001a0: eb07 92bd 9829 8a3d 564e f73c eb99 12bd
000001b0: 3f26 163e f6f6 41bc 45cf 85bd 06b9 2a3d
000001c0: 639d e5bd 701a b73d 219b 44bd e666 01be
000001d0: 40eb 893e ca98 85bd a734 663d 59a7 92bd
000001e0: 33e9 b7bc b60c 9f3d 0a0d 833e 4dce c8bd
000001f0: f1e2 ea3c 7f1a 99bd 4598 843d 4f32 15bd
00000200: 79e8 1f3d 22ba 40bd 6852 89bd 410a b93c
00000210: 55d9 81bd f8f0 e8bd af9f e13d 487e a5bd
00000220: 361a 583d 19a1 30bd 5eef ff3c c39e cf3d
00000230: 35b3 90bc 9969 783d 35de bd3d b717 c23d
00000240: 278f 83bd b324 a93d 6f30 053e 9e8e fb3b
00000250: 357b 5f3d 15c2 583c 1e64 dfbd 1d54 f83d
00000260: 025a 543d 08ff 22bb 9750 833e 033b d1bd
00000270: 3062 70bc e9d5 503d 4760 d53c 539e adbd
00000280: 966f 37bd cff8 4b3e fa6f 483b 8e8d 853d
00000290: 770e bebd 86c9 e2bd 4c93 743d 3cf9 58bc
000002a0: c82a 9abb 0053 183d 7371 40bd 02af 03be
000002b0: 3bf2 8d3d 713c 9a3d 9308 e23d 8d84 ba3b
000002c0: 4b5e bebd 87f1 1cbd 322c 2f3d 0a28 a53d
000002d0: 9954 933d 0560 833c f22f 2d3d f5fc 7dbc
000002e0: 0619 c0bd cdfc 4ebd cf54 4c3d 19fc c13c
000002f0: 5949 143e 329a 00be 25a4 d1bd 4f5d 1abe
00000300: 0771 2cbe 7fec 4c3d 486f 493c e167 cdbd
00000310: baa4 18be d9a4 543d 9190 353c b452 1f3d
00000320: bdbc 883d 5d94 2ebc c73c 13be 5eb0 0abe
00000330: 6771 bebd 233f 86bb f407 8fbd 515f 2fbd
00000340: bae3 ab3d ed4d acbd eddb d03d 6a95 283e
00000350: 3235 b2bd ba4d 09bd 3775 733d e1d0 c53c
00000360: e828 983d 89d6 07bc 5d36 a5bc 3d64 8b3e
00000370: 6c94 b53d 15b4 aa3c cccf 283e 456a e73c
00000380: c69a 8a3e e947 cb3c ed6a 0dbd feaf df3c
00000390: 1175 91bd 99fe 9e3d 8a6c 043c 2251 3bbc
000003a0: 8cb2 90bc 7c6d 6a3c a2b1 9e3d cd1b 5a3c
000003b0: e6cd a03c 4d87 9dbd 5289 64bd 1c36 c13c
000003c0: 2a44 07bd 4569 ae3c d3d9 cbbc e7f2 3f3d
000003d0: 1962 8f3e ed71 a33d 3d44 e53d 378c a3bd
000003e0: 2bf2 fbbb c522 98be 7592 cc3d 4aaa 26bd
000003f0: 08d5 583d ea1a 443d fb28 c2bc 15b2 c5bd

fc3.bias f4 [64]
-0.089865744 -0.0466609 0.032918155 0.06012677 0.0788471 -0.09273495 0.024810553 -0.073444456
-0.040500604 0.032840103 -0.038710013 -0.016306318 0.035112936 0.044149425 0.022742195 0.09169384
-0.05536071 -0.040149562 -0.01889205 0.033550892 -0.053491298 -0.06852247 -0.07819934 -0.050537758
-0.009244385 0.011630472 -0.068567276 -0.10435869 0.1763032 -0.012158687 -0.088363074 0.022618918
0.015661327 0.105315104 0.0056032273 0.107810386 -0.078960985 0.0062567005 -0.0755202 0.020463012
-0.002515059 -0.08523817 0.106480554 -0.10083443 -0.072948776 0.044572074 0.011371153 0.007669033
-0.040644858 -0.0066671427 0.042190026 -0.008967731 0.009238463 0.13526441 0.010671258 -0.04655335
-0.022269107 0.0037633858 0.027181456 0.0057260105 0.0011989943 0.074531406 0.15643121 0.022567557
00000000: 880b b8bd 801f 3fbd 30d5 063d 7d47 763d
00000010: 977a a13d d2eb bdbd 803f cb3c 0c6a 96bd
00000020: f6e3 25bd 5883 063d 648e 1ebd d494 85bc
00000030: 95d2 0f3d 07d6 343d d74d ba3c fbc9 bb3d
00000040: e9c1 62bd de73 24bd 80c3 9abc a96c 093d
00000050: b119 5bbd 8255 8cbd fa26 a0bd ae00 4fbd
00000060: c375 17bc bc8d 3e3c 006d 8cbd 02ba d5bd
00000070: d388 343e 3b35 47bc b3f7 b4bd 4f4b b93c
00000080: 2f4c 803c 72af d73d 479b b73b b1cb dc3d
00000090: 4cb6 a1bd 0205 cd3b 56aa 9abd 0ca2 a73c
000000a0: b0d3 24bb 5a91 aebd 7a12 da3d 4882 cebd
000000b0: 2b66 95bd 3591 363d 134e 3a3c 834c fb3b
000000c0: 397b 26bd 0c78 dabb 73cf 2c3d 64ed 12bc
000000d0: ec5c 173c c182 0a3e 80d6 2e3c baae 3ebd
000000e0: b46d b6bc 23a3 763b a5ab de3c 42a1 bb3b
000000f0: 9327 9d3a eca3 983d 812f 203e 99df b83c

fc4.weight f4 [2, 64]
0.14810519 0.1289565 -0.09753678 -0.7969446 -0.05325473 0.10958631 0.08420791 0.17446658
-0.09396063 -0.053331204 0.085738026 0.06606989 0.095008336 -0.23855583 -0.21303502 -0.13048929
0.101302594 -0.47377342 -0.07784756 0.3553507 -0.2495958 -0.34163052 0.076869674 -0.050433185
0.50372195 -0.37873015 -0.16953416 -0.37291485 -0.02842758 -0.10803304 0.41133362 -0.06366466
0.12558493 0.20456718 -0.1245423 0.5747879 -0.17556539 0.2720275 0.05387198 -0.1662251
0.46019638 -0.09485532 0.010787233 0.13592109 -0.6969339 -0.2796029 -0.027250523 0.07569607
-0.12912364 -0.29760343 0.070931785 -0.63621646 -0.01032695 0.33482063 0.12580574 -0.017779553
0.31424996 -0.065326676 -0.24610731 -0.4508311 0.15021463 -0.8198942 0.20931308 -0.16787337
-0.15250552 -0.09296288 0.038084403 0.16513458 -0.6557778 -0.3341209 -0.26006052 -0.46958065
0.3344564 -0.62766665 0.51062113 0.26773283 -0.065887 0.00031643952 -0.030912982 0.55298483
-0.30412424 0.20605655 -0.5910448 0.1304527 -0.0021940551 -0.26525593 0.15232567 0.48085088
-0.38986847 -0.09480999 -0.17942972 0.21054356 0.50655115 0.70618486 -0.24955669 0.29781446
0.024705254 0.2883645 -0.20624183 -0.24277064 -0.14802 -0.01884853 0.54964286 -0.12381369
0.11937329 -0.17274342 0.42066655 0.39652562 -0.12438698 -0.38127106 0.37563887 0.48740536
0.09145874 0.08858907 -0.32036012 0.12414653 -0.21213678 -0.19777337 -0.5810645 -0.36141804
0.33131602 0.06603291 0.4294628 0.41028666 -0.8114106 0.015699888 0.097481705 0.12609014
00000000: e3a8 173e 2c0d 043e 5dc1 c7bd 9004 4cbf
00000010: a221 5abd ca6e e03d 3275 ac3d 5ea7 323e
00000020: 6e6e c0bd d271 5abd 6b97 af3d a74f 873d
00000030: bb93 c23d fb47 74be da25 5abe fc9e 05be
00000040: bc77 cf3d 6e92 f2be 8b6e 9fbd 87f0 b53e
00000050: 0b96 7fbe 32ea aebe d96d 9d3d 0793 4ebd
00000060: ecf3 003f ebe8 c1be 5d9a 2dbe b2ee bebe
00000070: f5e0 e8bc 6d40 ddbd 529a d23e 9e62 82bd
00000080: 5699 003e 0f7a 513e 0910 ffbd 4d25 133f
00000090: 6ac7 33be 3047 8b3e dea8 5c3d ea36 2abe
000000a0: dc9e eb3e 8243 c2bd efbc 303c e62e 0b3e
000000b0: 436a 32bf 1c28 8fbe 7d3c dfbc 8b06 9b3d
000000c0: fd38 04be 7a5f 98be af44 913d 15df 22bf
000000d0: 5e32 29bc 9c6d ab3e 38d3 003e 6da6 91bc
000000e0: 5fe5 a03e fec9 85bd 8e03 7cbe 55d3 e6be
000000f0: ddd1 193e 96e4 51bf 2b56 563e ffe6 2bbe
00000100: 682a 1cbe 5363 bebd 64fe 1b3d 0a19 293e
00000110: 0ee1 27bf e511 abbe a726 85be e06c f0be
00000120: df3d ab3e c3ae 20bf 11b8 023f 4714 893e
00000130: c3ef 86bd cbe7 a539 393d fdbc 6a90 0d3f
00000140: 2cb6 9bbe 7d00 533e b64e 17bf 6595 053e
00000150: 23ca 0fbb a0cf 87be 43fb 1b3e 1632 f63e
00000160: d79c c7be bd2b c2bd 6dbc 37be bb98 573e
00000170: 56ad 013f 88c8 343f ca8b 7fbe 237b 983e
00000180: ac62 ca3c 83a4 933e 0f31 53be de98 78be
00000190: 8e92 17be 3b68 9abc 65b5 0c3f 0892 fdbd
000001a0: fc79 f43d a7e3 30be 9b61 d73e 6805 cb3e
000001b0: 9abe febd f635 c3be bd53 c03e 328d f93e
000001c0: b84e bb3d 306e b53d 3e06 a4be 8940 fe3d
000001d0: 623a 59be 1a85 4abe a5c0 14bf c90b b9be
000001e0: 41a2 a93e 433c 873d 8ce2 db3e 1811 d23e
000001f0: 9bb8 4fbf 0d9d 803c 7da4 c73d c61d 013e

fc4.bias f4 [2]
-0.006538662 0.017868962
00000000: 4642 d6bb ee61 923c
