checkpoints/Computer2-0-checkpoint-0.9189-actor.pth (torch, 193711 bytes, 8 tensors)

fc1.weight f4 [256, 24]
00000000: c1d2 e93b 3ac1 5cbe 2964 07be 8af4 63bd
00000010: 0fab 9e3e f854 193d 5839 083e b889 72be
00000020: 48dc 9f3d 62bf c33d 5ea0 2c3e 14c5 8f3d
00000030: 5a4f b13c fa32 833e 6470 10be 3b21 b6bd
00000040: eb2d 973d 8072 9f3d 0e40 9ebd c8db 403d
00000050: f6b3 da3b a49e 843e 58cc e0bb bd36 d43c
00000060: 0443 803e 5c0b 473d 0dc6 dd3d b108 7fbd
00000070: 21ed 6f3d 7112 adbe 89cb 263e 4c43 acbe
00000080: 9e43 46bc 02b7 1c3d c9e2 5f3c 31a3 353e
00000090: 2772 1fbc f49a a3be 3a72 cbbd f784 0bbe
000000a0: b1a1 bc3d 3ed6 323d 76ba 2d3e 7a32 093e
000000b0: cf97 a13e dd86 06bf ebb0 ccbd 8938 01bd
000000c0: 3eec 71bd a7b5 d7bd eb76 94bd f22c 00be
000000d0: e404 d4bd f889 303c 0e75 a63d 4923 89be
000000e0: 28f4 253d 000f 52be 7ea3 f63d abd0 49be
000000f0: b70d d0bd feed b83e f95e 16be 30c2 b1bd
00000100: 6159 d73d cd63 25be 7798 bb3d 559d 37be
00000110: 4824 d83b f43e b43e efdb 78bd 0a7e c3be
00000120: 90cc 2f3e cb9f d5bd 8fd0 84bd b4aa 533e
00000130: 6206 973d e3bd 293e f1f6 1e3b e7de 5fbd
00000140: c8e2 4e3e 8dc9 bb3d b23e 4c3e 125e 943e
00000150: a8af 11be 6fbe e83d 1dd0 0c3d 3d95 403e
00000160: 069b 6e3d fe92 913c 4545 7fbd 22ba c8bc
00000170: 3ebf 6b3e fadb 513c 4d99 35be 9ef2 88bb
00000180: 0183 5b3c a911 d63b c1f0 8a3d dc70 213e
00000190: dd98 d2be c53b 2d3e f247 d7bb 7a81 1abe
000001a0: 7b1a 183e 5916 0abe 8c0b 853d cb25 66be
000001b0: e17d 3abd 9df1 5c3e 5552 70bd 1878 76be
000001c0: 8b88 423e b701 5bbe 0acc 54be 0799 6cbd
000001d0: 2088 a3be 3ad0 9ebc 070d d63d 5529 49be
000001e0: 85ae 143e 384a 13be da95 fb3c 4c9a 66be
000001f0: f7b0 923e 621d 07be e1a7 e23d 833e 86bc
00000200: 90a6 edbd bf8f cbbd 5423 313e 7c84 b53c
00000210: 0046 8c3e b02b 4bbe da25 4cbe d6c5 76bd
00000220: 3b4c b1bc 9dcc d1bb 634e adbd 9f72 1fbd
00000230: 9645 903e 5271 3e3d e1d6 a33d d464 89bd
00000240: a1b5 a4bd b46f edbd 1bcb 11be e3c5 91bc
00000250: 4d37 5fbe a52f 1abe 4871 a83b 6d6b 0b3d
00000260: 7de5 ba3c 15b5 15be b5f2 5f3d 8d76 62be
00000270: 27f2 343d 99f0 6d3d 3e91 e13d 0814 49bd
00000280: 70b8 50be 36c4 1c3e f0ea 843d 6f5b 533e
00000290: 1561 65ba 28ee dbbe b9c9 84bd 802e 303d
000002a0: 3065 7b3e 0717 2fbe bfe0 e13d 3e9d d1bc
000002b0: d0f6 593e 6d55 ab3d 3138 c43c d407 fdbd
000002c0: 8957 3bbe 36f0 41be c877 efbd 361d 66be
000002d0: 4e3b c7bb 9be9 4fbe 4459 af3a aca5 6abe
000002e0: ab64 61be 4c5c e4bd 0ce9 2dbe 50c3 5dbe
000002f0: dfb2 efbd 5020 b63b e6ed 1e3e d7a9 89be
00000300: adcf ffbc dffb 0cbe e83d 8abd b2a1 093e
00000310: 2ae7 d73c d35a 1dbe 41d0 d23d 4376 263e
00000320: d390 7a3d 25de 433e b9db 5c3d 9d8f 7c3e
00000330: c144 8d3d 81b3 2c3e a56f 203e b493 8c3e
00000340: 2f97 f93c 5b3f 32be 0b0f 28be ffa4 1e3e
00000350: 8da4 bdbd fc28 5f3e 8604 04be 252c febc
00000360: 2760 363e 6a4f d6bb e381 ab3d 43f1 9dbe
00000370: c049 373d 3e60 8d3e 5163 26be d8ac 1b3d
00000380: 9ac8 4d3e 6cce c9bd 6927 55bd e890 91be
00000390: 3718 0c3e a90b e4bd 3770 b3bd d2b8 aebd
000003a0: c789 103e 7214 e9bd e1bd a93d 2000 263d
000003b0: aec2 88bd 7887 8bbd b7da 113e af57 a73d
000003c0: 4501 b53d fb08 bf3d c4b1 5c3d 21cf 66bd
000003d0: 4118 8cbe 85f9 35bb a896 b53d 1e54 6c3e
000003e0: ced3 0c3d e96e d33b c60a 513d 4d21 c13d
000003f0: be95 bdbd 2a25 5bbd 326c 2cbd 6cfd 4a3c
0.0071357195 -0.21558085 -0.13221802 -0.055653132 0.30989882 0.03743455 0.13303125 -0.23685348
0.07805687 0.09557988 0.1685805 0.070200115 0.021644283 0.2562483 -0.14105374 -0.08893057
0.07381805 0.07785511 -0.07727061 0.0470846 0.006674285 0.25902283 -0.006860297 0.025905007
0.2505113 0.048594818 0.10828791 -0.06226415 0.058575753 -0.33803132 0.1628858 -0.33645093
-0.012101082 0.038260467 0.01366491 0.17738034 -0.009731806 -0.31954157 -0.09933896 -0.13624941
0.09210528 0.04366135 0.1696566 0.13398162 0.31561133 -0.52549535 -0.09994682 -0.031548057
-0.05906319 -0.10532694 -0.07249244 -0.12517145 -0.10352495 0.010775082 0.08127795 -0.26784733
0.04051605 -0.20513535 0.120429024 -0.19708507 -0.10158866 0.36119074 -0.14684667 -0.086796165
0.105150945 -0.16151352 0.0915994 -0.17931111 0.006596122 0.3520428 -0.06075662 -0.38182098
0.17167878 -0.10430869 -0.06485092 0.20670587 0.07374264 0.16576342 0.0024256075 -0.054655936
0.20203698 0.09169302 0.19945791 0.2897802 -0.14227164 0.11364447 0.03437816 0.1880693
0.05825331 0.017770287 -0.06232192 -0.024502818 0.23022172 0.012808794 -0.17734261 -0.004179313
0.013397933 0.006532867 0.067842014 0.15765709 -0.4113225 0.16917332 -0.006569856 -0.15088454
0.14853851 -0.13485087 0.06496343 -0.22475354 -0.045530204 0.21576543 -0.058672268 -0.2406925
0.189974 -0.21387373 -0.2078096 -0.057763126 -0.31939793 -0.0193864 0.104517035 -0.19644673
0.14519699 -0.14383781 0.030711103 -0.22519797 0.28650638 -0.13194802 0.110671766 -0.01638723
-0.11604035 -0.09939527 0.17298633 0.0221579 0.27397156 -0.19840884 -0.19936314 -0.060247265
-0.021642795 -0.0064025656 -0.08462217 -0.03892767 0.2817809 0.04649479 0.07999969 -0.067086846
-0.080424555 -0.11593571 -0.14237635 -0.017794555 -0.2179844 -0.15057237 0.0051404573 0.034037996
0.022814507 -0.14619859 0.054674823 -0.22115536 0.044176247 0.05809078 0.11014031 -0.04909137
-0.20382857 0.15309224 0.06490123 0.20640348 -0.0008750123 -0.42955136 -0.06483788 0.043013096
0.24550319 -0.17098628 0.11029195 -0.025587674 0.21285558 0.08365903 0.023952575 -0.12355009
-0.18295111 -0.1893929 -0.11692768 -0.2247208 -0.0060800677 -0.20303957 0.0013378044 -0.22914761
-0.22011058 -0.11150417 -0.16983432 -0.21656537 -0.11704039 0.005558051 0.15520439 -0.2688739
-0.031226957 -0.13767956 -0.06750089 0.13440588 0.026355345 -0.15366678 0.102936275 0.16256051
0.06117327 0.1912771 0.05392048 0.24664159 0.068978794 0.1686535 0.15667589 0.2745644
0.030467598 -0.1740698 -0.16411988 0.15492629 -0.09259901 0.21792978 -0.1289235 -0.03102691
0.17810117 -0.0065402286 0.08374383 -0.3084813 0.044748068 0.2761249 -0.16248824 0.038006634
0.20096055 -0.09853825 -0.052039538 -0.28430867 0.13681112 -0.111350365 -0.08761638 -0.085313454
0.14115058 -0.11380853 0.0828817 0.040527463 -0.06677757 -0.06812948 0.1424359 0.08171021
0.08838133 0.09327885 0.053880468 -0.056349877 -0.27362254 -0.0027767133 0.08866626 0.23078963
0.03438168 0.0064524305 0.051035665 0.0943018 -0.09257077 -0.05350224 -0.04209537 0.012389522

fc1.bias f4 [256]
00000000: f7ac 7a3d 3eed 17bd 2402 9b3d 678d ef3c
00000010: f090 1b3e b45c 083c f118 dcbd 8f32 543e
00000020: a4d1 453d 43f7 52bd 6f13 42bd b007 58bc
00000030: ceb8 23be 576c 2dbb 1de4 80be 3917 9cbd
00000040: 9a8f 56be 9d50 35bc 259b c63a fba1 4b3e
00000050: b434 68bd 4fa0 ab3c b732 12bd fc10 02be
00000060: 3614 e63d e6a2 2fbe 57e3 3dbd 4e4e 943d
00000070: 0b96 05be 7196 ee3d 89f5 5bbe ee0f 473e
00000080: af97 92bc d77b b838 5cba b03d 0f7f 8fbd
00000090: bfc9 b8bc 8c6e 53bd b514 98bd a256 3abe
000000a0: b81a 3f3e ab42 acbd 2236 9f3d 3d44 95bb
000000b0: f4eb b4bd e453 46bd a97f 9e3d 2e0d fb3d
000000c0: bc8d a3bd b275 e9bc 2d20 e63d 61a0 30be
000000d0: 9227 5c3e 6028 6eba 69c3 4ebe 1574 c6bd
000000e0: 1d6a e9bd 4b44 0dbe 0750 153e f344 93bd
000000f0: 03aa e5bd 4c29 5f3d 1437 93bc 6f9d 3bbe
00000100: 54f5 14be 2cb3 aabd 33f6 443e 86c3 b0bd
00000110: 3887 22bd debc 26be 37cf 3cbe c3ff 3b3e
00000120: 0c5c 933c 79cf 573e 0177 7d3d 44a1 1b3d
00000130: cef9 dbbc e8b9 3f3c 283e e43d 8f68 093d
00000140: c6a8 d73d 3535 ad3d 98b1 b8bd f016 debc
00000150: ba28 2abe aba3 26bd 8d84 8ebb 392b cc3d
00000160: f632 58bd 5d9c 9f3d 57eb 5bbd fded 493e
00000170: 8adb 583e c321 0e3e 8086 05be 83dc bf3d
00000180: 1c9b 2abd 69a1 a33d 0e70 a73d 16dc 3ebd
00000190: 71b0 8a3d 7fb6 20be 0eab 213d 4cf4 dabd
000001a0: 1e6b 36bd 51bb 50bd 6a62 10bd a421 06be
000001b0: 6e64 37be 8468 5dbe 4010 d4bc 323e 15be
000001c0: afae 103e 950b b2bd 9509 78be 043f 59be
000001d0: 44de 0dbe 706f 2c3e 0a02 1f3d eda4 ae3d
000001e0: 3fcc 0c3e e2b2 2fbe 5947 363d 66be 40be
000001f0: 3f01 503c cbd0 3fbd 74aa d23c 2b7c 3abd
00000200: f7d9 14bd 9946 f63d 3c0f 03be e4f1 7f3d
00000210: 39d3 07bd 91b9 1dbe 4791 153d c97e 84bd
00000220: 3a80 4dbe 75f2 9a3d 8f71 1abe 0b8b 05bd
00000230: a56b dbbd 0af7 d1bd 5c4d 31bd 1dcd 9b3d
00000240: 0179 cdbd c6c4 a0bd 5028 763e 514b 18bc
00000250: d3b2 473d afe8 80be aadb c3bd ee7f cf3b
00000260: 0d44 183e 5f11 023d b8e4 22be 787b 1c3e
00000270: d522 15bc 7840 b0bd a21b 053e 6578 59be
00000280: 5d15 103e b18d 093e 3c33 8a3d f6c7 0d3c
00000290: fb8a 413d cfc8 ec3d 8ed1 cfbb 31fa 283c
000002a0: a34c 10be 50c0 93bd bab6 a7bd 82d0 d93d
000002b0: 4682 6f3c 822a 1d3e a524 18be 0222 163a
000002c0: 3fbc 6a3d b022 433d d976 ce3d b337 93bd
000002d0: 09a7 0f3e 0d8a 4bbe 84e7 923d aff2 1dbd
000002e0: 7d6c 433d 0b5a 873c 0ce4 363c af4a dcba
000002f0: 87fb 403e ce30 983d 43b9 203d 0ab5 21be
00000300: 8024 54bd 316a da3d 7fa0 dc3d c674 88bd
00000310: b4e2 1dbd ec03 c33d 8b8f b03d c899 adbd
00000320: 4483 d7bd 60c7 84bd 7120 21bd 646b 2c3e
00000330: 8519 213e 785d eabc 3d5a e03c fa43 163e
00000340: 7dab 773d 3717 203e b1cb 84be 8f5e 70be
00000350: 9bf1 c93d f18b a03d de2a 05be 1e53 39ba
00000360: f2aa 3fbe 4b59 c9bd 2a3b 953d 7707 a83d
00000370: 44ce c5bd ef57 21be 7811 52be 70b5 8ebd
00000380: 92c0 2dbe ecd6 343e 0e77 a8bc 6669 9e3d
00000390: 02d2 623c 5aa3 103e d8de 713e df35 0abe
000003a0: 5ec5 d4bd d6d9 f93d f42b 02bd 6300 f3bd
000003b0: 3560 df3d 843d debd b909 5d3d 6414 a1bd
000003c0: f769 b23d ddb4 c73d 4c99 08be a03f 7dbd
000003d0: a044 0ebd 8a8c febd 5bac 44be 0acb bb3d
000003e0: 4302 393e d100 5dbc c026 4b3e 1314 033d
000003f0: dc87 63be 44e4 95bb 5102 b73d e910 973c
0.06120011 -0.037091486 0.07568768 0.02924223 0.15192008 0.008322883 -0.10746945 0.20722412
0.048295632 -0.05150534 -0.047381815 -0.013185427 -0.15988466 -0.002646228 -0.25174037 -0.07621617
-0.20953217 -0.011066583 0.0015152438 0.1988601 -0.056690887 0.020950465 -0.035692897 -0.12701792
0.11234324 -0.17151985 -0.046359386 0.07241498 -0.13045518 0.11649788 -0.21480383 0.1943967
-0.017894594 8.796871e-05 0.08629295 -0.070066564 -0.022557138 -0.051619098 -0.074258246 -0.1819711
0.18662536 -0.084111534 0.07773997 -0.004555254 -0.08834067 -0.048419848 0.07739193 0.12258373
-0.07986018 -0.028498504 0.11236606 -0.1724868 0.2149947 -0.0009084996 -0.2019173 -0.0969011
-0.113971926 -0.13795583 0.1458131 -0.071908854 -0.11214068 0.054482743 -0.0179706 -0.18321775
-0.1454671 -0.083349556 0.19234543 -0.08631043 -0.039679736 -0.16282985 -0.18438421 0.18359284
0.017988227 0.21075238 0.06188107 0.03799559 -0.026852515 0.011702038 0.11144668 0.03354698
0.10530238 0.08457414 -0.09018248 -0.027110547 -0.16617098 -0.04068343 -0.0043492974 0.099691816
-0.052782975 0.07793496 -0.053691234 0.19719692 0.21177498 0.13880067 -0.13039589 0.09368231
-0.04165183 0.07989771 0.081756696 -0.04659661 0.06771935 -0.15694617 0.03946977 -0.10691127
-0.04453575 -0.05095989 -0.035250105 -0.1309877 -0.17909405 -0.21621901 -0.025886655 -0.14574507
0.14129137 -0.08693615 -0.24222405 -0.21215445 -0.13854319 0.16839385 0.038820304 0.08527551
0.13749789 -0.17158082 0.044501636 -0.18822631 0.01269561 -0.04682998 0.025716044 -0.045528572
-0.03634068 0.12025184 -0.1279878 0.062486544 -0.033160422 -0.15402819 0.0365155 -0.06469495
-0.20068446 0.07565776 -0.15082382 -0.032603305 -0.10713891 -0.10252197 -0.043286666 0.07607482
-0.10032845 -0.078500316 0.24038815 -0.009295301 0.048754524 -0.25177523 -0.09563382 0.006332389
0.1486971 0.031754848 -0.15907562 0.15281475 -0.009102543 -0.086060464 0.12998822 -0.21237333
0.1407065 0.13432957 0.067480534 0.008653631 0.047251683 0.11561739 -0.0063421195 0.0103135565
-0.14091735 -0.07214415 -0.08189149 0.10635473 0.014618462 0.15348247 -0.14857729 0.00057271135
0.05730843 0.047640502 0.10081262 -0.07188358 0.14028563 -0.19876881 0.07173064 -0.03856152
0.047710884 0.016522428 0.011162769 -0.0016806925 0.1884595 0.07431184 0.03923918 -0.15791717
-0.05179262 0.10664786 0.107728 -0.06662898 -0.03854628 0.095222324 0.08621129 -0.08476597
-0.10523084 -0.0648334 -0.03933758 0.16837841 0.15732391 -0.028609022 0.027386779 0.14674369
0.06046628 0.15633856 -0.25936654 -0.23473571 0.09860536 0.07839192 -0.13004634 -0.00070695754
-0.18717554 -0.098314844 0.07286675 0.08204549 -0.09658483 -0.157562 -0.20514476 -0.069682
-0.16967991 0.17660111 -0.020564582 0.07734947 0.013844015 0.14124814 0.23620164 -0.13497113
-0.10389207 0.12199752 -0.0317802 -0.11865308 0.10907022 -0.10851577 0.05396435 -0.07865217
0.087116174 0.09751294 -0.13339728 -0.061828256 -0.034733415 -0.124291494 -0.19206373 0.09169586
0.18067269 -0.013488964 0.19839 0.032001566 -0.22219795 -0.0045743305 0.08935989 0.01844068

fc2.weight f4 [128, 256]
00000000: 94ca 993c af9c 9a3b 9947 2338 a57b 7139
00000010: 4ab8 4cbe d2ad c53d de09 b6bd 1507 3bbd
00000020: 0cb8 a2bc 5f4c 1cbe fd74 a03d 7807 83bd
00000030: 5173 28bc 58bc 6abe aee9 9b3c 0a1a fd3c
00000040: 1c5c da3d 973e dfbd be06 083d 48b5 00be
00000050: a2ee babc f04a 9ebd e03c 01bc 4065 c3bc
00000060: 65ec 42be 6f95 f9ba a2b5 b9bd 9819 56bd
00000070: b242 8abd 94a4 8b3c dfb6 9d3d e7ba 873b
00000080: 1e56 9ebc b141 c33c 86b3 c1bb a9bb b6b9
00000090: 5916 953d 7555 bc3c 633c 09be d58a 42bd
000000a0: fb9e 16bd 80a6 953d e8f9 263d 6039 3abd
000000b0: 88b4 3abb 978b 92bc b834 123d 8628 77bd
000000c0: 3c78 263d 5737 d6bd c64d d43d 6664 2ebd
000000d0: e609 a0bd c6c1 2bbe da42 edbc 7d86 91bd
000000e0: 9be3 debd 4b0a 84bb 4498 93bd dfe1 bebd
000000f0: f9cb 2dbd 8a31 48bd 201d d83d c6b3 0bbe
00000100: e865 703c c278 6e3d 5d18 62bc f894 043d
00000110: 349b 8cbd 14d5 c03c 2f87 65bd 1c43 1abd
00000120: 40ed 00be 0040 a73d 6dd8 d23b 5a40 3dbe
00000130: f992 0fbc 3302 82bd 0d05 fa3c 7012 0c3d
00000140: ba69 0cbe 8d2f aebb e7ae c73c af9e ae3d
00000150: a285 f2bc b4dc 7b3c f87a f83d c49d 44be
00000160: 96d4 31bc 96be e33c 851f 653c a16d 32bd
00000170: 21aa fa3c 5aec b5bc 1c02 18be eeff c7bc
00000180: 8905 adbd 4f08 90bd a612 283d 201e 6d3d
00000190: fe3e eabb daf8 1c3c b1bf 73bd c764 45bd
000001a0: 5102 983c 150a c23c c913 9dbc a3e9 d5bd
000001b0: 6caf 0fbd e39d d1bc 70b8 8f3d 7033 ccbc
000001c0: f566 5bbd cad4 24be cab4 133b 3d63 663d
000001d0: 3593 32be d4df e0bc 7ba9 d6bc 6add 863d
000001e0: 3591 58bc 61eb 37be 2f0b 793d 29dd 4b3d
000001f0: 34ff cb3c ae1f c73c a2e0 fdbc 881d 60bd
00000200: 4daa 463d 6d8f 223c c0d7 d6bd b037 4abc
00000210: ccdc e3bd 50b6 5e3c d5ef 19bd 777e 4ebe
00000220: 9a60 623d c449 213d 87f9 48be 1cdb 99bd
00000230: daaf b2bc 2eb8 363b d5a2 06bd 658e 3e3b
00000240: 26ba b33d 5950 e33c 040a d4bd 6fe1 a4bc
00000250: 3e73 97bb 91aa 4a3d 6356 86bc 6037 21bd
00000260: 0221 d8bc 16ec 89bd fdb5 e9bd 7b74 f13a
00000270: b0f1 cf3c fdf6 21bd 6db6 1cbe 0b71 84bc
00000280: cfda 58bd 6b95 953d 355f 503d c914 eebd
00000290: ac1e 2ebe 11a1 cb3c 26fe 27bd 10bf 6e3c
000002a0: bec8 0a3d 3ee7 48bd f6ff 0bbe ea98 e4bc
000002b0: 1358 a8bd f7b7 363d 8c07 073d ad2b ccbb
000002c0: 0a46 5cbc 7dd2 77bd c4a8 36bc 6840 3ebc
000002d0: c56b 723c 66ab c0bd 9d99 9ebd d29a 533d
000002e0: 482d 13be 7f75 643c bb1b 083b 7b12 90bc
000002f0: 9afb 7dbd 15d1 e3bd 7f42 93bd 7455 e5bd
00000300: d255 953d 4813 33bd 5690 11be e518 f73c
00000310: 8859 cc3c de07 b8bd 5ce7 abbb 52e7 02bc
00000320: 0a98 47bd 687e 01bd a6a2 483a d3be f33c
00000330: b2fb 373b b51e d2bc 4878 39bd 46f2 14bd
00000340: c5ba bc3d 3af2 14bd dc29 453b 4a47 3f3d
00000350: 3035 153d 3631 0abc f329 9d3d 1b88 a13c
00000360: 795b 1b3e 2fad 40be 1258 adbc aaea 493d
00000370: 4dfa 863c ba6a f23c e3d9 803d e4e2 5fbe
00000380: b03d cdbc 92e7 8f3d 8c6b 6dbd 8304 b93d
00000390: 9088 df3c 2f23 96bd ed05 34bd 14bb 73bd
000003a0: 3f23 b3bd a429 873d eed1 633c 120c f53c
000003b0: 8386 933d 9369 89bd 43e2 c33d 5e5f 6039
000003c0: 004a 013d 29a5 08bd 9686 f43c 5b1e 19bd
000003d0: 205f a6bb ff0c 413c 57e3 193d 7398 603d
000003e0: 2e65 553d 25b6 e8bc 4f66 c1bd 5ba5 8d3d
000003f0: a233 ef3c d5c2 603d 8fc7 b3bc b2ba 403d
0.018773355 0.004718385 3.892891e-05 0.00023029612 -0.19992176 0.09652294 -0.08888601 -0.04566105
-0.019863151 -0.15263508 0.07834814 -0.06397909 -0.0102814 -0.2292341 0.019032326 0.030896205
0.106621 -0.1090061 0.033209555 -0.12569153 -0.022818867 -0.07729137 -0.007888049 -0.02385199
-0.1903549 -0.0019041727 -0.09067847 -0.0522705 -0.06751002 0.01704625 0.077008955 0.0041421535
-0.019328173 0.023835035 -0.0059112934 -0.00034853563 0.07279653 0.022989968 -0.13401942 -0.04749568
-0.03677271 0.07307148 0.040765673 -0.045464873 -0.0028488953 -0.017888827 0.035694808 -0.06034138
0.04064201 -0.10459774 0.103663966 -0.042576216 -0.07814388 -0.16773137 -0.028962541 -0.0710573
-0.10883256 -0.0040295473 -0.07206777 -0.09320425 -0.04243085 -0.04887537 0.1055243 -0.13642797
0.014672734 0.058220632 -0.013799754 0.03236863 -0.0686554 0.023539104 -0.056037124 -0.037661657
-0.12590504 0.08166504 0.0064344914 -0.1848158 -0.008763068 -0.06348076 0.030519987 0.03419727
-0.13712206 -0.005315727 0.024375392 0.0852636 -0.029604737 0.015372444 0.121328294 -0.19200808
-0.010853907 0.02780084 0.013984566 -0.04356158 0.030598702 -0.022207428 -0.14844555 -0.024414029
-0.08448321 -0.07032835 0.04103341 0.057890058 -0.0071486225 0.009580815 -0.059508983 -0.048191812
0.018555792 0.023686448 -0.019174473 -0.10444953 -0.035079405 -0.025587982 0.070176005 -0.024926871
-0.053564984 -0.16096798 0.0022538179 0.056246985 -0.17438968 -0.02745048 -0.026203861 0.065852
-0.013218214 -0.17960884 0.06080168 0.04977146 0.024901964 0.024307098 -0.030990902 -0.054715663
0.048502255 0.009921891 -0.1049037 -0.0123423785 -0.11126098 0.013593271 -0.037582237 -0.2016543
0.055267908 0.03937699 -0.19626437 -0.07512495 -0.021812368 0.0027880776 -0.032870132 0.0029076573
0.08775739 0.027748274 -0.10353473 -0.020127026 -0.0046218922 0.04947907 -0.016398614 -0.03935945
-0.026382927 -0.06734483 -0.11411665 0.0018421555 0.0253838 -0.039542187 -0.15303965 -0.016167184
-0.052943047 0.0730389 0.050872047 -0.11625058 -0.17003888 0.024857076 -0.04101386 0.01457192
0.03388285 -0.049048655 -0.1367186 -0.027904946 -0.08219924 0.044609036 0.03296618 -0.0062307925
-0.013444433 -0.06050347 -0.011148635 -0.011612035 0.014796202 -0.09407692 -0.07744143 0.05166132
-0.14372742 0.013944029 0.0020768482 -0.017586937 -0.062007524 -0.111238636 -0.071904175 -0.111979395
0.072917596 -0.04371956 -0.14215216 0.030163238 0.024945036 -0.089858755 -0.005246086 -0.007989721
-0.04872898 -0.03161469 0.0007653631 0.029754078 0.0028073606 -0.025649408 -0.045280725 -0.036363862
0.09215311 -0.036363818 0.0030084765 0.046698846 0.036427677 -0.008434584 0.07674017 0.01971822
0.15171613 -0.18816064 -0.02116016 0.04929606 0.016476775 0.029591907 0.062915586 -0.21863896
-0.025053829 0.070265904 -0.057963893 0.09034064 0.027286798 -0.073309295 -0.043950964 -0.059504583
-0.08746957 0.06599739 0.013905032 0.029912982 0.072033904 -0.0670959 0.095646404 0.00021397832
0.031564713 -0.033360634 0.029849332 -0.037382465 -0.0050772578 0.011782884 0.037570324 0.054832887
0.052098446 -0.028407166 -0.09443342 0.06916305 0.029199425 0.054873306 -0.021945743 0.047053047

fc2.bias f4 [128]
00000000: 819c 81bd ba3f 9a3d aaf1 483c 22c7 1fbc
00000010: fa87 95bc 620a 4f3d 3352 a1bb 21d8 b73c
00000020: 4784 0cbb da64 62bd 21f2 45bd 12af 8f3c
00000030: e649 04b9 543e d93c fbd5 9bbc 67a2 13bc
00000040: 3bcd d83d 7648 a3bd c1fc d43c a32f c7bc
00000050: bfe8 e5bc 70eb af3d a027 b93c d22a 7d3d
00000060: f5f5 83bd 94c6 e3bd 8901 723d 3edd c9bc
00000070: 4718 31bc f783 85bd 81bd b5bc c728 643d
00000080: 6b9e a2bd eaf1 573d 9c32 733d 5987 fd3c
00000090: 448c b83b 8a11 943d c430 753d f592 0f3d
000000a0: 576c adbb 514f 463d 3dd7 563d ab74 4f3d
000000b0: ff2d 7b3d 833a f7bb 125a 7ebd e73a 083d
000000c0: 7b94 5e3d c493 6fbd 2f32 633d 59a9 013d
000000d0: 9bc7 1339 6b25 55bd 14b8 c1bc 7b3f 44b9
000000e0: 021b 9bbc 6a26 89bd 0084 33bd 49c1 143d
000000f0: 1ce2 353d 0b8c 213d 3bda 4f3d 2c40 5ebd
00000100: 3874 a0bc c6a6 17bc d3c2 2d3b 7249 debc
00000110: 12a9 21bd c819 6cba 21b9 4bbd 6393 1e3c
00000120: e9f6 813c 5a0a 81bd 025b b53c bf52 50bd
00000130: 4347 1dbd 4743 7e3c 9158 16bd 59d2 933d
00000140: 12c6 1c3c 9db7 b3bc 7ff2 b53c 01c7 41bd
00000150: 087f 333d bbe9 bebb 0c34 a8bd fad9 6b3c
00000160: 3fdd d43b 86cd 9cbc 10d5 713d 29f8 ffbc
00000170: 9972 7bba 2147 d0bc b64d 173d 6ba9 6abd
00000180: 60cd d9bc c8cf 22bd 4d78 ab3d d3fa ef3c
00000190: 8c7d 5abc 8f8d 9d3c 1ddd 1c3d eb2d 0abd
000001a0: 71d5 193d 2e44 8a3d 1455 48bd c208 9b3c
000001b0: f79e 51bd b8a2 bd3c c732 57bc 63be df3c
000001c0: d4a7 c83c bbee 063c 6b3d 20bd 1ae2 e83c
000001d0: 8f11 cbbc 5a5e 91bc c1e9 a93b c17c f23c
000001e0: 8642 43bc 0007 c53d 4695 223d a014 183d
000001f0: 303c 05bc 9e88 9c3d 7a59 bbbc 727b d53c
-0.06328679 0.07531686 0.012264648 -0.009752067 -0.018253315 0.05054701 -0.004923129 0.022441925
-0.0021441148 -0.05527196 -0.048326615 0.017539535 -0.0001261603 0.026518978 -0.019022932 -0.009010888
0.105860196 -0.07972805 0.025999429 -0.024314707 -0.028065084 0.08589828 0.022601902 0.061808415
-0.06443397 -0.1112186 0.059083495 -0.02464163 -0.010809011 -0.06519311 -0.022185089 0.05570295
-0.07940372 0.05272094 0.059374437 0.030948328 0.0056319553 0.07229908 0.05986096 0.03505226
-0.005292456 0.048415486 0.05245136 0.050648373 0.061323162 -0.007544817 -0.062097616 0.0332593
0.05434082 -0.05849053 0.05546778 0.031655643 0.00014093371 -0.052037638 -0.023647346 -0.00018715665
-0.018933777 -0.0669678 -0.043827057 0.036317144 0.044405088 0.039440196 0.05074523 -0.054260418
-0.019586667 -0.0092560705 0.002651383 -0.02713463 -0.03946788 -0.0009006527 -0.0497371 0.009678694
0.015864806 -0.063008025 0.022138122 -0.050860163 -0.03839804 0.01551897 -0.036705557 0.07217855
0.009568708 -0.02193814 0.022210358 -0.047308926 0.04382232 -0.0058262027 -0.08213052 0.014395231
0.006496101 -0.01914097 0.059041083 -0.031246262 -0.00095919665 -0.025424542 0.036939345 -0.057290476
-0.026587188 -0.039748937 0.08372555 0.029294407 -0.013335597 0.01923254 0.038296808 -0.033735197
0.03755707 0.067512855 -0.04890926 0.018925074 -0.05117699 0.02314888 -0.013134665 0.027312463
0.02449409 0.008235629 -0.039121073 0.028428126 -0.024788646 -0.017745186 0.0051853363 0.029600503
-0.011917716 0.09620476 0.03969314 0.037129045 -0.008132026 0.07643245 -0.022869814 0.02605984

fc3.weight f4 [64, 128]
00000000: af00 903d 3d97 d0bc efcd 2e3e 996e 3b3e
00000010: 72a9 9fbd 06e4 9a3d b1dc b1bc 812d f53a
00000020: 5e78 1f3e ecca cd3d 0574 10be 0e1d fb3d
00000030: 6866 f7bd dc12 dbbc 69f9 cc3d 46e2 e73d
00000040: 50c5 d1bd 00f8 573d f2e0 8a3d 154f d63c
00000050: a7a0 31be 1f2b 0d3d 6d57 023e 98a5 b4bd
00000060: f6d1 ed3d 8047 ad3d 4dbd 09bd 8b42 403d
00000070: 69e0 8d3c 09be 903e c8d9 893d bddf eebb
00000080: 1c4d d1bd 2014 d53d e0f9 ecbc b445 d73d
00000090: 8275 193d 1a0d 863d f859 793d da8b 4c3e
000000a0: 84f7 3ebd a296 133d 5264 c73d c327 373e
000000b0: 42c9 f5b9 fe53 db3c 627c c4ba 57e9 943d
000000c0: 0203 0dbe b0b0 ad3d 7b2d 9cbd 00ea 6dbc
000000d0: 5c14 e83d 6c84 a73c 5670 4e3e 9183 263e
000000e0: 05b0 f4bd 6d3b a2bd 224d a2bc 1b4c 113d
000000f0: 6edd 773d 22d5 16bd 0a5a 06bc d017 2fbe
00000100: 1c5b 2f3d ed8c 89bd 4009 e2bd 1d05 0bbe
00000110: ced1 9d3d faf6 363e 25df 363d 6f5d 1d3d
00000120: e32c 5139 2aa0 263e 9a57 53be aec9 2a3d
00000130: 7d54 b83d 85b9 41bc 657e 613d 5991 dabd
00000140: 1ece 2abd 6ed5 8abd f9a4 813d 8020 033e
00000150: d499 3f3d c9fd 99bd 8169 1abd 8fe2 92bd
00000160: 2864 92b9 654b a33d 33a5 94bd b822 88bd
00000170: 5fc9 213d c73c f03d 893c 2bbc ee82 103d
00000180: ed9a 203e 4d09 043e 29de adbd 40f3 213e
00000190: 0926 583c a79e a8bc 0010 f63d 7e4a 223d
000001a0: 8ca1 063e 9a22 f8ba a639 0a3d 48ff 673c
000001b0: 4b6b 13be da05 173e a7cf fabd ff68 863d
000001c0: 9de2 d5bd 57e7 a4bb 8854 ed3d d44a 193d
000001d0: 952b 623d 6106 e53d d2ce 203e fe97 343b
000001e0: f461 053e d8d6 74bd 7fff ccbd ec2f 5ebc
000001f0: 0a7e 3839 7c36 243e e0cb 623e c539 e03d
00000200: 93c7 0cbe a6e7 d4bd cf05 ff3d 8805 4f3c
00000210: 4c1a 633e a38a 6f3d 613d a13d f4e4 783c
00000220: 5ef7 4fbe f592 69be 5965 8d3c 782e 46bd
00000230: 20b7 2abd ce62 053d c42b 993d fc57 94bc
00000240: a273 83bc e40c 0cbd 020f 63bb a0b0 2d3d
00000250: 7ef9 483d adc6 453d 3b96 2cbd a1cf 883d
00000260: 4ff8 063d 9a77 1cbd a9e5 fa3c 6edf 36be
00000270: 93ec 5a3d f927 d2bd e237 07bd 1cb7 9d3b
00000280: 40e1 aabd 404a 873d fadf c4bc d694 3b3c
00000290: 1a39 3b3d 4831 42bd c993 c0bd a40a 0cbe
000002a0: b9a5 633d 5e1e a53d 8482 92bd 6b33 f6bd
000002b0: cc46 e7bd a272 aa3c 6bd7 79bc fb05 41bd
000002c0: 8cba 88bd 3725 ebbd bcaf 7b3d bc69 843d
000002d0: dd17 913d d47f 99bc 9766 00bd 778c 61be
000002e0: 2c48 c83c 9927 333e 5127 c13a f607 82bd
000002f0: e6b5 4b3c d435 e4bd aef2 5dbd 706d 713e
00000300: 9748 9dbc 6d23 21bd 58a5 5c3b e566 9dbd
00000310: f9b5 cfbd 643b 933c 6455 843c 4dc0 dfbb
00000320: 5c00 44be 8f30 92bc 3cdb 9f3d 6aae deb9
00000330: c1d1 31bd 16f1 febd 1a1d 2e3b e251 8a3d
00000340: dd6a 9bbd 8d78 a0bc f3d9 aabc 4360 d0bc
00000350: 05b7 153d f981 9dbd a856 9ebb c1d5 f5bc
00000360: f841 ca3d f86f 983d dd4c 973d 7a06 3c3d
00000370: ef49 943d a849 a63c 2d5c 0a3d b333 7f3d
00000380: ba30 f03c c31a 233c c9de b33d b4ea c5bd
00000390: 7daa 603d 3605 2a3d 252a 7dbe 422e 033e
000003a0: 0439 01be 9eee 7c3c 1207 6fbd 150a c93c
000003b0: b9c5 85bb d711 b53d e116 253d 1175 0dbd
000003c0: 03bf 083c 2e42 383d d782 16be a846 17be
000003d0: f436 fabc ce98 2e3c f560 19bd 6f40 65bc
000003e0: 21f4 94bd 3289 b2bd c186 2e3d 911e 933d
000003f0: 596e 583d 1a3c 06be 5711 adbc 5420 1dbd
0.070313804 -0.025462741 0.17070745 0.18303908 -0.07795991 0.07563023 -0.02171168 0.0018705578
0.1557326 0.1004847 -0.14106758 0.12261401 -0.12080079 -0.026742391 0.10008509 0.11322455
-0.102427125 0.052726746 0.06781186 0.026160756 -0.1734644 0.03446495 0.12728663 -0.08820647
0.116123125 0.08460903 -0.033627797 0.04693846 0.017318921 0.28269985 0.067309916 -0.0072898553
-0.102197856 0.10404229 -0.028927743 0.10511342 0.03746558 0.06545468 0.060876817 0.19975224
-0.046622768 0.036032327 0.097359315 0.17886262 -0.0004687999 0.026773449 -0.0014990682 0.072710685
-0.13770679 0.08480966 -0.07625862 -0.014521122 0.11332008 0.020448886 0.2016004 0.16261126
-0.119476356 -0.07921491 -0.01981217 0.03547297 0.060513906 -0.036824353 -0.008200178 -0.17098927
0.042811498 -0.067163326 -0.110369205 -0.1357617 0.07706033 0.17867652 0.0446464 0.038419183
0.00019948515 0.16272035 -0.20638886 0.041696243 0.0900049 -0.011824016 0.05505218 -0.10672254
-0.041700475 -0.0677899 0.06330294 0.12805367 0.04677756 -0.07519109 -0.037698273 -0.07172119
-0.00027921912 0.07973365 -0.07258072 -0.06647247 0.039498683 0.11730342 -0.010451444 0.035281114
0.156841 0.12894173 -0.08489639 0.15815449 0.013192662 -0.020583464 0.120147705 0.039621823
0.13147563 -0.001893121 0.033746384 0.014159985 -0.14396398 0.14748326 -0.12246638 0.06562995
-0.10443614 -0.0050324607 0.11588389 0.037424877 0.055217344 0.11182857 0.15703896 0.0027556415
0.13025647 -0.059775203 -0.100096695 -0.01356123 0.0001759456 0.16036409 0.22148085 0.10948519
-0.13748007 -0.10395746 0.1245228 0.012635596 0.22178 0.058481824 0.07873035 0.015191305
-0.20309207 -0.22809966 0.01726024 -0.04838416 -0.041678548 0.03256493 0.07479051 -0.01810836
-0.016046349 -0.03419198 -0.0034646397 0.04240477 0.04906606 0.048285175 -0.04213546 0.06680227
0.03295165 -0.0382 0.030627089 -0.17858669 0.05344827 -0.102615304 -0.03301228 0.004813088
-0.08343744 0.06605959 -0.024032582 0.0114490595 0.045708753 -0.04741028 -0.09403188 -0.13675934
0.055577967 0.08062433 -0.071538 -0.12021526 -0.112928 0.020806614 -0.015249114 -0.047124844
-0.06676206 -0.114817075 0.06144689 0.0646548 0.0708463 -0.018737711 -0.031347837 -0.2202624
0.024448477 0.17495574 0.0014736449 -0.06349175 0.012433505 -0.111430794 -0.054186516 0.23576903
-0.019199653 -0.039340425 0.0033667888 -0.07685641 -0.101421304 0.017972656 0.016153999 -0.006828344
-0.19140762 -0.01784542 0.078054875 -0.00042473088 -0.043412928 -0.12448327 0.002656764 0.06753899
-0.07588742 -0.019588733 -0.02085588 -0.025436526 0.036551494 -0.07690806 -0.0048321076 -0.030009152
0.09875864 0.07443231 0.073877074 0.045904614 0.07240664 0.020298794 0.033779312 0.062305164
0.02932011 0.009955111 0.08782727 -0.09663907 0.05485009 0.041508876 -0.24723108 0.12810615
-0.12619406 0.01543775 -0.058356352 0.02454094 -0.0040824083 0.08841293 0.040305022 -0.03453547
0.008346322 0.04498499 -0.14698349 -0.14773047 -0.030543782 0.010656549 -0.03744598 -0.013992413
-0.072731264 -0.08717574 0.04260898 0.071835645 0.05283961 -0.13108864 -0.021126432 -0.03836091

fc3.bias f4 [64]
00000000: b134 5bbb 35e8 75bd 832d 54bd 8f15 a3bc
00000010: fc82 a23c 2e51 b03d 77e2 683c 743a 72bd
00000020: 83fb f83c 8232 8c3d 21ac 053d 2d2c c93c
00000030: aa26 00bc 12e3 863d 433d 2a3d 929e 8b3d
00000040: 528f 053d b30c 56bd c1df 0c3d b111 883d
00000050: 4ddf e0bc 6e32 b63c 0c02 d5bc 72d8 20bd
00000060: 6743 f53d 60a4 55b9 ebf2 e23d 0861 0fbc
00000070: c693 b03c a38c 65bd 41a1 983d 3f0b 30bd
00000080: f37e 993d 29b4 debc 04b0 afbc 4a8f 08bd
00000090: 4c3e 04bd 4a60 a7bd 4a28 9abd fd56 e03d
000000a0: a88d c4bc 7c0b acbc 8b6c 8a3c f664 e13c
000000b0: e7f9 033c c4b6 683d 767f 1b3d 185f acbd
000000c0: da80 20bc e249 c03d 60f8 e03d f387 5c3d
000000d0: 1a39 53bd 8d98 6d3d b89f 4b3d 9933 983d
000000e0: c30a d43c 41b0 7ebc ddce 5a3d a39c 30bc
000000f0: a8da 613c e91c 283c 3295 9abd 2a93 e0bc
-0.0033448155 -0.060035903 -0.051801216 -0.01990774 0.019837849 0.08609234 0.01421415 -0.059137776
0.030393368 0.06845571 0.032634858 0.024557197 -0.007821718 0.06586279 0.04156233 0.06817354
0.032607384 -0.052258205 0.034393076 0.06643999 -0.027450228 0.022240844 -0.026001953 -0.03926892
0.119757466 -0.00020374497 0.11081489 -0.008751161 0.021554839 -0.056042325 0.07452632 -0.042979475
0.07494917 -0.027185516 -0.021446235 -0.033339776 -0.032285973 -0.081726626 -0.07527216 0.10954092
-0.023993328 -0.02100157 0.01689746 0.027513962 0.008055187 0.056814924 0.037963353 -0.08416575
-0.009796346 0.09389092 0.10984874 0.05384059 -0.05156813 0.058006812 0.049712867 0.074317165
0.025884038 -0.015544952 0.053419936 -0.010779533 0.013785042 0.010260799 -0.07547988 -0.027413923

fc4.weight f4 [2, 64]
00000000: 17eb bb3e 3dbb b8be f863 1abe 13aa 6ebe
00000010: d705 1fbc adc2 c9bd aed9 8c3e 7280 613d
00000020: 23d5 bf3e e9aa 52be fdf1 c63d 6e79 a53e
00000030: 9e31 b7bc ae62 fbbd c375 ddbd 5e57 ebbe
00000040: 6410 61be 35ca 0c3e efa1 49be 8e76 b23e
00000050: 71f8 103e d408 a9be e9c2 9e3e 7cdb 94be
00000060: d2da e03d 3022 65be 21e5 993e b607 803d
00000070: 14ee a1be 2f62 173f ed16 e33d 161e a4be
00000080: 64a6 21be 0084 a3bd fbff 0b3e 0615 e33c
00000090: fa12 163e fc98 8a3d aa6c 10be b02d 443e
000000a0: e2eb 323e 6842 323e 3b87 36be 7c37 63be
000000b0: 4eb5 6fbe 7895 b43c ed74 64be 4887 9e3d
000000c0: 5522 b53e d6ea de3d f0e2 5ebe e53b 2c3e
000000d0: 964f 943e a0fa 82be 82fd 873e 076e 8bbe
000000e0: ea15 81be 8c5c 8cbe 8469 9abe 9d58 a439
000000f0: 4d9b ab3d 2166 c13d 07e9 ef3d bd26 eb3e
00000100: 6803 e73d fa78 e93d f8c4 5f3e e3c6 373d
00000110: a4fa 643e 256a 29be 4d49 7fbd 5b5a 183e
00000120: a05a dd3e 1f8a 37be 7553 55be 91af 153e
00000130: f75c 82be 6140 62be 4a2d 95be d265 bc39
00000140: a3a3 dcbd d2fb de3c 6dc7 9bbc 0bb0 7abe
00000150: 7550 d73d 573f d9bd df85 433e 8532 0abd
00000160: 8b56 46be 7133 bfbd 01f8 f3be b9b1 8ebe
00000170: e42c 913d 840b a8bd 0609 a9be c7b8 a03b
00000180: 7fb1 a3be 2d87 c1be 106d 9d3e e878 003d
00000190: 3569 7bbd 3bb8 bfbd da4f b93d 145a 9cbe
000001a0: c481 28be 5ed8 573d 75dc 333e bf83 9d3e
000001b0: 9aee 753e e9b5 37be 7214 683e cc37 a53e
000001c0: c717 47be 3830 1ebe a028 98bd de45 c0be
000001d0: 56bc ae3d 51a2 2cbe b7f0 dcbd e3ca 95be
000001e0: 2ad8 4f3e 2650 343e 4128 55be 7556 79be
000001f0: 55f0 983e 617c b53e 5866 ddbd e5a8 893d
0.36702797 -0.3608035 -0.15077198 -0.23307066 -0.009705982 -0.098515846 0.27509826 0.055054136
0.37467298 -0.2057301 0.09714124 0.32319206 -0.022362527 -0.12274681 -0.10813477 -0.45965093
-0.21978909 0.13749011 -0.19690679 0.34856075 0.14157273 -0.33014548 0.3100808 -0.29073703
0.10979237 -0.22376323 0.30057624 0.06251471 -0.31626952 0.5913419 0.11088357 -0.32054204
-0.15786129 -0.079841614 0.13671868 0.027719986 0.14655676 0.06767461 -0.14103952 0.19158053
0.17472795 0.17408144 -0.17825024 -0.22189134 -0.23409006 0.022043929 -0.22310229 0.077406466
0.35377756 0.10884635 -0.21766257 0.16819723 0.2896697 -0.25581837 0.265606 -0.27232382
-0.25212032 -0.27414358 -0.30158627 0.0003134654 0.08379231 0.09443308 0.11714368 0.45927992
0.112799466 0.114000276 0.21852481 0.044867408 0.22361237 -0.16544397 -0.062325764 0.14878218
0.43233204 -0.17923783 -0.20832618 0.14617755 -0.25461552 -0.22094871 -0.29136115 0.00035934016
-0.10773399 0.027219687 -0.019015992 -0.24481218 0.10513393 -0.10607784 0.19094037 -0.033739585
-0.19368951 -0.093359835 -0.4765015 -0.27869967 0.0708864 -0.082053214 -0.33014697 0.0049048397
-0.31971356 -0.37798443 0.3074727 0.031365305 -0.06137963 -0.09361311 0.090484336 -0.30537474
-0.16455752 0.05269658 0.17564566 0.30764577 0.240168 -0.17940487 0.2266405 0.32269132
-0.19442664 -0.15448081 -0.074296236 -0.37553304 0.08532016 -0.16858794 -0.107881 -0.29256353
0.20297304 0.17608699 -0.20816137 -0.24349387 0.2987086 0.35446456 -0.10810536 0.06721667

fc4.bias f4 [2]
00000000: 97c2 be3b 134c 643d
0.0058215368 0.055736613
