checkpoints/Computer1-1-checkpoint-1.1942-actor.pth (torch, 193711 bytes, 8 tensors)

fc1.weight f4 [256, 24]
0	0xbd3646f8	-0.044501275
1	0x3e5a8b8f	0.213423
2	0x3e168a25	0.14701135
3	0x3d2fee8f	0.042952117
4	0x3e81e499	0.2536972
5	0x3de4085e	0.111344084
6	0xbd746959	-0.05967078
7	0x3dec7aff	0.11546897
8	0x3e3f5108	0.18683255
9	0x3e856331	0.2605224
10	0xbd3b88b1	-0.045784656
11	0x3e3eebd6	0.18644652
12	0x3e83471d	0.25640193
13	0xbe633793	-0.22189169
14	0x3e08a00a	0.133423
15	0x3e421456	0.1895307
16	0xbe7fd3dd	-0.24983163
17	0xbe07f0a6	-0.13275394
18	0x3c89dd93	0.016829288
19	0x3c084164	0.008316372
20	0xbdb1bf19	-0.08679027
21	0xbe584e17	-0.21123539
22	0x3e375557	0.17903648
23	0x3e57277a	0.21011153
24	0x3da41608	0.080120146
25	0xbeba01c6	-0.36329478
26	0x3c45e7d6	0.0120792
27	0xbd789aab	-0.060694378
28	0xbeb43423	-0.35196027
29	0xbe64b6ed	-0.22335406
30	0xbc8f58a4	-0.017498322
31	0xbd5f2c60	-0.05448568
32	0x3e184f23	0.14873938
33	0xbecd70f8	-0.4012525
34	0x3d8d3141	0.0689416
35	0x3d44bdf9	0.048032735
36	0xbe9cdcc8	-0.30637193
37	0xbe054e57	-0.13018166
38	0xbcb11549	-0.021616595
39	0x3d3e4fa0	0.046462655
40	0x3d0a594a	0.03377656
41	0xbe260a18	-0.16214788
42	0xbcbd98cc	-0.023144148
43	0xbdd39047	-0.10330253
44	0xbe567a72	-0.20945147
45	0x3e7d4210	0.24732232
46	0xbd3e56c3	-0.04646946
47	0xbe32c040	-0.1745615
48	0xbd0386ca	-0.032110967
49	0xbf03e091	-0.51514536
50	0x3c48dde7	0.012259937
51	0xbe584166	-0.21118698
52	0xbd58f858	-0.052971214
53	0x3d9d8646	0.07691626
54	0x3da2a59e	0.07941745
55	0x3df48402	0.11939241
56	0x3e8c66a3	0.27422056
57	0xbee0906b	-0.43860182
58	0x3cfc1850	0.030773312
59	0xbdb7990b	-0.089647375
60	0xbd8267bb	-0.06367441
61	0xbe8b763b	-0.2723864
62	0x3dc05e2c	0.09392962
63	0x3dc157c4	0.09440568
64	0x3eae2425	0.3401195
65	0xbebfcf78	-0.37462974
66	0xbcba1c03	-0.022718435
67	0x3d2445a9	0.040105496
68	0x3e8c7ad5	0.27437463
69	0xbf2f7d1a	-0.68550265
70	0x3d558d1e	0.052136533
71	0x3c6f9d33	0.014624882
72	0x3db066ce	0.086133584
73	0xbdba59cf	-0.09099161
74	0x3d3ad1bd	0.04561018
75	0xbe1e73f2	-0.15473917
76	0xbc2ebdb2	-0.010665344
77	0xbe1c3d4b	-0.15257756
78	0xbc118996	-0.008882901
79	0xbe57ccc2	-0.21074203
80	0x3dd04589	0.10169513
81	0xbe5e6728	-0.21719038
82	0x3dea83dc	0.114509314
83	0x3e024261	0.12720634
84	0x3e8f4162	0.2797957
85	0xbe46b21b	-0.1940388
86	0x3e19a5ba	0.15004626
87	0x3d8e6c68	0.069542706
88	0xbd9aed1b	-0.075647555
89	0xbe13c58c	-0.14430827
90	0xbe2ebc26	-0.1706396
91	0x3bba2c1d	0.0056815282
92	0x3e27052d	0.16310568
93	0xbf13a5e5	-0.5767501
94	0x3de6a56e	0.11262022
95	0xbd80c734	-0.06287995
96	0x3c95f88b	0.018306991
97	0xbd702005	-0.058624286
98	0x3e0161e7	0.12635003
99	0xbe5a8b42	-0.21342185
100	0x3dc9f9f2	0.098621264
101	0xbeb2f3ff	-0.3495178
102	0x3e2446f8	0.16042697
103	0xbd131db5	-0.035917003
104	0x3c67b5d1	0.0141424695
105	0x3e39730e	0.18110296
106	0xbd58559f	-0.05281603
107	0xbdde33c1	-0.10849715
108	0xbe4ec401	-0.20191957
109	0x3cb67968	0.022274688
110	0x3e3a3414	0.18183929
111	0xbe328dbb	-0.17436878
112	0x3df362c5	0.11884073
113	0xbd3734cb	-0.04472808
114	0xbdb8047d	-0.08985231
115	0xbe5328b2	-0.20620993
116	0xbe9ddc5d	-0.30832186
117	0x3ec77b1d	0.38961115
118	0x3d9d713d	0.07687614
119	0xbeada8a5	-0.33917728
120	0x3d44a614	0.048009947
121	0xbec89df6	-0.39183015
122	0x3d94a0dc	0.07257244
123	0xbe507d92	-0.20360401
124	0xbd149d88	-0.036283046
125	0xbe8f1993	-0.279492
126	0x3db591f0	0.08865726
127	0x3c945b1d	0.018109852
128	0xbdf7e375	-0.12103931
129	0xbeb5ad9b	-0.35484013
130	0xbd5da871	-0.054115716
131	0xbe542f16	-0.20721087
132	0xbd88572c	-0.06657252
133	0xbe58caac	-0.21171063
134	0x3d972f42	0.073820606
135	0xbe55ca14	-0.20877868
136	0xbe38a3a1	-0.1803117
137	0xbed4fead	-0.41600552
138	0xbda19a8f	-0.07890808
139	0xbe55d31f	-0.20881318
140	0x3c8bc258	0.017060444
141	0xbebbc9e1	-0.3667746
142	0x3e01c4c6	0.1267272
143	0xbec949d1	-0.3931413
144	0x3e031394	0.12800437
145	0x3da10903	0.07863047
146	0xbbc118fe	-0.005892872
147	0x3e0bec04	0.13664252
148	0xbcfcfe89	-0.03088309
149	0x3d5cf9a1	0.053949002
150	0x3e39792b	0.18112628
151	0x3d4cd380	0.05000639
152	0xbc71e01b	-0.014762904
153	0x3eceb3ca	0.40371543
154	0x3d826ed7	0.06368797
155	0x3bea1f04	0.0071448106
156	0x3b3dc1f2	0.0028954712
157	0xbe5ee1d4	-0.21765834
158	0xbd3ff327	-0.046862748
159	0xbce20370	-0.02758953
160	0x3dd022d2	0.101628914
161	0x3e0ddbe4	0.13853413
162	0xbd13baff	-0.036067005
163	0xbe232d17	-0.15935169
164	0x3e1f2478	0.15541255
165	0xbeefbbed	-0.46823063
166	0xbdb662ce	-0.08905564
167	0xbe13907a	-0.14410582
168	0x3da99c6f	0.082817905
169	0x3e71e1b8	0.23621261
170	0xbde2fe01	-0.11083604
171	0x3c097492	0.008389609
172	0xbdc7ce90	-0.097561955
173	0xbc79b8e3	-0.015241834
174	0x3dddf014	0.10836807
175	0xbd8e14f3	-0.069375895
176	0x3dd3a7ec	0.10334763
177	0x3e46e44a	0.19423023
178	0xbd6c45df	-0.05768382
179	0xbde9b70e	-0.11411868
180	0x3e89e749	0.2693427
181	0x3e29f127	0.16595899
182	0xbc94215e	-0.018082317
183	0x3d3722a3	0.044710767
184	0xbe929315	-0.2862784
185	0xbbdcdedd	-0.0067404346
186	0xbc967ede	-0.018371042
187	0xbd1e2d73	-0.038617563
188	0x3ecb33ac	0.3968786
189	0x3d80f642	0.0629697
190	0xbddac840	-0.10682726
191	0xbddb3261	-0.107029684
192	0x3d78ae3d	0.06071304
193	0x3ec73e43	0.3891469
194	0x3c580395	0.013184448
195	0x3d9849bb	0.07435938
196	0xbe265013	-0.16241483
197	0x3d99a698	0.07502478
198	0x3e0c4842	0.13699439
199	0x3d8fa786	0.070143744
200	0xbb8326b7	-0.004002418
201	0x3d353508	0.044240028
202	0x3e34426e	0.17603466
203	0xbe488837	-0.19583212
204	0xbe0c1529	-0.13679947
205	0xbda6a326	-0.08136587
206	0xbd2679af	-0.04064339
207	0xbdd60af5	-0.10451309
208	0xbe16e4d8	-0.14735734
209	0x3e088ae1	0.13334228
210	0x3d6a2f55	0.057174046
211	0xbe471f9a	-0.19445649
212	0xbcd465ac	-0.025927387
213	0xbdf7a91b	-0.12092801
214	0xbdbdd14d	-0.092684366
215	0x3d38fe42	0.045164354
216	0x3e9872a5	0.29774967
217	0xbea6ec88	-0.32602334
218	0xbdfa16c9	-0.12211377
219	0xbd89904f	-0.06716978
220	0xbd8cad06	-0.06868939
221	0xbeacba5b	-0.33735928
222	0x3e4e4544	0.2014361
223	0xbe2bbe5f	-0.1677184
224	0x3e3fae1a	0.18718758
225	0xbec46e41	-0.38365367
226	0x3e0297d9	0.12753238
227	0xbe82fe14	-0.2558447
228	0x3db9406f	0.09045493
229	0x3c83941d	0.016061837
230	0x3e2bd1fc	0.16779321
231	0x3d3cc7ba	0.04608891
232	0x3e86ccc4	0.263281
233	0xbee76147	-0.45191404
234	0xbdfb8993	-0.122820996
235	0x3cf1defe	0.029525276
236	0xbdc165be	-0.09443234
237	0xbd9f9c73	-0.07793512
238	0x3c8c5f7e	0.017135378
239	0x3db4fe46	0.08837561
240	0xbe3b7732	-0.18307188
241	0x3e514976	0.2043818
242	0xbe1df888	-0.15426838
243	0xbe4b5687	-0.19857226
244	0xbe350c54	-0.17680484
245	0xbe183079	-0.14862241
246	0xbd8afdb9	-0.06786675
247	0xbe3b33c6	-0.18281469
248	0xbe0dd7c7	-0.13851844
249	0x3eafcdd9	0.34336737
250	0xbda94ff0	-0.082672
251	0x3ce93f1d	0.028472478
252	0xbe20e371	-0.15711762
253	0xbc9f6a7d	-0.019459957
254	0xbe0fd019	-0.14044227
255	0xbe248e6b	-0.16069953

fc1.bias f4 [256]
0	0x3d1bc88d	0.038033057
1	0x3d7a7b9b	0.061153036
2	0x3be899cf	0.0070984135
3	0xbe13b6fc	-0.14425272
4	0xbe01d7fe	-0.1268005
5	0x3c4b1f38	0.01239758
6	0x3dcd5fd7	0.100280456
7	0x3e732ac6	0.23746786
8	0xbda64db3	-0.08120289
9	0x3e0ded43	0.1386004
10	0x3db7684b	0.08955439
11	0xbba33a3f	-0.0049813087
12	0xbe135c5b	-0.143907
13	0xbdc4f996	-0.09617917
14	0xbdefe014	-0.117126614
15	0xbcd9a25f	-0.026566682
16	0xbe369dd2	-0.17833641
17	0x3dc2384d	0.09483395
18	0x3e16add8	0.14714754
19	0x3e32d39b	0.17463534
20	0xbd7493e2	-0.059711345
21	0xbddf0ca1	-0.10891081
22	0xbe2b81ae	-0.16748688
23	0x3e31877c	0.1733684
24	0x3e1691a8	0.14704001
25	0xbe487ed2	-0.19579628
26	0xbd1f1221	-0.03883565
27	0x3bc77f2a	0.006088157
28	0xbe8560a2	-0.26050287
29	0xbe490410	-0.19630456
30	0x3dc39133	0.09549179
31	0xbe1ecaf2	-0.15507105
32	0x3c97a7a3	0.018512553
33	0xbe52dab4	-0.20591241
34	0x3e263f17	0.16235004
35	0xba97d9ac	-0.0011585257
36	0xbe330947	-0.17484008
37	0xbaec3d14	-0.0018023574
38	0x3ddd3961	0.1080196
39	0xbd432836	-0.04764577
40	0x3d5486c3	0.05188633
41	0x3e1ae89b	0.15127794
42	0xbe82d439	-0.25552538
43	0x3b3eb080	0.0029096901
44	0xbd65ece9	-0.05613414
45	0x3d57ee31	0.05271739
46	0xbe2ff570	-0.1718347
47	0x3e36cc0d	0.17851277
48	0xbe19c1b6	-0.15015301
49	0xbd6edd13	-0.0583163
50	0xbe158ae8	-0.1460377
51	0x3df70391	0.12061227
52	0xbe811862	-0.25213915
53	0xbddb6d2c	-0.10714182
54	0xbdcb9965	-0.09941367
55	0xbd89a794	-0.06721416
56	0xbde826fb	-0.1133556
57	0xbe3ce50d	-0.18446751
58	0xbe3bcbd7	-0.18339477
59	0x3d574a3b	0.052561026
60	0xbe9ac36e	-0.30227226
61	0x3e3c7d39	0.18407144
62	0x3d659a1e	0.05605518
63	0x3e026252	0.12732819
64	0xbe1db35e	-0.15400454
65	0x3dd2c652	0.10291733
66	0xbdccd6d0	-0.1000191
67	0x3d502e58	0.050825447
68	0x3e49cb2f	0.19706415
69	0x3c8f83e6	0.017518949
70	0xbe358402	-0.17726138
71	0x3c2a8862	0.010408493
72	0xbd8e5569	-0.069498844
73	0xbe5def43	-0.21673302
74	0xbe2b7fb7	-0.16747938
75	0x3e07be37	0.13256155
76	0xbd583896	-0.05278834
77	0xbe38f13b	-0.18060772
78	0xbe319c97	-0.1734489
79	0x3e13e740	0.14443684
80	0xbe4657a2	-0.19369367
81	0x3e03eac1	0.1288252
82	0x3dcb7f83	0.0993643
83	0x3ded9be8	0.116020024
84	0x3d16298a	0.03666071
85	0x3cc5ca4d	0.024144316
86	0xbe112451	-0.1417401
87	0xbe6b7059	-0.22992076
88	0xbe76588d	-0.24057217
89	0xbd8e1884	-0.0693827
90	0xbe5307e3	-0.20608477
91	0xbe1deff8	-0.15423572
92	0x3d498310	0.049197257
93	0xbe4d8014	-0.20068389
94	0xbddc979a	-0.10771103
95	0x3e1c5fb2	0.1527088
96	0x3dbb0dd2	0.091334954
97	0x3e108631	0.1411369
98	0x3d6ce38c	0.057834193
99	0xbe002a01	-0.12516023
100	0x3d6d57d4	0.057945088
101	0x3df41c6a	0.11919482
102	0x3dc1f912	0.094713345
103	0xbdbfa235	-0.093571104
104	0xbd85e262	-0.0653732
105	0xbd5b6266	-0.053560637
106	0xbd8f5e2b	-0.07000383
107	0xbcb77ddc	-0.022398882
108	0x3e599626	0.21248683
109	0xbe25b4e0	-0.1618228
110	0xbe8d4d68	-0.2759812
111	0xbcabf976	-0.020992976
112	0xbc1c5f9d	-0.00954428
113	0x3d8fd133	0.070223235
114	0xbe661f8b	-0.2247297
115	0x3e8f3d2b	0.27976355
116	0xbe36a01f	-0.17834519
117	0xbe11d9fe	-0.14243314
118	0x3c40c57f	0.011765837
119	0xbbf0d93c	-0.007350115
120	0xbe1aa681	-0.15102579
121	0x3d62c15f	0.055360194
122	0xbd012f74	-0.031539395
123	0xbe370c8c	-0.1787588
124	0x3e2618a3	0.16220336
125	0x3e01cde2	0.12676194
126	0xbe3bece5	-0.18352087
127	0x3e8410e2	0.2579413
128	0x3dbfcaca	0.09364851
129	0xbe3ea938	-0.1861924
130	0xbe42a451	-0.19007994
131	0x3e859d81	0.26096728
132	0xbe25ed76	-0.16203865
133	0xbe6bf60f	-0.23043083
134	0x3e5361d8	0.20642793
135	0x3e66d092	0.22540501
136	0x3dd3d930	0.103441596
137	0x3ddca7d6	0.107742
138	0xbe08bc19	-0.13353004
139	0xbe16ff8f	-0.14745925
140	0x3e951e36	0.29124612
141	0xbdc2867a	-0.094983056
142	0xbd309156	-0.043107353
143	0x3e00bf34	0.12572938
144	0xbe373ea2	-0.17894986
145	0xbdc18e9d	-0.094510294
146	0xbda67703	-0.081281684
147	0xbe36b83d	-0.17843719
148	0xbe8c2afb	-0.27376541
149	0xbe957013	-0.29187068
150	0xbe093880	-0.1340046
151	0x3d892e35	0.066982664
152	0xbdc63e49	-0.09679849
153	0x3cc378ed	0.023861373
154	0xbe821521	-0.25406745
155	0x3d9ac72c	0.0755752
156	0xbd4f33d5	-0.05058654
157	0xbc8a8215	-0.016907731
158	0xbe76c872	-0.24099901
159	0x3d8abe79	0.06774611
160	0x3d6830d9	0.05668721
161	0x3c21e551	0.009881333
162	0xbe4a31dd	-0.19745584
163	0x3e028a63	0.12748103
164	0xbbd8625e	-0.006603523
165	0xbe90537b	-0.2818869
166	0x3deb56af	0.11491143
167	0xbd3bccb8	-0.045849532
168	0xbdd77be4	-0.10521677
169	0xbdd41146	-0.10354857
170	0xbe454aa8	-0.1926676
171	0x3ca54993	0.020176684
172	0x3e9baf2a	0.30407077
173	0xbe48dcb9	-0.19615449
174	0xbe85ace4	-0.26108468
175	0xbe5f7949	-0.2182361
176	0xbe4b520b	-0.19855516
177	0x3c13d1f3	0.009022224
178	0x3d549678	0.05190131
179	0x3dcfc76f	0.10145461
180	0xbc5cefdf	-0.013484924
181	0x3d17ac30	0.037029445
182	0x3c673e0a	0.014113912
183	0x3bd7e34e	0.006588376
184	0x3d8b929b	0.06815072
185	0xbc19e43a	-0.009392792
186	0xbdebfc09	-0.11522681
187	0xbeabdf19	-0.33568648
188	0x3e3735ac	0.17891568
189	0x3e1adc67	0.1512314
190	0xbe26c129	-0.16284622
191	0xbd4b6eaa	-0.049666084
192	0xbddba901	-0.10725594
193	0xbe4bcaa1	-0.19901516
194	0xbdfd0de4	-0.12356165
195	0xbe0ffc70	-0.14061141
196	0x3e44eb67	0.19230424
197	0xbda2e5e7	-0.07954007
198	0xbe09467c	-0.13405794
199	0xbdf019ae	-0.11723648
200	0xbd7fdda2	-0.062467225
201	0xbccc1fae	-0.02491745
202	0x3cee2497	0.029070182
203	0xbe8bac47	-0.27279875
204	0x3aad47dc	0.0013220268
205	0xbdb415d2	-0.087932244
206	0x3d21a832	0.039467044
207	0x3b0875c1	0.002082214
208	0xbc3b3fed	-0.011428815
209	0xbe71cd92	-0.23613575
210	0x3dc67f59	0.096922584
211	0xbdc01397	-0.093787365
212	0x3ca0769d	0.01958781
213	0xbe6b4693	-0.2297614
214	0xbe2bee5f	-0.1679015
215	0x3e308f8c	0.17242259
216	0x3e42e4e9	0.19032635
217	0xbc9ed658	-0.019389316
218	0x3e5ec17c	0.21753496
219	0xbe33a23b	-0.17542355
220	0x3e4a8011	0.19775416
221	0xbd6aa2a8	-0.057284027
222	0xbe8b9e7f	-0.2726936
223	0xbe601e06	-0.21886453
224	0xbca1db20	-0.019757807
225	0xbd315485	-0.043293495
226	0xbc16e605	-0.009210114
227	0x3e3c9e2f	0.18419717
228	0xbd1cd03a	-0.038284518
229	0x3dddc576	0.10828678
230	0x3d568981	0.052377228
231	0x3e224f6b	0.15850608
232	0xbe02305c	-0.1271376
233	0x3e36399e	0.17795417
234	0x3cff3fb4	0.031158306
235	0xbdfe71ca	-0.12424047
236	0xbb4de588	-0.003141733
237	0x3c6e5530	0.0145466775
238	0x3d8eb5f0	0.069682956
239	0xbe493dfa	-0.19652548
240	0xbe25e7a7	-0.1620165
241	0xbe6067ad	-0.21914549
242	0xbe250d61	-0.16118385
243	0xbe229cff	-0.15880202
244	0xbe823267	-0.2542908
245	0xbe0628ea	-0.13101545
246	0xbe016cac	-0.12639111
247	0x3e31890f	0.1733744
248	0x3c6d46e1	0.014482231
249	0xbe8671b4	-0.26258624
250	0xbdab85ab	-0.083751045
251	0x3e418305	0.18897636
252	0x3d86bdc3	0.06579163
253	0xbd9d2add	-0.07674191
254	0x3d8e7ae1	0.06957031
255	0x3e5e22d8	0.2169298

fc2.weight f4 [128, 256]
0	0xbd2c505c	-0.042068824
1	0x3c38edce	0.011287166
2	0x3e6ffbcd	0.23435898
3	0xbd33b5f8	-0.04387471
4	0xbcc51a10	-0.02406028
5	0xbd1a7f76	-0.037719212
6	0x3d83aacd	0.06429062
7	0x3e0556f2	0.13021448
8	0xbd827bf5	-0.06371299
9	0xbd181981	-0.037133697
10	0xbd8743c6	-0.06604724
11	0x3d99c38e	0.07508002
12	0x3dc02924	0.09382847
13	0xbd8ef467	-0.0698021
14	0x3cfff444	0.031244405
15	0x3d1b66c7	0.037939813
16	0x3d52ebc4	0.051494375
17	0xbd284060	-0.041077018
18	0x3c785cea	0.015158871
19	0xbcdcd61d	-0.026957566
20	0xbd2c7009	-0.042099033
21	0xbd7f1e84	-0.06228496
22	0x3c7b09b4	0.015322138
23	0x3ca4602b	0.020065388
24	0x3d0cedb1	0.034406368
25	0xbcef8285	-0.029237041
26	0xbc483b90	-0.012221232
27	0xbcca41f9	-0.024689661
28	0x3dac12d3	0.08402028
29	0x3c1dc14d	0.009628606
30	0x3b7c470c	0.0038494496
31	0x3d209178	0.03920123
32	0xbd312250	-0.043245614
33	0x3ca29855	0.019848028
34	0x3dade362	0.084906355
35	0x3d337bc5	0.043819208
36	0xbcb9083c	-0.022586934
37	0x3d56059b	0.05225144
38	0x3d24cdbf	0.040235277
39	0xbd49400c	-0.049133345
40	0xbd7ad0b9	-0.06123421
41	0x3d752f2d	0.059859443
42	0xbd2a7d43	-0.041623365
43	0x3c6e0e43	0.014529767
44	0x3e09fb5c	0.13474792
45	0xbd4d54d7	-0.050129738
46	0x3d7af2ef	0.061266836
47	0x3d12d85b	0.035850864
48	0x3d8bfbc2	0.06835128
49	0xbdab939a	-0.08377762
50	0xbdeffb7e	-0.1171789
51	0xbc624f4a	-0.013812849
52	0xbccd1db8	-0.025038585
53	0xbdbb7228	-0.09152633
54	0x3daa7478	0.08322996
55	0x3e1b7c85	0.15184219
56	0x3c57d04f	0.013172223
57	0x3d35250e	0.04422479
58	0xbdd98e97	-0.106229
59	0xbc50921e	-0.01273015
60	0x3c720802	0.014772417
61	0xbcbd274d	-0.02309003
62	0x3cd8e71f	0.026477395
63	0xbc05fcbc	-0.008177932
64	0xbd4bc448	-0.049747735
65	0xbd518996	-0.051156603
66	0x3d50e4f7	0.050999608
67	0x3d3830cf	0.044968423
68	0xbc8db712	-0.017299209
69	0x3dad3d91	0.084590085
70	0xbd811328	-0.06302482
71	0x3cb0e0a7	0.021591498
72	0xbd686fd2	-0.056747265
73	0xbc844aa5	-0.016148875
74	0xbab84a8f	-0.0014060306
75	0x3d948cbe	0.07253407
76	0xbd6973b7	-0.05699512
77	0x3d2c4c33	0.042064857
78	0xbd285ede	-0.041106097
79	0xbd3fc357	-0.04681715
80	0xbe6399c4	-0.22226626
81	0xbdaed7d3	-0.08537259
82	0x3d976068	0.07391435
83	0xbdba3cc2	-0.0909362
84	0xbdab17f0	-0.08354175
85	0x3db74c18	0.089500606
86	0x3d890f2e	0.066923484
87	0xbbdc3826	-0.0067205606
88	0x3d84631a	0.064642146
89	0x3d0b63aa	0.034030594
90	0xbdad1d4d	-0.08452854
91	0xbd60157c	-0.05470799
92	0x3d12ae26	0.035810612
93	0x3dee637b	0.11640068
94	0x3b0583fc	0.0020372858
95	0x3d684217	0.056703653
96	0xbd393a55	-0.045221645
97	0x3e0aa545	0.13539608
98	0x3c9d97dd	0.019237453
99	0xbbb09471	-0.0053887893
100	0xbd1e5d5b	-0.03866325
101	0xbcdec59b	-0.027193835
102	0x3c4a405a	0.012344444
103	0xbd80dd2f	-0.062921874
104	0xbd169e52	-0.03677208
105	0xbd573b10	-0.05254656
106	0x3e2d0c43	0.16899209
107	0xbcdbb685	-0.02682043
108	0xba64a924	-0.00087227137
109	0xbd846979	-0.0646543
110	0xbc4b6ade	-0.012415616
111	0x3e0e9a96	0.13926157
112	0xbb674dc0	-0.0035294145
113	0xbeb29d5e	-0.34885687
114	0x3bb9d7ea	0.005671491
115	0xbd921b2c	-0.07134089
116	0x3c699c03	0.0142583875
117	0xbcdc9eda	-0.026931215
118	0xbd0ad33c	-0.033892855
119	0xbd1d041f	-0.03833401
120	0xbc0adad4	-0.008475024
121	0xbe1e235e	-0.15443179
122	0xbd305ac5	-0.043055315
123	0x3d98039b	0.07422563
124	0x3d9fd5b9	0.07804436
125	0x3d4c13b5	0.04982348
126	0x3d07f1ac	0.03318946
127	0x3d951bf9	0.07280726
128	0x3d2d1191	0.04225308
129	0xbcc2b63a	-0.023768533
130	0x3c420db3	0.011844086
131	0x3e150db7	0.14556013
132	0x3d5926d8	0.05301556
133	0xbc976cfa	-0.018484581
134	0xbde1893b	-0.11012503
135	0x3de03fcf	0.109496705
136	0xba8ed656	-0.0010897617
137	0xbd969995	-0.07353512
138	0x3da57266	0.080784604
139	0xbd8ea319	-0.06964702
140	0xbe055c29	-0.13023438
141	0x3ca68d4a	0.020331044
142	0xbeb5a887	-0.3548014
143	0x3d256fb9	0.04038975
144	0xbe0b4a62	-0.13602594
145	0xbd2a7fa6	-0.04162564
146	0xbd8e1271	-0.06937111
147	0x3d65fc8d	0.056149054
148	0x3da47822	0.08030726
149	0x3cd4d0b1	0.025978418
150	0xbc0402ad	-0.008057279
151	0xbe559d08	-0.20860684
152	0x3d7304d7	0.059330788
153	0x3d50025b	0.050783496
154	0xbc699119	-0.014255785
155	0x3d8d0bfb	0.06887051
156	0xbd87d26a	-0.0663193
157	0x3d6f423e	0.058412783
158	0x3ba6f046	0.005094561
159	0xba4d44bf	-0.00078303734
160	0x3ce32858	0.027729198
161	0xbb928713	-0.0044716685
162	0xbd48077f	-0.048835274
163	0x3cafcc09	0.021459596
164	0xbd03da26	-0.032190464
165	0xbca2b853	-0.019863283
166	0x3caf76e2	0.021418992
167	0x3d171a3f	0.036890265
168	0xbd85553b	-0.06510397
169	0xbbd9699e	-0.006634905
170	0x3d98a2db	0.07452937
171	0xbc978302	-0.018495087
172	0x3d3182a2	0.04333747
173	0xbd1f4d44	-0.038892046
174	0xbc2c9c65	-0.010535334
175	0xbd8fecfa	-0.070276216
176	0xbcfca0d3	-0.030838406
177	0x3e164e3b	0.1467828
178	0x3aaaa989	0.0013020496
179	0x3d32e8f0	0.043679178
180	0x3c9613e0	0.018320024
181	0x3d7f3c1d	0.062313188
182	0x3b85b028	0.0040798374
183	0xbcd2d41e	-0.025735911
184	0xbe1bed7f	-0.15227316
185	0x3bb08b8e	0.00538773
186	0xbb4e2c3d	-0.0031459474
187	0x3c39581b	0.01131251
188	0xbe3aea07	-0.18253337
189	0x3da2bb8b	0.07945927
190	0xbcd341f3	-0.025788283
191	0xbcf7aa25	-0.030232498
192	0xbd4ac6cf	-0.049506005
193	0x3d02a479	0.031895135
194	0x3da7af4a	0.081877306
195	0xbd29a19e	-0.041413896
196	0xbe74a3d2	-0.23890617
197	0x3c5332da	0.012890542
198	0x3d8d16b0	0.06889093
199	0xbdc86e2f	-0.09786641
200	0xbce74d97	-0.02823524
201	0x3dc6edc3	0.09713318
202	0x3d9c9261	0.07645107
203	0x3cc2daac	0.023785912
204	0xbd8aaccf	-0.06771242
205	0x3d98365d	0.07432244
206	0xbe00322a	-0.12519136
207	0x3da53688	0.08067042
208	0xbd2353e9	-0.039874945
209	0xbd2997c8	-0.041404516
210	0xbcda001f	-0.026611386
211	0xbceb4d64	-0.028723426
212	0xbd777a7a	-0.060419537
213	0xbb8b20a9	-0.0042458368
214	0x3d6d40e1	0.0579232
215	0x3d2a1da8	0.04153219
216	0xbcf59e89	-0.029982822
217	0xbe3df8bb	-0.18551914
218	0x3cca01d9	0.024659084
219	0xbd7416a0	-0.05959189
220	0x3da652e0	0.08121276
221	0xbdf2ec64	-0.11861494
222	0x3d09a30a	0.03360275
223	0x3dc25ded	0.09490571
224	0xbd5cc8af	-0.053902324
225	0xbd911bdd	-0.070853926
226	0xbc5d9894	-0.013525147
227	0xbe35b176	-0.17743477
228	0x3d670e5c	0.05641018
229	0xbcf60241	-0.030030372
230	0x3d827eaa	0.063718155
231	0xbd3c994c	-0.046044633
232	0xbd85217d	-0.06500528
233	0xbdc8c17a	-0.09802528
234	0x3e0d2805	0.13784797
235	0xbdac2622	-0.08405711
236	0xbcd0450c	-0.02542355
237	0xbd76edd4	-0.060285404
238	0x3d3d4ed3	0.04621775
239	0x3d8c02d8	0.0683648
240	0xbd84cd32	-0.064844504
241	0xbdb89ca3	-0.09014251
242	0xbd76f232	-0.06028957
243	0x3ada3dd3	0.0016650505
244	0x3cb00c26	0.021490168
245	0xbc8d54b0	-0.017252296
246	0x3e151b72	0.14561251
247	0xbc8923a3	-0.016740626
248	0x3d4a62e7	0.049410727
249	0xbd90ef4d	-0.07076893
250	0x3c6440ff	0.013931512
251	0xbcac17cd	-0.021007443
252	0x3d4db72f	0.050223526
253	0xbc4cd200	-0.01250124
254	0x3c96c698	0.018405244
255	0xbe11dd60	-0.14244604

fc2.bias f4 [128]
0	0xbcae994b	-0.02131333
1	0xbdab48dc	-0.08363506
2	0xbd47ba35	-0.048761565
3	0x3cb89779	0.022533165
4	0xbd12d066	-0.035843275
5	0xbd701ead	-0.058623005
6	0xbb0db41a	-0.0021622241
7	0xbd1c4259	-0.03814921
8	0xbcda04cf	-0.026613621
9	0x3c30b710	0.010785833
10	0x3cd6095c	0.02612751
11	0xbd33c5f6	-0.043889962
12	0x3a94157f	0.001129791
13	0xbce2ab1c	-0.027669482
14	0xbcb27a66	-0.02178688
15	0xbca6a8cf	-0.020344166
16	0x3d802fd6	0.06259124
17	0xbd2b27d9	-0.04178605
18	0xbd397a95	-0.04528292
19	0xbc903859	-0.017604994
20	0x3c9a1195	0.018807212
21	0x3b5aafd1	0.0033368955
22	0x3b997de0	0.004684195
23	0xbd63a4bc	-0.055577025
24	0xbbfe3268	-0.0077574737
25	0xbc80e22d	-0.015732849
26	0xbc86ea12	-0.016469035
27	0x3b7b505e	0.0038347463
28	0x3cb01bfe	0.021497723
29	0xbd995bcb	-0.07488211
30	0x3d97c5cb	0.07410773
31	0xbcfe8eaa	-0.031073887
32	0xbdad134d	-0.08450947
33	0x3a524f7e	0.00080227095
34	0x3d36ac78	0.044598073
35	0xbcd5918e	-0.026070382
36	0x3c127a86	0.008940345
37	0x3d9b1fb5	0.07574407
38	0x3c9f76cf	0.019465832
39	0xbda7655a	-0.08173628
40	0x3c9eebbf	0.019399522
41	0x3c4f7acc	0.012663554
42	0xbc1c8b1b	-0.00955465
43	0xbd2b6111	-0.041840617
44	0x3de32871	0.11091698
45	0xbd95eeba	-0.07320924
46	0xbd604f1c	-0.054762945
47	0x3c9a93e0	0.01886934
48	0x3cd29082	0.025703672
49	0x3d3aaee8	0.04557696
50	0x3bfe0b16	0.0077527864
51	0xbd011a0d	-0.031518985
52	0x3d031a35	0.032007415
53	0x3d9a91fd	0.07547376
54	0xbcb69ed9	-0.022292541
55	0x3bde830e	0.0067905253
56	0x3cb5de37	0.022200687
57	0x3d534ca7	0.051586773
58	0x3d43c920	0.04779923
59	0xbcac5abe	-0.021039363
60	0x3d5411d7	0.051774826
61	0xbde07937	-0.1096062
62	0xbd4b210e	-0.04959207
63	0xbc3d3a34	-0.011549521
64	0xbc98b365	-0.01864023
65	0xbd84178a	-0.06449802
66	0xbdb3faa9	-0.08788044
67	0xbd90bc53	-0.0706717
68	0x3d67eea6	0.056624077
69	0xbda8ff9e	-0.0825188
70	0xbb9b951e	-0.0047480008
71	0x3de28ecb	0.11062392
72	0xbdc9f5b9	-0.09861321
73	0xbc227214	-0.009914894
74	0xbcf0463c	-0.029330365
75	0xbb8fe1d4	-0.0043909345
76	0x3c84f5da	0.016230512
77	0xbcda714d	-0.026665354
78	0xbd436bec	-0.047710344
79	0x3dd6b505	0.104837455
80	0x3d82cb5d	0.06386445
81	0x3c66ee02	0.014094831
82	0xbddfad57	-0.10921734
83	0x3dae6602	0.0851555
84	0x3c44cf33	0.012012291
85	0x3cbef7fa	0.023311604
86	0x3c85fc5e	0.01635569
87	0x3ca1582d	0.019695366
88	0x3c9c1b75	0.019056061
89	0xbd738124	-0.05944933
90	0x3cc137fa	0.023586262
91	0x3dd11863	0.102097295
92	0xbc1b9afc	-0.0094974
93	0xbdcc411c	-0.09973356
94	0xbd366c48	-0.04453686
95	0xbc9adbd9	-0.01890366
96	0x3d7d89a3	0.06189884
97	0x3d11c849	0.035591397
98	0xbd5da3b3	-0.054111194
99	0xbd9b2410	-0.07575238
100	0xbd077a84	-0.033075824
101	0xbc69b1bb	-0.014263566
102	0xbd84efa4	-0.0649102
103	0xbd9324c4	-0.07184747
104	0x3cd8550c	0.026407741
105	0xbb3c54a7	-0.002873698
106	0x3c72efe8	0.014827706
107	0xbd0bae79	-0.034101937
108	0x3c12b83b	0.008955057
109	0xbc7a38b7	-0.015272311
110	0xbd6b6252	-0.057466812
111	0xbce75326	-0.02823789
112	0x3d909342	0.07059337
113	0xbb559fef	-0.0032596549
114	0xbe02baa1	-0.12766506
115	0xbd958110	-0.07300007
116	0xbd7190a1	-0.05897582
117	0x3d5ac502	0.053410538
118	0x3d33b9e1	0.04387844
119	0xbcc8544d	-0.02445426
120	0x3d1d26d4	0.038367108
121	0xbd072f26	-0.03300395
122	0xbdb17257	-0.08664387
123	0x3db11a0e	0.08647548
124	0xbcadb460	-0.021204174
125	0xbd86f9c8	-0.06590611
126	0xbd187052	-0.037216492
127	0x3a889572	0.0010420515

fc3.weight f4 [64, 128]
0	0x3de0a07f	0.10968112
1	0x3e0dd773	0.13851719
2	0x3e0b5fc0	0.13610744
3	0x3e8b1620	0.27165318
4	0xbd62f507	-0.055409458
5	0xbcade2bf	-0.021226285
6	0xbe83ada9	-0.2571843
7	0x3d5bdfe3	0.053680312
8	0x3cf43dab	0.029814562
9	0xbe3d638e	-0.18495008
10	0x3dbfb5d0	0.0936085
11	0x3d5f225b	0.054476123
12	0x3de47818	0.111557186
13	0xbcde9754	-0.027171768
14	0x3e2302f8	0.15919101
15	0xbdbe76c0	-0.092999935
16	0xbded578e	-0.11588965
17	0x3d377de6	0.0447978
18	0x3e0c33cf	0.13691638
19	0x3db46dc0	0.08809996
20	0x3d78c96e	0.060738973
21	0xbe29b285	-0.16572006
22	0x3e164ced	0.14677782
23	0xbe0ae1e8	-0.13562739
24	0xbe176e85	-0.14788254
25	0xbce12884	-0.02748514
26	0x3e129fad	0.14318724
27	0xbe26986c	-0.16269082
28	0xbd94b5b4	-0.072612196
29	0x3b58f8d0	0.0033107288
30	0x3d11c73f	0.035590407
31	0xbcad7c26	-0.021177363
32	0x3e3c6cba	0.18400851
33	0xbede96bd	-0.4347438
34	0x3d5bfa87	0.05370572
35	0x3d392ca4	0.04520859
36	0x3e24b59b	0.16084902
37	0xbdcc2f30	-0.09969938
38	0x3e10b98b	0.14133279
39	0x3d93980f	0.07206737
40	0x3d459c78	0.048244923
41	0xbe7ace6c	-0.24492806
42	0x3da83ce3	0.08214738
43	0x3d80bf86	0.0628653
44	0xbe28c0fc	-0.16479868
45	0x3d1b2cb9	0.037884448
46	0xbce665d6	-0.028124731
47	0xbc39f75e	-0.011350481
48	0x3e0194ef	0.1265447
49	0xbdce6853	-0.10078492
50	0xbce9dded	-0.028548205
51	0x3d2de80a	0.042457618
52	0x3caf44aa	0.021395046
53	0x3d55ca92	0.05219514
54	0xbdf396e0	-0.118940115
55	0x3c1f482e	0.009721799
56	0xbb94e42c	-0.004543802
57	0x3c8142a3	0.015778845
58	0xbeb3253a	-0.3498934
59	0xbe538fc2	-0.20660308
60	0xbdab5f95	-0.0836784
61	0x3d7c0a48	0.061533242
62	0xbda2c580	-0.079478264
63	0xbe0586c6	-0.13039693
64	0xbe487841	-0.19577123
65	0xbc37e2d9	-0.011223518
66	0x3e3364fe	0.17518994
67	0x3e05f1b0	0.13080478
68	0xbd99d4ee	-0.07511316
69	0x3e5988f5	0.21243651
70	0x3d05719e	0.032579057
71	0xbe003b0a	-0.12522522
72	0x3e913890	0.28363466
73	0x3c5cccef	0.013476594
74	0xbe1fb99a	-0.15598145
75	0xbd43b496	-0.047779642
76	0xbdbf8553	-0.093516015
77	0xbd1d5165	-0.038407702
78	0x3dc101fe	0.09424208
79	0xbec2218b	-0.37916216
80	0xbd82066a	-0.0634888
81	0x3dd1b31b	0.1023924
82	0x3dc316bc	0.095258206
83	0xbe1a8f38	-0.15093696
84	0xbd63a983	-0.05558158
85	0x3dff0ce3	0.1245363
86	0x3dec0d2b	0.11525949
87	0xbe3102a3	-0.17286162
88	0xbe622b33	-0.22086792
89	0xbbfa9208	-0.007646803
90	0xbdc04a05	-0.09389118
91	0xbd86c196	-0.06579892
92	0x3d2f13b0	0.042743385
93	0x3e0590cb	0.13043515
94	0xbc5412eb	-0.0129439635
95	0x3ddd8754	0.108168274
96	0x3cd7740f	0.026300458
97	0xbe2adb23	-0.16685157
98	0x3e2fae50	0.17156339
99	0x3dae8c52	0.08522858
100	0xbe29e037	-0.16589437
101	0x3bb7cce7	0.005609143
102	0x3e1eea94	0.15519172
103	0x3e86dde1	0.26341155
104	0xbc17d6f8	-0.009267561
105	0x3d0090da	0.03138814
106	0x3e314546	0.17311582
107	0xbd9c2051	-0.07623351
108	0x3cb197ba	0.021678794
109	0xbe266c0d	-0.16252156
110	0x3e0fcf89	0.14044012
111	0xbe3cc2a4	-0.18433625
112	0xb8817c18	-6.1743136e-05
113	0x3d089c3b	0.033352118
114	0xbe08fceb	-0.1337773
115	0x3d2d70fd	0.042344082
116	0x3dbf5fba	0.0934443
117	0x3d7f8e85	0.062391777
118	0x3df137b2	0.11778201
119	0x3d10ef65	0.035384554
120	0xbdefb2be	-0.11704014
121	0x3dde6952	0.10859932
122	0x3ce27c22	0.027647082
123	0xbc721bcd	-0.014777136
124	0x3e013865	0.12619169
125	0x3db009cf	0.08595621
126	0x3b92621a	0.004467261
127	0x3b8e69cc	0.004346108
128	0x3dd519d2	0.104053155
129	0x3d98877b	0.07447716
130	0x3da2633e	0.07929085
131	0x3dc7400b	0.09729012
132	0x3d5b18f8	0.05349061
133	0xbd242e73	-0.04008336
134	0xbe29e615	-0.16591676
135	0x3c2f018f	0.010681524
136	0x3e071943	0.1319323
137	0xbd8e23c9	-0.06940419
138	0x3e18ae70	0.14910293
139	0x3da21707	0.07914548
140	0xbbf452a7	-0.007456142
141	0xbd9542d3	-0.07288136
142	0x3e0cdf0a	0.13756958
143	0x3df64df1	0.12026585
144	0xbddfa6ce	-0.10920487
145	0x3c8b9947	0.017040862
146	0x3d8accbd	0.06777332
147	0x3c9e47f6	0.019321423
148	0xbdb0f350	-0.08640158
149	0xbea4089a	-0.32037812
150	0x3debf946	0.115221545
151	0x3cdf17f3	0.0272331
152	0xbca24d65	-0.019812295
153	0xbd439dd9	-0.047757957
154	0x3dfba8fc	0.122880906
155	0xbd16fa67	-0.036859896
156	0x3de25076	0.11050503
157	0xbc9127be	-0.017719146
158	0xbd6997e6	-0.057029627
159	0xbd7bbec0	-0.06146121
160	0x3d9c5ab1	0.076344855
161	0xbee95eea	-0.45580226
162	0x3ddef831	0.108871825
163	0xbd4960c9	-0.049164567
164	0x3d8d0474	0.06885615
165	0xbdf5e331	-0.12006224
166	0x3e2f4509	0.17116179
167	0x3de15e05	0.11004261
168	0xbe155a86	-0.14585313
169	0xbf2f5b2c	-0.6849849
170	0xbcf00a2b	-0.029301723
171	0x3c965933	0.01835308
172	0x3d9ab81e	0.07554649
173	0x3e333a5d	0.17502733
174	0x3db7b5ef	0.08970248
175	0x3dad3ea4	0.084592134
176	0x3ded51ef	0.11587893
177	0x3e18f224	0.1493612
178	0xbcdd5398	-0.0270174
179	0xbe83a39a	-0.25710756
180	0x3c72cc7f	0.0148192635
181	0xbe80b5f7	-0.25138828
182	0xbdb6c4d7	-0.08924263
183	0xbc594e50	-0.0132633
184	0x3cb5fe14	0.02221588
185	0xbd9c8ffd	-0.07644651
186	0xbe9df9ad	-0.3085455
187	0xbe238de0	-0.1597209
188	0xbc7c57df	-0.0154018095
189	0x3a786e5f	0.0009476896
190	0xbbf5bce5	-0.0074993246
191	0xbd634ba9	-0.055492077
192	0xbc7ab93a	-0.0153029505
193	0xbda31d8c	-0.0796462
194	0x3e06fbca	0.13181987
195	0x3ccf12bf	0.025277494
196	0xbdbecd2e	-0.09316479
197	0x3d3c4d8d	0.045972396
198	0xbd287609	-0.041128192
199	0xbe10a263	-0.14124446
200	0x3d1bccd0	0.03803712
201	0xbd0bc64c	-0.034124658
202	0xbc340b91	-0.010989086
203	0xbd57d01c	-0.052688703
204	0xbe544af8	-0.20731723
205	0xbdc80946	-0.09767394
206	0x3e35d9e6	0.17758903
207	0xbccfd6e6	-0.025371026
208	0x3c05b96d	0.008161885
209	0x3e0d6eaf	0.13811754
210	0x3e502fce	0.20330736
211	0xbd7cd1c4	-0.061723486
212	0xbd1d16c7	-0.0383518
213	0x3d59ee40	0.05320573
214	0x3da4a8b0	0.08039987
215	0xbed3da9d	-0.41377726
216	0xbdafb2fb	-0.0857906
217	0x3df2f00a	0.1186219
218	0xbdce547e	-0.10074709
219	0x3e0b35e6	0.1359478
220	0x3e04b27a	0.12958708
221	0x3df7c60f	0.120983236
222	0xbda108f4	-0.07863036
223	0x3d48eb8a	0.049052753
224	0x3cbfbecc	0.023406409
225	0xbdc2b4b5	-0.095071234
226	0x3c627989	0.013822922
227	0x3da24a40	0.07924318
228	0xbe594ccf	-0.21220706
229	0x3df7d753	0.12101617
230	0xbd6ef28a	-0.058336772
231	0x3e72a156	0.23694357
232	0xbcfeff52	-0.031127606
233	0x3b8f35e2	0.004370437
234	0x3dd9cde6	0.10634975
235	0xbe75c215	-0.23999818
236	0x3e1f2813	0.15542631
237	0xbe06974b	-0.13143651
238	0x3d632383	0.05545379
239	0x3d579c8c	0.05263953
240	0xbd0c4f20	-0.034255147
241	0x3cf38d92	0.029730592
242	0xbe259bcc	-0.16172713
243	0xbc0c1f3d	-0.00855237
244	0x3d41b62a	0.047292866
245	0x3daf4ebc	0.08559939
246	0x3c22424e	0.009903504
247	0x3d14ab0a	0.036295928
248	0xbe737187	-0.23773776
249	0x3dce0192	0.10058893
250	0x3e9894d2	0.2980104
251	0xbd979723	-0.07401874
252	0x3ca99715	0.020701924
253	0xbcc4906f	-0.023994653
254	0xbd879b01	-0.066213615
255	0x3c776604	0.015100006

fc3.bias f4 [64]
0	0xbdaca518	-0.08429927
1	0xbd9904ab	-0.074715935
2	0x3c2081a7	0.0097965365
3	0xbcab1d8b	-0.02088811
4	0xbd977ce0	-0.07396865
5	0x3d3a5551	0.04549152
6	0xbdb11bd5	-0.08647887
7	0x3cf1362c	0.029444776
8	0xbdc87cdc	-0.0978944
9	0xbd485f7d	-0.04891919
10	0x3d367d96	0.04455336
11	0xbd21f609	-0.039541278
12	0x3cc87779	0.024471032
13	0xbd98fa74	-0.07469645
14	0xbd41c2a2	-0.047304757
15	0xbda7d96b	-0.08195766
16	0xbd661b67	-0.056178477
17	0x3b4865c5	0.0030578237
18	0x3de5c94e	0.112200364
19	0xbc377f92	-0.011199849
20	0xbdd0d541	-0.10196925
21	0xbc3c6385	-0.011498337
22	0xbc80cd38	-0.015722856
23	0xbd459f05	-0.048247356
24	0x3c9ce82c	0.019153677
25	0x3cd83f5e	0.026397403
26	0x3c893ebb	0.016753545
27	0xbdade138	-0.08490223
28	0x3d114edb	0.035475593
29	0xbd7363c1	-0.059421305
30	0x3d2f7e7b	0.04284523
31	0xbd932809	-0.071853705
32	0xbc00ee0e	-0.007869257
33	0xbe021529	-0.12703384
34	0xbdbacda9	-0.09121258
35	0x3d8b77eb	0.06809982
36	0x3c8d79dc	0.017270021
37	0x3d42b68b	0.047537368
38	0xbc9067ed	-0.01762768
39	0x3abe8859	0.0014536484
40	0xbd919cba	-0.07109971
41	0xbdd7619d	-0.10516665
42	0x3d352379	0.044223282
43	0x3d0fd0db	0.03511129
44	0x3d0892c7	0.033343103
45	0x3d070135	0.032960135
46	0xbdcb0987	-0.099139266
47	0xbce8cfa8	-0.02841933
48	0x3d84f938	0.06492847
49	0xbcc518a5	-0.024059603
50	0x3c8f7461	0.017511548
51	0x3da8a376	0.08234303
52	0x3d1bfaf2	0.038081117
53	0x3c8c871b	0.017154267
54	0xbcf15eda	-0.029464174
55	0xbd1ee11e	-0.038788907
56	0x3dba8178	0.091067255
57	0x3c30eeb1	0.010799096
58	0xbdd5676e	-0.10420118
59	0x3c10c0e4	0.008835051
60	0xbcf210a1	-0.029548945
61	0x3cf69398	0.030099675
62	0x3cd68e22	0.026190821
63	0xbdc85a9a	-0.09782906

fc4.weight f4 [2, 64]
0	0xbe7bb613	-0.24581175
1	0xbdc7a60a	-0.09748466
2	0x3ec28f9d	0.38000193
3	0x3e9f77d7	0.31146118
4	0x3c661316	0.014042636
5	0xbeb327de	-0.34991354
6	0x3eaccdcf	0.3375077
7	0x3e86195e	0.2619123
8	0xbf07eea5	-0.5309852
9	0xbdf6d6cb	-0.12052687
10	0xbeca0171	-0.39454225
11	0xbe0b0532	-0.135762
12	0x3ebe3972	0.37153202
13	0xbe505d91	-0.20348193
14	0x3ecb5555	0.3971354
15	0x3e2dba04	0.1696549
16	0xbec9a004	-0.39379895
17	0x3cd2d4ee	0.025736298
18	0x3e627429	0.22114624
19	0xbe5353d7	-0.20637451
20	0x3e05b24a	0.13056293
21	0x3dcc3190	0.09970391
22	0x3d777e5d	0.060423244
23	0x3ead8df2	0.33897358
24	0xbcda0f62	-0.026618663
25	0xbcb1cad7	-0.021703167
26	0x3efc0ebd	0.49229994
27	0xbdc776c2	-0.09739448
28	0x3c886236	0.016648393
29	0x3ea054de	0.3131475
30	0xbcae4e29	-0.021277504
31	0x3cefaed0	0.029258162
32	0x3e9a15d6	0.30094784
33	0xbe9d0158	-0.30665088
34	0xbedeaf03	-0.43492898
35	0x3dc3561a	0.09537907
36	0x3f0425d9	0.5162025
37	0x3dfe0516	0.12403314
38	0xbdb7648e	-0.08954726
39	0x3df5a67b	0.11994644
40	0xbef03151	-0.46912625
41	0xbe587077	-0.21136652
42	0xbc3c3365	-0.011486863
43	0xbe22b5cc	-0.15889663
44	0x3e8740f9	0.26416758
45	0x3d421aee	0.047388963
46	0xbeb72a1c	-0.35774314
47	0xbd9136ab	-0.07090505
48	0xbd95ccc1	-0.07314444
49	0xbf5319e5	-0.82461387
50	0xbef25a82	-0.47334677
51	0x3e6a240e	0.22865316
52	0x3f5fe052	0.8745166
53	0xbeadb687	-0.3392832
54	0x3e0b65ff	0.13613127
55	0x3e8aff37	0.27147838
56	0x3ddce5d9	0.107860275
57	0xbea859b4	-0.32880938
58	0xbc355b37	-0.011069111
59	0xbd39455b	-0.04523216
60	0xbead829c	-0.3388871
61	0x3e453fd7	0.19262634
62	0xbf2a84ba	-0.66608775
63	0xbe613fbb	-0.21996967
64	0x3ed2ec60	0.41195965
65	0x3ea40c53	0.32040653
66	0xbea04450	-0.31302118
67	0x3dbf142c	0.09330019
68	0x3e8bbc0f	0.27291915
69	0xbe890e68	-0.26768804
70	0xbe91a87d	-0.2844886
71	0xbf1b754d	-0.6072586
72	0x3ea832f7	0.32851383
73	0x3e220075	0.15820487
74	0xbf0c9aeb	-0.54923886
75	0x3dcf9c7f	0.10137271
76	0xbe2afa79	-0.1669711
77	0xbae7fe2f	-0.0017699654
78	0xbef60a09	-0.4805453
79	0xbd8cdb36	-0.06877749
80	0xbef0fa69	-0.47066048
81	0x3edd10cf	0.43176886
82	0xbe1290b7	-0.14313017
83	0xbebd427f	-0.36964795
84	0x3efc55c3	0.4928418
85	0x3edee6e5	0.43535534
86	0xbf102cf4	-0.56318593
87	0xbd52006a	-0.051269926
88	0x3e8b90b7	0.27258846
89	0xbf1a7c56	-0.6034597
90	0x3e127b9f	0.1430497
91	0x3c4303f6	0.0119028
92	0x3f1a0210	0.601594
93	0xbd83ae3c	-0.06429717
94	0x3f42eb47	0.76140255
95	0xbc27c87a	-0.010240668
96	0xbea9dce5	-0.33176342
97	0x3c0d371d	0.008619097
98	0xbda5cb96	-0.080954716
99	0x3de97c0a	0.11400612
100	0x3f10ea93	0.5660793
101	0xbf384558	-0.7198081
102	0x3e94840d	0.29006997
103	0x3d08f636	0.03343793
104	0xbe0efa0a	-0.1396257
105	0xbea6b746	-0.32561702
106	0x3daa16ad	0.08305106
107	0x3e5d10a1	0.21588375
108	0x3edf1f5d	0.43578616
109	0xbf49e690	-0.78867435
110	0xbeba47be	-0.3638286
111	0x3dcb563a	0.09928556
112	0xbeda70ff	-0.42664334
113	0x3ec901d4	0.39259207
114	0xbd3355d1	-0.043783013
115	0xbdc76afc	-0.097372025
116	0xbe688be2	-0.22709611
117	0xbe447fb9	-0.19189347
118	0x3d9d761e	0.07688545
119	0xbd93088b	-0.07179364
120	0x3e2e0850	0.16995358
121	0xbef6eaf8	-0.48226142
122	0x3e436135	0.1908005
123	0x3e89f0d0	0.26941538
124	0xbe5798a4	-0.21054322
125	0xbd8a9078	-0.067658365
126	0xbd82afde	-0.063812
127	0xbe5f234d	-0.2179081

fc4.bias f4 [2]
0	0xbbd735ce	-0.0065676933
1	0xbe175ea4	-0.14782196
