checkpoints/Computer1-1-checkpoint-0.9704-actor.pth (torch, 193711 bytes, 8 tensors)

fc1.weight f4 [256, 24]
00000000: 7678 4abd b42b 4e3e e931 253e 9298 383d
00000010: 5c03 6d3e 624a b03d 57ca 39bd accf f03d
00000020: 4d92 3a3e 06f6 743e 6f30 5abd dcc0 1e3e
00000030: 335e 7b3e 9f21 64be 07f6 003e 5ce9 213e
00000040: fcde 7cbe 61f9 17be 4fe2 9c3c f850 853b
00000050: 7f7a a7bd 0620 4cbe f5b5 393e d3cd 523e
00000060: b0e9 9a3d 82b9 74be cba9 dc3a b176 95bd
00000070: d506 b7be 3e5f 37be b981 e4bc b1bf 88bd
00000080: a84e 103e 9be5 89be 95c0 993d 49d5 4b3c
00000090: e643 9fbe e8ee f1bd 20ae 7dbc a51b 323c
000000a0: b744 9c3c 5507 1dbd d319 99bc 6c68 fabd
000000b0: 56b8 5cbe 2b4f 5c3e 5b17 2cbd ed2b 46be
000000c0: 8876 81bc 6e4d e8be 8a3f 3f3b 806f 70be
000000d0: 5351 abbd e1de a33d d983 8f3d 2228 c43d
000000e0: bc86 953e 64d0 c6be eecb 163d 3e10 cebd
000000f0: 461c b0bd cf78 80be 47be cc3d 91e0 aa3d
00000100: 8cf1 b63e f0e6 a9be 095f 07bd 6f4a 603d
00000110: 2f58 843e 7100 24bf f73b 2b3d 08d8 ef3c
00000120: cd46 a83d 3a3e d5bd 1065 8f3d abac 22be
00000130: 32cb 3ebc 43e5 35be 0757 7e3c 7b05 5cbe
00000140: 6e64 c53d 3ebe 57be 5f26 f03d 7368 2a3e
00000150: fe17 893e 2c5f 4ebe 4276 1c3e 3fb9 de3d
00000160: 8586 a3bd 8eca 0fbe 54bd 2dbe e9aa 4e3c
00000170: cb52 0f3e e59d 06bf 50a3 e83d d628 65bd
00000180: 4fb9 1ebc 294f 7ebd 70b4 f33d 593e 68be
00000190: bab4 7f3d a546 a3be 8bbf 1c3e c8e9 49bd
000001a0: abc9 64bb 88ce 3b3e 8c3d 53bd aac5 00be
000001b0: 3e33 5ebe f654 6b3c eb79 3b3e ac39 44be
000001c0: 4286 b43d a4ab 1fbd 7303 c0bd aa60 3ebe
000001d0: f728 9ebe 82fa a03e 4772 953d b544 a3be
000001e0: baa2 223d 5cc3 d7be dad0 ad3d 7e1b 4cbe
000001f0: 31d6 4dbd b279 96be eec1 ce3d e469 b73c
00000200: 5619 02be 9b8f bfbe 7ace 8fbd cab0 19be
00000210: 34f2 a0bd 902a 55be 2c6a 6c3d c84b 1bbe
00000220: f094 3abe 68a8 dcbe 5f5b c0bd 07fb 1dbe
00000230: eec4 023c c8e9 afbe e3c8 e43d 7b5d adbe
00000240: 1b5d ea3d 9674 c43d 2d7b 67bc da95 293e
00000250: 2d0b b9bc b1bf 223d 5b0a 313e d8bd a13d
00000260: 8c57 e7bc 1e22 d33e e0ee a93d 876f 3dbc
00000270: 59c9 dbbb 26a6 41be c4e4 e1bc 37a1 3dbd
00000280: 6284 ca3d 2fcc 073e 8f8d d4bc 0b64 4cbe
00000290: 1e3d 053e 84e0 c3be eca8 a1bd 6ec7 3cbe
000002a0: a6b4 9f3d 098c 753e 1f46 e8bd 33c2 223d
000002b0: d6c0 9cbd 3922 e6bc f6a7 d83d d2c4 1bbd
000002c0: cc57 ca3d 095b 4b3e 9a3b 61bd 0b82 f7bd
000002d0: 29e3 863e daf5 223e f217 7cbc 128c 1b3d
000002e0: cc14 92be b391 203b ccc6 b9bc f7f2 55bd
000002f0: a5a7 bc3e ff14 543d 269a e3bd e714 f7bd
00000300: c744 113d 61e7 b23e 8db6 623c 789c 723d
00000310: 57e2 38be 4f9a a73d 4ff3 0c3e 4358 613d
00000320: fb85 fabc 9f4f fd3b cac8 293e e032 4abe
00000330: dd1e 1cbe 5465 9dbd e65f 50bd fa5f d9bd
00000340: 8df6 31be 8fef db3d 3390 623d 0173 2cbe
00000350: d86c 2ebd 4c2f efbd 16a1 c1bd bfd7 913d
00000360: 0236 913e 8bf3 6bbe 91d3 dbbd 6b61 7abd
00000370: 75cb dbbd 74e5 a0be 1367 5d3e 248e 25be
00000380: b95a 323e c7c0 95be 2b74 023e bcdf 7abe
00000390: 3e10 633d 516d bf3c 30ae 2b3e 8a38 693d
000003a0: 7ad7 853e b924 b4be b6ec cfbd 70ac 66ba
000003b0: ba15 fdbd 5a97 a7bd f369 1d3d 7972 6d3d
000003c0: 4f24 40be 3b9b 063e 51a5 28be 84dd 6dbe
000003d0: f5f0 29be aeb7 2dbe b258 a0bd c3ba 5dbe
000003e0: a773 0abe 57d0 853e 626a a9bd ed27 b93a
000003f0: 2717 17be 9995 febb 9bdd 0fbe f443 40be
-0.049431287 0.20133859 0.1613232 0.045067377 0.23145813 0.086079374 -0.045358982 0.1175836
0.18219872 0.23921975 -0.053268846 0.15503258 0.24547653 -0.2227845 0.12593852 0.15811676
-0.24694437 -0.14841224 0.019150881 0.00406849 -0.08177661 -0.19934091 0.18135817 0.20586328
0.075641036 -0.2389889 0.001683527 -0.07298029 -0.357474 -0.17907426 -0.027893888 -0.06677187
0.14092505 -0.26932988 0.07507435 0.012440988 -0.3110649 -0.11813146 -0.015483409 0.010870849
0.019075735 -0.03833707 -0.018689072 -0.12226948 -0.21554694 0.21514575 -0.04201446 -0.19352694
-0.01580359 -0.45371574 0.002918216 -0.23480034 -0.08365121 0.08001495 0.0700757 0.09577967
0.29204357 -0.38830864 0.036815576 -0.10061692 -0.08599143 -0.2509217 0.0999723 0.08343614
0.3573116 -0.33184004 -0.033049617 0.054758485 0.2584853 -0.64063174 0.041805234 0.029277816
0.08216629 -0.104122594 0.07001698 -0.1588618 -0.011645125 -0.17763238 0.015523679 -0.21486466
0.09638296 -0.21068665 0.11726069 0.16641407 0.26776117 -0.20153493 0.15279487 0.10875177
-0.07984642 -0.14042112 -0.16966754 0.01261399 0.13996427 -0.5258468 0.113592744 -0.055947147
-0.009687736 -0.06208721 0.1189965 -0.22680034 0.062428214 -0.31889835 0.15307443 -0.049295217
-0.0034910243 0.18340504 -0.051572368 -0.12575403 -0.21699235 0.014363518 0.18308227 -0.19162625
0.0881467 -0.03898205 -0.09375658 -0.18591562 -0.3089063 0.31441122 0.07297187 -0.31888357
0.03970597 -0.42141235 0.08487101 -0.19932362 -0.050253097 -0.2938972 0.10095583 0.02238936
-0.12704977 -0.3741425 -0.07021804 -0.15008846 -0.078586966 -0.20817018 0.05771844 -0.15165627
-0.18220878 -0.43097234 -0.09392428 -0.1542779 0.007981522 -0.34358048 0.111711286 -0.33860382
0.1144354 0.095925495 -0.0141284885 0.1656107 -0.022588337 0.039733592 0.17289107 0.07897538
-0.028239988 0.41236967 0.08297515 -0.011562235 -0.006707352 -0.18911037 -0.027574904 -0.046296325
0.09888531 0.13261484 -0.025946407 -0.19960038 0.13011596 -0.3825723 -0.078935474 -0.18435451
0.07798128 0.239792 -0.113414995 0.039735984 -0.07653968 -0.02809249 0.10578911 -0.0380295
0.09880027 0.19858946 -0.05498848 -0.120853506 0.26345184 0.15914097 -0.015386568 0.03797538
-0.28531492 0.0024500906 -0.022677802 -0.052233662 0.36846653 0.051777836 -0.11113386 -0.12064534
0.03546598 0.34942153 0.013837469 0.05923125 -0.18055092 0.08183729 0.1376469 0.055015814
-0.030581465 0.007730439 0.16580501 -0.1974597 -0.15246148 -0.076853424 -0.050872706 -0.10614009
-0.17379208 0.107390516 0.0553133 -0.16840746 -0.04258427 -0.11678943 -0.09454553 0.071212284
0.28361517 -0.23042123 -0.107337125 -0.06112806 -0.10732166 -0.3142506 0.21621351 -0.16167504
0.1741742 -0.2924864 0.12739627 -0.2449941 0.05543541 0.023367556 0.16765666 0.056938685
0.26140958 -0.35184267 -0.10152571 -0.0008799499 -0.1235766 -0.08183165 0.03843112 0.057970498
-0.1876385 0.13145153 -0.16469313 -0.23229033 -0.16595824 -0.169646 -0.07829417 -0.21653275
-0.1352068 0.26135513 -0.08272244 0.0014126279 -0.14754926 -0.0077692983 -0.1404938 -0.18775922

fc1.bias f4 [256]
00000000: 8a2b c23c 4ad0 c13d 139b d33a 8d24 18be
00000010: a4ac c6bd 1915 df3b 80c2 d63d 8cd7 6f3e
00000020: 8659 86bd 45d7 083e dc8e 7f3d f3e9 91bb
00000030: 620a 07be b93a eabd 4d68 bcbd 3e1f 6cbd
00000040: ed50 3abe 8b68 b03d 98c3 163e 607f 263e
00000050: 72c4 2abd 0ebb 00be ca18 25be 14bb 1b3e
00000060: a919 253e dc26 5bbe cd4a dabc b6a4 b83a
00000070: 04a4 70be dc93 2ebe ea21 cc3d bc20 0cbe
00000080: cd42 013d 2e58 4cbe 9683 113e a999 f33c
00000090: 4cca 11be 57f8 a13c c93c 8b3d 223c 12bd
000000a0: 394a 923d d498 163e 760d 84be 5013 d03c
000000b0: 9f16 66bd f822 a63d c087 fcbd 1700 3d3e
000000c0: a599 0bbe e79c 9fbd 88f8 44be e65f 073e
000000d0: d656 3ebe b778 bdbd c4c3 01be 0d19 75bd
000000e0: 40d4 97bd aadd 2cbe 11ca 3cbe 8240 1a3d
000000f0: d5ee 87be a500 353e 6da9 163d 49e7 df3d
00000100: 291f 15be 7263 e33d a4b8 83bd cf72 953c
00000110: 6846 353e 4925 1d3d 6db6 30be 3444 353d
00000120: e406 e7bc e878 68be ac7e 0bbe 974a 1a3e
00000130: c9fa 76bd b505 32be c66c 29be e99c 153e
00000140: 7296 25be 05c9 183e 97fc cc3d 5e7a f33d
00000150: 4ffa 3c3d 51d0 a83c f8ce dcbd ac1b 53be
00000160: 5935 87be 84ef b0bd 48ae 5abe f082 2fbe
00000170: f65c 923d 388b 52be 41ae c2bd 4c19 1d3e
00000180: 7241 d03d 36f2 153e 1a7f 9e3d 0df4 fcbd
00000190: db80 723d 888e b53d 5619 d03d aa3a 8ebd
000001a0: 1c7c 3ebd f94f cebd 6774 c4bd 920a 8dbc
000001b0: f379 693e 8d5d 23be 7f29 83be 6397 f43b
000001c0: e8d6 2fbb 01d8 263d 5216 4fbe 064b 853e
000001d0: c7e8 4abe 7e56 e8bd 9031 6f3c 728e a33c
000001e0: a4f0 07be f371 473d 4bf4 04bd facf 2bbe
000001f0: f068 1c3e 3857 d63d 473a 3cbe 8562 883e
00000200: a8ed 093e a9fb 46be 97a3 29be f976 793e
00000210: caf4 16be 197f 60be 8d05 2a3e 1630 663e
00000220: 8a8e 023e 8197 c63d 6afb f2bd 608e dcbd
00000230: 6f1c 853e 3a69 01be 27dd 1cbd 6037 2a3e
00000240: a94d 36be 4289 8fbd 9b5c b3bd 7d43 18be
00000250: 60e7 83be 1319 8cbe cd5c 2fbe d32f cb3d
00000260: 068e 89bd 6c00 5c3d 5674 82be 1aef 8e3d
00000270: 30e1 3cbd 720a 99bc 4e0e 65be d2c8 163d
00000280: 55e7 1b3d ebc0 813c 2b63 3fbe 2290 dd3d
00000290: cba4 42bc 2164 83be 6899 d53d 2044 40bd
000002a0: 8089 b8bd 127a cfbd 367b 4abe 4499 ae3c
000002b0: 77db 873e ef73 43be f2c5 60be 4ce1 3cbe
000002c0: 8019 4fbe dd9c e53a 4a2d 5b3d 78b7 dd3d
000002d0: accc 9fbb 9493 523d 4ded 253d 8d9c 82bc
000002e0: 3365 923d e833 1c3d 7824 c8bd 9169 99be
000002f0: 9a83 5d3e 9a77 143e a04e f8bd b94d 97bd
00000300: 8c94 e7bd bc55 42be 9273 ddbd c734 d5bd
00000310: e508 283e 67fc 53bd f2d0 01be 5795 0cbe
00000320: 16a8 66bd 54c9 9fbc d884 3c3d 304d 8abe
00000330: 7d70 d03b d0b6 85bd 9249 6f3d 5e69 8a3c
00000340: 4734 42bc 71e7 49be b83d d33d 1e7c a7bd
00000350: bba2 883c 0b7e 6cbe 61f0 05be a46b 1e3e
00000360: 55c4 333e 1027 8bbc 7196 5a3e f6eb 24be
00000370: d187 3b3e a434 38bd 0230 77be bfdd 5ebe
00000380: f13d 4dbc bb35 80bd eee9 1abc a9da 2d3e
00000390: 53f8 1fbd b474 af3d 6b64 b93d 466e 3a3e
000003a0: 16ce f8bd dd2c 293e df3a 233d 2fbd 07be
000003b0: cc8f ff3c 2d93 3b3d c2fc c03d 5509 1dbe
000003c0: 9ce0 24be 563f 60be 397b eabd e932 2bbe
000003d0: e3a5 74be 587e 16be cd00 f3bd a421 213e
000003e0: e6c5 023d 9ad4 5cbe 8b4c 66bd eb0d 2f3e
000003f0: e9fb 903d 2f95 8fbd 4b67 9d3d 1e2a 4b3e
0.023702402 0.09463556 0.0016144238 -0.14857693 -0.09700897 0.006807935 0.10486317 0.23422068
-0.06560044 0.13363369 0.0623921 -0.0044529377 -0.13187554 -0.11436982 -0.09199581 -0.057646982
-0.18194933 0.0861369 0.1472305 0.16259527 -0.04169125 -0.12571356 -0.16122738 0.15208083
0.1612307 -0.21401542 -0.026646996 0.0014087174 -0.23500067 -0.17048591 0.09967406 -0.13684362
0.031557847 -0.19955513 0.14210352 0.029736357 -0.14237326 0.019771738 0.06798703 -0.03570188
0.07143063 0.14706737 -0.2579152 0.025399834 -0.056173917 0.081121385 -0.1233058 0.18457066
-0.1363283 -0.077935986 -0.19235432 0.13220176 -0.18587813 -0.0925154 -0.12672335 -0.059838343
-0.0741353 -0.16881433 -0.18436457 0.037659176 -0.26549402 0.17676027 0.03678267 0.10932786
-0.14562668 0.11102952 -0.06431702 0.018243222 0.17702639 0.038365636 -0.1725709 0.044254497
-0.028201528 -0.22702372 -0.1362254 0.15067516 -0.06029776 -0.1738499 -0.165454 0.14610638
-0.16170672 0.14920433 0.10009115 0.11888574 0.04613715 0.020607146 -0.10781664 -0.20616025
-0.2640789 -0.08639434 -0.21355546 -0.17139792 0.07146637 -0.2056092 -0.095058925 0.15341681
0.10168733 0.14643177 0.077390864 -0.123512365 0.059204917 0.08865076 0.101610824 -0.06944783
-0.04650508 -0.10073847 -0.095925145 -0.017216954 0.22800426 -0.15953656 -0.25617597 0.0074643358
-0.0026830975 0.04073334 -0.20223358 0.260338 -0.1981536 -0.11344622 0.014599219 0.019965384
-0.13275391 0.048692655 -0.03245954 -0.16778556 0.15274405 0.104658544 -0.18381606 0.26637664
0.13469565 -0.19431938 -0.16566311 0.2436179 -0.14741817 -0.21923484 0.1660368 0.22479281
0.12749687 0.09696866 -0.1186436 -0.107693434 0.25998256 -0.12637797 -0.038296845 0.16622686
-0.17803062 -0.07008602 -0.087578975 -0.14869495 -0.25762463 -0.2736288 -0.17125244 0.09921231
-0.06716542 0.05371134 -0.25479382 0.06979199 -0.046113193 -0.018681739 -0.22368738 0.03681261
0.038062412 0.01583906 -0.18690173 0.10818507 -0.01188011 -0.2566233 0.104296505 -0.04693997
-0.09010601 -0.10130705 -0.19773564 0.021313317 0.26534626 -0.19087194 -0.2195051 -0.18445319
-0.20224571 0.0017518062 0.053509988 0.108260095 -0.0048766937 0.051410273 0.04050951 -0.01594379
0.071482085 0.03813544 -0.09772581 -0.29963353 0.21632233 0.1449875 -0.121243715 -0.07387871
-0.1130763 -0.18978018 -0.10813059 -0.10410457 0.16409643 -0.05175438 -0.12677363 -0.13728844
-0.056312643 -0.01950518 0.046025127 -0.27012014 0.006361066 -0.06529009 0.05841977 0.016895946
-0.011853284 -0.19717194 0.10314506 -0.0817797 0.016679158 -0.23094957 -0.13079979 0.15470749
0.17555363 -0.0169864 0.21346451 -0.16105637 0.18313529 -0.044972077 -0.24139407 -0.21764277
-0.012526975 -0.06260248 -0.009455187 0.16977943 -0.03905518 0.08567181 0.09052356 0.18206128
-0.12148683 0.1652102 0.039851066 -0.13255762 0.031196497 0.045794655 0.0942321 -0.15335591
-0.16101307 -0.2189916 -0.11449284 -0.1671864 -0.23891406 -0.14696634 -0.11865387 0.15735489
0.031927012 -0.21565476 -0.05622534 0.17095153 0.07079298 -0.070108764 0.07685717 0.19840285

fc2.weight f4 [128, 256]
00000000: faba e4bc 3d2e a7bd 7bd0 733e 40ac 64bd
00000010: d9e6 53bc a95a 91bc 4c13 173d f921 fc3d
00000020: 87b4 98bd e8b2 e4bd 76dc babd 703e ab3d
00000030: 1b5b 853d d403 39bd dcf7 213d dbca 503d
00000040: 0630 c83c 2ecf 0fbd 31be 9e3c eaca 61bc
00000050: 9cf2 3abd 3b43 2bbd 3ff6 0a3c 3e43 d53c
00000060: 031a 203d c239 9ebc 4ae3 fabc eebd 49bd
00000070: efe5 8a3d 7b32 643a b174 fa3c e3a9 d33c
00000080: e770 40bd 6d7a c53b cf92 ca3d fcc9 1b3d
00000090: 4595 bbbc b1df 1d3d 4854 a73d d901 77bd
000000a0: 0af1 34bd 6d3e 5d3d 0fd4 fcbc 84b1 463c
000000b0: 0811 eb3d 79d5 f1bc a7a1 713d f868 3c3d
000000c0: e57c 7c3d 4a9c 4abd 993a 05be 3a9a 21bd
000000d0: b12b 85bb 7938 c6bd 57f0 a93d d727 1d3e
000000e0: e956 5ebc 9d58 423d 1bec 86bd d41e 86bd
000000f0: 7eed 1dbc 5684 96bb 4c53 053d 4c3d a4bc
00000100: f538 38bd fb53 84bd 5add 473d a10b 743d
00000110: 92b0 9f3c 4e9d 8e3d 5dc3 2bbd a52f 123d
00000120: 49e4 77bd 47fb 68bc a007 1f3c bfe3 c43d
00000130: ca3a 7ebd d55b 5c3d 3a75 4abd e462 bcbc
00000140: 6830 35be 7fa4 47bd 6515 b53d 9d0b 9bbd
00000150: 9abd 7bbd 63eb af3d 98df 633d 7f98 e63c
00000160: 853d 6d3d f56a 0c3c 489b 96bd b61b a9bc
00000170: 8a68 173d bf0a 003e 8ce5 4abc 9eea a23d
00000180: 520b 6bbd 5660 843d a3a8 0abc 2595 91bb
00000190: f1af 3bbd 6ae1 41bb d38d 58bc 94e9 98bd
000001a0: d7da 2ebd a6b9 38bd 088b 323e f359 bcbc
000001b0: 74d5 273c 7e41 37bd 9941 193c a616 113e
000001c0: b19d a13b 3371 89be 587c 533b 44ee 26bd
000001d0: 34a4 153d ba93 6ebc 2d96 68bc da15 8cbd
000001e0: e0b0 7bbc 35a3 25be 7d52 85bd ed30 6a3d
000001f0: 6b60 ab3d b896 723d 8901 033d 1219 9e3d
00000200: cde1 633d 5425 f8ba 8d9d 893c c4cc ed3d
00000210: 9bd3 9a3d fcc0 40bc fb53 e1bd 272c e73d
00000220: 1e7c e03b 2e82 87bd ea8e 043d 29ef 6dbd
00000230: 3ce5 14be ea6c 4fbc 4875 9fbe 1c56 4b3d
00000240: 5263 10be dc99 5cbd 2cd9 93bd 4028 373d
00000250: e4ed 943d 2c13 a93c 5d56 3c3b 116b 6abe
00000260: 5160 893d 9b24 7d3d 24b1 05bd e39e 6e3d
00000270: 7035 24bd 6bd0 6d3d 673e 4a3c c33c c23b
00000280: 29b9 c63b 8505 f8ba 89e5 6bbd d342 843c
00000290: 4763 17bc 573e 803b be6e db3c aae3 c63c
000002a0: 2dad 6fbd 2267 7e3b b4fc a33d a16c 39bd
000002b0: 5839 ed3a 39b8 f8bc 4e02 f4bb fc80 42bd
000002c0: 994a 1abd 9679 f53d 4200 8d3b 5431 703d
000002d0: 5bf4 f73c dcd6 6d3d b2c4 c23c 8a3e c4bc
000002e0: 2271 07be 7cd8 943c 44ab adbc 4022 bc3b
000002f0: 9256 20be 9c0e 903d 9da4 efbb b636 89bd
00000300: 1fb7 36bd 9913 8e3c 4cd6 443d be72 60bd
00000310: 2ded 1cbe 5811 c03c ccd0 7b3d 4748 a3bd
00000320: 48de dfbc 7991 c43d d55b b53d cecd 973c
00000330: 32df f0bd 4e4e 9d3d ad2f 29be d379 973d
00000340: a36d 0dbd a5b7 77bd 9b49 71bd e733 95bc
00000350: 8cc7 43be ddc6 e73b 1c34 823d ab28 293b
00000360: 30b7 2dbd 7a79 f8bd bae0 193d a6ec 5dbd
00000370: 9aea a13d 2de5 abbd 9dfd 263d edba b23d
00000380: fd26 79bd 692c b4bd 112d 38bc 674b 3cbe
00000390: fd0c 1b3d 119d 25bd ca36 953d 617e adbc
000003a0: 4a62 81bc 8fed 92bd b670 f43d 6e4b a0bd
000003b0: 18e7 f33b 5ccb 6bbd a2ea 7d3d b5e9 933d
000003c0: e7b4 58bd 092a b5bd e871 62bd 2c27 44bb
000003d0: 2fba 283c 7364 26bd 4d72 103e 14fb a8bb
000003e0: 2bc2 543d b239 2abd 90b7 56bc fa04 a1bc
000003f0: f23e 533d 562d 5bbd c244 ab3c b2a8 fbbd
-0.027921189 -0.08163116 0.23809998 -0.055828333 -0.012933456 -0.017743425 0.036883637 0.12311167
-0.07456308 -0.11166936 -0.09124081 0.083615184 0.065115176 -0.045169666 0.039543018 0.050974708
0.024436962 -0.03510969 0.0193778 -0.013781289 -0.045641527 -0.041812163 0.008481561 0.02603304
0.039087307 -0.01931465 -0.030625958 -0.049253397 0.067821376 0.0008705032 0.03057322 0.025837844
-0.046982672 0.006026557 0.09891283 0.038034424 -0.022898326 0.038543407 0.08170372 -0.060304496
-0.044175185 0.054014612 -0.030862836 0.012127284 0.11477858 -0.029520737 0.058992054 0.045998544
0.061642546 -0.049465455 -0.13010634 -0.039453723 -0.0040640463 -0.0967874 0.08297794 0.15347229
-0.013570526 0.04744779 -0.06588002 -0.06548849 -0.009639142 -0.0045934124 0.03255014 -0.02004876
-0.044976193 -0.064613305 0.04879508 0.059581403 0.019493375 0.06963597 -0.04193436 0.03568997
-0.060520444 -0.014220065 0.009706408 0.096137516 -0.062067784 0.053798515 -0.049428202 -0.022996373
-0.17694247 -0.04874086 0.08841971 -0.075705744 -0.061460115 0.08589818 0.055633157 0.028148888
0.057919998 0.008570422 -0.07353836 -0.020643096 0.03696493 0.125041 -0.01238383 0.07954906
-0.057383843 0.06463687 -0.008463058 -0.0044428282 -0.045822088 -0.002958382 -0.013217407 -0.074664265
-0.04268917 -0.045098923 0.17435849 -0.02299211 0.010243762 -0.044740193 0.009354019 0.14168796
0.0049321284 -0.26844177 0.003227016 -0.04075457 0.03653355 -0.014561588 -0.014195961 -0.06840105
-0.0153619945 -0.1617554 -0.06509874 0.057175566 0.08368 0.059225768 0.031983886 0.077196255
0.055635262 -0.0018932023 0.016798759 0.116113216 0.07559892 -0.011764761 -0.11002346 0.11287718
0.0068507334 -0.06616627 0.032362856 -0.05808941 -0.14540571 -0.0126602445 -0.31144166 0.049642667
-0.14100388 -0.05385767 -0.072191566 0.04471612 0.072719365 0.020639025 0.0028738 -0.22892405
0.06707824 0.061802488 -0.032639638 0.058256995 -0.040090024 0.05806009 0.012343979 0.0059276535
0.0060645533 -0.0018922543 -0.05759195 0.016145146 -0.009239978 0.0039136815 0.026786204 0.02427848
-0.058514763 0.0038818796 0.08007184 -0.045269612 0.0018098755 -0.030361282 -0.007446564 -0.04748629
-0.037668798 0.11986081 0.0043030092 0.058640793 0.030267885 0.058066234 0.023775432 -0.023955602
-0.1322675 0.018169634 -0.02119983 0.0057413876 -0.15658024 0.070340365 -0.0073133246 -0.066998884
-0.04460823 0.01734333 0.048055932 -0.054796927 -0.1532485 0.02344577 0.06147842 -0.0797277
-0.027327672 0.09598059 0.08855406 0.018530753 -0.11761321 0.07680951 -0.16522093 0.07396283
-0.034528386 -0.06047787 -0.058908086 -0.018213226 -0.1911909 0.007073267 0.06357595 0.0025811594
-0.04241103 -0.12132545 0.03756783 -0.054180764 0.07906075 -0.08393321 0.04076921 0.087270595
-0.060828198 -0.08797533 -0.011241213 -0.18388139 0.037854183 -0.040432993 0.07285841 -0.021178426
-0.015793938 -0.07174217 0.119355604 -0.07826887 0.00744332 -0.057566985 0.06199134 0.072223105
-0.052906897 -0.08845908 -0.05528441 -0.0029930575 0.010298296 -0.04062314 0.14106102 -0.005156884
0.051942986 -0.04155893 -0.013105288 -0.019655693 0.0515737 -0.053510033 0.02090681 -0.122880355

fc2.bias f4 [128]
00000000: b0ed 78bc 7b6b 98bd 61f8 4abd aab2 d23c
00000010: 76f9 1fbd c758 6bbd a944 0f3b bbd1 20bd
00000020: 3284 fabc 7bf4 0e3c 939c ff3c e4d7 18bd
00000030: 991e 71bc bf6c f5bc 883e dcbc d0c5 b1bc
00000040: 845e 583d b9e8 2bbd ca64 16bd b75d c6bb
00000050: 8c8b 3b3d 0d0b 92bb c400 d7ba 8b73 19bd
00000060: ebb1 15bc da56 11bc 6dce f0bc df90 9e3c
00000070: e563 d5bb 17d7 76bd 26c5 7d3d f70e 80bc
00000080: e375 8ebd 5ab5 ad3b 5ca4 573d ff7c 1cbb
00000090: bd3c c43c 456e 9e3d 2cd3 fc3b 0202 aabd
000000a0: 758b ce3c 343c c43c f590 9bbc e18e 57bd
000000b0: 2988 bc3d d628 8abd a969 77bd f0d8 a43c
000000c0: 5052 da3c 9303 283d acdf c93c 87fc dbbc
000000d0: f42f 473d 774f 993d 3ca0 84bc 2a53 873c
000000e0: c680 7b3c 9873 4b3d 6888 333d e37c 3dbd
000000f0: f65e 5a3d 1de1 cfbd dacc 2bbd 490a e0bc
00000100: 9e2a 8839 dfa7 70bd 8ec6 a4bd affa 78bd
00000110: 2059 863d 1e94 83bd 8e83 89bb 607a c63d
00000120: 9794 c7bd 376f 43bc 9a25 05bd 7bb7 303b
00000130: 8336 103d 3057 dfbc 84f2 0dbd a48a c03d
00000140: 254d 733d f180 b23c 8927 dabd 1065 9b3d
00000150: 728b ca3c e7c7 db3c 349b 7a3c 0091 1e3d
00000160: 1322 913b 15a2 81bd e551 af3c 5a74 dc3d
00000170: 3c4b 22bc 1785 cebd 6359 63bd 86b9 6cbc
00000180: c770 553d 9583 c23c 594c 6abd 6428 85bd
00000190: a580 0ebd ac62 5abb 57f7 98bd f7f3 86bd
000001a0: 1a68 c93c 392f 4e3a 72a4 853c 4901 43bd
000001b0: 2b0c 9e39 b738 7abc f497 5dbd a78e cfbc
000001c0: 53ca 943d 49d9 c1bb 8b17 f5bd c420 74bd
000001d0: 1eb9 66bd b3cc 4f3d 3f2e 133d d2a3 44bc
000001e0: 95be 363d f7f6 debc 5706 9ebd d477 8f3d
000001f0: 8565 f1bc e08d 85bd be21 bebc f1ba 363b
-0.015193388 -0.07442375 -0.04955328 0.02571996 -0.039056264 -0.05745771 0.0021860993 -0.039262515
-0.030580614 0.008725281 0.03120259 -0.037315264 -0.014716768 -0.02995908 -0.026885286 -0.02170077
0.052824512 -0.04196999 -0.036717214 -0.006053652 0.04578738 -0.0044568838 -0.0016403426 -0.037463706
-0.009136657 -0.008870805 -0.029395306 0.01935619 -0.0065121525 -0.06026372 0.061955594 -0.015632136
-0.06956079 0.00530116 0.05264698 -0.0023878214 0.023954744 0.07735876 0.0077156033 -0.08301164
0.025212983 0.023954488 -0.01899002 -0.052626494 0.09205658 -0.0674607 -0.0604035 0.020122975
0.026650578 0.041019034 0.024642788 -0.026853813 0.048629716 0.0748586 -0.016189687 0.016519148
0.015350526 0.049670786 0.04383126 -0.04626168 0.053313218 -0.10150359 -0.04194341 -0.027348654
0.00025971694 -0.058753844 -0.08045684 -0.060785946 0.06559968 -0.064247355 -0.0041965907 0.0969131
-0.09745138 -0.011928371 -0.032506563 0.0026964832 0.035208236 -0.027263254 -0.03465511 0.094014436
0.059399743 0.02179 -0.10652072 0.075876355 0.024724696 0.02682872 0.015295792 0.0387125
0.004429111 -0.06329743 0.021401355 0.1076438 -0.009905633 -0.100839786 -0.055505168 -0.014448529
0.052109506 0.023744384 -0.057201717 -0.065018445 -0.034790654 -0.0033322973 -0.07469051 -0.06589501
0.024585772 0.0007865313 0.016313765 -0.047608647 0.00030145174 -0.015272311 -0.054099992 -0.025336577
0.07265153 -0.005915795 -0.11967381 -0.05960156 -0.056328885 0.050732326 0.035932776 -0.012001948
0.044615347 -0.027217371 -0.07716053 0.07005277 -0.029467354 -0.06521201 -0.023209449 0.0027882422

fc3.weight f4 [64, 128]
00000000: f4e5 b63d 48dd 1e3e f078 963c a242 5e3e
00000010: 77a2 11be adc0 2fbc 687c 9ebe 9c23 153d
00000020: 663c 4cbb 1876 62be 3da5 c53b ff44 963d
00000030: 814a d43d def8 77bd 68c5 0d3e 614d bbbd
00000040: 94a4 8cbd ae7f 303d 3676 053e f2a6 e13d
00000050: ce5f 203d 2ff6 28be e7dc 123e 53ba 06be
00000060: 6860 f2bd aee0 45bd 4f76 da3d 6b1d 1fbe
00000070: 3f98 5fbd 2605 8e3c 50f1 c63c b48a c0bb
00000080: 42b3 333e 388a eabe b4f6 503d 859b c03c
00000090: 181e 0c3e 339c e3bd f5fe 093e 70a2 a93d
000000a0: e796 003c 010f 86be dc18 083d c8f2 793d
000000b0: 1a14 9dbd 7324 303d 2dc7 a8bc ce11 4b3d
000000c0: 8c40 913d a9a9 83bd 6742 07bd ef35 833c
000000d0: 6f74 d13c aeeb d63d 8f21 fdbd a4a5 903a
000000e0: a0ce b9bc e9ad f73b 9f9f a8be 5718 3abe
000000f0: a4f2 a0bd 5c87 c73d 6f4d 82bb 23d6 01be
00000100: c2b5 6bbe ab18 24bd e3ff 053e 3964 fe3d
00000110: 2760 a2bd a050 4b3e 9e71 053d d251 04be
00000120: 9beb 5f3e 351e e4bc b600 bebd 8ff9 d2bc
00000130: f65b 31bd 321b d7bc f935 aa3d 41b7 b3be
00000140: 9003 6fbd 867d a63d 6ef1 d53d 3ac3 7cbd
00000150: 39b9 2abd 9475 fd3d a2ad b83d f685 01be
00000160: 97e5 5ebe f7e3 8e3c fcae 9abd 1ccc 48bd
00000170: b9d9 e23d c5ba 123e 385a 613d 2558 723d
00000180: 03b9 603a ba7f babd 5b9c 093e f781 b13d
00000190: c166 05be 2c9b 133c e89a 173e 64cc 653e
000001a0: 976c d7bc 3fc5 6f3c 73af 223e c60b 6dbd
000001b0: de5c e13c 0d6c 26be 0b07 d53d adc9 06be
000001c0: d9cb b13b 2c51 2b3d 68fb 4cbc 1c9c 86bd
000001d0: 0913 7a3d f822 cf3c b7b4 ac3d 6892 8d3b
000001e0: f8e2 19bd b4f0 fc3d 2025 96bd 56ad 34bd
000001f0: 8614 083e 325f b03d c929 b23c 21ab d3bb
00000200: 55ee d73d e8e1 813d ba75 3e3d 7fe8 bc3d
00000210: fe6f 253d ced5 acbc 05f0 11be ee1a 593c
00000220: b299 ca3d b0af 93bd d761 a53d 2b26 853d
00000230: a48f ddbb 12fc 80bd 23a6 0b3e a65b b43d
00000240: d368 b6bd 1dbd 3d3d 2af7 063d 338e dc3b
00000250: ae76 a7bd 088b 97be aaf2 033e 2a6c 053c
00000260: fc78 96bb 39cd 8fbd 87fb b13d 0fd9 10bd
00000270: 4db9 d93d 208a 5dbc ffcc 12bd c690 0bbd
00000280: 9a71 253d e801 bcbe ca5d e23d e071 03bd
00000290: 7bbb b63d d92c cebd dadb 213e 4c8d 893d
000002a0: d228 72bd 21cb 13bf 8dda a9bd bcfe 213d
000002b0: 0caf 9b3d e154 1a3e 71e4 043e 80f8 e13d
000002c0: 4231 2d3d ce2f 093e 3b9b 063c 1ac1 82be
000002d0: 1ad2 b53b 764c 36be 62a1 a7bd 165e 9b3c
000002e0: b732 373c 9493 28bd 3111 80be b340 22be
000002f0: 4d27 c4bc a75d 9f3a 45fa 2c3b 344a d1bc
00000300: 3a95 11bd 600b 91bd f14b fb3d 25a7 0e3d
00000310: 63ce dbbd 80ec 813d 0976 28bd 2ee6 10be
00000320: 1cf9 d0bc e22a 96bd 3f5d 09bd 308b a83c
00000330: bc34 01be 64f6 99bd f647 083e a80d 1dbd
00000340: c78e 22bd 0c7d 033e be06 2a3e 82a7 01bd
00000350: 3f52 f0bc 3706 4f3d 9bce cf3d 9649 d0be
00000360: 7538 afbd cdcd f53d f68a dfbd 4b5c fa3d
00000370: fac7 4b3e 8318 2b3e f6dd 173b 2c5c a83d
00000380: e335 bd3c 5a51 cabd 70c3 38bd 13ae 993d
00000390: 2bd8 72be 6133 f23d 8f2f adbd 6121 503e
000003a0: cc9f edbc 090d 4abb 072d f03d 42cd 2dbe
000003b0: 7483 0f3e 4b97 06be 732b 543d 8c3b 6b3d
000003c0: f1d2 91bd be15 dc3c 0cc3 b7bd e217 06bd
000003d0: 6fe1 3f3d a1ae 863d 1c7a 433b 30d6 3c3d
000003e0: 5b2c 39be 4631 973d 818c 963e 0c21 8bbd
000003f0: b06a e73c 4775 c3bc 3f3b 85bd e893 f63c
0.08930579 0.155141 0.018368214 0.21705106 -0.14222132 -0.01072709 -0.3095429 0.036410913
-0.003116393 -0.22115362 0.006031661 0.07337379 0.10365773 -0.060540073 0.13844836 -0.09145618
-0.06867328 0.043090515 0.13033375 0.110181704 0.039153866 -0.16500162 0.1434208 -0.13157015
-0.11834794 -0.048309974 0.10667097 -0.15538566 -0.054588553 0.01733644 0.024284989 -0.0058759097
0.1754885 -0.45808578 0.051016524 0.023511657 0.13683355 -0.11113777 0.13476165 0.082829356
0.007848478 -0.26183322 0.033226833 0.06102255 -0.0766985 0.04300351 -0.020602787 0.049577527
0.070923895 -0.064288445 -0.03302231 0.016016928 0.025568215 0.10494171 -0.123599164 0.0011035693
-0.022681534 0.0075585735 -0.3293428 -0.18173347 -0.0785878 0.097426146 -0.003976516 -0.12679343
-0.23018554 -0.040062588 0.13085894 0.1242146 -0.07928496 0.19854975 0.032579057 -0.12921837
0.2186722 -0.027846435 -0.09277479 -0.025753764 -0.04330059 -0.026258085 0.08311076 -0.3510075
-0.058353007 0.081294104 0.1044644 -0.06170962 -0.04168055 0.12375942 0.09017493 -0.12648758
-0.21767269 0.017442686 -0.07552907 -0.04902278 0.110766836 0.1432906 0.05501768 0.059166092
0.0008572491 -0.09106393 0.13438551 0.08667367 -0.13027479 0.009009164 0.14805186 0.2244125
-0.026296897 0.0146344295 0.15887241 -0.057872556 0.027510103 -0.16252156 0.10401734 -0.1316287
0.005425912 0.04182546 -0.012511112 -0.06572744 0.06105331 0.02528523 0.08432906 0.0043204315
-0.03756997 0.12350598 -0.073313 -0.04411062 0.13289079 0.08611907 0.02174844 -0.006459609
0.10543505 0.06341916 0.04649899 0.092240326 0.040390007 -0.021098044 -0.14251716 0.013251049
0.09892596 -0.07211244 0.08075302 0.065014206 -0.006761508 -0.062980786 0.13637595 0.08806543
-0.089067124 0.04632293 0.032950558 0.0067308187 -0.08176933 -0.2959826 0.12885538 0.008143464
-0.004592059 -0.07021565 0.08690553 -0.035363253 0.106310464 -0.013521701 -0.03584003 -0.034073614
0.040391542 -0.36720204 0.11053045 -0.03209102 0.08922478 -0.10067148 0.15806523 0.06716403
-0.05912096 -0.57731825 -0.082936384 0.039549574 0.07601747 0.15071441 0.12977768 0.11033726
0.042283304 0.13397142 0.008215721 -0.2553795 0.0055487277 -0.17802605 -0.08185078 0.018965762
0.011181525 -0.041156366 -0.25013116 -0.15844993 -0.023944521 0.0012158648 0.002639429 -0.025548078
-0.035542704 -0.07082248 0.12270344 0.03482737 -0.107327245 0.06343937 -0.041128192 -0.14150307
-0.02550941 -0.07332398 -0.033536192 0.020574182 -0.12617773 -0.075176984 0.13308701 -0.0383431
-0.039686944 0.1284067 0.16604134 -0.03165389 -0.029336093 0.050543036 0.10146829 -0.40681142
-0.0855569 0.12002144 -0.109151766 0.12224635 0.19900504 0.16708569 0.002317307 0.082207054
0.023096984 -0.09878798 -0.04510826 0.07503905 -0.23715274 0.11826206 -0.08456337 0.20325233
-0.029006861 -0.0030830523 0.11727338 -0.16972831 0.14014989 -0.13143651 0.05179925 0.057429835
-0.07120312 0.026865836 -0.08972749 -0.03273762 0.04684585 0.065762766 0.0029827422 0.046102703
-0.18083327 0.07382445 0.2940407 -0.067934126 0.028249115 -0.023859633 -0.06505441 0.030099824

fc3.bias f4 [64]
00000000: e30b a9bd a20c abbd 8cde ac3c 5637 a93a
00000010: 44a3 a8bd e689 0d3d a6c8 b3bd 0c23 c63c
00000020: 89b4 b0bd 2e49 23bd 094b 3d3d 822c 25bd
00000030: bb8b e53c 8ed8 64bd 4ac8 1cbd 07d2 9bbd
00000040: 79f0 43bd 1277 563c 6a3f eb3d 6f47 35bb
00000050: 9154 fcbd 6ff3 81bc 80fb acbb fdc0 3dbd
00000060: a920 b13c eaef 1c3d 4224 d13a 1e04 98bd
00000070: d67c d33c 6842 62bd d970 bd3c 0a90 5cbd
00000080: 960e 9bbb 644c f8bd 69da b1bd 7285 973d
00000090: ff3e c53c a285 853d ccdc 7abc c505 44bc
000000a0: bbcb 85bd 964a c2bd 3366 6c3d df95 693d
000000b0: a479 9b3c 7bd7 4d3d a545 e5bd c019 7dbc
000000c0: 1b6a b13d 1a12 12bb 51a0 893c 07c0 9e3d
000000d0: b636 da3c ef9f 083d 0a1e eabc 9f06 2dbd
000000e0: 5e94 c83d fb6e 053c c356 e4bd ec28 3f3c
000000f0: c758 59bc 2b2d cb3c 0a2f 2b3d 88df d1bd
-0.0825422 -0.08352019 0.021102212 0.0012910168 -0.082342654 0.03455534 -0.08778505 0.024186634
-0.08628184 -0.03986471 0.046214137 -0.04032565 0.02802073 -0.055870585 -0.038276948 -0.07608419
-0.047836754 0.013089912 0.11486705 -0.0027660986 -0.12320817 -0.015863148 -0.0052790046 -0.046326626
0.021622019 0.038314737 0.001595624 -0.0742266 0.025816362 -0.05523911 0.023125099 -0.053848304
-0.0047319634 -0.12123945 -0.086842366 0.073984995 0.02407789 0.06519629 -0.015311431 -0.011964266
-0.06532999 -0.094868824 0.057714652 0.057027694 0.018978901 0.050254326 -0.11194924 -0.015448034
0.08662816 -0.0022288621 0.016800078 0.0775147 0.026637416 0.03335565 -0.028578777 -0.042242642
0.09793924 0.008144136 -0.11149361 0.011667471 -0.013265795 0.024801811 0.041792907 -0.10247713

fc4.weight f4 [2, 64]
00000000: 733b 5cbe 361d c7bd 243e ad3e ccb0 923e
00000010: b156 b53c 6d08 a4be d407 a03e 2751 8d3e
00000020: 557d 17bf e23e fabd 7e76 9cbe 12d8 5abd
00000030: 9692 9c3e 9b5e 7fbe 0983 dd3e 5481 ed3d
00000040: a45d d2be d70c 163c c9c7 4a3e 40f7 5ebe
00000050: 6c71 223e a439 063e f41e ac3d f276 b83e
00000060: 090a 3ebd 7f93 26bd e7b6 f33e 8892 e1bd
00000070: d57d 4c3c 1f46 843e ab19 eabc 992d 0f3d
00000080: 3911 933e d36d 76be 905d cdbe ba14 083e
00000090: b218 fc3e 69d8 193e 3b6e e6bd 0f64 1e3e
000000a0: c854 dfbe dc31 7ebe 04b0 b33c 2cac 22be
000000b0: f782 903e 4e34 543d 2e80 c3be 9143 bdbd
000000c0: c55f 76bd 3109 19bf 5d90 06bf d903 863e
000000d0: 5f0d 243f a76e b5be 9ffd 4f3e 4aba 6a3e
000000e0: ce5f d33d 85f5 88be ea1e 7cbd 93a7 8dbd
000000f0: 4e0e a0be 8d7f 543e 8cb8 25bf 01e5 83be
00000100: 90a0 8b3e ede9 7f3e 7c04 2bbe 8e53 e53d
00000110: 5336 803e f43a 75be 4f0b 5fbe 5993 25bf
00000120: 875a ac3e 3d5e aa3d 0a43 d0be 4bc7 d53d
00000130: 2c29 0dbd 62d7 b7bc 0051 c1be 0bb0 d6bc
00000140: 3536 efbe 8522 c23e cd4c 0abe a21a b8be
00000150: 7439 ff3e af04 bd3e 5901 fdbe ac33 69bc
00000160: 037f 743e 64a9 0dbf aa41 2c3e 4ffa cb3b
00000170: c33b 103f cdd0 1cbd 8db5 1c3f bd9d f5bb
00000180: 0eaa 99be 1704 b2bc 81e2 96bd c448 003e
00000190: 6eec 023f b373 25bf 63cd 7e3e 1187 463d
000001a0: 758c 05be cce1 95be 8cef 2f3d f230 233e
000001b0: e8fa de3e c309 3fbf be6c b1be a631 8a3d
000001c0: e56e d0be 5126 b63e eaee 1bbc 2edf b7bd
000001d0: 296b 46be 4be8 36be d5dd e73d d945 1bbd
000001e0: b920 2b3e e183 e4be 9e2e 1c3e 6929 4e3e
000001f0: f04f 39be ce84 27bd e9fa a8bd 1b65 3fbe
-0.21507053 -0.097223684 0.33836472 0.2865051 0.022136064 -0.32037678 0.31255972 0.27600977
-0.59175617 -0.12219025 -0.30559152 -0.053428717 0.30580586 -0.24938433 0.43264034 0.11596933
-0.41087067 0.009158335 0.19802774 -0.21774006 0.1586358 0.13107926 0.08404341 0.36028248
-0.04639629 -0.040668007 0.4760048 -0.11014277 0.012481173 0.25834748 -0.028576693 0.034955595
0.28724077 -0.24065332 -0.40110445 0.13289157 0.4923759 0.1502396 -0.112514935 0.15467857
-0.4361937 -0.24823707 0.021934517 -0.15885991 0.28224918 0.051807694 -0.3818373 -0.09241403
-0.060149927 -0.5977965 -0.5256403 0.2617481 0.640829 -0.35435984 0.20311593 0.22922626
0.10321008 -0.26749817 -0.06155292 -0.06916728 -0.31260914 0.20751782 -0.6473472 -0.25760654
0.27270937 0.2499158 -0.1670093 0.111975774 0.25041446 -0.2394827 -0.21781658 -0.6467796
0.33662817 0.08318756 -0.40676147 0.10438403 -0.034463093 -0.02244157 -0.3775711 -0.02620699
-0.46721044 0.3791696 -0.1350586 -0.3595782 0.4984852 0.36917636 -0.4941509 -0.014233511
0.23876576 -0.55336595 0.16821924 0.0062249075 0.5634119 -0.038285065 0.61214525 -0.0074956105
-0.30012554 -0.021730466 -0.07367421 0.12527758 0.51142013 -0.6462967 0.24883036 0.048468653
-0.13041861 -0.29273832 0.04295306 0.1593664 0.435508 -0.7462427 -0.34653276 0.06747751
-0.40709606 0.35576108 -0.009517411 -0.08978115 -0.19376816 -0.1786205 0.11321608 -0.03790841
0.16711701 -0.44631866 0.15252158 0.20132984 -0.180969 -0.040898137 -0.08250982 -0.18690912

fc4.bias f4 [2]
00000000: 33b7 abbb 8bd0 21be
-0.005240345 -0.15802209
