checkpoints/Computer2-0-checkpoint-1.7518-actor.pth (torch, 193711 bytes, 8 tensors)

fc1.weight f4 [256, 24]
000000 5c aa 1e 3d 7d 16 4d be 72 e8 11 be 5f b7 48 bd
       0.038736686 -0.2002811 -0.14248827 -0.049003
000010 41 08 e8 3e 2f de 95 3c ea 68 fb 3d 8c ba 6b be
       0.45318797 0.018294422 0.1227587 -0.2302038
000020 73 02 e8 3d b7 c1 f1 3d 54 bd 27 3e 06 e7 de 3d
       0.11328592 0.11804526 0.16380817 0.10883908
000030 c9 1b ab 3d 53 9f 82 3e 6e 53 15 be da fe 4d bd
       0.08354909 0.2551218 -0.14582607 -0.050291874
000040 f8 e9 c9 3d 20 df b3 3d bd 11 aa bd 86 e2 3c 3d
       0.09859079 0.08782792 -0.083041646 0.046114467
000050 a7 39 fb bc eb e7 99 3e fb f6 4e bc d6 43 cc 3c
       -0.03066714 0.30059752 -0.012632127 0.02493469
000060 f2 4f 88 3e f9 6e 01 3e e2 6e 04 3e 47 23 01 bd
       0.26623493 0.12639989 0.12932923 -0.031527784
000070 ae d1 00 3e cb dd 9f be 1b 57 3c 3e b5 86 9c be
       0.12579986 -0.31223902 0.18392603 -0.30571523
000080 88 9b 22 bd cc 8e f7 3d f5 46 c0 39 ba 1a 4a 3e
       -0.039699107 0.12087783 0.0003667396 0.19736758
000090 3c a0 0c 3d 5c d9 bd be 2c ae e6 bd 4e 1b ee bd
       0.0343325 -0.37079895 -0.112636894 -0.11626302
0000a0 5a 66 8c 3d 36 41 ef 3d 39 88 13 3e 55 17 d3 3d
       0.068554595 0.1168236 0.14407434 0.103071846
0000b0 a4 b8 af 3e d4 84 2a bf 3d 8b 00 be 8e d3 7f bd
       0.34320557 -0.6660893 -0.12553115 -0.062457614
0000c0 20 d9 73 bd 67 f7 0d be 54 80 be bd 8d ac 91 bd
       -0.05953324 -0.13863908 -0.093018204 -0.071129896
0000d0 51 b9 db bd 0a 50 7c bd 8f d5 78 3d df ef 5a be
       -0.10728706 -0.06159977 0.06075054 -0.21380566
0000e0 bd 09 2e 3d d7 5f 6c be 4d 82 05 3e 0a 4b df bd
       0.042489756 -0.23083435 0.13037987 -0.109029844
0000f0 dd 8e f8 bd 73 02 c8 3e 6c 2e 0c be d4 d5 a4 3a
       -0.12136624 0.3906437 -0.13689584 0.0012575933
000100 aa 04 e7 3d 5c ce 1d be 35 a1 9b 3d 94 08 01 be
       0.112801865 -0.15410751 0.07599107 -0.12600929
000110 72 63 9f bc 9b 2c f9 3e 5c 65 9c bd cd 33 a8 be
       -0.019456599 0.48666844 -0.0763652 -0.3285202
000120 03 5b 6c 3e 14 fd 7f bd 2e 2a 55 bd b3 a9 62 3e
       0.23081593 -0.062497213 -0.05204218 0.22135048
000130 70 ff cf 3d 6b 0c 38 3e 17 98 79 3c bd e0 23 bd
       0.10156143 0.17973487 0.015234015 -0.04000925
000140 95 b5 8a 3e 98 19 23 3e 69 fb 21 3e e1 bc bd 3e
       0.2709166 0.15927732 0.15818562 0.37058166
000150 1e 22 bd bd ae 6a ba 3d 90 d6 e1 bb f4 a9 89 3e
       -0.09235023 0.09102379 -0.006892033 0.26887476
000160 ec dc 08 3e e5 8b d6 3d 90 4b c2 3a a3 5e e1 3c
       0.13365525 0.104759015 0.0014823545 0.027510947
000170 e4 79 96 3e 2e c6 04 bd 92 86 e8 bd 4f ee 43 3d
       0.2938987 -0.03241556 -0.11353792 0.04783469
000180 96 aa 43 3d fa 56 b1 bd f2 4c 8e 3d 6a 41 12 3e
       0.047770105 -0.086591676 0.0694827 0.14282766
000190 52 3c c9 be e3 ff 5e 3e fc 83 a1 bb ec b0 29 be
       -0.39303833 0.217773 -0.004929064 -0.16571397
0001a0 58 a9 3b 3e 17 a8 6a be c2 6a 88 3d 7b 4b 4a be
       0.18326318 -0.22915684 0.066609874 -0.19755356
0001b0 96 44 58 bd 8a 16 81 3e 03 94 69 bd c8 9d 5a be
       -0.052799784 0.25212508 -0.05702592 -0.21349251
0001c0 49 0f 62 3e 9d 94 95 be a3 2e 5b be ac ec 86 3c
       0.22076143 -0.29214945 -0.21404509 0.016470276
0001d0 34 fa b6 be ff e5 2a 3b 2b 47 c9 3d 81 4a fa bd
       -0.35737765 0.002607703 0.09828027 -0.12221242
0001e0 c1 dc ee 3d c3 0c 60 be 43 07 d4 3c ef 64 1b be
       0.11663199 -0.21879868 0.025882369 -0.15175222
0001f0 0f 39 0a 3f 46 50 31 be 74 c4 d8 3d 26 b5 69 3d
       0.53993315 -0.17315778 0.105843455 0.057057522
000200 d2 1e f8 bd 15 93 2e be 30 12 43 3e 2b 7e 90 3d
       -0.121152535 -0.17048295 0.19049907 0.07055315
000210 39 e2 17 3f 6d 58 4c be fe 36 3a be 36 2b 42 bc
       0.59329563 -0.19955607 -0.1818504 -0.011851123
000220 18 81 ab bc 3a 66 8b bd d7 40 ca bd ca 6c 45 3d
       -0.02093558 -0.068066075 -0.098756485 0.048199452
000230 55 bd 19 3f 81 19 a4 3d 5f e4 86 3d 0d 2c a4 3c
       0.6005452 0.08012677 0.06586527 0.020040536
000240 20 58 a9 bd 8e 72 0e be 31 28 e8 bd aa b1 6d ba
       -0.08268762 -0.13910887 -0.11335791 -0.00090673065
000250 52 bd 98 be 6d 88 13 be c7 ea 0b 3d 6c 97 50 3d
       -0.2983194 -0.14407511 0.034159448 0.050925657
000260 86 45 8b 3c 2b 69 2f be dc 3f 3d 3d 38 5a 62 be
       0.017000925 -0.17129962 0.04620348 -0.22104728
000270 8a a2 7e 3b 7f 39 22 3d de 37 d0 3d 3d a2 48 bd
       0.0038854205 0.039605614 0.10166906 -0.048982847
000280 03 81 53 be 89 7e fc 3d 7f ec 93 3d db 71 5e 3e
       -0.20654683 0.12328822 0.072228424 0.2172312
000290 07 47 1a bb 91 b2 f9 be c1 90 6b bd d0 86 5c 3d
       -0.002354087 -0.48769048 -0.057511095 0.053839505
0002a0 38 99 9b 3e 5b 51 f9 bd 68 d4 35 3d 7a ec 65 3d
       0.30390334 -0.121737204 0.04439202 0.056133725
0002b0 da a5 85 3e fe 56 e6 bc b1 d1 2b bd d2 54 2b bd
       0.26103097 -0.028117653 -0.041948024 -0.041828938
0002c0 68 37 13 be fa 2a 0f be 57 52 a8 bd 44 63 1a be
       -0.14376605 -0.13981238 -0.0821883 -0.1507693
0002d0 47 d5 01 3d f8 54 8e be 61 c5 13 3d ba eb 1e be
       0.031697538 -0.277992 0.036076907 -0.1551961
0002e0 fd fc 3e be 86 2e 90 bd 03 71 34 be bd 4f 81 be
       -0.18651195 -0.07040124 -0.17621236 -0.25256148
0002f0 c2 dc a5 bd 54 51 e4 3b ef 65 18 3e 7e 17 9c be
       -0.08098747 0.006967703 0.14882635 -0.30486673
000300 3b b2 05 bd 7c e3 4f be ab ca 5a bd 2b d3 10 3e
       -0.032640677 -0.20301622 -0.053415935 0.14143054
000310 b6 f1 b2 3d eb 7e 68 be f0 a8 ef 3d bc a7 2d 3e
       0.08737509 -0.22704665 0.11702144 0.16958517
000320 ef 4e 80 3d 30 fb 02 3e dc f6 2f 3d 20 c2 89 3e
       0.062650554 0.12791133 0.042960033 0.26905918
000330 bf a1 a3 3d d7 43 1e 3e c7 35 15 3e 02 0e 98 3e
       0.07989835 0.15455566 0.14571296 0.29698187
000340 45 9b 34 3d 8f ca 5d be 4d 8e 03 be 7b 5b 36 3e
       0.04409339 -0.21659301 -0.12847252 0.17808335
000350 e9 c7 fe bd 90 4c 8b 3e 14 08 bf bd f5 ec 00 bc
       -0.124404736 0.2720685 -0.09327713 -0.007868995
000360 8c c7 5d 3e de 24 19 3d ac d3 91 3d 76 f4 b9 be
       0.21658152 0.037388675 0.07120451 -0.3631932
000370 72 d3 75 bc 39 d5 76 3e 36 3a 33 be ab d5 88 bc
       -0.015004026 0.24104775 -0.17502674 -0.016703447
000380 60 a9 80 3e 94 91 b9 bd d4 75 06 bd e6 01 ca be
       0.25129223 -0.0906097 -0.032827213 -0.39454573
000390 d1 e8 01 3e 5d 8a 31 be ba 17 8c bd fc 3e 48 be
       0.12686469 -0.17337938 -0.06840463 -0.19555277
0003a0 c0 6a 41 3e a0 ec ca bd 23 07 8e 3d 65 6d 19 3d
       0.18888378 -0.09908414 0.06934955 0.037457842
0003b0 d0 0b 26 bd 5f 8d 2c be 53 fe 03 3e f2 0d a1 3d
       -0.04053861 -0.16850804 0.12889986 0.07863988
0003c0 d6 6f f4 3d a5 d5 e4 3d 9a 43 60 3d a1 d5 73 bd
       0.119353935 0.11173562 0.05475197 -0.059529904
0003d0 39 c3 80 be 42 8b 3b 3d b9 5f b7 3d a2 12 69 3e
       -0.25148943 0.045787103 0.089538045 0.22761014
0003e0 e9 9f 90 3d 2e 77 36 3d cd 43 6e 3d dd 6b d0 3d
       0.070617504 0.044547252 0.05817013 0.10176823
0003f0 a0 34 6e bd a3 c6 90 bd 2d 33 0f bd f6 a8 a2 3c
       -0.058155656 -0.07069137 -0.034960914 0.019855957

fc1.bias f4 [256]
000000 35 de 1a 3d c1 e5 d2 bc 86 ef 5c 3d 48 13 66 bc
       0.03780957 -0.02574432 0.053939365 -0.014042683
000010 07 01 0d 3e 0d 6b 86 b9 8a 26 da bd 28 21 23 3e
       0.13769923 -0.0002563823 -0.10651882 0.15930617
000020 fa 98 71 3c 2d 9f 97 bd 32 08 86 bd a4 69 10 bd
       0.014745945 -0.07403407 -0.06544532 -0.035256997
000030 cd 54 29 be 0c e0 27 bc 56 36 9b be 4a e2 03 be
       -0.16536255 -0.010246288 -0.30314893 -0.12879291
000040 4b 32 50 be fc e1 de bc b4 71 da bb 25 82 42 3e
       -0.20331685 -0.027207367 -0.0066663865 0.18994959
000050 a9 1c 9f bd 38 e5 be bc 57 85 af bc de 63 fe bd
       -0.07769138 -0.02330266 -0.021425886 -0.12421392
000060 bd 31 f6 3d cd 8e 23 be 24 d7 af bd 0d 65 a1 3d
       0.120212056 -0.15972443 -0.08585957 0.07880602
000070 6e e9 33 be c3 68 c7 3d 4d 1d 75 be 9b 13 56 3e
       -0.17569515 0.097367786 -0.23936959 0.20905916
000080 c4 51 7c bc c0 60 81 bd ba f5 5c 3d 29 4a 05 be
       -0.015400354 -0.06317282 0.05394528 -0.13016571
000090 34 7c 26 bd b7 b2 81 bd 6c 52 4a bd 5b 0d 43 be
       -0.040645793 -0.06332915 -0.04939501 -0.19048063
0000a0 68 bf 30 3e ea 95 a4 bd d2 b6 0f 3c c9 3d 83 3c
       0.17260516 -0.08036406 0.008771615 0.016020672
0000b0 4a 1b ec bd 65 82 a7 bd d9 74 8b 3d 1a 58 ec 3d
       -0.115286425 -0.08179168 0.06809396 0.115402415
0000c0 bc 69 83 bd 17 a8 0b bd e0 bc fe 3d 32 40 29 be
       -0.064166516 -0.03409585 0.12438369 -0.16528395
0000d0 fd 77 80 3e ff ce 5c bd f0 33 62 be 63 7b 14 be
       0.25091544 -0.053908344 -0.22090125 -0.14500193
0000e0 b3 a6 1d be 73 6d 25 be 80 fa 2f 3e 32 51 e7 bd
       -0.15395622 -0.16155033 0.17185402 -0.11294784
0000f0 70 53 d9 bd 0b b4 16 3d 5c bc 6d bd dd b3 3a be
       -0.106116176 0.036792796 -0.05804096 -0.18232675
000100 c7 7a 0a be fe 62 fa bd aa ba 2e 3e 0a d7 e2 bd
       -0.13523398 -0.122259125 0.17063394 -0.11076172
000110 c3 1a 82 bd cd 57 1f be 74 1c 5a be eb 4a 2a 3e
       -0.06352761 -0.15560837 -0.21299917 0.16630141
000120 95 9d 16 bc f4 74 46 3e 9b 7f 33 3d d9 0c e8 3c
       -0.009192844 0.19380552 0.043822866 0.028326439
000130 51 6b 23 bd 91 9c 7d bb a6 d7 ca 3d cb a0 69 3d
       -0.039897267 -0.0038698057 0.09904413 0.05703811
000140 20 cd f7 3d a6 a6 c1 3d ce 89 e6 bd 6e 4c d1 bc
       0.12099671 0.09455614 -0.11256753 -0.02554914
000150 02 ff 40 be 27 7b 06 bd b8 7b 79 bc 92 99 c0 3d
       -0.18847278 -0.03283229 -0.015227251 0.09404291
000160 69 3b 58 bd 2c a6 a7 3d 29 01 96 bd fb dd 3f 3e
       -0.052791033 0.08185992 -0.0732444 0.18737023
000170 01 48 5c 3e 4e 29 fe 3d ee 80 1c be 54 72 c9 3d
       0.21511842 0.12410222 -0.15283558 0.098362595
000180 8c 99 59 bd d4 12 82 3d 20 6b 39 3d 74 1e 48 bd
       -0.05312495 0.063512474 0.045268178 -0.048857167
000190 fd b4 8a 3d cd 8f 41 be 27 b5 8a 3d 46 6e af bd
       0.06772802 -0.18902512 0.06772833 -0.08565955
0001a0 3c 87 98 bd da da 98 bd ea 73 a2 bb f0 1d 21 be
       -0.07447669 -0.074636176 -0.0049576657 -0.15734076
0001b0 59 85 6b be b0 84 8c be 29 6b b9 bc dc 0f 3f be
       -0.23000087 -0.27444983 -0.022634106 -0.18658394
0001c0 3e 53 06 3e 5f e6 8c bd 4f b8 8c be 3c 30 61 be
       0.13117692 -0.06879877 -0.27484366 -0.21991056
0001d0 3f f2 28 be 62 5a 38 3e ef 45 4a 3d 22 49 a7 3d
       -0.1649866 0.18003228 0.0493831 0.08168246
0001e0 65 6e 10 3e 5a d7 42 be e3 be f6 ba eb 5b 53 be
       0.14104612 -0.19027463 -0.0018825199 -0.20640533
0001f0 9e 15 07 ba 6c c0 64 bd 7f ab 86 3c 50 93 4d bd
       -0.00051530625 -0.05584757 0.016439198 -0.050189316
000200 02 ff 15 bd a7 e7 ff 3d 8e f2 f4 bd 8b 84 ed 3c
       -0.036620148 0.12495356 -0.11960326 0.028993865
000210 37 4e d0 bc f7 65 06 be 80 e5 9c 3c d7 c3 d6 bd
       -0.02542792 -0.13124834 0.019152403 -0.10486572
000220 24 fc 69 be 7c 76 a8 3d a5 dc 0f be 0c 8a 8e bc
       -0.2285009 0.08225724 -0.14049013 -0.01739981
000230 93 ab 05 be fd 7e 11 be e4 08 ec bc 8d 6b 96 3d
       -0.13053732 -0.14208598 -0.028812833 0.073447324
000240 55 3a 0d be db fb ed bd b3 06 55 3e 31 f9 b0 bc
       -0.13791783 -0.11620303 0.20803337 -0.021603199
000250 67 96 3c 3c 9d 86 99 be 4e 61 9b bd 69 a0 5a 3c
       0.011510468 -0.29985514 -0.07586919 0.013343909
000260 2a 40 03 3e d4 3e 99 3c d9 22 1d be ef 20 22 3e
       0.12817445 0.018706717 -0.15345325 0.15832876
000270 d7 82 38 bd ad b6 bf bd dd 5e dc 3d be c3 7e be
       -0.045046654 -0.093610145 0.10760281 -0.24879357
000280 95 03 1b 3e 08 05 00 3e 70 08 e9 3c ee 8a 08 3c
       0.15138085 0.1250192 0.028446406 0.008333905
000290 72 e4 51 3d ba 3d c4 3d 32 bd 59 bd ee e6 4b 3c
       0.051243253 0.09582086 -0.053158946 0.012445195
0002a0 c6 58 26 be 3b 72 5d bd b6 be 9b bd 42 8b da 3d
       -0.16244802 -0.054064017 -0.076047346 0.106710926
0002b0 73 75 db 3c 00 4c f2 3d 53 1d fc bd 78 c3 35 3c
       0.026789403 0.11830902 -0.12310281 0.011093967
0002c0 d6 29 d4 3b 8f 01 3d 3d 40 9b e6 3d 2d 1b ba bd
       0.006474714 0.046144065 0.1126008 -0.090872146
0002d0 72 8d 05 3e 96 f4 3d be c5 d9 cf 3d 42 90 78 bd
       0.13042238 -0.18550333 0.10148958 -0.06068445
0002e0 73 e9 41 3d 7c ed a2 3c dc e6 f6 3c 8c 19 0f 3d
       0.047341775 0.019888632 0.03013938 0.034936473
0002f0 e1 5e 38 3e df e6 8d 3d 8c 8f 58 3d db 6d 42 be
       0.18004943 0.06928801 0.052871272 -0.18987219
000300 00 54 55 bd 40 87 27 3e c2 40 d4 3d 58 ac cb bd
       -0.05208206 0.16360188 0.10363914 -0.09944981
000310 19 22 55 bd c8 03 a3 3d e4 3b c5 3d b5 75 fc bd
       -0.05203447 0.079597056 0.09630564 -0.12327138
000320 c5 f6 33 be 6c 39 c1 bd 1e c8 8a bd 6f 9b 46 3e
       -0.17574604 -0.094347805 -0.067764506 0.1939523
000330 dc 91 06 3e 04 e4 b1 bd 70 1a eb 3c b1 0a 06 3e
       0.13141578 -0.08686069 0.02869913 0.13090016
000340 17 20 18 3d 26 3c 09 3e 63 6c 86 be 0a 73 66 be
       0.03713998 0.13401851 -0.26254568 -0.22504821
000350 f0 04 e2 3d cb 6e 5e 3d 32 98 2b be eb 30 1d 3d
       0.11036098 0.05430488 -0.16757277 0.03837673
000360 bb aa 66 be 45 ac c2 bd d8 cf 20 3c c0 db ce 3d
       -0.22526066 -0.09505514 0.009815179 0.10100508
000370 34 7b cd bd e3 4a 36 be fd 43 4e be 83 6b 93 bd
       -0.10033265 -0.17802005 -0.20143123 -0.071982406
000380 f2 0d 49 be 65 21 24 3e b1 df b4 bc ac f5 af 3d
       -0.19634226 0.16028364 -0.02207932 0.0859178
000390 ac 07 f4 3c 77 97 11 3e 04 a8 71 3e d1 ee 10 be
       0.029788814 0.14217936 0.23599249 -0.14153601
0003a0 30 14 0b be e5 5c bd 3d d4 34 7e bd f8 50 e1 bd
       -0.1358192 0.09246234 -0.0620621 -0.11001772
0003b0 6c 7f 08 3e b7 04 1c be 5c 58 8c 3d 9f 26 a9 bd
       0.13329858 -0.15236174 0.06852791 -0.082593195
0003c0 8e 54 ba 3d f1 d8 c7 3d 97 41 22 be 10 40 8a bd
       0.09098159 0.09758175 -0.15845333 -0.067505
0003d0 c9 38 fb bc 91 22 0c be 0d 46 6c be db cf 0b 3e
       -0.030666726 -0.13685061 -0.23073597 0.1365351
0003e0 4e c8 5f 3e e0 31 3a bc a1 05 4d 3e fb 6e 5e ba
       0.21853754 -0.01136443 0.20021679 -0.00084851653
0003f0 37 92 7c be f8 8b b8 bc 45 89 af 3d ed 59 40 bc
       -0.24665152 -0.02252768 0.08571104 -0.01174019

fc2.weight f4 [128, 256]
000000 9b 0a 08 3e 15 88 af 3d f1 4f c0 bd 9e 9e 4f 3c
       0.13285296 0.085708775 -0.093902476 0.012672095
000010 9b da 33 be 35 40 2e 3e fe a1 8c bd 03 a3 e1 bd
       -0.1756386 0.1701668 -0.06866835 -0.1101742
000020 76 7c 50 3c 34 11 a3 bd 14 77 d1 3d d2 00 73 bd
       0.012724986 -0.079622656 0.102277905 -0.059326954
000030 07 98 1a 3b 7b 4f a3 be 26 c0 19 3d a0 dc eb 3d
       0.002358915 -0.31896576 0.037536763 0.1151669
000040 ff bc 82 3e 6e a8 a6 bc 89 74 96 3d ad 16 09 be
       0.25534818 -0.020343985 0.07346446 -0.13387556
000050 a0 e2 41 bc b7 77 b7 bd bf 3e 82 bc ec 84 fc 3a
       -0.011833817 -0.08958381 -0.01589906 0.0019265688
000060 b4 c3 75 be d1 e9 1b bc b7 4a a5 bd 0d 6d 2c be
       -0.24000436 -0.009516195 -0.08070891 -0.16838475
000070 33 cf 91 bd e2 81 3f bc e7 2c bf 3d 91 e2 4f 3d
       -0.07119598 -0.011688681 0.09334736 0.05075318
000080 06 29 5c 3d 10 43 d0 bd 61 8f a9 bc 21 eb c7 3d
       0.05375006 -0.10169041 -0.020698251 0.09761644
000090 06 90 5b 3d 60 02 f2 3a 4b 99 23 be 08 b2 bb bd
       0.05360415 0.0018463843 -0.15976445 -0.09164816
0000a0 2f 70 c1 bc 86 49 1a 3d 1f e9 3e 3d 42 8b 1e 3c
       -0.023613064 0.037667774 0.04660904 0.009676756
0000b0 f6 07 91 bc 8f 26 00 3e dd 46 cf 3c 96 ba 15 be
       -0.017703991 0.12514709 0.025302345 -0.14621958
0000c0 ee e4 0b 3e 2b 14 ed bd fb aa 33 3e 60 da 23 be
       0.13661548 -0.11576112 0.17545693 -0.16001272
0000d0 f4 5d a3 bd 3e e5 bc bd 87 d9 f7 ba fa 5f 88 bd
       -0.079769045 -0.09223412 -0.0018909433 -0.06658931
0000e0 d9 30 c8 bd 89 6c 9b 3d 94 aa c8 bc 56 0a 21 be
       -0.09774942 0.07589061 -0.0244954 -0.15726599
0000f0 af b2 45 bd 94 65 8f bd 76 71 27 3e d9 71 2a be
       -0.04826611 -0.07001796 0.16351876 -0.16644992
000100 d4 48 14 3c ce ab 8c 3d c6 15 54 bd 07 b8 21 3c
       0.009050567 0.06868707 -0.051778577 0.009870536
000110 1d 36 c7 bc 9c c3 3c bc 9f 83 cc bd c1 ab 41 be
       -0.024317795 -0.011521246 -0.09986042 -0.18913175
000120 d8 ee fe bd 80 8b e4 3c 1b aa 29 3d f9 26 39 bd
       -0.124478996 0.02789855 0.04142199 -0.045203183
000130 c5 31 d4 3c 94 c0 af bc c3 ae af 3d 95 e4 9c 3e
       0.025902638 -0.021454133 0.08578255 0.30643144
000140 b8 c5 1f be 12 7d cc bc d0 db 35 3b e0 0f 49 3d
       -0.15602767 -0.024961982 0.0027749427 0.049087405
000150 67 00 55 3b 80 27 2c 3d 34 c7 11 3e c3 7a a2 be
       0.003250146 0.042029858 0.14236146 -0.31734285
000160 61 ac bf 3c 6b e2 5c 3d c0 40 53 3d b0 6b 12 be
       0.023397626 0.053926867 0.051575422 -0.14298892
000170 90 b4 a8 3c f3 21 95 bc 0a a4 5a be d5 de 1e 3d
       0.020593911 -0.018204665 -0.21351638 0.038786728
000180 68 89 28 be c6 ab 83 bd 77 49 c1 3d cf 69 b9 3d
       -0.16458666 -0.064292476 0.094378404 0.090533845
000190 7f 81 fb bb fd 1a 07 3d 79 bf e1 3c 13 5c 5f bd
       -0.0076753492 0.032984722 0.027557122 -0.05453117
0001a0 81 bb 9d bc 81 a9 17 3d 51 1d 26 3a 9f c4 fc bd
       -0.019254448 0.037026886 0.0006336766 -0.1234219
0001b0 78 22 36 bd 2e c5 a6 3d 0c e3 05 3d eb a1 51 3c
       -0.044466466 0.08143078 0.032687232 0.012794952
0001c0 76 91 25 bd e0 db 02 be 8a 88 05 bb 5d c6 92 3c
       -0.040421925 -0.12779188 -0.0020375573 0.017916853
0001d0 3a ef 9c be 67 7f 93 bc 1a ca 8c bc 00 be ee 3d
       -0.30651265 -0.018005086 -0.017186213 0.116573334
0001e0 46 77 f3 bc e6 20 46 be fc 01 38 3d fe d1 61 3d
       -0.02971996 -0.19348487 0.044923767 0.055131905
0001f0 80 cf 73 3d b7 be cb 3c 3c 19 b5 bd 1f d6 9e bc
       0.05952406 0.024871213 -0.08842704 -0.01938921
000200 ea 9a b6 3d 5c 28 18 3c 6c 1d d5 bd 48 3e 68 bd
       0.08916266 0.009286966 -0.104060024 -0.05670002
000210 c4 cd 46 be 93 e5 83 bc b6 00 29 bd 37 c4 83 be
       -0.19414431 -0.01610068 -0.041260444 -0.25735638
000220 5a 8a 9a 3d 30 3f d9 3d 40 90 a0 be b6 16 42 be
       0.0754592 0.10607755 -0.31360054 -0.18953976
000230 13 26 3a 3d 38 30 74 3c 1a a3 a7 bd 9f 64 8c bd
       0.045446467 0.014904074 -0.08185406 -0.068551295
000240 fd 2a a2 3d a3 b8 71 bc c8 d3 b5 bd 2e f7 70 bd
       0.079183556 -0.0147534935 -0.08878285 -0.05882948
000250 3f 4b 9c 3c 56 5f de 3d f6 52 34 3d ec 7d 69 bd
       0.019078849 0.10858028 0.04402443 -0.057004854
000260 2f 9b f1 bc 1a bd 78 bd e8 1f 8f bd 86 ef 42 bd
       -0.029492943 -0.060727216 -0.069885075 -0.04759171
000270 0a 42 1f 3d 54 aa 33 bd ea 80 bc bd 03 35 70 3d
       0.03888134 -0.04386361 -0.09204276 0.058644306
000280 96 81 11 3d 29 f9 08 3e 87 0a d7 3d d0 fe eb bd
       0.035523973 0.13376297 0.10500055 -0.11523211
000290 06 a1 7d be 3b c2 3f 3d 31 8d 2d bd 5a 8a 25 3d
       -0.24768457 0.046816092 -0.04237098 0.040415145
0002a0 49 d5 72 bc 07 24 f0 3c 96 b2 9b be 86 57 dc ba
       -0.014821359 0.029314054 -0.30409688 -0.0016810752
0002b0 7a da ea 3d 0c da 9f 3d 4b 06 c7 3d 7a fd f3 ba
       0.11467452 0.07805261 0.09717997 -0.0018614971
0002c0 01 e3 c5 bc 68 07 51 bd 8c 69 14 bd 86 38 e2 3a
       -0.024156095 -0.051032454 -0.03623347 0.0017259277
0002d0 40 ed 3f 3d fe 14 d3 bd b3 eb 03 bd 4a 6e c4 3d
       0.04685712 -0.10306738 -0.032207202 0.095913485
0002e0 07 9d b1 be d1 0d 3b bd 4f 4d 82 bb 5b 02 1a 3d
       -0.34690115 -0.045667473 -0.003976501 0.037599903
0002f0 4b 16 1b bd 37 85 c1 bd a6 26 10 be 8e 54 da bd
       -0.037863057 -0.09449237 -0.14077243 -0.10660659
000300 8b e0 85 3d 5c 63 b3 3b 9c 71 36 be ad eb 9b 3c
       0.06536969 0.005474491 -0.17816776 0.019033277
000310 c0 58 80 3c 4f 27 d1 bd 46 fa 88 bd 3e 12 25 3d
       0.01566732 -0.10212576 -0.06688361 0.0403006
000320 29 2b c8 bc d1 94 86 bd 2a e9 4f bd e1 5b 98 3c
       -0.024434643 -0.06571353 -0.050759472 0.018598499
000330 e7 95 86 3c e9 fa bb 3c fd d4 ac bc 5c 3f fb bb
       0.0164289 0.022946792 -0.021097654 -0.007667465
000340 d0 a4 c7 3d d9 d2 c1 bc 92 0e 61 3d f3 22 91 3d
       0.09748232 -0.02366011 0.054945536 0.07086744
000350 87 a5 62 3d 9e 38 44 3d b1 4a f1 3d c6 34 e5 3d
       0.05533364 0.047905557 0.117818244 0.11191706
000360 0f 49 70 3e 00 3f f4 bd d4 19 c8 bc 7b b9 1f 3d
       0.2346537 -0.11926079 -0.024426378 0.038995247
000370 66 49 d7 3d 63 65 1a 3d d8 f7 05 3e 88 4c 6d be
       0.105120465 0.037694346 0.13082826 -0.23173726
000380 1e 2c ec bd 6a 85 a4 3d 7a 66 27 3d c9 57 52 3e
       -0.11531852 0.08033259 0.040869214 0.205413
000390 42 a3 b3 3c 26 04 5b bd 4d 74 fd bc 59 01 5d bd
       0.021928433 -0.053470753 -0.030939246 -0.053956363
0003a0 5c 5e 0d bd ae 7d c6 3c 3b 30 ae bc ea 8a 95 3d
       -0.034513816 0.02422985 -0.021263232 0.073018864
0003b0 e4 1a 35 3d c7 87 03 be 2b e2 28 3e 49 51 a0 3c
       0.044215098 -0.12844764 0.16492526 0.01957001
0003c0 05 e3 a8 bc 42 80 bb bd c8 b0 21 3d be 88 b3 bb
       -0.020616064 -0.091553226 0.039475232 -0.0054789474
0003d0 a6 5c 51 3b 1d e6 af bd 55 8d 81 3d 53 25 0c 3e
       0.0031946092 -0.085888125 0.06325785 0.13686113
0003e0 52 89 78 3d fb 3b 90 3c 8a 7c b6 bd 9e cf db 3d
       0.060677834 0.017606726 -0.08910473 0.10732959
0003f0 43 e0 f5 3d 8b d8 64 3d a1 6f 30 bd da e2 bd 3c
       0.12005665 0.055870574 -0.043075208 0.02317946

fc2.bias f4 [128]
000000 15 22 3f bd 14 2e 8c 3d 7e fd 8c 3c 3d d4 99 bc
       -0.046663363 0.06844726 0.017210718 -0.01877796
000010 c2 59 ae bb 4d 46 48 3d 33 f1 49 3c 41 b1 73 bb
       -0.0053207586 0.04889517 0.012325573 -0.003718451
000020 6f 43 a9 3c e8 41 06 bd f6 0e 51 bc 85 5a f8 3c
       0.020662038 -0.032777697 -0.012759915 0.0303166
000030 b4 d5 8a 3c e2 1c c7 3c 2b 1e 99 bc a8 42 ac bc
       0.016947605 0.024305765 -0.018691143 -0.021027878
000040 02 45 f9 3d 12 3e a5 bd ff f1 4a 3d cf 68 c2 bc
       0.12171365 -0.080684796 0.04954719 -0.023731617
000050 dd 39 14 bd 56 9d b0 3d d2 0c 70 3c 4a 61 7c 3d
       -0.036187995 0.086237594 0.014651494 0.06161622
000060 82 fa 7c bd 4e e5 f7 bd 61 e3 9f 3d b3 0e 19 bc
       -0.06176234 -0.12104283 0.07807041 -0.0093418835
000070 ad 00 83 bb 14 42 86 bd ec 6a 6b bd ea b6 60 3d
       -0.0039978833 -0.06555572 -0.057475016 0.05486194
000080 7d 80 97 bd bf b2 4b 3d c1 22 3f 3d 54 9b 97 3c
       -0.07397554 0.049731012 0.046664003 0.018506683
000090 90 ec e4 3c 63 48 8a 3d f6 a8 43 3d 41 b8 ef 3c
       0.027944833 0.06752088 0.047768556 0.029262664
0000a0 2c 4c 24 bc 0d ac 3b 3d 60 6c 97 3c 9b 7b 54 3d
       -0.010027926 0.045818377 0.018484294 0.05187569
0000b0 61 bf ae 3d f6 b2 9a 3c af a2 87 bd 75 52 62 3d
       0.085325964 0.018884163 -0.06622826 0.05525442
0000c0 41 89 56 3c d9 95 6b bd 07 cf a1 3d 34 14 50 3d
       0.013094247 -0.057515953 0.079008155 0.050800517
0000d0 18 37 41 bc 9f a7 7e bd df 11 50 bd f5 af 1e bc
       -0.0117929205 -0.062171575 -0.050798293 -0.009685506
0000e0 9c de ce bc 71 21 b0 bd ab 49 d4 bd 52 b2 48 ba
       -0.025252633 -0.086001284 -0.103656135 -0.00076559663
0000f0 39 74 fe 3c dc a8 0e 3d 17 c3 2d 3d f4 3d 89 bd
       0.031061279 0.034829006 0.04242238 -0.0670127
000100 2b b7 a9 3c 28 18 ac bc db 5a ae 3b d6 4d d2 bb
       0.020717224 -0.021007612 0.0053208894 -0.00641797
000110 8b 0f 8c bc 9f 94 78 3b 4f 1b 78 bd 80 8d 29 3c
       -0.017097255 0.0037930382 -0.06057292 0.010348678
000120 a8 94 b7 3c da 4e 80 bd 6f 6f 5c 3c 81 7e b3 bd
       0.022409752 -0.0626504 0.013454302 -0.08764363
000130 bb 5f 93 bd 3d 74 18 3b 91 58 16 bd 94 ff 61 3d
       -0.071959935 0.0023262643 -0.036705557 0.05517538
000140 86 91 d4 3c 98 45 ca bc 54 1c 0d 3d bb 6f 38 bd
       0.025948297 -0.024691388 0.034450844 -0.04502843
000150 52 09 2b 3d 9f 4e 25 bd ac 19 c1 bd fa d9 6b 3c
       0.041756935 -0.040358182 -0.09428725 0.014395231
000160 9e 3c 11 3d 6d 58 0c bc 33 9c 8d 3d 1a c3 d3 bc
       0.0354582 -0.008566004 0.06914558 -0.025849868
000170 88 df e2 bc 85 8c 20 bd 21 28 0e 3d af cb 91 bd
       -0.027694479 -0.03919651 0.03470624 -0.07118928
000180 6c 01 35 bd 71 54 51 bd da d5 be 3d e1 20 27 bc
       -0.04419081 -0.05110592 0.09318133 -0.01020071
000190 83 3c e8 bb 6a a3 84 3c a2 36 11 3a 4e ba 12 bd
       -0.0070872917 0.016191203 0.0005539452 -0.035822205
0001a0 cc 8a 39 3d f1 42 b8 3d 31 ca b1 bd c4 9e 53 3d
       0.045298383 0.08997143 -0.08681143 0.051665083
0001b0 8e 3c 08 bd 71 24 90 3b 77 56 94 3c 09 ff a9 3c
       -0.033260874 0.0043988754 0.018107636 0.020751493
0001c0 17 61 d4 3c 9a 54 a2 3c 35 cb 34 bd db 66 fd 3c
       0.025925202 0.019815732 -0.044139106 0.030932834
0001d0 7c 9f 0a bd d9 8b 41 bd 20 0a 42 bc d2 ab 39 3d
       -0.033843502 -0.04725251 -0.011843234 0.045329876
0001e0 7f 94 84 bc 9b 79 d6 3d 8f 79 61 3d 21 cc 0a 3d
       -0.01618409 0.10472413 0.055047568 0.03388608
0001f0 1f 15 07 bd 86 a2 77 3d a0 df 1b bd d7 31 dd 3a
       -0.032979127 0.06045773 -0.038055062 0.0016875815

fc3.weight f4 [64, 128]
000000 59 84 e6 bb c9 62 1f bd 56 c2 89 3e 72 39 7e 3e
       -0.00703482 -0.03891257 0.2690608 0.24826601
000010 3d cf b1 bd a5 47 9b 3d 30 97 63 bc bc 4c 72 3c
       -0.08682106 0.075820245 -0.013891026 0.014788803
000020 87 e0 4a 3e ab c8 82 3d 00 51 40 be 14 65 03 3e
       0.19812213 0.06385931 -0.18780899 0.12831527
000030 b7 53 02 be 4f 8c eb bc 31 16 b9 3d 59 9f f6 3d
       -0.12727247 -0.028753428 0.09037436 0.12042112
000040 f9 62 f2 bd 00 f8 57 3d 34 a8 a5 3d ff 81 b1 3c
       -0.11835284 0.052726746 0.08088723 0.021668432
000050 98 90 54 be 90 95 bb 3d a5 49 24 3e c3 92 b9 bd
       -0.20758283 0.09159386 0.16043718 -0.09061196
000060 9d 06 e7 3d 42 35 00 3e 0f 3f bf bc 4a 94 fd 3d
       0.11280558 0.12520316 -0.023345498 0.123817995
000070 ce c8 e2 bd 8c 49 aa 3e ba 94 87 3d 5e c7 06 3c
       -0.11073457 0.33259237 0.06620164 0.008226244
000080 87 2c 30 be 31 c0 c6 3d c8 2c 53 bc 1f da 04 3e
       -0.17204486 0.09704626 -0.012889095 0.12973832
000090 10 01 31 bc 31 dd de 3d 5b 31 1e 3d 69 7d aa 3e
       -0.010803476 0.10882033 0.038621288 0.33298805
0000a0 f0 5a 19 bc 61 2e 17 3d 3c bc 3a 3e 49 14 33 3e
       -0.00936006 0.036909465 0.18235868 0.17488207
0000b0 b4 e5 3e ba 85 58 00 3d 8c 9b ef 3d 52 28 83 3d
       -0.0007282153 0.03133442 0.1169959 0.06404175
0000c0 4b fe 34 be 1d a9 a5 3d 20 fc 89 bd 2d a5 5d 3c
       -0.1767513 0.080888964 -0.06737542 0.0135281505
0000d0 ea 38 67 3d 6a dd 8c bd e4 c3 7e 3e 53 a2 55 3e
       0.05645076 -0.06878169 0.24879414 0.20862703
0000e0 1e 45 e2 bd 0b 89 af bb 7b c5 ae 3c ac f6 e7 3c
       -0.11048339 -0.005356913 0.0213344 0.028315865
0000f0 65 fe 9a 3d c1 10 9f bc 48 ef a7 bb 82 89 15 be
       0.07568053 -0.019417169 -0.00512496 -0.14603236
000100 e1 84 3c 3d cb c5 59 bd 32 e5 ef bd 9e 57 ec bd
       0.04602516 -0.053167146 -0.117136374 -0.11540149
000110 23 41 03 3e c4 4b 36 3e c7 93 a4 3c 7e 7c 9a 3c
       0.12817816 0.1780234 0.020089997 0.01885819
000120 b6 35 f7 3d cc 43 25 3e 32 35 a8 be ff 9c 61 3d
       0.120707914 0.16139144 -0.32853085 0.055081364
000130 ee cb b8 3d ae 1d 61 3d 65 7e 61 3d 57 08 e2 bd
       0.090232715 0.054959945 0.05505218 -0.11036747
000140 d0 c0 e3 bc 99 9b 8d bd 0d a1 3f 3d 96 97 f5 3d
       -0.027801901 -0.069144435 0.04678445 0.11991803
000150 d0 9b 06 3d 6c f0 9f bd 4c c1 3c bd 8f e2 92 bd
       0.032863438 -0.07809529 -0.04608278 -0.07172119
000160 d7 97 4f bd 63 f7 82 3d 6b 2f dd bd d1 8a 9d bd
       -0.050681915 0.063948415 -0.1080006 -0.07692493
000170 4a a4 fe 3c a0 eb 37 3e a2 0b 6a bc d1 ad f1 3b
       0.031084199 0.17960978 -0.014285 0.007375457
000180 98 af 30 3e 56 b2 be 3d ea 9e a0 bd 4b cd aa 3e
       0.17254484 0.09311359 -0.078428105 0.3335975
000190 c4 75 94 3c 0d 21 f7 bc f5 f6 40 3e 7d 13 2b 3d
       0.018122561 -0.030167127 0.18844207 0.041766632
0001a0 e8 9f 82 3e 0b 52 6a bc 5b 40 37 3e 0d ed bd bc
       0.25512624 -0.014301787 0.17895643 -0.023184324
0001b0 c0 fb 17 be 55 bd 13 3e ed b3 e8 bd 35 e1 2c 3e
       -0.14842129 0.14427693 -0.11362443 0.16882785
0001c0 7d ce ab bd 54 83 db 3a 36 67 e2 3d 49 67 84 3d
       -0.08388994 0.0016747513 0.11054842 0.064650126
0001d0 2c 02 5a 3c 52 a4 86 3d de d5 0a 3e 0c fc e8 bb
       0.013306182 0.0657431 0.13558146 -0.0071101245
0001e0 dd d4 2a 3e 0d 7e 29 bd 5f 9d ea bd c5 d9 88 bd
       0.16682763 -0.041379977 -0.114557974 -0.06682161
0001f0 05 3a ff bc ba 3f 95 3e 28 a5 a0 3e ee 51 32 3e
       -0.031155596 0.29150182 0.31376004 0.17414066
000200 48 7d 90 be 0d 7f bf bd ad a7 94 3d d9 67 8d bd
       -0.28220582 -0.09350405 0.07258544 -0.06904573
000210 c0 5e 49 3e b2 b1 6e 3d 02 1f b8 3d 3c e4 03 3d
       0.1966505 0.058274932 0.08990289 0.032200083
000220 9a 10 b9 be 36 ac b5 be c3 48 a2 3d a0 f2 36 bd
       -0.36145478 -0.3548295 0.079240344 -0.04466498
000230 e8 6f 17 bd ce 62 05 3d 0b 61 b4 3d b3 2e 15 3c
       -0.036971956 0.03256493 0.08807572 0.009105372
000240 e8 cc 54 bc 3d da 0b bd e0 0d 46 bd fd 68 9e 3d
       -0.012988307 -0.034143675 -0.048353076 0.07734869
000250 ff ef a8 3d b5 fa 2f 3d 03 e9 e6 bd 93 8e f9 3d
       0.082489006 0.042963702 -0.11274912 0.12185397
000260 f5 eb a8 3d 9b 67 9a bd 75 c2 7a 3d ec a8 fd be
       0.0824813 -0.075392924 0.061220605 -0.4954294
000270 b8 74 36 3e f7 c0 9b be 35 b6 8d 3b 7c 73 2f 3c
       0.17817962 -0.30420658 0.0043246993 0.010708686
000280 ef b2 e2 bd e5 60 af 3d 74 9f a2 bb 20 92 71 3d
       -0.11069285 0.08563403 -0.004962856 0.058977246
000290 8b d2 a0 3d 46 e1 cc bc 40 ed 88 be 27 6f 9b be
       0.07852658 -0.025009762 -0.26743507 -0.3035824
0002a0 d1 fa 6a 3d d0 9c a2 3d 3a 5c 3a be de 0b 66 bd
       0.057368103 0.07940066 -0.18199244 -0.05616366
0002b0 87 bf 01 be 60 6c 21 3d 7b e2 22 be d5 e5 f3 bd
       -0.12670718 0.039409995 -0.15906708 -0.11909071
0002c0 81 b7 8e bd 12 6e 4e bd 6b cf 95 3d 29 dd b8 3d
       -0.06968594 -0.05039794 0.073149525 0.09026558
0002d0 d1 0e c7 3d 61 00 6d bd b5 17 2d be 1d d2 c0 bd
       0.09719623 -0.05786169 -0.16903575 -0.09415076
0002e0 8b ac 3c 3d c6 98 30 3e 55 d1 9d bc c1 0a 85 bc
       0.046062987 0.17245778 -0.019264856 -0.01624048
0002f0 2f fe 91 3b a5 06 48 be 35 81 c1 bd d0 f9 7d 3e
       0.00445535 -0.19533785 -0.094484724 0.24802327
000300 c9 69 6f 3c 6b d9 86 bd ca c0 9a 3c c2 6f 97 bd
       0.0146126235 -0.06584438 0.018890757 -0.07394363
000310 da 6f a6 be 03 aa 1d bb 40 f2 28 3c d3 ef a7 bc
       -0.3250721 -0.0024057634 0.010311663 -0.0205001
000320 6a d2 77 be f9 ea 94 bd 67 f3 3d 3e b2 b6 de bd
       -0.2420136 -0.0727138 0.18549882 -0.1087469
000330 b4 d6 25 bd 89 9f 42 be 1a 1d 2e 3b 3c 02 8f 3d
       -0.04048796 -0.1900617 0.002656764 0.06982848
000340 fa 26 0e be 08 ce a8 bc 28 3a 48 3b 06 0d 8d bd
       -0.13882056 -0.020606056 0.0030552242 -0.0688725
000350 4d 73 91 3d d5 fe b7 bd 30 fc ba bc c1 d5 f5 bc
       0.0710207 -0.08984152 -0.02282533 -0.030009152
000360 13 80 18 3e 04 54 f1 3d d0 9b 21 3c 91 2f 9b 3d
       0.14892606 0.11783603 0.009863809 0.07577432
000370 4c 93 ec 3d fe 58 0f 3c 19 90 09 3d cf 30 35 3d
       0.11551532 0.008749245 0.033584688 0.044236
000380 d1 40 b7 3d 72 e0 85 3d 5e ab 0a 3e ca 63 6b be
       0.089479096 0.0653695 0.13541934 -0.22987285
000390 6d f2 91 3d ca b3 c0 3c da 1a b6 be 8c f4 16 3e
       0.07126317 0.02352323 -0.3556736 0.14741725
0003a0 ce bf 94 be 90 7e 4f 3d 73 b5 88 be 04 e1 cc 3d
       -0.29052585 0.05065781 -0.26700935 0.10003856
0003b0 a7 bf 1a bc 73 e6 99 3d 5e 72 13 3d dd bb 79 bd
       -0.009445108 0.07514658 0.03599774 -0.060970176
0003c0 97 9f dc 3c 04 53 5f 3d f9 b0 18 be c7 11 6c be
       0.026931567 0.05452253 -0.1491126 -0.23053657
0003d0 4a 49 3e 3d fd 17 ae bc 5d d6 b5 bb 3e 8c 96 3b
       0.046456613 -0.021251673 -0.0055492357 0.004594355
0003e0 78 1b 3a be 6e 16 a8 bd 7c ca d9 bd 79 f7 c1 3d
       -0.18174541 -0.08207403 -0.10634324 0.0947103
0003f0 b8 0a 91 3d aa d3 88 be 8f af 47 bd 94 03 6f be
       0.070821226 -0.26723987 -0.04875141 -0.23341209

fc3.bias f4 [64]
000000 67 6c 0a bd 48 c7 c0 bc 2f 35 c4 bc 6a 52 b1 3c
       -0.033794787 -0.023532525 -0.023951141 0.021645743
000010 9b b1 81 ba f1 c5 be 3d e8 37 af bc c0 2e 9b bd
       -0.000989485 0.09315098 -0.021388963 -0.07577276
000020 d2 bc 9c bb 10 aa b2 3d 78 48 02 bd cc 85 aa bc
       -0.0047832513 0.08723843 -0.031807393 -0.020815752
000030 19 53 90 bc 6f 49 66 3d 24 a9 9a 3d 6d 5f 9f 3d
       -0.017617749 0.056222375 0.07551792 0.07781873
000040 46 ba 8b 3d 93 ee bf bd fa c6 84 3d 80 e3 8b 3c
       0.06822638 -0.09371676 0.06483264 0.017076254
000050 1a 74 33 bd 17 b8 8c 3c 08 db 76 bd 20 ea d7 bb
       -0.043811895 0.017177625 -0.06026748 -0.006589189
000060 74 26 a5 3d df 41 4c 3c 4c d4 e3 3d 3b f7 91 bc
       0.08063975 0.012466877 0.11124477 -0.017818084
000070 ca ef 8a bc 76 9c 89 bd 2a dd ce 3c 11 3f c5 bb
       -0.016960043 -0.06719296 0.025251944 -0.006019481
000080 f6 7d b8 3d 9b b6 84 bd 29 26 3a 39 76 3f a8 bb
       0.090084 -0.06480142 0.00017752558 -0.0051345183
000090 70 bc 5b bd 5d 68 02 bd f4 02 22 bd f0 d2 cf 3d
       -0.053646505 -0.03183781 -0.039553598 0.10147655
0000a0 62 bf 5a bd 2e c9 71 bd 66 a3 54 3d a5 70 ff 3c
       -0.053405173 -0.05902975 0.05191364 0.031181643
0000b0 1a 78 17 3d 0f 5d 67 3c c1 73 42 3d b5 ee 8e bd
       0.036979772 0.014121308 0.047473673 -0.069791235
0000c0 08 69 2f bd 2e aa 81 3d df fb 0b 3e 10 cc 51 3d
       -0.042824775 0.06331287 0.136703 0.05122
0000d0 22 fe b1 bd 94 7e 5c 3c 3b ef 40 3c cb 94 80 3d
       -0.0869105 0.013457913 0.011775787 0.0627838
0000e0 9a 93 2c 3d 83 e3 da 3c 4b 02 70 3d ff 35 21 bd
       0.04213295 0.026719814 0.058595937 -0.039358135
0000f0 59 51 4e bc ec 74 3a 3c 57 69 c7 bd 14 d2 11 bd
       -0.012592637 0.011380415 -0.09736889 -0.035600737

fc4.weight f4 [2, 64]
000000 19 d5 c9 3e 00 66 2a bf e1 3c 55 be f5 ef 95 be
       0.39420393 -0.6656189 -0.20824005 -0.29284635
000010 9f 07 47 3d cd 56 f5 bd ad 79 a5 3e e3 1f 9a 3d
       0.048591252 -0.119794466 0.32319394 0.07525613
000020 23 45 08 3f 68 ee 59 be 55 d2 2a 3e 73 f3 d5 3e
       0.53230494 -0.21282351 0.16681798 0.417873
000030 59 d4 18 bd b6 cb 7e be e5 dd 14 be 8f 54 47 bf
       -0.037311886 -0.24882397 -0.14537771 -0.778634
000040 3f c8 90 be 2d d5 26 3e 89 32 71 be ef 7c 1b 3f
       -0.28277776 0.16292258 -0.23554434 0.6073751
000050 e1 49 1d 3e 5c d5 12 bf 73 1a e2 3e ee a6 b2 be
       0.15360214 -0.5735681 0.44160804 -0.34892982
000060 76 b2 03 3e fe 4c 9c be 5b 40 e6 3e a9 93 c5 3d
       0.12861046 -0.3052749 0.44970974 0.096473046
000070 92 f6 16 bf e7 6d 4d 3f 4f 05 72 3e 5a 46 f9 be
       -0.58969986 0.8024582 0.23634838 -0.48686486
000080 e5 5c c1 be a5 dc 55 be b8 68 37 3e ba 75 04 3e
       -0.37766185 -0.2088495 0.17911041 0.12935534
000090 b1 d0 5e 3e f8 cf a5 3d 89 b2 54 be c3 d8 80 3e
       0.21759297 0.080963075 -0.20771231 0.25165376
0000a0 69 30 77 3e bb b0 7f 3e 87 53 6b be c4 89 97 be
       0.24139561 0.24969761 -0.22981082 -0.29597294
0000b0 72 83 99 be f5 dd d0 3d 45 b9 a5 be a7 dd 30 3d
       -0.29983097 0.10198585 -0.32367912 0.043180134
0000c0 b2 48 00 3f 9f cb 1d 3e e6 61 85 be eb 28 83 3e
       0.50110924 0.15409707 -0.26051253 0.25617155
0000d0 57 61 eb 3e b2 f8 c7 be 87 62 db 3e a1 cd 09 bf
       0.45972702 -0.39056927 0.42848608 -0.5382939
0000e0 74 75 99 be 83 f6 b9 be ea 74 09 bf a7 2f 4b 3c
       -0.29972422 -0.36320886 -0.5369402 0.012401498
0000f0 32 02 02 3e e9 ab f0 3d 09 7d 58 3e a1 99 2d 3f
       0.1269615 0.11751539 0.21141447 0.67812544
000100 50 93 39 3e 7b ea 04 3e d1 de 3f 3e 3c 59 69 3c
       0.18122602 0.12980072 0.18737341 0.014242467
000110 9d 1d 2c 3f 7a 68 1e be be a6 45 3d f0 39 f8 3d
       0.67232686 -0.15469542 0.04825472 0.12120426
000120 08 ba ea 3e 14 6c 50 be 84 d8 98 be 11 2c 9d 3e
       0.45845056 -0.20353729 -0.29852688 0.30697682
000130 29 31 b4 be 4b 5f b1 be 63 20 9c be 87 66 d8 3d
       -0.35193756 -0.34643015 -0.3049346 0.105664305
000140 aa 68 43 be 0e e0 23 3e 7f f1 77 bd bf a4 03 bf
       -0.19082895 0.16003439 -0.060533043 -0.5142326
000150 79 a8 43 3e 06 48 99 bd 8c 98 35 3e 2f 9b 6e bd
       0.19107236 -0.074844405 0.17733973 -0.058253463
000160 b5 ab 1f be f5 fa f6 bd 44 2e 2d bf 0b 43 7c be
       -0.15592845 -0.12059585 -0.6764872 -0.2463495
000170 ef 71 38 3e ec 55 87 bd c8 c5 02 bf 7d 52 13 3d
       0.18012212 -0.06608185 -0.5108304 0.03596734
000180 0e 79 d5 be 41 ac 4b bf 80 3a 06 3f 11 58 f5 3e
       -0.4169392 -0.79559714 0.52433014 0.47918752
000190 7d c8 b8 3d fb 0c 01 bf 3d c4 2b 3d c3 b7 76 be
       0.09022615 -0.5041043 0.041935194 -0.24093537
0001a0 b1 f3 b3 3d ee 07 ba 3d bd 64 16 3e 08 48 dd 3e
       0.08786715 0.09083544 0.14686866 0.43219018
0001b0 f9 5d 4f 3e ee 20 05 bf 79 ff 85 3e cc 3f 04 3f
       0.20250691 -0.5200337 0.26171473 0.51659846
0001c0 a3 97 65 be 0b 71 e6 bd 50 e4 10 be b3 7d 9a be
       -0.22421126 -0.1125203 -0.14149594 -0.30174026
0001d0 9a eb 7e 3c da ef 30 be 60 19 1b 3e 8b 2e d9 be
       0.0155591015 -0.17278996 0.15146399 -0.42418322
0001e0 2a e9 11 3e 79 87 0e 3e 6a 1c 64 bf 6c 7a 98 be
       0.14249101 0.13918866 -0.89105856 -0.297809
0001f0 22 eb e4 3e 13 fc 14 3f 78 b7 81 be e1 86 0e 3e
       0.44710642 0.58197135 -0.25335288 0.1391864

fc4.bias f4 [2]
000000 a1 25 dc bc ad 79 b1 3d
       -0.026873412 0.08665786
