checkpoints/Computer2-1-checkpoint-1.5269-actor.pth (torch, 193711 bytes, 8 tensors)

fc1.weight f4 [256, 24]
0.043490134 -0.08816454 -0.09623891 0.032786004 0.012112195 -0.15746202 0.049184166 -0.06347527
0.24369222 -0.28172335 -0.1619543 0.07399461 0.118003495 -0.032297287 0.02563787 -0.0063705277
-0.091616616 -0.010785066 -0.0741763 0.11964787 0.3524974 -0.13090494 -0.046003595 0.08217308
0.23192659 -0.40818477 0.06109123 0.0904014 0.08992904 0.024548708 -0.13538195 -0.14865375
-0.039355177 -0.45221242 0.0622591 0.3216045 -0.10600437 -0.008203367 -0.13582592 -0.053380888
-0.08893809 -0.37058032 -0.11909213 0.14016779 0.04606542 -0.24556112 -0.11532703 0.28734756
-0.030761003 -0.18486567 -0.04128704 0.2516992 -0.33837828 0.19634424 0.17692442 -0.031980757
-0.20362768 -0.08547823 0.070428826 -0.10636723 -0.29910243 0.009562158 -0.037001554 0.13678169
-0.15562408 -0.08609583 0.04672883 -8.383227e-06 0.15386114 -0.23885663 -0.038959026 -0.05967584
0.10784259 0.2635476 0.0018482911 -0.13736933 -0.04799752 -0.23310333 0.121495634 -0.036297835
0.19586203 -0.048521303 0.1767913 0.0374396 -0.33572507 0.08115038 -0.1527212 0.1074621
0.17558835 -0.063525066 0.13729212 0.06755798 -0.27419513 0.25252503 0.11627572 0.15432733
-0.037297927 -0.15936086 -0.074234396 0.25365573 0.2190617 0.16964993 0.055464678 0.2819015
0.0037662773 -0.21880955 0.2173433 0.00464369 -0.24703357 0.2726886 -0.13496223 0.09891803
0.009401645 -0.3114537 0.037249528 0.1537395 -0.39674076 0.31899455 -0.0044410746 0.090412624
0.30041435 -0.10792061 0.10235041 -0.08953848 -0.16571504 0.097396605 -0.2080594 0.103911884
0.081637174 -0.26489 -0.061293844 0.004061111 0.12194511 0.13809562 0.03058983 -0.07896278
-0.08414131 -0.18630701 -0.106091335 -0.1280555 0.15085419 0.31264025 0.20617494 -0.06218468
-0.043091115 -0.10355087 0.08168024 0.1085974 0.0345842 0.30919677 -0.10203986 0.18378772
0.400515 0.04938886 -0.14664902 0.13167901 0.3019932 0.08758267 0.09392071 0.1523659
0.16935301 -0.07924367 0.0622519 0.04844632 0.40818724 0.45981443 -0.062014647 0.21342748
0.19581287 0.1955746 0.13729297 -0.13425162 0.027300732 0.022928767 0.16871433 0.15113585
0.10234718 0.10150487 -0.059768405 -0.023688955 -0.28231323 0.24900702 0.062239144 0.060214154
0.18553585 -0.07194827 0.17772491 -0.059179224 -0.12793212 0.3980133 -0.039050054 -0.08949589
-0.17244524 -0.061853904 0.07938343 -0.12971863 -0.14814425 0.026467793 -0.033431042 -0.12854303
0.20667791 0.12389838 -0.07436841 0.098855235 -0.03623936 0.28000787 0.052559778 0.08123718
-0.04496889 -0.14798157 0.032413553 -0.26162776 0.1785007 0.5488663 0.007603942 -0.2877384
0.09808003 0.04169787 -0.08822674 0.32982066 -0.003789331 0.030616855 0.0696787 0.35828653
0.27522522 0.37165475 0.16900568 0.0029030396 -0.10528785 0.22330005 -0.055476557 0.23202394
0.042761765 0.33286572 0.100209124 0.11653997 0.23937514 0.25137022 0.01597072 0.15749331
0.15442061 -0.55272985 -0.010479201 -0.17350642 0.2413874 -0.010135708 0.08784959 -0.059103586
0.38748685 -0.07677235 0.11608622 0.29918683 -0.19442548 0.11167267 -0.11381084 0.15558036
00000000: b622 323d 9c8f b4bd e818 c5bd 9e4a 063d
00000010: 3a72 463c b93d 21be 5675 493d 53ff 81bd
00000020: 748a 793e 0b3e 90be 59d7 25be 7c8a 973d
00000030: d1ab f13d 294a 04bd 8306 d23c dcbf d0bb
00000040: 7ea1 bbbd d8b3 30bc bee9 97bd f109 f53d
00000050: 8a7a b43e f20b 06be 446e 3cbd 5c4a a83d
00000060: 2a7e 6d3e 98fd d0be cc3a 7a3d 5f24 b93d
00000070: b72c b83d 5f1a c93c 91a1 0abe b038 18be
00000080: e532 21bd 6388 e7be 6603 7f3d 58a9 a43e
00000090: d218 d9bd 6a67 06bc f315 0bbe eba5 5abd
000000a0: 2c25 b6bd b4bc bdbe 93e6 f3bd 2588 0f3e
000000b0: 18af 3c3d 6074 7bbe 9430 ecbd 381f 933e
000000c0: 80fe fbbc 6d4d 3dbe 991c 29bd b8de 803e
000000d0: eb3f adbe 770e 493e ad2b 353e 41fe 02bd
000000e0: c683 50be 360f afbd fd3c 903d 10d7 d9bd
000000f0: f423 99be 99aa 1c3c f18e 17bd 8010 0c3e
00000100: eb5b 1fbe 0353 b0bd bb66 3f3d b0a5 0cb7
00000110: c68d 1d3e d596 74be 8093 1fbd a76e 74bd
00000120: 93dc dc3d b6ef 863e 5c42 f23a 8caa 0cbe
00000130: 0c99 44bd a4b2 6ebe b4d2 f83d 0aad 14bd
00000140: 0e90 483e 46be 46bd c708 353e 445a 193d
00000150: 28e4 abbe 2c32 a63d f262 1cbe 1715 dc3d
00000160: 6fcd 333e 6e19 82bd 4e96 0c3e d75b 8a3d
00000170: 4e63 8cbe f64a 813e f721 ee3d fc07 1e3e
00000180: b6c5 18bd 7e2f 23be 3408 98bd 2adf 813e
00000190: b651 603e b6b8 2d3e ee2e 633d 6555 903e
000001a0: a6d3 763b 9c0f 60be 3e8f 5e3e 182a 983b
000001b0: 5ef6 7cbe d79d 8b3e 8a33 0abe 8995 ca3d
000001c0: 5b09 1a3c dc76 9fbe f692 183d e36d 1d3e
000001d0: 9b21 cbbe 4153 a33e 6f86 91bb 412a b93d
000001e0: e9cf 993e 7b05 ddbd 179d d13d f35f b7bd
000001f0: 34b1 29be df77 c73d 860d 55be c1cf d43d
00000200: 6431 a73d a99f 87be 410f 7bbd 1113 853b
00000210: 5cbe f93d f068 0d3e 8697 fa3c 3db7 a1bd
00000220: 4752 acbd 44c7 3ebe 6a46 d9bd fb20 03be
00000230: 8579 1a3e 6212 a03e 861f 533e 5db5 7ebd
00000240: 4f80 30bd 7b12 d4bd f847 a73d 5068 de3d
00000250: 29a8 0d3d 0a4f 9e3e 46fa d0bd d932 3c3e
00000260: 4d10 cd3e f94b 4a3d 292b 16be ddd6 063e
00000270: da9e 9a3e 8b5e b33d 8059 c03d ce05 1c3e
00000280: e06a 2d3e 814a a2bd d9fb 7e3d a66f 463d
00000290: ebfd d03e cc6c eb3e 1203 7ebd bc8c 5a3e
000002a0: 2b83 483e b544 483e 8796 0c3e 4279 09be
000002b0: c9a5 df3c 1cd5 bb3c 73c3 2c3e 5bc3 1a3e
000002c0: 669b d13d c9e1 cf3d b7cf 74bd 570f c2bc
000002d0: 5c8b 90be b2fb 7e3e 79ee 7e3d 1ea3 763d
000002e0: 1cfd 3d3e 9d59 93bd 85fd 353e ea65 72bd
000002f0: a300 03be 66c8 cb3e f3f2 1fbd 9f49 b7bd
00000300: 7c95 30be 855a 7dbd c893 a23d f6d4 04be
00000310: 20b3 17be fcd2 d83c fdee 08bd c9a0 03be
00000320: 60a3 533e 6fbe fd3d 774e 98bd 9d74 ca3d
00000330: b96f 14bd 315d 8f3e ec48 573d ae5f a63d
00000340: 4c31 38bd 7b88 17be 13c4 043d 13f4 85be
00000350: e3c8 363e 8082 0c3f 7d2a f93b 7352 93be
00000360: 2fde c83d 63cb 2a3d 39b0 b4bd 41de a83e
00000370: 6d56 78bb 33d0 fa3c b5b3 8e3d 5571 b73e
00000380: 52ea 8c3e 8849 be3e d30f 2d3e ec40 3e3b
00000390: 28a1 d7bd c5a8 643e 633b 63bd af97 6d3e
000003a0: f626 2f3d 606d aa3e 713a cd3d 82ac ee3d
000003b0: c21e 753e 99b3 803e 07d5 823c ed45 213e
000003c0: 7020 1e3e b47f 0dbf f4b0 2bbc abab 31be
000003d0: 422e 773e 3e10 26bc 7cea b33d 9a16 72bd
000003e0: ad64 c63e d23a 9dbd 9dbe ed3d 042f 993e
000003f0: 7917 47be a4b4 e43d a815 e9bd 7550 1f3e

fc1.bias f4 [256]
0.012650601 -0.059497006 -0.16772372 -0.21821043 0.11641167 0.13289678 -0.3399761 -0.0422195
-0.0011008634 0.042865634 0.04355463 -0.10816741 -0.13623188 -0.12102274 -0.12320919 -0.15966465
-0.15943132 -0.10193581 -0.08710124 -0.105129465 -0.062284913 0.03520759 0.111670695 0.029751832
0.03741407 0.017462745 -0.19855161 0.083661266 -0.012299499 0.24241021 -0.23033196 -0.16516225
-0.027928961 -0.18441361 0.2208863 -0.14290631 -0.09209499 -0.12701565 -0.26932198 -0.05815764
0.049830507 -0.23198761 -0.010078652 0.095613025 -0.10210595 -0.2700283 -0.13840874 -0.08828327
-0.2537858 0.181834 -0.2587162 -0.08213572 -0.07589655 -0.034547962 0.15168662 0.057239767
0.21141699 -0.15394217 -0.3076703 -0.15450172 -0.14494179 -0.18418598 0.001516157 -0.09478392
-0.2068142 0.16757354 -0.12661943 0.076561585 0.07790468 -0.26451817 0.1245526 0.012775452
-0.026009545 -0.021073537 -0.11571259 -0.17092146 -0.08332069 0.05576617 -0.19198191 0.1428609
-0.06561696 -0.08337367 0.08283775 -0.26528123 -0.07433216 -0.015405 -0.09397066 -0.10655305
0.079881445 0.019574115 0.14841515 -0.030166239 0.013796107 -0.3218813 -0.08896205 0.0200545
0.16072953 -0.07928672 -0.22338794 0.16879469 -0.3038213 -0.022393668 0.14892928 -0.01989993
0.19911544 -0.0347703 -0.23341006 0.13668917 0.040444124 0.06385975 -0.26517832 -0.06656973
-0.1345814 -0.2867489 0.029740589 0.0027537579 -0.18031277 -0.0076345224 0.024130302 -0.14549291
-0.13775367 -0.05251849 0.012993642 0.10681147 -0.22861198 -0.075161204 0.11598236 -0.03942665
0.05834678 -0.029236812 0.10691163 0.057710998 -0.21410671 -0.23232764 -0.080902 0.20172942
0.21450627 -0.35086125 0.11254123 0.14596365 0.061681423 -0.1763087 -0.31732193 -0.1391384
0.059760485 -0.08405755 -0.17676923 0.08076732 -5.0170984e-05 0.10789497 -0.2331106 -0.09465501
-0.17576545 -0.07941145 -0.24285918 -0.16426273 0.034373 -0.08261088 -0.32566595 0.03835035
-0.3124568 -0.13468334 0.20049748 -0.26737216 0.09921878 -0.1820146 -0.10526739 -0.189503
0.09051699 0.19298904 -0.03235456 -0.007617036 0.08567643 -0.19296591 -0.027337389 0.09410215
0.1186498 0.25572518 -0.03569782 -0.21418639 -0.08539149 -0.0002662053 -0.019079847 -0.16913137
-0.051646236 0.12345944 0.06857483 -0.06927116 -0.111278296 -0.05447513 0.092448846 0.12662719
0.096132815 0.036413234 0.07599328 -0.24648018 0.083115116 -0.1927099 0.14009292 0.054437127
-0.065876216 -0.013375922 -0.26325396 0.041275658 0.124933384 0.013682992 0.041532136 -0.11040676
0.1164141 -0.20171729 -0.28997725 -0.0015634866 -0.15692885 -0.2611958 -0.3159985 -0.1457805
-0.08329321 -0.24703944 -0.044244878 -0.097195484 0.0922322 0.1386087 0.04860774 -0.1598424
-0.13048309 -0.29419303 -0.05062972 0.18049575 0.20520872 -0.06054451 -0.06709564 0.22558838
-0.08616032 0.035233263 0.079283595 0.015207834 0.25237817 -0.070834406 0.19287643 -0.18092778
-0.20117924 0.38285625 0.053948417 0.1903614 -0.18207537 -0.219853 -0.17002751 0.174791
-0.25974256 -0.051524907 0.1063886 -0.14039041 -0.059743095 0.14594176 0.21285023 -0.057851277
00000000: 7744 4f3c 22b3 73bd c4bf 2bbe 8e72 5fbe
00000010: 3e69 ee3d 1816 083e 5911 aebe 5bee 2cbd
00000020: d94a 90ba e093 2f3d 5766 323d e086 ddbd
00000030: 5f80 0bbe c5da f7bd 1a55 fcbd 217f 23be
00000040: f741 23be b9c3 d0bd 2362 b2bd 1e4e d7bd
00000050: 771e 7fbd d535 103d 9bb3 e43d 1dba f33c
00000060: 7f3f 193d 080e 8f3c 1d51 4bbe 9956 ab3d
00000070: d683 49bc 623a 783e 24dc 6bbe 4b20 29be
00000080: 47cb e4bc ecd6 3cbe 0530 623e 0856 12be
00000090: 4c9c bcbd 6410 02be 92e4 89be b536 6ebd
000000a0: 131b 4c3d 298e 6dbe ee20 25bc c3d0 c33d
000000b0: ed1c d1bd 2641 8abe 05bb 0dbe dccd b4bd
000000c0: 36f0 81be b132 3a3e 7376 84be c636 a8bd
000000d0: a76f 9bbd 2a82 0dbd bd53 1b3e 3f74 6a3d
000000e0: b27d 583e 04a3 1dbe f686 9dbe b335 1ebe
000000f0: 9f6b 14be 409b 3cbe c9b9 c63a 121e c2bd
00000100: 1ac7 53be 6698 2b3e 86a8 01be 52cc 9c3d
00000110: 7d8c 9f3d ed6e 87be 6f15 ff3d 2150 513c
00000120: f811 d5bc 69a2 acbc b9fa ecbd 0906 2fbe
00000130: 0aa4 aabd 116b 643d e896 44be 214a 123e
00000140: 2f62 86bd d1bf aabd d7a6 a93d f1d2 87be
00000150: 763b 98bd 4165 7cbc b073 c0bd 7c38 dabd
00000160: e298 a33d e559 a03c 24fa 173e 301f f7bc
00000170: 1109 623c a0cd a4be bc31 b6bd 5649 a43c
00000180: 4896 243e 1361 a2bd cfbf 64be 84d8 2c3e
00000190: 778e 9bbe ed72 b7bc eb80 183e 2e05 a3bc
000001a0: ebe4 4b3e 4d6b 0ebd 0c03 6fbe 3ff8 0b3e
000001b0: bda8 253d e7c8 823d 74c5 87be b655 88bd
000001c0: b5cf 09be c0d0 92be 89a2 f33c 6478 343b
000001d0: e9a3 38be 042b fabb e9ac c53c 18fc 14be
000001e0: 4c0f 0dbe a11d 57bd 49e3 543c f9bf da3d
000001f0: 4219 6abe 1eee 99bd 2988 ed3d d77d 21bd
00000200: 08fd 6e3d 0a82 efbc 7cf4 da3d 5e62 6c3d
00000210: ca3e 5bbe 4ce7 6dbe f3af a5bd 2892 4e3e
00000220: 88a7 5b3e 16a4 b3be 047c e63d 7f77 153e
00000230: a9a5 7c3d 458a 34be 0578 a2be 4c7a 0ebe
00000240: 69c7 743d 5d26 acbd fe02 35be 5669 a53d
00000250: af6e 52b8 0af8 dc3d 8cb4 6ebe 7cda c1bd
00000260: dcfb 33be 78a2 a2bd 14b0 78be 7d34 28be
00000270: b4ca 0c3d e52f a9bd b0bd a6be 4215 1d3d
00000280: 56fa 9fbe 6eea 09be 364f 4d3e 01e5 88be
00000290: 3733 cb3d 0962 3abe 6e96 d7bd 130d 42be
000002a0: f960 b93d eb9e 453e 3786 04bd 5498 f9bb
000002b0: 2077 af3d db98 45be a9f2 dfbc a1b8 c03d
000002c0: abfe f23d 69ee 823e e137 12bd ad53 5bbe
000002d0: bce1 aebd 7891 8bb9 574d 9cbc c630 2dbe
000002e0: 018b 53bd 4ed8 fc3d f670 8c3d 0ade 8dbd
000002f0: e0e5 e3bd 5021 5fbd d255 bd3d 8faa 013e
00000300: 48e1 c43d 0b26 153d 5da2 9b3d 4d65 7cbe
00000310: 4238 aa3d be55 45be 8574 0f3e 77f9 5e3d
00000320: 1cea 86bd af26 5bbc 39c9 86be aa10 293d
00000330: 13dd ff3d a12e 603c 9a1d 2a3d f01c e2bd
00000340: 846a ee3d fa8e 4ebe e677 94be e8ed ccba
00000350: f5b1 20be 75bb 85be 8eca a1be 7c47 15be
00000360: a195 aabd e8f7 7cbe 1e3a 35bd 6d0e c7bd
00000370: 3ce4 bc3d 70ef 0d3e e918 473d baad 23be
00000380: 5c9d 05be 78a0 96be 1c61 4fbd e1d3 383e
00000390: 3c22 523e 85fd 77bd 7069 89bd a400 673e
000003a0: d274 b0bd c150 103d 705f a23d 472a 793c
000003b0: b637 813e a111 91bd 6681 453e 2245 39be
000003c0: ee01 4ebe bc05 c43e 04f9 5c3d 19ee 423e
000003d0: f771 3abe 2521 61be b11b 2ebe 69fc 323e
000003e0: fafc 84be c80b 53bd 44e2 d93d 81c2 0fbe
000003f0: 2db5 74bd c271 153e 69f5 593e 76f5 6cbd

fc2.weight f4 [128, 256]
-0.01752245 0.031201601 0.035274997 -0.18695496 0.04892566 -0.086551845 0.11937431 -0.18455686
0.11640412 0.011245902 -0.08409088 0.022582388 -0.014569724 -0.03999215 0.039475627 -0.15395913
0.15615161 -0.05729568 0.09121424 -0.23260538 0.07817635 -0.02663181 0.037715875 -0.32851502
-0.027870147 0.07109615 -0.0589701 -0.09448386 0.069175 0.04198371 -0.10913009 -0.019839834
-0.046723947 -0.03158007 -0.17166212 0.055661835 0.061494984 -0.02532842 -0.1539271 0.17554282
-0.0010378351 -0.06711936 -0.010013046 0.118640825 0.07956213 0.06484978 0.06243018 -0.051583506
0.03042695 0.024640776 -0.020336065 -0.12768684 -0.06744792 -0.17104158 -0.084142715 -0.05359033
-0.006954415 -0.021526553 0.03666172 0.04696946 -0.01885254 -0.14590923 -0.071728155 0.10402864
0.08402901 -0.26957962 -0.34352195 -0.08310808 -0.13249244 -0.028722487 0.062994406 0.02436664
-0.12865816 0.10480767 0.0003831351 -0.049245384 -0.019807061 -0.016915036 0.09838679 0.062548466
0.08119216 -0.33332232 0.079028785 -0.020980684 -0.018296678 0.017687773 -0.11180912 0.03213696
0.0043611694 -0.021525173 0.082617916 0.026002023 -0.022526305 0.10084154 0.09520368 0.044835664
-0.1320067 0.08831778 -0.0263052 -0.111368164 0.083947174 0.04037698 0.09851976 -0.029892238
-0.107393436 0.0031713098 -0.06201308 0.04069582 -0.035561576 -0.17435384 0.020851519 0.017542293
-0.22328518 0.045054104 -0.09740985 -0.051361825 -0.03210642 -0.080122635 -0.021297263 0.02689781
-0.03636392 -0.102408245 0.048872378 0.055664953 0.09929413 -0.07042775 -0.11577465 0.31629935
-0.014750161 0.08616552 -0.13657051 -0.07881898 -0.22516458 -0.02175239 0.014946059 0.053608265
-0.20242763 0.024920983 0.06254014 -0.15367532 -0.09000529 -0.074495815 -0.10147396 0.061573856
-0.008451168 0.1076133 0.08882005 0.044244066 -0.030614724 0.08362652 0.044942047 -0.0440542
-0.0152394455 -0.0188257 0.11424373 0.06660846 -0.13730408 0.06453821 0.076513045 0.0013939901
-0.005474625 0.05234154 -0.03178219 0.05323864 -0.0442485 -0.06991899 0.010950834 -0.0055627427
0.07204022 -0.36144155 0.092756785 -0.046368677 0.07763054 -0.114334114 0.01889167 0.08508988
-0.3567594 0.10415626 0.035720225 0.12154932 -0.10089065 -0.09194518 -0.07870076 -0.2366563
0.019578299 -0.3345462 -0.12682842 0.13452286 -0.029077021 -0.05889856 -0.10851567 0.04591118
0.017487546 -0.111720674 -0.005794012 0.09927428 -0.21277843 -0.037469596 -0.06429025 0.0005014772
0.053181835 0.19731726 -0.0647017 -0.03782729 -0.07083777 0.023447506 0.016815502 -0.16964887
-0.047324542 -0.065395586 0.03563765 -0.037690286 -0.20453703 0.029190503 -0.3769934 0.104623675
0.0732829 -0.1904045 0.10206867 -0.11613135 -0.03427478 -0.03596863 0.007213547 -0.23562281
0.04262329 0.017450921 0.022958735 0.4753147 -0.13376506 -0.06775258 -0.17798047 0.08007566
0.08470602 -0.0654852 -0.08888716 -0.08673655 -0.005187616 0.023197776 0.10905596 0.0658006
-0.009601338 0.08520589 -0.109909005 -0.024962649 0.015776178 -0.020026617 -0.2984894 -0.043252975
-0.059535854 -0.006379988 -0.0438036 -0.018692981 -0.028172582 -0.08400995 -0.21883123 -0.059558835
00000000: 3e8b 8fbc 809a ff3c 847c 103d 1f71 3fbe
00000010: 4666 483d 1842 b1bd 857a f43d 79fc 3cbe
00000020: 4965 ee3d bb40 383c d737 acbd b3fe b83c
00000030: dab5 6ebc cfce 23bd 32b1 213d 76a7 1dbe
00000040: 35e6 1f3e e0ae 6abd 88ce ba3d 1b30 6ebe
00000050: ec1a a03d f42a dabc f67b 1a3d 1f33 a8be
00000060: ef4f e4bc dc9a 913d a28a 71bd c180 c1bd
00000070: 9fab 8d3d 1cf7 2b3d 997f dfbd 2687 a2bc
00000080: 9c61 3fbd 1a5a 01bd 32c8 2fbe aafd 633d
00000090: 2ae2 7b3d 8c7d cfbc 119f 1dbe 7fc1 333e
000000a0: f807 88ba e075 89bd c20d 24bc f6f9 f23d
000000b0: 78f1 a23d f6cf 843d cab6 7f3d 3a49 53bd
000000c0: f041 f93c 74db c93c d297 a6bc 57c0 02be
000000d0: 2322 8abd 8625 2fbe 0453 acbd 8981 5bbd
000000e0: dce1 e3bb 7458 b0bc 9a2a 163d 0c63 403d
000000f0: a470 9abc 3b69 15be 36e6 92bd f80c d53d
00000100: 6717 ac3d 5706 8abe 1ce2 afbe 9234 aabd
00000110: 19ac 07be 6c4b ebbc 3603 813d 8c9c c73c
00000120: f7be 03be 67a5 d63d 86df c839 87b5 49bd
00000130: 6b42 a2bc 6791 8abc 037f c93d 6919 803d
00000140: 1348 a63d 39a9 aabe d8d9 a13d afdf abbc
00000150: eae2 95bc f3e5 903c 2efc e4bd 0ca2 033d
00000160: 24e8 8e3b 8f55 b0bc 9533 a93d 3202 d53c
00000170: 1689 b8bc 0286 ce3d 26fa c23d 9aa5 373d
00000180: c42c 07be f4df b43d 017e d7bc fe14 e4bd
00000190: 7fec ab3d 5562 253d bac4 c93d 91e0 f4bc
000001a0: 17f1 dbbd c0d5 4f3b 6d01 7ebd a9b0 263d
000001b0: 04a9 11bd d089 32be ced0 aa3c dbb4 8f3c
000001c0: dfa4 64be a78a 383d d17e c7bd c760 52bd
000001d0: 0582 03bd 5617 a4bd 9977 aebc cc58 dc3c
000001e0: 55f2 14bd 6abb d1bd 672e 483d ef00 643d
000001f0: b95a cb3d 6d3c 90bd 421b edbd fdf1 a13e
00000200: a9aa 71bc 8c77 b03d 24d9 0bbe d86b a1bd
00000210: 8b91 66be 1132 b2bc 51e0 743c 5794 5b3d
00000220: 3049 4fbe 1727 cc3c 0b15 803d 105d 1dbe
00000230: b254 b8bd 4391 98bd 94d1 cfbd de34 7c3d
00000240: c576 0abc 5d64 dc3d 49e7 b53d 4439 353d
00000250: bbcb fabc 6244 ab3d 2715 383d 2d72 34bd
00000260: deae 79bc 5b38 9abc 9ef8 e93d 046a 883d
00000270: 7199 0cbe 9c2c 843d dfb2 9c3d 8cb6 b63a
00000280: 7c64 b3bb 1564 563d 0b2e 02bd c310 5a3d
00000290: ea3d 35bd b031 8fbd 206b 333c ab47 b6bb
000002a0: d389 933d de0e b9be 45f7 bd3d 15ed 3dbd
000002b0: c3fc 9e3d 0128 eabd b4c2 9a3c 9a43 ae3d
000002c0: 2ba9 b6be e14f d53d 5f4f 123d daee f83d
000002d0: c29f cebd c14d bcbd dd2d a1bd 0756 72be
000002e0: ab62 a03c a449 abbe 4fdf 01be 5cc0 093e
000002f0: ef32 eebc 9e3f 71bd 773d debd 5d0d 3c3d
00000300: 0b42 8f3c cfcd e4bd b2db bdbb 5050 cb3d
00000310: 97e2 59be b879 19bd 9baa 83bd 9175 033a
00000320: 32d5 593d 890d 4a3e 5382 84bd caf0 1abd
00000330: 6513 91bd fc14 c03c aac0 893c 6fb8 2dbe
00000340: 61d7 41bd 1fee 85bd c9f8 113d 2161 1abd
00000350: 2872 51be ec20 ef3c 4705 c1be f044 d63d
00000360: 5815 963d 66f9 42be 6109 d13d 46d6 edbd
00000370: b663 0cbd d853 13bd 9e5f ec3b 1b47 71be
00000380: c295 2e3d 3cf5 8e3c f513 bc3c 735c f33e
00000390: b5f9 08be ddc1 8abd 8340 36be b5fe a33d
000003a0: 5a7a ad3d 1b1d 86bd 790a b6bd efa2 b1bd
000003b0: e1fc a9bb 4309 be3c bb58 df3d 77c2 863d
000003c0: ee4e 1dbc 6d80 ae3d f917 e1bd 787e ccbc
000003d0: 0b3d 813c dc0e a4bc 9ad3 98be 082a 31bd
000003e0: dedb 73bd 380f d1bb 676b 33bd 0622 99bc
000003f0: 30ca e6bc 690d acbd 4b15 60be f7f3 73bd

fc2.bias f4 [128]
-0.006560169 0.036143724 -0.05408486 0.036117546 -0.06523596 0.044175245 -0.07723732 -0.1290494
0.051821016 -0.0075270543 -0.02867253 0.0054657655 0.106324375 -0.07091948 -0.00012239671 0.05997088
-0.026065074 -0.013382809 -0.13018884 -0.048904993 0.027237963 -0.031927258 -0.08542146 0.021248426
0.051770538 0.03755338 -0.100409515 -0.02184637 0.0037250742 0.007759847 -0.074826285 -0.008207939
-0.017931255 -0.118133806 -0.005178294 -0.10447996 0.022845797 0.033154134 0.045313936 -0.046031028
0.0062504867 0.011455229 0.10019543 -0.01216318 -0.024263827 -0.08131326 -0.02174907 -0.00019118401
-0.026408873 0.12853853 0.065879345 -0.18929021 0.02996656 -0.010418991 -0.038623977 0.062028
0.02541298 -0.009262422 0.10471933 -0.074335955 -0.11147105 0.025591778 0.029843194 -0.027132295
8.817393e-05 0.13563734 -0.03995159 0.07460338 0.0036176234 0.043645777 -0.009201462 -0.12875706
-0.057453386 0.030599812 -0.015155316 -0.056076564 0.026941542 -0.047323603 0.04646228 -0.011798912
-0.013125655 0.0014702828 0.10614775 0.13301654 0.0043481714 -0.055190854 0.053236645 0.050660413
-0.017458983 0.002723556 -0.059664752 -0.004114768 0.023668243 -0.027114889 0.04271594 -0.035126712
-0.07081836 -0.058437523 -0.023329156 -0.016837418 -0.04470425 -0.119468085 -0.0007969456 0.04368796
0.0264065 0.004479647 -0.0010658447 0.03075605 0.03650185 0.027442263 0.016940262 0.03081531
0.085164405 0.10750453 0.07170628 0.0022389458 -0.026792374 -0.021226933 -0.009020863 -0.06106878
0.00075219857 -0.08965384 -0.007469893 0.00639696 0.059278414 0.009174148 0.00013330135 -0.042097576
00000000: b0f6 d6bb 710b 143d 1688 5dbd feef 133d
00000010: 6e9a 85bd 1af1 343d 9a2e 9ebd 8725 04be
00000020: 4642 543d 82a5 f6bb a7e2 eabc 2a1a b33b
00000030: 98c0 d93d 3b3e 91bd 9e57 00b9 07a4 753d
00000040: 6c86 d5bc 9243 5bbc 3950 05be 9a50 48bd
00000050: 2622 df3c 28c6 02bd 72f1 aebd 2e11 ae3c
00000060: 580d 543d 93d1 193d 81a3 cdbd 29f7 b2bc
00000070: 6020 743b 5146 fe3b 863e 99bd 977a 06bc
00000080: 91e4 92bc 23f0 f1bd aeae a9bb 97f9 d5bd
00000090: 1c27 bb3c a1cc 073d 1b9b 393d 088b 3cbd
000000a0: e2d0 cc3b b6ae 3b3c 4333 cd3d 1348 47bc
000000b0: efc4 c6bc 9187 a6bd 1b2b b2bc 9178 48b9
000000c0: 6c57 d8bc 9b9f 033e c0eb 863d 4bd5 41be
000000d0: 6e7c f53c 6ab4 2abc 2d34 1ebd 1211 7e3d
000000e0: e22e d03c 6ac1 17bc 1777 d63d 733d 98bd
000000f0: ef4a e4bd d9a5 d13c b779 f43c 8c44 debc
00000100: 05ea b838 84e4 0a3e 47a4 23bd a8c9 983d
00000110: a615 6d3b eac5 323d bbc1 16bc e4d8 03be
00000120: 3e54 6bbd 75ac fa3c 014e 78bc 8ab0 65bd
00000130: 82b4 dc3c 65d6 41bd 3b4f 3e3d 3950 41bc
00000140: fd0c 57bc 81b6 c03a fe63 d93d 7d35 083e
00000150: 1b7b 8e3b ce0f 62bd ab0e 5a3d 4b81 4f3d
00000160: 2406 8fbc b07d 323b 0763 74bd 2dd5 86bb
00000170: e7e3 c13c 0b20 debc e9f6 2e3d 07e1 0fbd
00000180: 3709 91bd 2f5c 6fbd c91c bfbc a0ee 89bc
00000190: ce1b 37bd afab f4bd 1dea 50ba 25f2 323d
000001a0: 7252 d83c 01ca 923b d0b3 8bba 1df4 fb3c
000001b0: f782 153d 99ce e03c 4ec6 8a3c 6470 fc3c
000001c0: ad6a ae3d 562b dc3d beda 923d 47bb 123b
000001d0: ae7b dbbc 1be4 adbc 3ecc 13bc 4223 7abd
000001e0: 312f 453a 6f9c b7bd 01c6 f4bb 979d d13b
000001f0: eccd 723d 2a4f 163c cfc6 0b39 826e 2cbd

fc3.weight f4 [64, 128]
0.16054408 -0.022241423 0.035643354 0.07702634 -0.13992906 -0.019586312 0.051338207 -0.099102184
0.09580788 -0.0140108345 0.033540513 -0.014381469 0.11975444 0.058060404 -0.008528096 0.13528728
-0.061199795 0.07059697 0.033640683 0.08774284 0.11517503 0.08698634 -0.07066902 0.02584139
-0.042296015 0.0054262597 0.31327042 0.03965161 0.025028268 -0.11944168 0.16481823 0.0064835055
0.07756507 0.14764488 0.08338163 0.106482685 -0.02908727 -0.034661632 0.11052289 -0.107368514
-0.08360015 0.07225127 -0.0016231026 -0.07842313 0.03344286 0.024713682 0.074780926 -0.060417924
0.033056013 0.0056810435 0.071191385 0.03449533 0.10395167 -0.0051355567 0.16452359 -0.019416455
-0.03242645 -0.18999521 -0.0648574 -0.25177965 -0.04627564 -0.108073585 0.043406907 -0.009503707
-0.17422938 0.034881473 -0.058963425 -0.13428617 -0.25560465 0.04290403 -0.073828965 -0.05376043
0.13105801 0.0089629805 -0.009699529 0.0067968015 -0.068487406 0.08563611 0.08662718 0.09341205
-0.055386264 0.055750784 0.0012784827 -0.01956703 -0.024803115 0.1142828 0.073763 -0.006001174
-0.033761546 0.116068125 -0.060950216 0.12235051 0.026870508 -0.055924516 0.054512266 0.09045792
0.43962365 -0.033012163 0.06872247 0.002548122 -0.19829407 -0.078349955 0.07096881 -0.08638117
-0.05876036 0.05015981 0.022608195 -0.03284979 0.14312889 -0.0035412451 -0.06270789 0.033694647
-0.10661552 0.074767746 -0.045450076 -0.13584782 0.26523498 -0.07523713 0.04881408 -0.079542555
-0.013496403 0.081259444 0.2409438 -0.09469977 0.008369642 -0.085774414 0.059413984 -0.03393395
0.035499915 -0.056459587 -0.070565954 0.030560188 -0.05842113 -0.09981837 0.10347362 -0.084305115
0.053950593 -0.04293851 0.02573527 0.097677566 0.007281333 0.06697945 0.080973096 0.089511305
-0.064237885 0.081572056 0.12155713 0.009327588 0.056349743 0.009428957 -0.10556636 0.11820156
0.058055166 -0.009104366 0.24096127 -0.09768048 -0.009768124 0.04468145 0.024999995 -0.08145288
-0.04478415 0.19482306 -0.006441256 0.04697013 -0.09478513 -0.11052381 0.062005248 -0.014006364
0.0059445547 0.04638429 -0.037015926 -0.13454422 0.059810407 0.06872082 0.107568055 0.005692071
-0.08013945 -0.03222049 0.03779373 0.08673632 0.070885934 0.010280524 0.039466 -0.017004851
-0.09626843 -0.047963027 0.048739813 0.024821347 0.14155307 -0.13411875 -0.08977189 -0.14628312
-0.17451556 0.04920288 0.012906103 -0.09792317 -0.1450359 0.051556494 0.011081831 0.040083453
0.061425664 -0.017231897 -0.14804707 -0.1512323 -0.09206472 -0.010820164 -0.06914011 -0.044177473
0.07756574 -0.0837309 0.098171964 0.1476626 -0.088248074 -0.032386385 0.06349569 0.015921764
0.07992559 -0.013278611 -0.028539041 0.2634763 0.08889118 0.020837823 0.15385647 0.020620083
0.28424466 0.016908783 -0.039146073 0.020385364 -0.06014131 0.068379045 0.0027046164 -0.018374825
-0.012351289 0.019431327 0.07718968 0.009789014 0.017150948 -0.08149489 -0.05661551 0.016799765
-0.03835407 0.025820952 -0.019556476 0.044328142 0.27875784 0.08587843 0.103430174 -0.07813301
-0.004464679 -0.2752101 0.087947614 -0.04791182 0.043646496 0.054358598 -0.030754218 -0.09659058
00000000: ab65 243e a533 b6bc c4fe 113d fcbf 9d3d
00000010: 9049 0fbe 7973 a0bc 0348 523d 16f6 cabd
00000020: ec36 c43d b38d 65bc c761 093d 41a0 6bbc
00000030: d141 f53d bfd0 6d3d 6db9 0bbc c088 0a3e
00000040: a3ac 7abd 2595 903d d0ca 093d 85b2 b33d
00000050: e3e0 eb3d e525 b23d ebba 90bd 53b1 d33c
00000060: 963e 2dbd c4ce b13b fb64 a03e ba69 223d
00000070: 1508 cd3c d79d f4bd 1cc6 283e 9673 d43b
00000080: 6fda 9e3d 3830 173e fdc3 aa3d 9813 da3d
00000090: 6d48 eebc 5bf9 0dbd d359 e23d 06e4 dbbd
000000a0: 8e36 abbd 79f8 933d 49be d4ba 4e9c a0bd
000000b0: 61fb 083d 5974 ca3c be26 993d c978 77bd
000000c0: be65 073d 0c28 ba3b cacc 913d fa4a 0d3d
000000d0: 9de4 d43d 2c48 a8bb df78 283e 420f 9fbc
000000e0: 99d1 04bd 1b8e 42be f5d3 84bd 43e9 80be
000000f0: 878b 3dbd af55 ddbd 71cb 313d 70b5 1bbc
00000100: 3069 32be e0df 0e3d a283 71bd 5082 09be
00000110: 9dde 82be 23bc 2f3d a433 97bd e633 5cbd
00000120: 1234 063e 77d9 123c c6ea 1ebc b4b7 de3b
00000130: 2043 8cbd fc61 af3d 9769 b13d d14e bf3d
00000140: b5dc 62bd ef5a 643d c392 a73a 094b a0bc
00000150: e72f cbbc 1a0d ea3d 0e11 973d 7fa5 c4bb
00000160: 8c49 0abd 20b5 ed3d efa6 79bd e792 fa3d
00000170: 8a1f dc3c 1b11 65bd 4148 5f3d 0142 b93d
00000180: 5a16 e13e c337 07bd 5ebe 8c3d 65fe 263b
00000190: 9a0d 4bbe f175 a0bd 1858 913d 9ce8 b0bd
000001a0: b4ae 70bd 5f74 4d3d d234 b93c 808d 06bd
000001b0: 6190 123e 3c14 68bb ff6c 80bd 6603 0a3d
000001c0: 3d59 dabd d51f 993d dc29 3abd b11b 0bbe
000001d0: e1cc 873e ed15 9abd 46f1 473d 35e7 a2bd
000001e0: 0420 5dbc 5a6b a63d f9b9 763e f4f1 c1bd
000001f0: d320 093c 7faa afbd 145c 733d 53fe 0abd
00000200: 5c68 113d 2b42 67bd e284 90bd 5c59 fa3c
00000210: ff4a 6fbd 936d ccbd fae9 d33d 29a8 acbd
00000220: 4cfb 5c3d 4be0 2fbd c6d2 d23c 2d0b c83d
00000230: 4098 ee3b 862c 893d 39d5 a53d b451 b73d
00000240: 278f 83bd 400f a73d f2f2 f83d bdd2 183c
00000250: fdce 663d e97b 1a3c 2d33 d8bd a913 f23d
00000260: 41cb 6d3d 7b2a 15bc 8dbe 763e b40c c8bd
00000270: 7b0a 20bc e503 373d cacc cc3c c4d0 a6bd
00000280: 966f 37bd b27f 473e 2c11 d3bb c063 403d
00000290: b51e c2bd 4f5a e2bd 37f9 7d3d f37a 65bc
000002a0: 8aca c23b 74fd 3d3d 039e 17bd f6c5 09be
000002b0: c2fb 743d 80bd 8c3d a44c dc3d 8d84 ba3b
000002c0: 2720 a4bd a2f9 03bd 99cd 1a3d d0a2 b13d
000002d0: a52c 913d a56f 283c 1aa7 213d c24d 8bbc
000002e0: 6228 c5bd e174 44bd 66a3 473d 2356 cb3c
000002f0: 4af3 103e 6d56 09be 53da b7bd 3ecb 15be
00000300: 35b4 32be f688 493d 1f74 533c f18b c8bd
00000310: 4a84 14be e72c 533d 9190 353c 8c2e 243d
00000320: 7a99 7b3d e829 8dbc a799 17be a4dc 1abe
00000330: 6e8c bcbd 0f47 31bc 5499 8dbd 70f3 34bd
00000340: c9da 9e3d 1b7b abbd 620e c93d dd34 173e
00000350: 68bb b4bd 96a7 04bd 070a 823d 5c6e 823c
00000360: 07b0 a33d 888e 59bc b5ca e9bc 5ee6 863e
00000370: 940c b63d 15b4 aa3c 8d8c 1d3e 73eb a83c
00000380: 8488 913e 4a84 8a3c a257 20bd 35ff a63c
00000390: bc56 76bd 500a 8c3d ef3f 313b cd86 96bc
000003a0: 105d 4abc 722e 9f3c 9f15 9e3d 1a62 203c
000003b0: 2580 8c3c cbe6 a6bd aae5 67bd a99f 893c
000003c0: 2819 1dbd 7686 d33c e734 a0bc 6d91 353d
000003d0: 59b9 8e3e 08e1 af3d 33d3 d33d 3304 a0bd
000003e0: 714c 92bb 57e8 8cbe e11d b43d 2f3f 44bd
000003f0: abc6 323d 1fa7 5e3d 45f0 fbbc 48d1 c5bd

fc3.bias f4 [64]
-0.089649834 -0.04638628 0.03907074 0.060473375 0.081735045 -0.09166941 0.028771551 -0.071284324
-0.042933922 0.03713101 -0.031773813 -0.017418835 0.02953522 0.04663403 0.027278489 0.09906017
-0.05454323 -0.037700713 -0.00662592 0.030144067 -0.045087274 -0.06677027 -0.07819934 -0.04929258
-0.012235937 0.019597547 -0.07065861 -0.10065818 0.16987297 -0.016697833 -0.09049618 0.025039932
0.01256781 0.10558649 0.009331158 0.105398014 -0.071476474 -0.0011792715 -0.06974218 0.024313312
-0.005644688 -0.08049235 0.10239561 -0.08921683 -0.075064115 0.042143393 0.009031682 0.0006672829
-0.034914482 -0.007166049 0.04365821 -0.005715264 0.0071322396 0.13230753 0.008146372 -0.045791365
-0.023752121 0.008484466 0.03087315 0.008633408 0.00011634964 0.08303463 0.14892423 0.02268912
00000000: 559a b7bd 8aff 3dbd a408 203d eeb2 773d
00000010: b464 a73d 2cbd bbbd 51b2 eb3c 84fd 91bd
00000020: 7bdb 2fbd b016 183d 4225 02bd f2b1 8ebc
00000030: d8f3 f13c 5303 3f3d 2377 df3c 0fe0 ca3d
00000040: b968 5fbd 106c 1abd 3f1e d9bb b1f0 f63c
00000050: 6fad 38bd dabe 88bd fa26 a0bd 04e7 49bd
00000060: 3d79 48bc 098b a03c 76b5 90bd e025 cebd
00000070: 2ef3 2d3e e5c9 88bc 1056 b9bd 8b20 cd3c
00000080: 37e9 4d3c bb3d d83d b7e1 183c eada d73d
00000090: 4262 92bd c991 9aba fdd4 8ebd b62c c73c
000000a0: 13f7 b8bb 2cd9 a4bd cab4 d13d 50b7 b6bd
000000b0: 37bb 99bd 8d9e 2c3d 9ff9 133c 99ec 2e3a
000000c0: 7d02 0fbd 2dd1 eabb f4d2 323d 1c47 bbbb
000000d0: 90b5 e93b a07b 073e 5c78 053c ba8f 3bbd
000000e0: cf93 c2bc 6e02 0b3c b0e9 fc3c 2373 0d3c
000000f0: bd00 f438 0f0e aa3d 987f 183e 89de b93c

fc4.weight f4 [2, 64]
0.13735965 0.120228745 -0.10314704 -0.78081447 -0.04560224 0.11327587 0.08511369 0.1750838
-0.09509517 -0.046543494 0.08796411 0.06543373 0.09919461 -0.23768789 -0.21611267 -0.118611634
0.100502536 -0.45900396 -0.07143576 0.35546154 -0.23639594 -0.3359843 0.076869674 -0.050186526
0.5108114 -0.37999567 -0.16700934 -0.37546858 -0.030228253 -0.10808905 0.4054939 -0.06379338
0.12943865 0.20046921 -0.11733553 0.5525893 -0.16264048 0.26950982 0.052356716 -0.16397749
0.44072604 -0.09393988 0.0060869744 0.1339635 -0.6935446 -0.25466394 -0.039500006 0.072982
-0.12721348 -0.29841533 0.07199335 -0.60840964 -0.014310157 0.3349343 0.123665966 -0.01605996
0.2952071 -0.06907754 -0.24442716 -0.4479587 0.1525809 -0.79250234 0.21084794 -0.16791804
-0.14723432 -0.082107194 0.043817054 0.1665555 -0.64646554 -0.33765393 -0.25847283 -0.45407006
0.33945537 -0.62714326 0.47461018 0.26738623 -0.06758152 -0.029653007 -0.028391719 0.54524106
-0.2998846 0.20934975 -0.5780861 0.12585326 0.00080930546 -0.25090933 0.15232567 0.4616713
-0.38600305 -0.084485665 -0.17959301 0.20543694 0.49920583 0.7011708 -0.25667566 0.27018225
0.019914826 0.2731156 -0.19120726 -0.24361765 -0.13983794 -0.027208284 0.5401528 -0.12935415
0.11780934 -0.1670971 0.42036614 0.40228024 -0.1377163 -0.34483436 0.38060176 0.4543708
0.08790319 0.099735714 -0.3233898 0.107321754 -0.18911691 -0.19762115 -0.5851269 -0.3658394
0.30625296 0.07317458 0.4285529 0.39741144 -0.81137246 -0.0010398001 0.08856831 0.1162925
00000000: 02a8 0c3e 7d3a f63d c13e d3bd 75e3 47bf
00000010: 6ac9 3abd 2efd e73d 1650 ae3d 2b49 333e
00000020: 42c1 c2bd 64a4 3ebd 8726 b43d 1f02 863d
00000030: 8b26 cb3d 7464 73be a44c 5dbe a8ea f2bd
00000040: 46d4 cd3d 9102 ebbe e94c 92bd 0eff b53e
00000050: c711 72be 2206 acbe d96d 9d3d 6390 4dbd
00000060: 89c4 023f cb8e c2be 7f04 2bbe 6b3d c0be
00000070: 3ea1 f7bc cb5d ddbd e59c cf3e 1ba6 82bd
00000080: 918b 043e cd47 4d3e 9c4d f0bd 7e76 0d3f
00000090: 3a8b 26be 31fd 893e ff73 563d b7e9 27be
000000a0: d8a6 e13e 8d63 c0bd 3e75 c73b ba2d 093e
000000b0: 248c 31bf 5063 82be c2ca 21bd 9677 953d
000000c0: 4044 02be e5c9 98be 4071 933d bcc0 1bbf
000000d0: 2675 6abc 827c ab3e 9544 fd3d 2d90 83bc
000000e0: 6325 973e 8678 8dbd 1d4b 7abe d85a e5be
000000f0: 2b3e 1c3e 6fe1 4abf 86e8 573e b5f2 2bbe
00000100: 98c4 16be d127 a8bd 8379 333d 868d 2a3e
00000110: c47e 25bf fae0 acbe 8d56 84be df7b e8be
00000120: 18cd ad3e 768c 20bf 1b00 f33e d9e6 883e
00000130: 2e68 8abd ddea f2bc c095 e8bc eb94 0b3f
00000140: 798a 99be c85f 563e 73fd 13bf addf 003e
00000150: 9227 543a 3077 80be 43fb 1b3e 2e60 ec3e
00000160: 31a2 c5be d206 adbd 3be7 37be 105e 523e
00000170: e897 ff3e ee7f 333f fe6a 83be 5455 8a3e
00000180: 6b24 a33c cfd5 8b3e d6cb 43be e876 79be
00000190: ad31 0fbe e8e3 debc 7447 0a3f 6a75 04be
000001a0: 0646 f13d 811b 2bbe 3b3a d73e adf7 cd3e
000001b0: 8005 0dbe 218e b0be 3cde c23e 4aa3 e83e
000001c0: 9606 b43d 3d42 cc3d 5993 a5be 82cb db3d
000001d0: dda7 41be 335d 4abe e0ca 15bf 4d4f bbbe
000001e0: 30cd 9c3e 8edc 953d 496b db3e 8379 cb3e
000001f0: 1bb6 4fbf e749 88ba 4d63 b53d c32a ee3d

fc4.bias f4 [2]
-0.009316749 0.011853596
00000000: 47a5 18bc 9635 423c
