checkpoints/Computer1-0-checkpoint-2.4250-actor.pth (torch, 193711 bytes, 8 tensors)

fc1.weight f4 [256, 24]
0	0xbdef580c	-0.116867155
1	0x3ea5842d	0.32327405
2	0xbbc4f985	-0.0060111904
3	0xbd91eea0	-0.07125592
4	0x3dcddba9	0.100516625
5	0xbebc4cab	-0.36777243
6	0x3df2a1aa	0.11847241
7	0x3e646910	0.22305703
8	0x3c9d51be	0.019204017
9	0xbdfdbdc5	-0.12389711
10	0xbdb2b77a	-0.087264016
11	0xbe65da36	-0.22446522
12	0x3dbdafad	0.09262023
13	0xbe347f09	-0.17626585
14	0x3d927091	0.071503766
15	0xbe934075	-0.28760114
16	0xbdded939	-0.10881276
17	0xbd23f557	-0.040028896
18	0xbdf9c821	-0.12196375
19	0xbdf592d4	-0.11990896
20	0xbd30327b	-0.043016892
21	0xbd487859	-0.048942897
22	0x3d365b92	0.044520922
23	0xbd4bc4bd	-0.04974817
24	0x3de18628	0.110119164
25	0x3e95bb97	0.29244682
26	0x3c8f8b46	0.017522465
27	0x39cf8dd0	0.00039587775
28	0xbe8422ac	-0.25807703
29	0x3e598b7f	0.2124462
30	0x3dabc78a	0.083876684
31	0xbe713615	-0.23555787
32	0x3c01f1a1	0.007931144
33	0xbe183310	-0.14863229
34	0xbd51474c	-0.051093385
35	0x3d426727	0.047461655
36	0xbda56570	-0.08075988
37	0x3d42d011	0.04756171
38	0x3d90aaa1	0.07063795
39	0x3cea9680	0.028636217
40	0x3e3f2088	0.18664753
41	0x3dfc2e10	0.12313473
42	0xbe2c8718	-0.16848409
43	0x3d85196c	0.064989895
44	0x3e7d84e6	0.24757728
45	0xbe294fa3	-0.16534285
46	0xbe018f23	-0.12652259
47	0xbe5defd1	-0.21673514
48	0x3e7f307e	0.24920842
49	0xbcaf2add	-0.021382743
50	0xbe521ff3	-0.2052
51	0x3d0fdfd0	0.035125554
52	0xbe1def52	-0.15423325
53	0xbc8b88f8	-0.017033085
54	0xbda41d32	-0.08013381
55	0x3cba6a75	0.02275584
56	0xbdec02f4	-0.11524001
57	0xbe78b72d	-0.24288626
58	0x3d3e487e	0.046455853
59	0xbe0dcac1	-0.13846876
60	0x3e1addc9	0.15123667
61	0xbe173f65	-0.14770277
62	0xbd767082	-0.06016589
63	0xbe9058ac	-0.2819265
64	0x3d8d6d96	0.069056675
65	0xbdc65793	-0.09684672
66	0xbd47090b	-0.04859261
67	0x3e458907	0.19290553
68	0x3ef35854	0.47528327
69	0xbe6bc88f	-0.23025726
70	0x3dc72eda	0.09725733
71	0x3e62ac04	0.22135931
72	0x3df6e9ae	0.120562896
73	0xbed55a5d	-0.41670504
74	0x3d0c169b	0.034201246
75	0x3e6c5ed0	0.23083043
76	0xbd580aad	-0.052744556
77	0xbe959f95	-0.29223314
78	0xbd1b5389	-0.037921462
79	0x3e45c3ab	0.19312923
80	0x3e19a22f	0.15003274
81	0xbf2006ee	-0.62510574
82	0xbdf411a1	-0.11917425
83	0x3e94618c	0.28980672
84	0xbd4584b4	-0.04822226
85	0xbe44044e	-0.19142267
86	0xbe47fa61	-0.19529106
87	0x3d87381f	0.06602501
88	0x3db355aa	0.087565735
89	0xbeeba5b1	-0.4602485
90	0xbdf2ae6e	-0.11849676
91	0xbc8fe6c7	-0.017566098
92	0xbdb80063	-0.08984449
93	0xbecdbdb6	-0.401838
94	0xbe004210	-0.12525201
95	0x3e2f661f	0.171288
96	0xba3f574b	-0.00072990794
97	0xbcb48a46	-0.02203859
98	0xbdb5644f	-0.08857023
99	0xbda6d924	-0.08146885
100	0xbeac78b2	-0.33685833
101	0xbe50a58c	-0.20375651
102	0xbca4823e	-0.020081636
103	0xbe78c5e6	-0.24294242
104	0x3df37c6a	0.118889645
105	0x3d883926	0.06651525
106	0xbde9ad05	-0.11409954
107	0x3e6a54ef	0.22883962
108	0xbe88f0ec	-0.2674631
109	0xbddd7084	-0.10812476
110	0xbd849a49	-0.0647474
111	0x3e80424c	0.2505058
112	0x3d75e9ee	0.060037546
113	0x3cf7d0b8	0.030250892
114	0xbda5e0e1	-0.08099533
115	0x3e2d3257	0.16913734
116	0xbde701e9	-0.11279661
117	0x3e8b273c	0.2717837
118	0x3d5a199d	0.053247083
119	0xbd949653	-0.072552346
120	0xbe148ff2	-0.14508036
121	0xbd38488e	-0.04499107
122	0xbdb61842	-0.088913456
123	0xbc6b57a8	-0.014364161
124	0xbe323301	-0.17402269
125	0x3e6d8b7d	0.23197742
126	0x3d8c1131	0.068392165
127	0x3daeac05	0.08528904
128	0xbd34ac40	-0.044109583
129	0x3e36303e	0.1779184
130	0x3e205e07	0.15660869
131	0x3e0a41a8	0.13501608
132	0x3c9c0c7d	0.019048924
133	0x3ec66c94	0.38754714
134	0xbe056c06	-0.13029489
135	0xbd8938c4	-0.0670028
136	0x3e89013a	0.26758748
137	0x3e0134b6	0.12617764
138	0xbd3f4cd6	-0.046704136
139	0x3e3942c9	0.18091883
140	0x3e88d696	0.26726216
141	0x3ecbcbce	0.39803928
142	0x3d8ad53a	0.06778951
143	0xbdc7dab7	-0.097585134
144	0xbe3cc944	-0.18436152
145	0x3e37bac3	0.17942338
146	0xbdc1e6a6	-0.09467821
147	0x3d18c1d8	0.03729424
148	0x3e88624d	0.26637498
149	0xbe40a8ae	-0.18814346
150	0x3ca462b0	0.02006659
151	0x3e8a0260	0.26954937
152	0xbbd76301	-0.0065730815
153	0x3e1f2aa9	0.15543617
154	0xbd1ef7c0	-0.03881049
155	0x3d25cc0c	0.040477797
156	0x3e05a36c	0.13050622
157	0xbd855a64	-0.06511381
158	0x3d286a2e	0.041116886
159	0xbdf533b8	-0.11972755
160	0xbdc76349	-0.09735734
161	0x3e98f21c	0.29872215
162	0xbdab84df	-0.083749525
163	0xbe803cfd	-0.2504653
164	0xbe775ef2	-0.24157313
165	0xbecb6c49	-0.39731053
166	0x3e2ef86b	0.17086951
167	0xbe929de7	-0.28636095
168	0x3d8edbed	0.06975541
169	0x3d74ba39	0.05974791
170	0xbddd20b6	-0.10797255
171	0x3d61bc7f	0.055111405
172	0x3e866db5	0.26255575
173	0x3e87ece7	0.2654793
174	0x3dc8a067	0.09796219
175	0x3e0adc1a	0.13560525
176	0xbde0c57d	-0.10975168
177	0xbe5730f6	-0.21014771
178	0xbd13d86f	-0.03609508
179	0xbd57f355	-0.052722294
180	0xbd9459e2	-0.07243706
181	0x3e6f6f7b	0.2338237
182	0x3db5d206	0.088779494
183	0x3d07ff80	0.03320265
184	0x3cb627f6	0.022235852
185	0x3d1ce74c	0.03830652
186	0xbd27c1dd	-0.040956367
187	0xbe040245	-0.12891491
188	0xbed351a1	-0.41273215
189	0x3e831603	0.2560273
190	0x3d28793f	0.041131254
191	0xbddf2ada	-0.10896845
192	0xbe2ed9d7	-0.17075287
193	0x3e0dfeca	0.13866726
194	0x3cb5cf66	0.022193622
195	0x3e8bf87e	0.27338022
196	0xbe1a0bc9	-0.15043558
197	0xbe1a21bb	-0.1505193
198	0xbdb5b8a2	-0.088731065
199	0x3e6d2090	0.23156953
200	0x3ce06390	0.027391225
201	0xbd4200ef	-0.04736417
202	0xbddfc56e	-0.109263286
203	0x3e123163	0.14276652
204	0x3e2d3260	0.16913748
205	0xbe0a6ef7	-0.13518892
206	0xbdd38195	-0.1032745
207	0xbe209e30	-0.15685344
208	0xbe071112	-0.13190106
209	0x3e7e12ab	0.24811809
210	0xbdfe0277	-0.12402814
211	0xbe854e5a	-0.2603634
212	0x3d957906	0.07298474
213	0xbf1ec2c3	-0.6201593
214	0xbb5cd75c	-0.00336977
215	0xbe8ec6ad	-0.27885953
216	0x3e1751bc	0.14777273
217	0xbeb78804	-0.3584596
218	0xbdae1a04	-0.08501056
219	0xbd8cbae1	-0.06871582
220	0x3ecee6d5	0.40410486
221	0x3da449d3	0.08021893
222	0x3d9da63b	0.076977216
223	0xbe1a4f14	-0.15069228
224	0xbc743adf	-0.014906614
225	0x3da31750	0.07963431
226	0x3d2740d2	0.0408333
227	0x3d265a56	0.040613495
228	0x3e86475b	0.26226315
229	0x3cd13299	0.025536822
230	0xbd3f29bd	-0.046670664
231	0xbdb55115	-0.08853356
232	0x3c8d15c1	0.017222287
233	0xbd95f526	-0.07322149
234	0xbe091651	-0.1338742
235	0x3d232086	0.03982594
236	0xbdfcbd92	-0.12340845
237	0x3e9cf4cb	0.30655512
238	0xbdd4fbc9	-0.10399587
239	0x3c92b2c6	0.017907511
240	0x3e855f17	0.2604911
241	0x3c4db640	0.012555659
242	0x3c2a3003	0.010387423
243	0xbe7bab37	-0.24577032
244	0xbdde717d	-0.1086149
245	0xbdc8b02c	-0.09799227
246	0xbdcfd791	-0.10148538
247	0xbe80dcd9	-0.25168493
248	0x3dd7bb11	0.10533727
249	0xbe447cc8	-0.19188225
250	0xbc8279ba	-0.015927184
251	0xbe37626c	-0.17908639
252	0x3e08d47b	0.13362305
253	0x3e06ddfa	0.13170615
254	0x3bf0d3eb	0.0073494813
255	0x3ccef61d	0.02526384

fc1.bias f4 [256]
0	0xbe062c6d	-0.13102885
1	0x3b6cc657	0.0036128962
2	0xbe90021a	-0.28126603
3	0xbd2d9a14	-0.04238327
4	0xbe8ac015	-0.27099672
5	0xbbb041d9	-0.0053789434
6	0x3e840b97	0.25790092
7	0xbbe3f291	-0.0069564064
8	0x3df4e5cd	0.119578935
9	0x3b98b5b2	0.0046603316
10	0xbd3affae	-0.04565399
11	0xbd0f3646	-0.03496387
12	0xbe69bd80	-0.22826195
13	0xbe1c51a9	-0.15265526
14	0x3e7260ee	0.23669788
15	0xbe29d116	-0.16583666
16	0x3e61696c	0.22012872
17	0xbdab1526	-0.08353643
18	0xbd8dff4b	-0.06933459
19	0xbe57af68	-0.21063006
20	0x3d27ea64	0.040995017
21	0x3e00dc1c	0.12583965
22	0xbd91e040	-0.071228504
23	0x3dabddab	0.08391889
24	0xbc5a7809	-0.013334283
25	0xbd9ff825	-0.07811002
26	0x3cf62664	0.030047603
27	0xbec586eb	-0.38579497
28	0x3cb057d4	0.021526255
29	0xbe19fb2e	-0.15037224
30	0xbcfd90f0	-0.0309529
31	0xbe6226fd	-0.22085185
32	0xbc71eafc	-0.014765497
33	0x3be55d1d	0.0069996254
34	0xbdf4ab27	-0.11946707
35	0xbde816b9	-0.11332459
36	0xbe541411	-0.2071078
37	0x3c4296d0	0.011876777
38	0x3e40caf3	0.18827419
39	0xbe063188	-0.13104832
40	0xbe74ff67	-0.23925553
41	0xbbdc6b06	-0.0067266254
42	0xbcfe6875	-0.031055668
43	0xbe88c730	-0.26714468
44	0xbebe0aa2	-0.37117487
45	0x3ddca02b	0.10772737
46	0x3e20523d	0.15656371
47	0xbd8f2145	-0.069887675
48	0xbd4aadfa	-0.049482323
49	0xbe1af0c3	-0.15130906
50	0xbce1d57a	-0.027567614
51	0xbd430d7c	-0.04762028
52	0xbd575789	-0.052573714
53	0xbdb4c42b	-0.088264786
54	0xba50d2e2	-0.00079659943
55	0x3db58277	0.08862775
56	0x3e1dcf27	0.15411054
57	0xbdf4536c	-0.11929974
58	0x3a03fe1e	0.000503512
59	0x3d2c53d7	0.042072143
60	0x3c58a7ff	0.013223647
61	0x3e62740a	0.22114578
62	0x3a4ad162	0.0007736889
63	0x3e15cf2e	0.14629814
64	0xbd2f52e4	-0.04280366
65	0x3d2d3451	0.04228622
66	0xbd2143ef	-0.039371427
67	0x3b498a0a	0.0030752444
68	0xbe6edd59	-0.23326625
69	0xbe7242f7	-0.23658358
70	0xbe9b6f87	-0.30358526
71	0xbcb9af12	-0.022666488
72	0x3d6bb7f6	0.057548486
73	0xbe5062c8	-0.20350182
74	0xbd3def02	-0.046370514
75	0x3df8bd17	0.12145441
76	0xbd82a2b5	-0.0637869
77	0xbd4e1e2c	-0.050321743
78	0xbdaeda78	-0.08537763
79	0xbdf7e144	-0.12103513
80	0xbe463073	-0.1935442
81	0x3e177fb9	0.14794816
82	0xbd8bf5ad	-0.06833968
83	0xbe1b795d	-0.15183015
84	0xbe631d93	-0.2217925
85	0x3d7fbe90	0.062437594
86	0x3d07b833	0.03313465
87	0x3e103f72	0.14086702
88	0xbd182f24	-0.03715433
89	0x3cebe94a	0.028797764
90	0xbd9e38c6	-0.077256724
91	0x3d1b0508	0.037846595
92	0x3d29ce83	0.04145671
93	0x3e1620fa	0.14661017
94	0xbdabf36a	-0.08396037
95	0x3d85b2bf	0.06528234
96	0x3e3e6b0e	0.18595526
97	0x3e3c81f5	0.1840895
98	0xbdd52c9b	-0.104088984
99	0xbdb3ca22	-0.08778788
100	0x3da06dea	0.078334644
101	0x3d6fd215	0.05854996
102	0xbc86c786	-0.016452562
103	0xbe56203f	-0.20910738
104	0xbce44b19	-0.02786784
105	0x3e4fd3a9	0.20295586
106	0xbe07de17	-0.13268314
107	0xbdf18ef7	-0.117948465
108	0xbe2c2ecd	-0.16814728
109	0xbe869efc	-0.2629317
110	0xbe3cb0b8	-0.18426788
111	0xbe63fc6c	-0.2226426
112	0x3e0c10b8	0.13678253
113	0x3d2213ac	0.03956954
114	0xbdd0b9a2	-0.10191657
115	0xbcf69c52	-0.030103836
116	0x3d9eed0a	0.07760055
117	0x3c447f6f	0.011993273
118	0x3d721e09	0.059110675
119	0xbe82b74d	-0.25530472
120	0xbe1e7762	-0.15475228
121	0xbd67e3a6	-0.056613587
122	0xbd2bb0a2	-0.041916497
123	0xbe78be25	-0.24291284
124	0xbd4092c1	-0.047014955
125	0x3e5ad8f6	0.21371827
126	0xbe9ef7db	-0.31048474
127	0xbe412874	-0.18863088
128	0xbdd4920a	-0.10379417
129	0xbd4c5ebc	-0.049895033
130	0x3e19645b	0.14979689
131	0x3e5f1317	0.21784626
132	0x3d5ae6f0	0.053442895
133	0xbe4718e2	-0.19443086
134	0x3d827c9a	0.06371422
135	0x3cd56179	0.026047455
136	0x3e1e0833	0.15432815
137	0x3dd2e7b0	0.10298097
138	0x3cad0112	0.021118674
139	0xbe697beb	-0.22801177
140	0x3dc96353	0.09833398
141	0xbe3f6071	-0.18689133
142	0x3e36c451	0.17848326
143	0x3e47fe29	0.19530548
144	0xbe28e5f1	-0.16493966
145	0x3e2746f4	0.1633566
146	0xbe273e13	-0.16332273
147	0xbe6a7c86	-0.22899064
148	0x3d4ea778	0.05045268
149	0xbd269d05	-0.04067709
150	0x3dfea8ab	0.124345146
151	0x3dc6b4e7	0.09702473
152	0xbe305c4a	-0.17222705
153	0xbe4ca360	-0.19984198
154	0x3dfa6968	0.12227136
155	0xbd65b626	-0.056081913
156	0xbd4623ef	-0.048374113
157	0x3cec3f6c	0.028838836
158	0xbe4f4feb	-0.2024533
159	0xba83c227	-0.0010052369
160	0x3e00f42f	0.12593149
161	0x3c7e0d6f	0.0155061325
162	0x3d803436	0.062599584
163	0xbdb405f8	-0.08790201
164	0xbdf3975d	-0.11894105
165	0x3e2f26cb	0.17104642
166	0xbe086916	-0.13321337
167	0xbca954b5	-0.020670274
168	0xbe8c4274	-0.2739445
169	0xbe391553	-0.18074541
170	0x3c9fa8b0	0.019489616
171	0xbe70b749	-0.23507418
172	0xbda311d0	-0.07962382
173	0xbdff4bf8	-0.12465662
174	0xbe1935e1	-0.1496196
175	0xbd3a96c9	-0.045553956
176	0xbe3463ca	-0.17616192
177	0xbe8fd205	-0.2808992
178	0xbd1f3970	-0.038873136
179	0x3df1d86a	0.11808856
180	0xbe70ad24	-0.23503548
181	0xbdc081b2	-0.093997374
182	0xbdfcb5e1	-0.12339378
183	0x3d37591b	0.044762712
184	0xbe4dab5e	-0.20084903
185	0x3e209542	0.15681937
186	0xbdb09242	-0.086216465
187	0x3ce566e5	0.028003165
188	0xbd57c37f	-0.052676674
189	0x3db1eae6	0.086873814
190	0x3ceb2918	0.028706118
191	0xbe84a74f	-0.25908896
192	0xbd0ca8ce	-0.034340672
193	0x3dfb4d03	0.12270548
194	0xbe011186	-0.12604341
195	0xbe3cbd67	-0.18431626
196	0xbe467f54	-0.1938451
197	0xbe4c7d4f	-0.19969676
198	0xbe80329a	-0.25038606
199	0xbb704bee	-0.0036666351
200	0xbe1fa9ff	-0.15592192
201	0xbdcac2ce	-0.09900437
202	0xbe076a79	-0.1322421
203	0x3df574db	0.11985179
204	0xbde3075a	-0.110853866
205	0x3e060210	0.13086724
206	0xbe62c226	-0.22144374
207	0xbe010f27	-0.12603436
208	0xbe082ec0	-0.13299084
209	0xbead0426	-0.33792228
210	0x3dbd0c78	0.09230894
211	0x3d8d9e28	0.069149315
212	0xbb97fc44	-0.0046382267
213	0xbddbdfea	-0.107360676
214	0x3de8ada4	0.11361244
215	0xbe433f05	-0.19067009
216	0xbe0bc0d2	-0.13647774
217	0xbdebc1f6	-0.115116045
218	0x3e0708d1	0.13186957
219	0xbe520e4a	-0.20513263
220	0x3e04c0e7	0.12964211
221	0x3e6ebc38	0.23313987
222	0x3e823b85	0.25436035
223	0xbe495780	-0.19662285
224	0x3e2e1f28	0.17004073
225	0xbbd45e4d	-0.006480968
226	0x3de0b3df	0.10971808
227	0xbd45e79c	-0.048316583
228	0xbd39ec7a	-0.045391537
229	0x3d32fd92	0.043698855
230	0xbe8bff4c	-0.27343214
231	0xbd99f150	-0.0751673
232	0x3e33e97b	0.17569534
233	0x3e1e747a	0.1547412
234	0x3e0b7fd6	0.13622984
235	0xbe82a6ec	-0.25517976
236	0xbdb4d9ac	-0.0883058
237	0x3e4603c2	0.19337371
238	0x3dfbde47	0.122982554
239	0xbe92aa3b	-0.286455
240	0xbda0588e	-0.078293905
241	0x3dc8c019	0.09802265
242	0x3d4e99dc	0.0504397
243	0x3e00d946	0.12582883
244	0xbd39b80f	-0.045341548
245	0xbe432fc9	-0.19061197
246	0xbdaf33df	-0.085548155
247	0x3d839d70	0.06426513
248	0x3d51ef30	0.051253498
249	0xbe1976fd	-0.14986797
250	0xbcbedef9	-0.023299681
251	0xbe222eac	-0.15838116
252	0x3d6e9838	0.058250636
253	0xbcb4bea3	-0.022063559
254	0x3d27eefa	0.04099939
255	0xbdb5e057	-0.0888068

fc2.weight f4 [128, 256]
0	0xbbd6b983	-0.0065528764
1	0x3cf6464e	0.03006282
2	0x3dc34f52	0.095366135
3	0xbd755d56	-0.059903465
4	0xbeb4b29e	-0.35292524
5	0xbcff620b	-0.03117468
6	0x3d67c025	0.056579728
7	0x3c1deb7a	0.0096386615
8	0xbd6296ad	-0.055319477
9	0x3dbf7d9e	0.093501315
10	0x3dcf700c	0.10128793
11	0x3d9a00ee	0.075197086
12	0x3cd5492c	0.026035868
13	0x3dcef207	0.10104757
14	0x3ca7f412	0.020502124
15	0xbe301c98	-0.17198408
16	0x3d1bcd58	0.038037628
17	0xbdd3f959	-0.10350294
18	0x3d782f8b	0.060592216
19	0x3d037c77	0.03210112
20	0xbd252ca5	-0.04032578
21	0x3e2bfeb5	0.16796382
22	0xbd655750	-0.05599147
23	0x3d939302	0.07205774
24	0xbe033c74	-0.1281603
25	0xbe8bb7d4	-0.27288687
26	0xbe0f531d	-0.13996549
27	0x3c93e37d	0.01805281
28	0xbe5ba252	-0.21448639
29	0x3e24535f	0.16047429
30	0xbe386f95	-0.18011315
31	0xbdd6fa96	-0.10497014
32	0xbe9baeb8	-0.30406737
33	0xbe125859	-0.14291514
34	0x3d32ac14	0.043621138
35	0x3dc6d744	0.097090274
36	0x3c3d7cbb	0.011565383
37	0x3dcfa71f	0.10139298
38	0x3e2102aa	0.15723673
39	0xbe288f7a	-0.16460982
40	0xbcae140d	-0.021249795
41	0x3d91d445	0.07120565
42	0x3d10f09c	0.035385713
43	0xbe8cd968	-0.27509618
44	0x3de8627d	0.1134691
45	0xbd6e3825	-0.058159012
46	0x3e4cf764	0.20016247
47	0x3e2cb771	0.16866852
48	0xbe91db2b	-0.28487524
49	0xbe5d9864	-0.21640164
50	0xbcdce386	-0.02696396
51	0x3e0483b8	0.12940872
52	0xbe85216b	-0.26002058
53	0x3d83fae9	0.06444342
54	0x3da760bc	0.081727475
55	0xbcf244a8	-0.029573753
56	0x3db85b19	0.090017505
57	0x3daa25b8	0.083079755
58	0x3da625a2	0.08112647
59	0x3d57a5fe	0.052648537
60	0x3e0d36d2	0.13790444
61	0x3ae469d5	0.001742656
62	0x3d002345	0.031283636
63	0xbcb0494b	-0.021519324
64	0x3c97590a	0.018475074
65	0xbced34aa	-0.028955776
66	0x3df27b54	0.11839929
67	0xbe0b05fc	-0.13576502
68	0xbd664942	-0.056222208
69	0x3c97a775	0.018512467
70	0xbd18766f	-0.037222322
71	0xbb2b3d8c	-0.0026129214
72	0xbc677b7c	-0.014128562
73	0x3e0373a1	0.12837078
74	0xbe22dc96	-0.1590446
75	0xbe915fcd	-0.28393403
76	0xbca11340	-0.0196625
77	0x3e15807e	0.14599797
78	0x3d9556b9	0.07291932
79	0x3db7f97c	0.08983132
80	0xbc9728e1	-0.01845211
81	0x3de180a5	0.11010865
82	0xbcaf8457	-0.02142541
83	0xbcaf3fa5	-0.021392653
84	0x3d82a47d	0.0637903
85	0xbdccaea1	-0.09994245
86	0xbe420016	-0.18945345
87	0xbe2f4725	-0.17116983
88	0x3a999797	0.0011718151
89	0xbd99e862	-0.07515027
90	0x3d3697ab	0.044578236
91	0x3cef7f3f	0.02923548
92	0xbb8d2fa1	-0.0043086563
93	0x3ded8884	0.11598304
94	0xbe674035	-0.22583087
95	0x3d754659	0.059881542
96	0x3c8f0971	0.017460557
97	0xbdc89b2c	-0.09795222
98	0x3c4f000f	0.012634291
99	0x3e193e43	0.14965157
100	0xbe4a2dad	-0.19743986
101	0xbdc017ef	-0.09379565
102	0xbd1e81a3	-0.03869785
103	0x3cfc924c	0.030831479
104	0xbda852fc	-0.08218953
105	0x3ccd87e4	0.025089212
106	0xbca3ca40	-0.019993901
107	0x3b004862	0.0019574394
108	0x3e38899f	0.18021248
109	0x3c906aed	0.017629111
110	0x3dccabff	0.09993743
111	0xbd5e336d	-0.054248262
112	0xbda5daba	-0.080983594
113	0x3ca7593d	0.020428294
114	0x3d24b22f	0.04020899
115	0x3dbdb608	0.09263235
116	0x3e94be7e	0.29051584
117	0xbbfacdf3	-0.0076539456
118	0x3daad26a	0.083409145
119	0xbe0f8012	-0.14013699
120	0xbd4437bb	-0.04790471
121	0xbb90c3d6	-0.0044178767
122	0x3cbba33d	0.022904987
123	0xbe4deb3f	-0.2010927
124	0x3d81b7bb	0.06333872
125	0xbc9e81de	-0.019349035
126	0xbc510604	-0.012757782
127	0x3decf89b	0.11570855
128	0xbe314810	-0.17312646
129	0xbe1b1503	-0.15144734
130	0x3de8648b	0.11347302
131	0x3d510b4d	0.051036168
132	0xbe1165f6	-0.14199051
133	0xbe393ea7	-0.18090306
134	0x3df01401	0.117225654
135	0x3db1c8f1	0.08680905
136	0x3d4476ec	0.047964975
137	0x3e619b56	0.22031912
138	0xbde84729	-0.11341698
139	0xbd477f9d	-0.048705686
140	0x3d37a426	0.04483428
141	0x3e796b58	0.24357355
142	0xbe19f573	-0.15035038
143	0xbd6d6d52	-0.057965584
144	0x3d581d30	0.05276221
145	0x3c77ca6d	0.015123946
146	0xbdeffd50	-0.117182374
147	0xbe9ad2f3	-0.30239066
148	0x3da1f3b7	0.07907813
149	0x3d2f7018	0.04283151
150	0xbefd6375	-0.49489942
151	0x3da8aee6	0.08236484
152	0x3e11753b	0.14204876
153	0x3dcf339a	0.10117264
154	0x3e14c93e	0.14529893
155	0x3e699d10	0.22813821
156	0x3d0db2c3	0.03459431
157	0x3e5131ab	0.20429103
158	0xbef8e8cc	-0.4861511
159	0x3dd8b219	0.105808444
160	0xbe6a4a30	-0.22879863
161	0xbec15582	-0.3776055
162	0x3dd54b6d	0.10414777
163	0x3c2cd141	0.010547937
164	0x3dc235e2	0.094829336
165	0x3d768f47	0.060195234
166	0xbe0529e1	-0.13004257
167	0x3d7536ad	0.059866596
168	0x3d212870	0.039345205
169	0xbdec88b4	-0.115495116
170	0xbeb0491d	-0.3443078
171	0x3e606377	0.21912943
172	0xbd0c6dc9	-0.034284387
173	0x3e4906a6	0.19631442
174	0x3dbc3ade	0.091909155
175	0x3d01d2cc	0.031695172
176	0xbd7879d6	-0.060663067
177	0xbeb5c2a5	-0.35500064
178	0xbe3a8457	-0.18214546
179	0x3c0f9943	0.008764568
180	0xbdae6f34	-0.08517304
181	0x3e304d15	0.17216904
182	0x3e1e3957	0.15451561
183	0x3c8abccc	0.016935728
184	0x3e4b568a	0.19857231
185	0x3d279c95	0.040920813
186	0xbcb0f766	-0.021602344
187	0x39a4b3ee	0.00031414576
188	0xbdecd46b	-0.11563953
189	0x3d861082	0.06546117
190	0xbd609f8d	-0.05483966
191	0xbd6c8f83	-0.05775405
192	0xbd3a5685	-0.045492668
193	0x3de8c0ad	0.11364875
194	0x3d529011	0.051406924
195	0xbe09be3f	-0.1345148
196	0xbdd75a08	-0.10515219
197	0xbdefebc3	-0.1171489
198	0xbdd3e5ce	-0.10346566
199	0x3db5dae3	0.0887964
200	0x3cef10f6	0.029182892
201	0x3d225014	0.03962715
202	0x3dbf548f	0.093423
203	0x3d210ad0	0.039316952
204	0xbe76cea3	-0.24102263
205	0x3cbb0d60	0.022833526
206	0xbd10d2a9	-0.03535715
207	0xbe64f8e1	-0.22360565
208	0x39ffe3d0	0.00048807124
209	0xbd5a1704	-0.053244606
210	0xbcca84cc	-0.024721526
211	0xbdb65cec	-0.08904442
212	0x3d73b934	0.059502795
213	0xbd336738	-0.04379961
214	0xbdb850d0	-0.08999789
215	0x3cc82fd7	0.024436874
216	0x3d4b6810	0.04965979
217	0xbde29ed5	-0.11065451
218	0x3d5a8106	0.053345703
219	0x3cf73376	0.030175906
220	0xbda9f3fe	-0.08298491
221	0x3dcbd91a	0.09953518
222	0xbd2ee861	-0.042702083
223	0x3d67cfe4	0.056594744
224	0x3dcad3aa	0.09903653
225	0xbc87e978	-0.016590819
226	0xbdec310d	-0.11532793
227	0xbc2b9c65	-0.010474299
228	0xbc507b68	-0.012724735
229	0xbd4c9eb4	-0.04995604
230	0xbddf555c	-0.10904953
231	0xbdecf059	-0.1156928
232	0xbdcae576	-0.099070475
233	0x3d9dafa5	0.07699517
234	0xbdac2a7e	-0.08406542
235	0xbd970773	-0.07374468
236	0xbb3db491	-0.0028946737
237	0x3db15801	0.086593635
238	0x3dbcd004	0.09219363
239	0xbd40ba87	-0.047052886
240	0xbc46aa91	-0.012125627
241	0xbd2c25c9	-0.042028222
242	0x3ae537be	0.0017487926
243	0xbc8baa96	-0.017049115
244	0x3e6f80ea	0.2338902
245	0x3dc20b96	0.09474866
246	0x3e40d303	0.18830495
247	0x3d819bff	0.06328582
248	0xbe601711	-0.21883799
249	0x3bb7e6f1	0.005612247
250	0x3e7a20c4	0.24426562
251	0xbcae65ae	-0.021288719
252	0x3bc093d4	0.0058769975
253	0x3d7f2178	0.062287778
254	0x3ca3e3c2	0.020006064
255	0x3d7ee74d	0.062232304

fc2.bias f4 [128]
0	0x3d7e450c	0.062077567
1	0x3c11ef4f	0.008907153
2	0x3cd6553e	0.026163694
3	0x3d87fce7	0.06640034
4	0x3cc1144c	0.023569249
5	0x3d637670	0.055532873
6	0xbd704399	-0.058658216
7	0x3d2e03d7	0.04248413
8	0x3c0b1afb	0.008490319
9	0xbd833a41	-0.064075954
10	0xbd7fec3c	-0.06248115
11	0xbd5a5c39	-0.053310607
12	0xbcdaecbf	-0.026724217
13	0x3d80637e	0.06268977
14	0xbd113c05	-0.03545763
15	0xbcbd4435	-0.023103813
16	0x3ca50c4f	0.02014747
17	0xbd43cd3d	-0.047803152
18	0xbdb20207	-0.08691793
19	0x3db2ef47	0.08737045
20	0x3cce491d	0.025181348
21	0xbd79ccd5	-0.06098636
22	0xbd741070	-0.05958599
23	0xbd59eda6	-0.053205155
24	0x3c2b7df5	0.010467042
25	0xbd9d653e	-0.07685326
26	0xbda5e066	-0.08099441
27	0xbdc03b30	-0.09386289
28	0xbb267633	-0.0025400042
29	0x3d1dc8dd	0.038521636
30	0xbbf9b477	-0.00762039
31	0xbcc0a689	-0.02351691
32	0x3cf8d0bf	0.030372975
33	0xbddd1d9c	-0.10796663
34	0xbd84930a	-0.06473358
35	0x3c3d7798	0.011564158
36	0xbbaee782	-0.0053376565
37	0xbdca98c1	-0.09892417
38	0xbcfafb57	-0.030637426
39	0x3caeb506	0.021326553
40	0xbdeec8a4	-0.11659363
41	0x3d69af33	0.05705185
42	0xba014650	-0.0004931437
43	0x3d968aca	0.07350691
44	0xbdbe3f84	-0.092894584
45	0xbd4301c9	-0.047609124
46	0x3ce5d5c6	0.028056037
47	0x3b8b435a	0.0042499723
48	0x3c946601	0.018115046
49	0x3cb6fe29	0.02233799
50	0xbd8981bd	-0.06714199
51	0x3da666c9	0.081250735
52	0xbdbe6c99	-0.09298057
53	0x3c90b6ea	0.017665345
54	0xbdc03616	-0.09385316
55	0xbe9158df	-0.28388116
56	0xbd0a2dd0	-0.033735096
57	0x3b1e4bc8	0.0024154056
58	0xbd12dea5	-0.03585686
59	0x3c9c5341	0.019082667
60	0x3dde9c7a	0.10869689
61	0x3d06d867	0.03292122
62	0x3c1dff50	0.009643391
63	0x3daa01df	0.08301138
64	0xbcb42b3b	-0.02199327
65	0xbe012b6c	-0.1261422
66	0x3d156f14	0.036482885
67	0xbc8a1c8a	-0.016859312
68	0x3e00175f	0.12508915
69	0xb9d6732c	-0.0004090307
70	0x3d49eac4	0.049296156
71	0xbd379fe3	-0.044830214
72	0xbdd4f5ee	-0.1039847
73	0xbd2c4bce	-0.04206448
74	0xbdbfe461	-0.09369732
75	0xbd8fade1	-0.07015587
76	0x3ddfa891	0.10920823
77	0xbd39d7c2	-0.04537178
78	0xbdbaea63	-0.09126737
79	0x3dc2b8ae	0.09507881
80	0x3d59dcb1	0.053188983
81	0x3d3693a5	0.0445744
82	0xbe268ee0	-0.1626544
83	0xbc4de5c8	-0.012566991
84	0x3ae77685	0.0017659223
85	0xbd145850	-0.036217034
86	0x3cd8736c	0.026422225
87	0xbe043072	-0.12909105
88	0xbd8938d6	-0.06700294
89	0x3cea41ab	0.028595766
90	0xbd329185	-0.04359581
91	0xbde3f03d	-0.11129806
92	0x3c592637	0.01325374
93	0xbdc19e63	-0.09454038
94	0xbd636c28	-0.055523068
95	0x3d807f0e	0.06274234
96	0xbcd6bdf5	-0.026213625
97	0xbd0420c5	-0.032257814
98	0xbd206bc7	-0.039165284
99	0x3ce2ffca	0.02770986
100	0xbccd1d5f	-0.02503842
101	0xbd130fe8	-0.03590384
102	0x3d1b791d	0.0379573
103	0x3d52c326	0.05145564
104	0x3a3c07ce	0.0007172794
105	0xbd36e880	-0.044655323
106	0x3c9f211c	0.019424967
107	0xbd92660f	-0.071483724
108	0x3dbdabb0	0.092612624
109	0xbccfb539	-0.025354968
110	0x3da90461	0.08252788
111	0xbd841065	-0.064484395
112	0xbd892f80	-0.06698513
113	0x3da35e21	0.07976938
114	0x3d10ae99	0.03532276
115	0x3d0d71d7	0.034532394
116	0x3d5c7399	0.05382118
117	0xbc842ec7	-0.016135586
118	0xbc05b3ac	-0.008160513
119	0xbcf7d193	-0.0302513
120	0xbd8685e7	-0.065685086
121	0x3c7ac6a7	0.0153061515
122	0x3cb36c46	0.021902215
123	0x3d31b0b5	0.04338141
124	0x3d97677e	0.073927864
125	0xbdebe1b9	-0.115176626
126	0xbc465f48	-0.012107678
127	0x3d3f86de	0.04675948

fc3.weight f4 [64, 128]
0	0xbe0b72f1	-0.13618065
1	0x3b838012	0.00401307
2	0x3dfed9d1	0.12443889
3	0xbf4e7090	-0.80640507
4	0xbe248a19	-0.16068305
5	0x3e989fa6	0.29809302
6	0x3e8a62c8	0.2702849
7	0x3e691411	0.22761561
8	0xbec935cf	-0.39298865
9	0xbdfded2e	-0.12398754
10	0xbd74e105	-0.059784908
11	0x3ddef7ca	0.10887106
12	0x3e18d4ec	0.14924973
13	0xbcf52cf6	-0.029928666
14	0x3c763165	0.015026425
15	0x3e126294	0.14295417
16	0x3d2bc3a1	0.041934613
17	0xbdd6651d	-0.104685046
18	0x3dccb274	0.09994975
19	0x3e5689df	0.20951031
20	0xbf08b25c	-0.53397155
21	0x3b272be9	0.002550835
22	0x3d491afb	0.049097996
23	0xbd1e77e1	-0.038688544
24	0x3e1fb61b	0.15596811
25	0x3d0ef4d9	0.034901474
26	0xbd574a41	-0.05256105
27	0xbf088586	-0.5332874
28	0x3d8eb35d	0.069678046
29	0xbdf339e4	-0.11876276
30	0xbeeef6e1	-0.4667273
31	0xbf025a4f	-0.5091905
32	0xbccb095a	-0.024784733
33	0x3dea469c	0.11439249
34	0x3d55d22d	0.052202392
35	0xbe92fbd2	-0.2870775
36	0xbcef946a	-0.029245574
37	0xbe11af19	-0.1422695
38	0x3cb52ad1	0.022115143
39	0x3e1fc359	0.15601863
40	0xbdfc3860	-0.1231544
41	0x3e38d288	0.18049061
42	0xbec4fcd1	-0.38474134
43	0x3d8c60cc	0.068544
44	0xbf2cf400	-0.67559814
45	0x3e8c5f2a	0.27416354
46	0xbdae1c10	-0.08501446
47	0xbe84ca72	-0.25935704
48	0xbd225421	-0.039631013
49	0x3e0d0c93	0.13774328
50	0xbdbda455	-0.092598595
51	0xbe9ab063	-0.30212697
52	0xbd87670f	-0.06611454
53	0x3d68dd7b	0.056851845
54	0x3e5b93ba	0.21443072
55	0x3e666fcd	0.22503586
56	0x3d2711a6	0.040788315
57	0x3d84a992	0.064776555
58	0x3e19fc1b	0.15037577
59	0x3e16e05e	0.14734027
60	0x3cc5cc3d	0.02414524
61	0xbd0802ab	-0.03320567
62	0xbd2360cc	-0.039887235
63	0xbf319ff1	-0.69384676
64	0x3dbf9dfd	0.09356306
65	0x3efc7c56	0.4931361
66	0xbe0f0994	-0.13968498
67	0xbe7ceed0	-0.24700475
68	0xbee2ed7a	-0.44321805
69	0x3df9de26	0.122005746
70	0xbdb0bd9e	-0.086299166
71	0x3e00a272	0.12561968
72	0xbe4b8ab3	-0.19877128
73	0x3d912679	0.07087416
74	0xbdce11d2	-0.10061993
75	0xbd4da8a4	-0.050209656
76	0xbf248e0b	-0.6427924
77	0xbe092e57	-0.13396583
78	0x3d9fe22a	0.07806809
79	0xbdc8a19d	-0.0979645
80	0xbecb905e	-0.3975858
81	0x3d73a8cc	0.05948715
82	0x3eb0ca0f	0.34529158
83	0xbde50b32	-0.11183776
84	0xbe939c63	-0.2883025
85	0xbd82d098	-0.06387442
86	0x3b6e2923	0.0036340437
87	0x3d68c0b2	0.056824394
88	0x3da9c19b	0.082888804
89	0xbd159095	-0.036514837
90	0x3d9f4e4a	0.07778604
91	0x3e22b9ed	0.15891238
92	0xbf17e0e5	-0.59327537
93	0x3e833ee0	0.25633907
94	0xbda36db0	-0.079799056
95	0xbd1c452d	-0.03815191
96	0xbd53a334	-0.051669315
97	0x3df5a1d8	0.1199376
98	0xbe3c951f	-0.1841626
99	0x3c2cd644	0.010549132
100	0x3d7e76b8	0.062124938
101	0x3a5a14a7	0.00083191175
102	0xbd70979a	-0.05873833
103	0xbeaa0cd9	-0.33212927
104	0x3e0636b3	0.13106804
105	0xbe1b67ec	-0.15176362
106	0x3b4be050	0.0031109042
107	0xbd50469f	-0.0508486
108	0x3e48e99c	0.19620365
109	0x3d0af1ff	0.03392219
110	0x3e665315	0.22492631
111	0x3d5cef52	0.05393917
112	0xbe522503	-0.20521931
113	0xbd4488f1	-0.04798216
114	0xbda71271	-0.08157814
115	0xbd6ee137	-0.05832025
116	0x3dbe3bd8	0.09288758
117	0xbeb154cd	-0.3463501
118	0x3ec647ab	0.38726553
119	0xbdd1b9d1	-0.1024052
120	0x3b49823e	0.0030747796
121	0x3dd627c3	0.10456803
122	0xbd1c7806	-0.0382004
123	0xbe2473cd	-0.160598
124	0xbd8c68f9	-0.068559594
125	0x3e177de0	0.14794111
126	0xbe61e414	-0.22059661
127	0xbe1cfd2e	-0.15330955
128	0x3e040303	0.12891774
129	0x3d4a1ca2	0.049343713
130	0x3e133738	0.14376533
131	0x3e2ec563	0.17067485
132	0x3ddea4bc	0.10871264
133	0xbbf1af03	-0.0073755994
134	0xbeb064b7	-0.3445184
135	0x3dd02e5d	0.10165093
136	0x3fe98946	1.8245018
137	0xbdc41f14	-0.0957624
138	0xbfa6de31	-1.3036557
139	0xbb9a05e4	-0.0047004092
140	0x3e2e4f58	0.17022455
141	0xbda2e3cc	-0.07953605
142	0x3e0077d7	0.12545715
143	0xbe19c583	-0.15016751
144	0xbcc9eeb2	-0.024649952
145	0xbb8f0fe2	-0.004365907
146	0xbc436aeb	-0.011927347
147	0xbe7e0e77	-0.24810205
148	0xbe2d1e4b	-0.16906087
149	0x3ca59d55	0.020216623
150	0xbc9564b4	-0.018236496
151	0xbf330948	-0.6993604
152	0xbf19a293	-0.60013694
153	0xbdc8029c	-0.09766123
154	0x3aed76a6	0.0018117025
155	0xbdc5d084	-0.09658912
156	0xbcfc5ea9	-0.030806856
157	0xbd901709	-0.070356436
158	0x3e490718	0.19631612
159	0xbd99fdd5	-0.07519118
160	0xbed264b5	-0.41092458
161	0x3da36036	0.07977335
162	0x3d420249	0.04736546
163	0x3e91beb2	0.284658
164	0x3e2c9cb4	0.16856652
165	0x3dc5f6ca	0.09666212
166	0x3e0f3c68	0.13987887
167	0x3d1acba5	0.037791867
168	0xbe511f8e	-0.20422193
169	0xbdf98db3	-0.1218523
170	0xbdd68867	-0.104752354
171	0x3d3a1285	0.045427818
172	0x3dda5b7b	0.1066198
173	0xbe8c9d24	-0.2746364
174	0x3d073779	0.033011887
175	0x3d5da6d2	0.05411417
176	0x3e2c02fd	0.16798015
177	0x3d9fc8fd	0.07802007
178	0xbf766881	-0.9625321
179	0x3d0bbdbc	0.03411649
180	0xbd3a7ef4	-0.04553123
181	0x3d4470df	0.047959205
182	0x3da0bb0c	0.07848176
183	0x3c07f2ff	0.008297681
184	0xbd412d54	-0.04716237
185	0xbd9298d8	-0.07158059
186	0xbd8b4feb	-0.068023525
187	0x3e5fb8f8	0.21847904
188	0x3e332c6c	0.17497414
189	0xbd9502f4	-0.07275954
190	0x3e2a475c	0.16628784
191	0xbd0597d4	-0.032615498
192	0x3ab3207c	0.0013666297
193	0x3e5d50af	0.2161281
194	0xbcd6c714	-0.026217975
195	0xbe809c46	-0.25119227
196	0x3db69b92	0.089163914
197	0x3d8d4e76	0.06899731
198	0x3d3cf0aa	0.046127953
199	0x3eee979a	0.46600038
200	0x3d5732d5	0.05253871
201	0x3d303372	0.043017812
202	0x3e6c06a5	0.2304941
203	0x3deb2c6f	0.114830844
204	0xbd3983c5	-0.04529168
205	0xbd30105e	-0.04298436
206	0xbdb02460	-0.08600688
207	0x3d78e470	0.06076473
208	0x3e090bd7	0.13383423
209	0xbf008ac9	-0.5021177
210	0x3b48f02f	0.0030660739
211	0xbf28ca6a	-0.6593386
212	0x3b8012cf	0.003908492
213	0xbf0c1910	-0.5472574
214	0x3e036c0d	0.12834187
215	0x3e19e515	0.15028794
216	0xbe363fad	-0.17797728
217	0xbde511cb	-0.11185034
218	0xbf2e17c9	-0.68005043
219	0xbeea517b	-0.4576529
220	0xbe24d2a9	-0.16095985
221	0x3c53675c	0.012903061
222	0xbf0b15b0	-0.5432997
223	0x3ca91b3e	0.020642873
224	0xbeb0efa6	-0.34557837
225	0x3dc778b1	0.09739817
226	0x3d6832b0	0.056688964
227	0xbe8a1111	-0.26966146
228	0xbbcbb198	-0.006216239
229	0x3de85e1b	0.11346074
230	0xbe335d4d	-0.1751606
231	0x3eb672ae	0.3563437
232	0xbd99cfca	-0.07510336
233	0x3cef2b65	0.029195497
234	0xbd2f9be6	-0.042873286
235	0xbde5f0e1	-0.11227585
236	0x3e2e144b	0.16999929
237	0xbef69208	-0.48158288
238	0x3e148d73	0.14507084
239	0xbd8ec519	-0.06971187
240	0xbe65cb95	-0.22440942
241	0xbe6b10ff	-0.22955702
242	0xbe5d9332	-0.21638182
243	0x3e283ad3	0.1642869
244	0xbd166f38	-0.03672716
245	0x3e41c02a	0.18920961
246	0x3e190692	0.14943913
247	0x3ebe96a9	0.3722432
248	0x3e028874	0.12747365
249	0x3e009e1b	0.12560312
250	0x3e1d27bf	0.15347193
251	0x3dfb4f79	0.122710176
252	0xbf289e60	-0.6586666
253	0xbc31301f	-0.010814696
254	0x3da29174	0.07937899
255	0x3cf44a09	0.029820459

fc3.bias f4 [64]
0	0x3d3eacce	0.04655152
1	0x3d13d52a	0.03609196
2	0x3e2b018d	0.1669981
3	0xbca4c8ef	-0.020115344
4	0xbdb6e0d4	-0.08929601
5	0xbc690df2	-0.014224516
6	0x3d78a019	0.060699556
7	0x3ca26d2f	0.019827453
8	0xbb38db62	-0.0028206934
9	0xbcac080b	-0.020999929
10	0xbe0aa949	-0.1354114
11	0x3c17d4de	0.00926706
12	0x3cc43638	0.023951635
13	0x3d9e5af2	0.0773219
14	0x3dd872eb	0.10568794
15	0xbe0e50b2	-0.1389797
16	0xbd031198	-0.0319992
17	0xbdcf2575	-0.10114566
18	0xbdd0c4dc	-0.10193798
19	0x3dae61ae	0.08514725
20	0xbd148c88	-0.036266834
21	0xbd84d3a8	-0.06485683
22	0x3d0a0e6f	0.03370517
23	0x3e24fe7e	0.16112706
24	0xbd87e8dc	-0.06636211
25	0xbd8d5958	-0.069018066
26	0x3b4e8e86	0.0031518056
27	0x3c73857a	0.014863366
28	0xbc4dba90	-0.012556687
29	0x3cf45ee1	0.029830398
30	0xbca79623	-0.020457333
31	0xbe1e9189	-0.15485205
32	0xbda4df2f	-0.080503814
33	0x3e0006b9	0.12502564
34	0xbd7c7cdc	-0.061642513
35	0x3a58e393	0.00082736573
36	0xbce1a76e	-0.027545657
37	0xbd3dc883	-0.0463338
38	0x3d56708d	0.05235343
39	0x3c8d1f71	0.017226906
40	0xbddc9c2a	-0.107719734
41	0x3d62ae51	0.055342022
42	0x3c8f0360	0.017457664
43	0x3d867d98	0.06566924
44	0x3d2113aa	0.039325394
45	0xbdd3c258	-0.103398025
46	0x3cc8da2d	0.024518097
47	0xbd1a3b3f	-0.037654158
48	0xbda2bf65	-0.07946662
49	0xbd647099	-0.055771444
50	0x3db5bd39	0.08873982
51	0xbdfa5735	-0.12223665
52	0x3db55145	0.088533916
53	0x3ca540f2	0.02017257
54	0x3de291ca	0.11062963
55	0x3d438aa1	0.04773963
56	0xbce50e8a	-0.027961034
57	0xbd63ee74	-0.05564733
58	0x3ccfbb88	0.025357977
59	0x3bb8926a	0.0056326883
60	0x3d9ad542	0.07560207
61	0xbd3e5e94	-0.046476915
62	0xbce92277	-0.028458817
63	0x3d8714f7	0.065957956

fc4.weight f4 [2, 64]
0	0x3f3cdc08	0.7377324
1	0xbf5d2adc	-0.86393523
2	0x3e51357b	0.20430557
3	0x3d964f58	0.07339352
4	0x3f447119	0.76735073
5	0xbedee95c	-0.43537414
6	0xbe4d3853	-0.20041017
7	0x3e3dbe32	0.18529585
8	0xbe2517e8	-0.16122401
9	0xbf0d1d4d	-0.55122834
10	0x3c91ed63	0.01781339
11	0xbddaf9db	-0.106921874
12	0xbf200c5b	-0.6251885
13	0xbdf4b6fa	-0.119489625
14	0xbec6e2ca	-0.388449
15	0x3dc819d7	0.097705536
16	0x3e9353ec	0.28774965
17	0xbeb7d418	-0.35904002
18	0x3f17083b	0.58996934
19	0xbd935d8a	-0.071955755
20	0x3d4d304b	0.050094884
21	0xbe33cc5d	-0.17558427
22	0xbe692e32	-0.22771528
23	0xbbcc0530	-0.0062262043
24	0x3f31a3c9	0.6939054
25	0xbf42af1a	-0.76048434
26	0xbe339cf0	-0.17540336
27	0x3e6bda82	0.23032573
28	0x3dec4afe	0.11537741
29	0x3d20f8c5	0.039299745
30	0xbf271977	-0.6527323
31	0x3f8e4df3	1.1117538
32	0xbe2806d9	-0.16408862
33	0x3f062481	0.5239945
34	0xbf0f8f4d	-0.56078035
35	0x3e815a5e	0.25264257
36	0x3f902c00	1.1263428
37	0xbeb776e0	-0.35832882
38	0xbe41c387	-0.18922244
39	0x3ed40137	0.41407177
40	0x3d57a375	0.05264612
41	0x3c92f279	0.017937886
42	0xbdb5b837	-0.08873027
43	0x3c9a87ba	0.018863548
44	0xbe1c324a	-0.15253559
45	0xbeb8f669	-0.36125496
46	0xbf3e6c8f	-0.743844
47	0xbea70e99	-0.32628325
48	0xbbecc35e	-0.007225438
49	0x3ecc91e5	0.3995506
50	0xbe637017	-0.22210728
51	0x3e88d2d5	0.26723352
52	0xbccb03cd	-0.024782086
53	0x3d8cddde	0.06878255
54	0x3d684c02	0.05671311
55	0xbf090acc	-0.535321
56	0x3f4b6abc	0.7945974
57	0x3ed79006	0.4210207
58	0x3db52f59	0.088469215
59	0x3ddead6e	0.10872923
60	0xbe5470cf	-0.20746158
61	0xbe85cd59	-0.2613323
62	0x3f2b7e67	0.6698975
63	0x3df3b9f4	0.11900702
64	0xbed11f43	-0.40844163
65	0xbeb9826b	-0.36232314
66	0xbe21ed5d	-0.15813203
67	0x3dd34bcb	0.10317191
68	0x3f17507a	0.5910717
69	0xbd015c75	-0.031582315
70	0x3f9d2667	1.2277344
71	0xbde2a765	-0.11067084
72	0x3f1de1f2	0.6167289
73	0xbeac23a8	-0.33620954
74	0x3f012179	0.504417
75	0x3f45bf23	0.77244776
76	0xbe70c497	-0.23512493
77	0xbeef85d0	-0.46781778
78	0xbdac74e2	-0.08420731
79	0x3f97dcb3	1.1864227
80	0x3ea38f09	0.31945065
81	0xbd6b298f	-0.05741268
82	0xbe618b04	-0.22025687
83	0x4000ed25	2.0144742
84	0x3f024992	0.5089351
85	0xbed6c568	-0.41947484
86	0x3f76799d	0.9627932
87	0xbefa7575	-0.48917738
88	0xbe87cd99	-0.26524046
89	0x3dfecf71	0.1244191
90	0x3c983098	0.018577859
91	0x3fd1790f	1.6365069
92	0xbed9f33f	-0.42568395
93	0x3f1df002	0.6169435
94	0x3efe72a0	0.49696827
95	0x3e4a5f10	0.19762826
96	0xbead7a89	-0.3388255
97	0xbec2cb55	-0.38045755
98	0xbdf9fea3	-0.12206771
99	0x3f1b286c	0.60608554
100	0x3e171ddb	0.14757483
101	0x3f1c4b6f	0.610526
102	0xbe356817	-0.17715488
103	0xbe9ed97e	-0.31025308
104	0x3f31dabe	0.694744
105	0xbf20c112	-0.627946
106	0x3e8fad9a	0.28062135
107	0xbf07a5f4	-0.529876
108	0xbf3585fa	-0.70907557
109	0x3da847f5	0.0821685
110	0xbe702a50	-0.23453641
111	0xbf8b30d8	-1.0874281
112	0x3f1f747f	0.62287134
113	0x3e9cd2ff	0.30629727
114	0x3eb47818	0.35247874
115	0x3f70c306	0.9404758
116	0xbf1e24e2	-0.6177503
117	0x3f5eab7e	0.86980426
118	0xbf1f68f9	-0.6226955
119	0xbf1d1a25	-0.6136802
120	0xbd4063f1	-0.04697031
121	0x3e9f2102	0.3107987
122	0xbe209d2a	-0.15684953
123	0xbef1ffdb	-0.47265515
124	0x3f3ee730	0.74571514
125	0xbeccd48a	-0.40005904
126	0x3e0a1bcf	0.1348717
127	0x3f86aa07	1.0520638

fc4.bias f4 [2]
0	0x3d97f2d3	0.07419362
1	0xbe2a4f60	-0.16631842
