checkpoints/Computer2-1-checkpoint-1.4623-actor.pth (torch, 193711 bytes, 8 tensors)

fc1.weight f4 [256, 24]
00000000: 84ae 293d f559 97bd 0831 c5bd 6fc8 063d
00000010: ca3a b23c aefa 26be ac44 493d 72c0 81bd
00000020: 2f26 783e 7ff1 8abe e44f 24be 821e 7f3d
00000030: 7b76 f53d 8c7f 29bd fe41 de3c 311d 94bc
00000040: e7a1 bdbd ce1e 7dbc 60e6 8fbd c090 d23d
00000050: 3637 b23e ac0c 15be bd67 2cbd 27d1 853d
00000060: c80c 603e bfde d7be 6118 8f3d fda5 c73d
00000070: 207e bb3d c219 bc3b 09a4 01be d1f7 10be
00000080: c37c 4bbd 057a ebbe cc75 833d 0dfb a83e
00000090: e8dc d5bd c856 60bc dd1b 09be 101a 38bd
000000a0: c1a0 c4bd 1f06 c1be 1d7e eabd ec5a 0f3e
000000b0: bbef 4a3d 95b6 75be 1ec8 e2bd c108 933e
000000c0: 1a7b c5bc d740 3cbe 6b15 23bd cc6e 823e
000000d0: 4a3f a8be 1b20 3e3e 5ead 363e 2afd ecbc
000000e0: fb1c 49be dbae a3bd 6bfa 913d cd45 c4bd
000000f0: 554c 94be 6037 7e3b 1a14 14bd fbd8 163e
00000100: 3bd8 15be f14a 9ebd d11b 433d 6b83 7d3b
00000110: 4693 243e 0605 74be 6ade 1bbd 968d 64bd
00000120: afc2 c63d f99a 8c3e 34ef 5e3a 2606 03be
00000130: eaf8 26bd b4f6 68be 6bc7 f63d ff38 dcbc
00000140: c815 403e 826d 13bd ecef 373e 9f04 1b3d
00000150: 73e5 a9be 5d5b ae3d cd7b 19be 40ea dc3d
00000160: da65 283e d786 64bd 7fcf 0f3e e2a6 823d
00000170: e07a 8bbe c2b8 823e 5994 f43d 772d 1a3e
00000180: f797 1cbd 45d5 26be c1bd a5bd 9edd 823e
00000190: 90d7 553e 9388 253e 7ac3 473d d953 913e
000001a0: 8cd2 443b eaee 60be 5524 633e 01a4 293c
000001b0: fad3 7ebe 607a 873e 739e 05be 7347 d63d
000001c0: 391b cd3b 9d12 9dbe e305 f93c 20e1 293e
000001d0: c2cd c7be 34c4 9e3e bc03 39bc 5810 d23d
000001e0: 1b81 993e 1f52 b7bd 89f2 d53d d47d c4bd
000001f0: 1a80 29be b37e c33d a4e2 52be e0b1 c73d
00000200: a36b a73d 7de9 7fbe 06a3 82bd ceb8 3cb8
00000210: f987 f13d 495a 0e3e 152a e63c 1d20 aabd
00000220: 069c abbd 6fe2 33be d5ff d7bd fbb4 06be
00000230: bb7e 153e 725e a03e d8c2 533e 7f82 86bd
00000240: b01b 46bd ccb0 ddbd 5f69 b33d 139c ca3d
00000250: ce47 383d 6d68 9e3e dfd8 c4bd ca4c 323e
00000260: 809e c83e 782d 1c3d 7d10 1ebe 0ea0 f63d
00000270: 2fde 993e c981 ac3d d88e b03d f57e 103e
00000280: c965 213e 2523 d3bd 0130 823d fc3e d63c
00000290: 2c65 c83e f214 e93e ef9e 78bd 98b8 433e
000002a0: 5a23 3e3e 78d6 473e 1e8f 103e 7756 09be
000002b0: b94b 223d 7b9d e53c 0abc 303e 26e6 1a3e
000002c0: 54ff c93d 3c30 cb3d ac8a 80bd 05fb 0abd
000002d0: 7017 8abe c77f 803e bda8 723d a4af 4c3d
000002e0: ba46 3a3e c6da a2bd 88ea 333e e0ca 73bd
000002f0: 6903 ecbd 65c3 ca3e 1a3f 28bd 24fc b7bd
00000300: 421e 34be 593f 86bd 3f73 b43d de9a f1bd
00000310: de67 07be 5a84 173d e15f cabc 8432 efbd
00000320: 40ba 4f3e 9150 f13d d42c a3bd 9ff9 b83d
00000330: ffe5 e1bc 2c23 913e cd8b 413d b0e4 943d
00000340: c5c9 37bd 44a1 22be e901 1c3d 8709 8abe
00000350: 36a8 383e eec0 0a3f fd8c 593c e767 97be
00000360: 6fb0 b93d 9abd 013d 7fd3 b2bd 93a6 a43e
00000370: 5589 31b9 6134 cd3c 6f90 903d a739 b33e
00000380: 64a9 8a3e f5c9 b53e c428 2a3e d3c7 c2bb
00000390: b811 e2bd 4e1a 5e3e 75d7 6ebd 6d88 643e
000003a0: 503d 253d 94ef 9e3e 2c3c d73d 56de d83d
000003b0: be76 653e bd2e 7a3e 74dc aa3c c45e 163e
000003c0: b316 163e 2199 09bf 229f 67bc 164f 30be
000003d0: afb9 6e3e 7c70 a3bc ba6c ac3d aba4 6cbd
000003e0: 2a0b c63e 6212 8fbd 1bf6 fa3d b4d4 963e
000003f0: 7300 49be d495 d63d 2ade dbbd 239c 1a3e
0.041426197 -0.07390205 -0.096284926 0.032905992 0.021756548 -0.16306564 0.049137756 -0.06335534
0.24233316 -0.27137372 -0.16046101 0.062284954 0.11985489 -0.041381404 0.027131077 -0.018080326
-0.09259396 -0.015449239 -0.070263624 0.10281515 0.34807748 -0.14555615 -0.04209112 0.06534033
0.21879876 -0.4216213 0.06987072 0.097484566 0.09154916 0.0057403753 -0.1266023 -0.14157034
-0.04967953 -0.4599153 0.06418952 0.33004037 -0.10442525 -0.013692565 -0.13389535 -0.04494673
-0.09600974 -0.37699983 -0.114498354 0.13999528 0.04954503 -0.23995431 -0.110733256 0.28717616
-0.024106551 -0.1838411 -0.039815348 0.25475156 -0.32860786 0.18566935 0.17839572 -0.028929312
-0.19639961 -0.079923354 0.071278416 -0.09583626 -0.28964487 0.003879033 -0.036151983 0.14731209
-0.14633267 -0.07729138 0.04763395 0.0038683068 0.16071805 -0.23830041 -0.038053907 -0.05579909
0.09705102 0.27461985 0.0008504272 -0.12795314 -0.040764727 -0.2275036 0.12049755 -0.026882647
0.18758309 -0.035993107 0.17962617 0.037846204 -0.33182868 0.0851352 -0.14988633 0.10786867
0.16445103 -0.055792656 0.14043997 0.063794866 -0.27242184 0.25531584 0.119423576 0.15056406
-0.038230862 -0.16292293 -0.08092833 0.25559705 0.20883012 0.1616538 0.048770405 0.28384283
0.0030032722 -0.21966138 0.22181828 0.010354043 -0.2488555 0.26460552 -0.13048725 0.104628466
0.0062593487 -0.30678263 0.030398315 0.16589785 -0.39024168 0.31009066 -0.011292394 0.102570236
0.29981312 -0.0895121 0.104466505 -0.09594312 -0.16552773 0.0954565 -0.20594269 0.09750724
0.08174827 -0.24991412 -0.063787505 -4.4994806e-05 0.11793513 0.13901629 0.028096238 -0.08306906
-0.083793685 -0.17566846 -0.10546843 -0.13154976 0.14599125 0.31322056 0.20679796 -0.06567859
-0.04836625 -0.10824737 0.08760332 0.0989305 0.044990353 0.30939046 -0.096116774 0.17412105
0.39183426 0.0381293 -0.15435977 0.12042247 0.30052325 0.08423192 0.08620995 0.1411093
0.15761484 -0.10309438 0.06356812 0.02615308 0.39139688 0.45523793 -0.060698446 0.19113386
0.18568173 0.19515407 0.14117095 -0.1341189 0.039622996 0.028029194 0.17259231 0.15126857
0.09863153 0.09921309 -0.062764496 -0.033930797 -0.26971006 0.25097486 0.059242953 0.04997219
0.18191043 -0.07951884 0.17569935 -0.05951965 -0.11524088 0.396022 -0.041075803 -0.08983639
-0.17589667 -0.06555051 0.08811044 -0.11797117 -0.13223216 0.036991455 -0.024703922 -0.11679557
0.20285892 0.11782945 -0.07967535 0.090319864 -0.027575491 0.28347147 0.047252465 0.07270181
-0.044870157 -0.1588183 0.03808776 -0.26960394 0.18032917 0.5420064 0.013278243 -0.2957146
0.09066855 0.03167496 -0.08731746 0.32158336 -0.00016931196 0.02504939 0.070587985 0.35004923
0.2708236 0.35505643 0.16617113 -0.005944231 -0.11038536 0.21689722 -0.058310945 0.22317667
0.040341675 0.3104216 0.10509524 0.10589282 0.22408578 0.24431892 0.020857073 0.14684588
0.14657097 -0.5374928 -0.014137061 -0.17217669 0.2331302 -0.019951098 0.084191754 -0.057774227
0.38680393 -0.06985928 0.12253972 0.29459155 -0.19629078 0.10477796 -0.10735734 0.15098624

fc1.bias f4 [256]
00000000: 7474 d33b 742c 6fbd c1ae 2ebe c54d 60be
00000010: 9098 f13d b785 0b3e af12 a8be b00f 28bd
00000020: c6d1 e539 da91 153d c511 153d 50fd ebbd
00000030: d6a5 15be 0a4a f4bd 8929 04be c791 13be
00000040: 1dec 15be e1ab debd 327d d1bd aa29 e4bd
00000050: 1173 53bd 6676 fa3c 79dc d83d 65dc d73c
00000060: d108 fe3c 202e 8c3c e868 47be c381 ad3d
00000070: a8b7 fabb 52fa 773e 876a 6cbe b8b7 23be
00000080: bda4 d6bc 22da 35be ce75 663e e06b 19be
00000090: adcc b4bd 05d6 dabd 9efa 89be bfe7 54bd
000000a0: f5ca 423d 9d24 66be 5db4 33bc d54a c93d
000000b0: 2dbc b4bd 4d4b 88be 763a 22be ef16 acbd
000000c0: 12ba 7fbe f401 2d3e 30d9 83be 52cb a2bd
000000d0: 2685 99bd 56d3 2ebd 44f0 1d3e e6f0 613d
000000e0: 2f65 573e a2b6 25be 089b 9bbe 4657 15be
000000f0: 86c9 12be fc47 3cbe f564 033c cffe adbd
00000100: 1cd5 4bbe 0df8 243e 2131 01be 33fa a23d
00000110: 716c a73d 99ff 84be 5f02 093e c189 a43c
00000120: 2e35 c3bc 858e b9bc 8725 f5bd 5506 27be
00000130: bbf0 98bd 5687 723d f45d 4bbe d95a 0a3e
00000140: 4bb0 6abd 5ad8 b6bd 6bda b53d 352c 83be
00000150: a332 87bd be0a 94bc 445b b1bd 7bd1 e3bd
00000160: 7c4e a63d 57f4 0f3d 9a40 1d3e 6115 b7bc
00000170: c5e9 b73c a631 9bbe 476b b0bd 444c fe3c
00000180: c718 293e 28c6 a5bd 2cf1 57be 423f 283e
00000190: 8746 93be 7420 a9bc e71d 213e 6446 b2bc
000001a0: 7a61 4e3e 6fa3 04bd 12f3 62be 1f82 123e
000001b0: 5355 193d 19c9 783d e136 85be 4ce6 8bbd
000001c0: c92c 13be 098f 92be edfe c53c 0f72 f53b
000001d0: edb7 3cbe 05f3 1fb9 ffe1 713c a3ab 0ebe
000001e0: 7d23 0cbe 737a 1cbd fbaf bc3a 6448 dc3d
000001f0: 2b6c 66be 51d8 6dbd 68b1 ea3d 4e83 32bd
00000200: a007 913d 9a2a 07bd 4dbc d03d cf45 773d
00000210: ef13 5bbe f989 68be 5d68 9ebd d946 413e
00000220: 2002 583e b179 afbe 25d6 e43d b9f1 123e
00000230: 6e91 853d a7ea 21be f5f0 9cbe b918 0fbe
00000240: 726f 5b3d ddd3 a4bd 2c96 43be 1bec 9b3d
00000250: 93ea 13ba 61cd d43d 1728 68be d54b b2bd
00000260: 333a 34be 79d2 b3bd b468 81be 6d7d 23be
00000270: 7a9f 2c3d f68f a8bd fed8 a3be 04c9 203d
00000280: eadc a1be 79aa f3bd 448a 543e 3b4f 8dbe
00000290: a03a d73d ca27 2fbe 0d19 e4bd 49ea 3bbe
000002a0: 5ba4 d63d d175 433e 2295 f7bc f11a febb
000002b0: 6215 b73d 4bf6 44be 3cca f1bc ff80 b13d
000002c0: 08cc e33d 85ff 843e 0569 c2bc f3dd 5ebe
000002d0: 5048 b9bd ae9e 8ebb b837 b3bc 064e 29be
000002e0: 720d 24bd 1479 e73d f098 953d d67d 4dbd
000002f0: 49e0 f4bd 3d42 63bd ff52 ae3d fa5b 063e
00000300: 1c29 bf3d f124 083d c147 a23d 643a 79be
00000310: 7c46 9f3d 4e16 42be ca71 1c3e f063 6a3d
00000320: 48ed 9abd b9d7 91bc b932 85be 456a 3b3d
00000330: 06fb f63d e4a9 363c 920d 3a3d 6d53 c4bd
00000340: 8de4 053e 795d 4cbe a4c7 8ebe 10d2 b3ba
00000350: 633c 2abe 4b8b 87be 2e7e 9ebe 5cb9 0ebe
00000360: 7daa 9ebd 2d65 7bbe 86aa 22bd 2134 b5bd
00000370: 3e45 c63d 5e61 0e3e d46b 5c3d a2a3 28be
00000380: 010e f2bd a16d 91be d01e 2ebd 7167 2e3e
00000390: ac45 4e3e 9011 85bd fe2b 6ebd c4f5 683e
000003a0: 2b7c bdbd 11dd 143d 91a5 9c3d 0ab8 0d3c
000003b0: 6282 783e a4d5 85bd db67 463e 7a23 39be
000003c0: cc11 48be aa16 bf3e 1a2e 6a3d 918f 4c3e
000003d0: ccb8 3ebe 3bac 58be 54af 2cbe 5fde 333e
000003e0: 2743 7fbe a9d2 60bd 967c e33d 567a 0dbe
000003f0: 67e6 4bbd f1b1 1d3e d34b 5e3e 829c 52bd
0.0064530913 -0.058392003 -0.17058851 -0.21904667 0.11796677 0.13625227 -0.32826754 -0.041030586
0.00043834577 0.036516048 0.0363939 -0.11522925 -0.14614043 -0.11928184 -0.1290647 -0.14411078
-0.14640851 -0.10872627 -0.10228957 -0.11140759 -0.051623408 0.030574035 0.10588927 0.02635021
0.031010063 0.017111838 -0.19473612 0.08472016 -0.007651288 0.24216583 -0.23087512 -0.15988052
-0.0262016 -0.17758992 0.22505876 -0.14982557 -0.08828101 -0.10685352 -0.26949018 -0.051978823
0.047556836 -0.22474904 -0.010968295 0.09828726 -0.08824954 -0.2661995 -0.15842614 -0.08402812
-0.24973324 0.16895276 -0.25751638 -0.079489365 -0.07496099 -0.042682014 0.15423685 0.05516138
0.21034692 -0.1618295 -0.30391717 -0.14584073 -0.14334688 -0.18386835 0.0080196755 -0.084958665
-0.19905514 0.16110249 -0.12616397 0.07957878 0.081749804 -0.25976256 0.13379811 0.020085217
-0.023829069 -0.022650966 -0.119700484 -0.16311009 -0.07467791 0.059211098 -0.19860059 0.13511218
-0.057297032 -0.089279845 0.088795505 -0.25619665 -0.06601455 -0.018071529 -0.08659986 -0.111239396
0.081204385 0.03514513 0.15356675 -0.022349061 0.022450337 -0.30311316 -0.086142115 0.031042226
0.16513358 -0.08094436 -0.21088094 0.16430381 -0.28764746 -0.020645358 0.15734063 -0.02176208
0.20154372 -0.032382425 -0.22163036 0.1430745 0.037434887 0.060738657 -0.26018432 -0.06831035
-0.14372553 -0.28624752 0.02416941 0.0074904035 -0.18429537 -0.00015253953 0.014763354 -0.13932662
-0.13685413 -0.038202714 0.0014395708 0.10755995 -0.225022 -0.058067624 0.11459619 -0.043582253
0.070815325 -0.032999612 0.101921655 0.06036931 -0.21394323 -0.22708882 -0.077347495 0.18874682
0.2109456 -0.3427253 0.11173657 0.14350022 0.06521879 -0.15812169 -0.30652586 -0.13974275
0.05357308 -0.08048222 -0.19100255 0.07613393 -0.0005642559 0.103907354 -0.22671543 -0.0870587
-0.17600326 -0.08780379 -0.25275195 -0.15965815 0.042144276 -0.08230583 -0.3200149 0.039254203
-0.31613857 -0.118977495 0.20755869 -0.2759951 0.10509229 -0.17105022 -0.111375906 -0.18351091
0.10480567 0.19087912 -0.03022248 -0.0077546765 0.08939625 -0.19234578 -0.029515378 0.08667182
0.111229 0.25976196 -0.023731718 -0.21764354 -0.09046996 -0.004352412 -0.021877155 -0.1653367
-0.040051885 0.11302391 0.07304561 -0.050168835 -0.119568415 -0.05548309 0.08511924 0.13121024
0.09334013 0.033238355 0.07923842 -0.2433868 0.07777116 -0.18953821 0.15277782 0.057224214
-0.07564789 -0.01780306 -0.2601526 0.045755643 0.12059598 0.0111489035 0.045423098 -0.09586225
0.13075466 -0.19957532 -0.2788669 -0.001371922 -0.16624598 -0.2647346 -0.30955642 -0.13937896
-0.07747362 -0.24550314 -0.039713405 -0.088478334 0.09681176 0.1390433 0.05381377 -0.16468671
-0.11819077 -0.28403953 -0.042509854 0.17031647 0.20143765 -0.064974904 -0.058147423 0.22750002
-0.09252199 0.036343638 0.07648767 0.008649835 0.24268487 -0.06534889 0.19375555 -0.1807994
-0.19538039 0.3732198 0.057172872 0.19976641 -0.18625182 -0.2115945 -0.16863757 0.17565297
-0.2492796 -0.0548884 0.11107747 -0.13816199 -0.049780276 0.1539991 0.21708612 -0.05141879

fc2.weight f4 [128, 256]
00000000: f2b7 85bc ec42 0c3d 7875 e33c 444d 4dbe
00000010: c3f5 413d d2fa d8bd 52a5 f53d 687e 39be
00000020: be6e e33d afbd 9bbb 7c29 a6bd ee5e 953c
00000030: 07e0 08bc d285 eabc ae58 383d ceae 1fbe
00000040: ed7a 1a3e 14a9 4ebd bec3 ac3d 3049 6fbe
00000050: cd5c 8d3d 8561 d1bc d296 6e3d 3dda a2be
00000060: 6dde 41bd 12df a53d 472b 87bd 8737 bdbd
00000070: 1287 823d 223d 143d 9900 d6bd a036 a1bc
00000080: 6036 33bd cae1 09bd 1237 1ebe 8a60 093d
00000090: 569d 6c3d 9640 0cbd 4115 01be 6080 343e
000000a0: 515b 693c e269 8cbd a28f 93bb 0437 c93d
000000b0: 776e 953d 4618 8b3d f8d2 ac3d 7ba5 70bd
000000c0: ee22 433d 17a1 f83c d9f3 32bc 2bd3 27be
000000d0: a94e c1bd 6e53 2abe 7401 d4bd b8ca 66bd
000000e0: 149c 39bb f9fd 78bc 2bbc ca3c 1265 303d
000000f0: e2f6 36bd 0ccb 18be e7b0 a8bd 32cb cf3d
00000100: 0daa a23d fbbf 83be b803 b0be c41c b7bd
00000110: fa3c 04be e281 f5bc 9344 403d 7d2c 983c
00000120: ca77 f1bd e1ae d43d 3075 a0bb 5498 e3bc
00000130: 5ba7 c6bc d883 ccbc e44d cf3d 011e 523d
00000140: 8336 a23d 34fc b4be 93ce 9c3d db45 9cbc
00000150: 482b 2ebc 5465 d43b 43db fcbd 18fe 353d
00000160: 5d98 733c 06fd 89bc d263 a03d a649 163d
00000170: f132 0cbd 907d ac3d 2a6b b53d 11dd 223d
00000180: 96b0 07be 8669 523d 0aca ecbc 2a41 e2bd
00000190: 5e73 a13d c2a1 713d a06a bb3d 678b b3bc
000001a0: 27bf dcbd 0a02 9fbc bf67 72bd a1ac 3c3d
000001b0: 02ba b6bc aa04 2abe ccab b73c a868 0b3d
000001c0: 7996 7cbe 4cc7 673d db2c eabd 6576 f4bc
000001d0: 84b0 cfbc 21fd 95bd 50ab e0bc 4cc6 873c
000001e0: d750 16bd 8714 ddbd 339e b83c 3a6c 6a3d
000001f0: 1b18 d03d ac47 81bd 7f7d fbbd c5ca 9c3e
00000200: 6217 efbb 6518 a13d eb31 09be 408e 98bd
00000210: 35cc 66be 588f fcbc 91f8 1f3c 0fd1 423d
00000220: 9a5d 34be 19ac e03c 9dc7 663d 3aac 1bbe
00000230: ba18 d0bd 68af a1bd 99a4 f5bd 5e3e 933d
00000240: 44b5 4bbc 6137 db3d 8756 bb3d dd54 2c3d
00000250: abf4 9bbc acb6 a53d 59e7 4c3d 82de 85bd
00000260: 5f74 d5bb f41a acbc f66c da3d 70d0 883d
00000270: 6d04 02be fefe 9e3d 148d 993d a092 39bb
00000280: b8d7 a9bc 06b4 4d3d df55 28bd 6763 5b3d
00000290: c264 33bd 365d 8fbd 8390 473c a327 273b
000002a0: 8011 8f3d 9596 bcbe bfdb ba3d 7ba2 31bd
000002b0: 18f9 b93d 82a4 a7bd 16d8 743c 31cc ba3d
000002c0: 0f4b afbe 5fd4 c03d ad51 1f3d 750c fc3d
000002d0: 1cb2 c4bd eb94 a0bd 36da acbd 0a63 74be
000002e0: 4a51 da3c cac9 94be 35bf 09be 91ef 0e3e
000002f0: 5176 e9bc b2cc acbd d447 00be 522c 1a3d
00000300: 43dd 7c3c 37f3 e1bd e22f 98bb be43 cf3d
00000310: e709 68be c035 42bd 2dac 82bd 37dd 29ba
00000320: b8a1 613d 8290 513e 0565 58bd 44f7 2cbd
00000330: db19 57bd 6847 973c b2e2 173c 7bc0 2bbe
00000340: 4888 9abd 3c40 6bbd a716 093d 56b5 03bd
00000350: 2906 3dbe 827e 163d ec6d bdbe 1e50 e23d
00000360: c0df 853d d16a 4dbe 71fa ba3d 7b41 d2bd
00000370: b60c 02bd 31ee 4bbd 6727 3e3c 5fba 50be
00000380: 10b1 2d3d 5e70 bb3b 4b70 c63c 7c05 fb3e
00000390: 32fb 08be ec87 45bd 89cb 35be bd69 b53d
000003a0: ae6f a93d e73c 72bd cf13 9abd 3fbd a5bd
000003b0: 2fec 30bc 268b 8a3c e375 cb3d 3740 2f3d
000003c0: e522 693b b81f b13d 15e4 c7bd 4f25 68bd
000003d0: d74a a13c 66d7 0cbd 049e 96be 7f99 12bd
000003e0: f38d 36bd 0858 48bc a46b 0ebd 0306 b1bc
000003f0: 8435 ceba c2fe a3bd 9300 58be da49 4fbd
-0.016323064 0.03424351 0.027765974 -0.20049006 0.047353517 -0.10594715 0.11994423 -0.18114626
0.11105107 -0.0047528367 -0.08113381 0.018233743 -0.0083541935 -0.028628264 0.045006447 -0.15594026
0.15085955 -0.050454214 0.08435772 -0.23367763 0.06902466 -0.025559196 0.058249302 -0.31807128
-0.047331262 0.08099188 -0.066000514 -0.092391066 0.06373419 0.036191113 -0.10449333 -0.019679368
-0.043753028 -0.033662595 -0.15450695 0.033539332 0.057767235 -0.03424128 -0.12605764 0.17627096
0.014242963 -0.06856133 -0.0045032063 0.098249465 0.0729646 0.06791739 0.084386766 -0.058751564
0.047640733 0.030350251 -0.010922396 -0.16389148 -0.09438831 -0.16633388 -0.1035184 -0.05634567
-0.002832179 -0.015197271 0.024747929 0.04306514 -0.04466904 -0.14921206 -0.082368664 0.10146178
0.07942591 -0.25732407 -0.34377837 -0.089410335 -0.12913886 -0.02996916 0.046940397 0.018575901
-0.11790426 0.10384918 -0.0048967823 -0.027782597 -0.024249723 -0.024965212 0.10122278 0.051298145
0.079205535 -0.35348666 0.076565884 -0.019076278 -0.010630436 0.006481806 -0.12346508 0.044431776
0.014867869 -0.016844284 0.07831539 0.03669133 -0.03422827 0.08422387 0.088583305 0.039761607
-0.13250956 0.051370166 -0.028904933 -0.11047585 0.07883333 0.058992155 0.091511965 -0.021917058
-0.10778647 -0.019410152 -0.05918097 0.04606307 -0.022305492 -0.16603342 0.022420786 0.034035355
-0.24666776 0.05658655 -0.11434337 -0.029841611 -0.025352724 -0.07323671 -0.027425438 0.016574048
-0.03669819 -0.10794931 0.022536373 0.05723212 0.10160848 -0.063124985 -0.12279796 0.3062345
-0.0072964886 0.07865981 -0.13397948 -0.07449007 -0.22538836 -0.03083007 0.009763853 0.047562655
-0.17613831 0.027425813 0.05634271 -0.15202418 -0.10160966 -0.07894784 -0.11994285 0.0718963
-0.012433354 0.10703922 0.09147363 0.04207312 -0.019037565 0.080914825 0.050025318 -0.065365806
-0.0065141167 -0.021008946 0.10665314 0.06680381 -0.12697001 0.0776348 0.07497612 -0.0028316155
-0.020732746 0.05022051 -0.041097518 0.053561594 -0.043797262 -0.070002005 0.01218045 0.0025505803
0.0698576 -0.36833635 0.091239445 -0.043367844 0.09080714 -0.08185674 0.014944097 0.09120978
-0.34236953 0.094155066 0.03889625 0.123070635 -0.09604284 -0.07840904 -0.08440058 -0.23865905
0.02665009 -0.29060203 -0.13451846 0.13958575 -0.0284988 -0.0843748 -0.125274 0.037639923
0.015433612 -0.11032718 -0.00464438 0.10120343 -0.22660027 -0.04741454 -0.06380496 -0.0006479802
0.055085868 0.20465282 -0.052830715 -0.042228 -0.052514892 0.018466666 0.009270357 -0.16772644
-0.07545525 -0.057434306 0.03346887 -0.032155357 -0.18459381 0.03674174 -0.36997926 0.110504374
0.065368176 -0.20060278 0.09129799 -0.10266396 -0.031750403 -0.049787704 0.011606074 -0.20383595
0.042405188 0.0057201823 0.024223467 0.49027622 -0.13377073 -0.04822533 -0.17753424 0.088580586
0.08273254 -0.059140112 -0.075233094 -0.080927365 -0.010798498 0.016912054 0.099345945 0.04278585
0.0035573777 0.08648628 -0.097603 -0.056676205 0.019689007 -0.034385107 -0.2941743 -0.035790917
-0.044568967 -0.01222802 -0.034770623 -0.021609312 -0.0015732502 -0.080075756 -0.21093969 -0.05060754

fc2.bias f4 [128]
00000000: 6f34 42bc ee12 1b3d 2fbc 40bd e99d ea3c
00000010: 0f9a 6ebd 4396 163d c89f 83bd 81a7 06be
00000020: cfd0 563d d9db 26bc 3b83 eebc 9b2e 4c3b
00000030: 4c5a cb3d 4e94 80bd f754 57ba 3167 633d
00000040: 6c86 d5bc 6693 12bc 5ef9 05be 6315 46bd
00000050: 9bbc 9b3c 9bfd 02bd be75 abbd 24f9 b03c
00000060: fa07 513d 561a 143d d5f5 c3bd e8bc a1bc
00000070: 47e9 f5b8 1fc0 303c ba80 96bd 5ced eebb
00000080: 91e4 92bc a43a efbd 2e9d 43bb 500c c3bd
00000090: e7bd 993c 5173 153d 562e 323d dc78 4abd
000000a0: f40f a33a 8582 563c a013 cb3d 8fac 2cbc
000000b0: ba85 7cbc 1ac3 98bd 94c5 ccbc 9178 48b9
000000c0: 3fc4 f5bc 6219 f23d b3fb 813d d043 39be
000000d0: 08c7 073d edb7 66bb 0f8f 41bd acac 773d
000000e0: 1832 9c3c 205a 46bc e3cb cd3d 7985 8dbd
000000f0: c83f ebbd cec4 ef3c 2472 aa3c d35c c1bc
00000100: e21e a43b bb1c 013e 6915 2dbd 1f07 973d
00000110: e255 653b 4827 4a3d bbc1 16bc bc2d f9bd
00000120: 8b92 7fbd f135 de3c b8b0 2bbc fb1d 4cbd
00000130: 0969 fa3c a205 47bd 9267 283d a934 44bc
00000140: 2a2e 20bc 9e6f 0839 7948 d13d 2a28 063e
00000150: c1b2 9439 a758 57bd 4591 363d 3ac8 443d
00000160: 65b8 48bc 96dd e23a 6325 5abd 692f 7fbb
00000170: 6600 cc3c 0b20 debc fed5 203d a401 1fbd
00000180: f987 84bd be24 74bd 401a cbbc 95c8 34bc
00000190: 22ac 3dbd 1f49 e7bd 47c1 28bb bbbe 1b3d
000001a0: 6572 c23c 6b7a d23b 0f0b 98ba eb3c 133d
000001b0: ab39 153d f3de e13c 6405 613c 7a6f e83c
000001c0: 6581 a83d 99c4 d83d a8cd 8d3d de6c 263c
000001d0: 56d8 ffbc 44a6 50bc 776c 41bc 257a 72bd
000001e0: b9bc ec3b 2998 aebd 0883 93bb 214f 943b
000001f0: bab9 5e3d ade2 893b 7766 913b 769f 0ebd
-0.011853321 0.03785985 -0.047054466 0.02863975 -0.05825239 0.036764394 -0.0642696 -0.13149835
0.05244523 -0.010184252 -0.02911531 0.0031155709 0.09929332 -0.06278287 -0.000821426 0.055518333
-0.026065074 -0.008946275 -0.13083407 -0.04836024 0.019010833 -0.03198014 -0.08372067 0.021603175
0.051032998 0.03615793 -0.09568373 -0.019743398 -0.00011725962 0.010787993 -0.073487714 -0.007291479
-0.017931255 -0.11681107 -0.0029848325 -0.09523833 0.01876731 0.036486927 0.04350122 -0.049431667
0.0012440667 0.013092642 0.099158525 -0.010539188 -0.015412742 -0.07459088 -0.024996556 -0.00019118401
-0.030000804 0.11821248 0.06346836 -0.18092275 0.033148795 -0.0035204843 -0.047255572 0.060467407
0.019066855 -0.012106448 0.10048654 -0.069102235 -0.11486775 0.029268648 0.02080638 -0.023603832
0.0050085643 0.12608616 -0.042256746 0.07374405 0.0034993817 0.049353868 -0.009201462 -0.12166926
-0.062395614 0.02712533 -0.010479145 -0.04983328 0.030567663 -0.048589356 0.041114397 -0.011975446
-0.009776631 0.00013011551 0.10218901 0.13101259 0.00028361942 -0.05257478 0.044572134 0.048042513
-0.012250994 0.0017308469 -0.05325831 -0.003893817 0.024902534 -0.027114889 0.03926658 -0.038819924
-0.06471247 -0.059605353 -0.02479279 -0.011034151 -0.046306737 -0.112932436 -0.0025749968 0.03802369
0.023736188 0.0064232848 -0.0011599975 0.035946768 0.03643195 0.02757213 0.013734195 0.028373469
0.08227805 0.10584373 0.069239914 0.010157792 -0.031231087 -0.012734953 -0.011805645 -0.059198517
0.007224646 -0.08525116 -0.004501704 0.0045260345 0.05437634 0.00420793 0.0044372636 -0.034820043

fc3.weight f4 [64, 128]
00000000: 617b 2e3e d8ad ffbc de19 633b f7a7 a23d
00000010: 0886 06be e737 40bd b5ce 3d3d 4037 bfbd
00000020: 2480 c33d 1a83 7bbc a5cd 383d 9ada c7bc
00000030: bad9 d53d ce9c 793d 6a0c 8cbc c264 053e
00000040: a3ac 7abd 1730 833d 2f13 fa3c eace a93d
00000050: 2ab8 e43d 3c54 b43d f9b2 9ebd f64f 893c
00000060: f278 3dbd 6042 fa3b 8790 a43e 0584 173d
00000070: 3897 983c 75d9 e6bd 784d 2b3e 5c94 503c
00000080: 6fda 9e3d 92be 073e 59b4 943d d66d eb3d
00000090: f3c2 dabc 692f 00bd e0b3 c13d 7f88 debd
000000a0: eb66 9bbd 96d1 693d 6003 b8b9 bb70 bbbd
000000b0: afcf 073d 8d42 ba3c 1358 9b3d c978 77bd
000000c0: 3104 223d 19d5 653b eab1 833d 1055 153d
000000d0: fa60 d23d 88d9 2ebc 4a6a 213e 286f 60bc
000000e0: fae6 0ebd bfbc 40be bc6b 80bd 6e3f 79be
000000f0: 8698 25bd 214f b2bd 2b46 183d c10f 683c
00000100: 0bbf 2dbe 5d84 243d 9973 60bd b1a5 0ebe
00000110: 095a 6cbe 92d4 3f3d a433 97bd 6976 52bd
00000120: 7862 023e b067 943b 1ebe b7b9 bfdd 553b
00000130: 8f6e abbd c566 4b3d ad29 ad3d ee5d cd3d
00000140: 7596 85bd 545c 573d 5f49 18bb facc eabc
00000150: 6659 5ebc d0ba dc3d 0af1 9b3d 33aa d4ba
00000160: 03a6 cabc 18c1 f13d dd01 72bd be88 f43d
00000170: a283 903c 1b11 65bd 4899 273d 0ddf af3d
00000180: b744 df3e 55db c4bc 434f 873d 9281 963b
00000190: e477 38be 5e54 b6bd 0596 7d3d 7d96 cabd
000001a0: e027 41bd 8deb 4c3d 71c5 b93c 8b3a b4bc
000001b0: c230 123e 0106 e6ba 910c 93bd 355c ad3c
000001c0: 34ae c8bd 6f53 913d 68bf f0bc b35d 0ebe
000001d0: 6019 8a3e 059a a7bd f95a 323d cf55 96bd
000001e0: 6044 fcba 4154 c13d 80ae 733e ef37 c1bd
000001f0: 18b6 0f3b a3d4 b8bd 9f13 743d 4c11 bfbc
00000200: 24d6 483d b55c 81bd 9d82 9fbd ada7 2a3d
00000210: 0698 47bd 1763 cdbd cbb2 d53d 4ec1 dbbd
00000220: 2b86 513d 5247 03bd 64e6 d33c 587a d63d
00000230: 8ab2 f83b 2393 a23d 2952 943d 55ab b53d
00000240: 278f 83bd 645e 9d3d d0f1 cf3d d892 f63b
00000250: 6577 723d da85 683c 9b29 ecbd 4bf8 e73d
00000260: 7ca8 8f3d a29f 34bc 157e 7c3e bf17 b4bd
00000270: c6fe c7bb 0bdb 393d ea48 a53c 90f4 8dbd
00000280: 966f 37bd 37b3 443e 48d7 24bc a453 823d
00000290: 5a00 c5bd 52aa cfbd 3815 903d 3979 71bc
000002a0: 37d9 1d3c 4789 673d 2f18 48bd b7ec 04be
000002b0: 813f 833d b3d1 8b3d 4984 ce3d 8d84 ba3b
000002c0: 20cb 8dbd 95e8 1abd 8fb3 1b3d 327b a93d
000002d0: de8e 883d e7e2 ad3b d5e4 ee3c 8b4d 13bc
000002e0: 49ff c4bd 749c 14bd afba 323d 1dd5 dd3c
000002f0: 30dd f83d cb37 01be 861c 8cbd ad3e 01be
00000300: 526e 2cbe a61d 843d e618 3c3c bee8 b2bd
00000310: 295b 0abe a855 553d 9190 353c a12a 253d
00000320: bae8 733d abd5 0cbc e0ec 13be c7eb 0cbe
00000330: 4470 b5bd c312 923b 2bd8 45bd 28cf 43bd
00000340: 88c2 8f3d 4514 b9bd 9434 cd3d 1c79 0d3e
00000350: 97e0 9fbd bd27 11bd 7454 803d 7e41 a03c
00000360: 365b ba3d 443e 91bc d9a3 cdbc 9e23 833e
00000370: 930b a03d 15b4 aa3c ef41 313e 7ac5 c53c
00000380: 2a13 953e 4b37 d53c b303 45bd d4d3 843c
00000390: 28c2 94bd 3190 7d3d be06 3b3b 2973 c7bc
000003a0: 6384 193b 5360 ce3c 93ec b23d 8714 6cbb
000003b0: 3fab e53b 6854 a8bd 9400 88bd 47fd 383c
000003c0: 93fc 29bd 19e2 233d 48d8 96bb 369a 523d
000003d0: 1164 903e cb3f c43d 4891 d63d 5060 84bd
000003e0: 2673 183c 70c3 81be bf10 b03d 07b9 41bd
000003f0: fce3 383d 4267 633d 285a 37bd aff3 8ebd
0.17039253 -0.031210825 0.003465287 0.07942193 -0.13137066 -0.046928313 0.04633971 -0.0933671
0.09545925 -0.015351081 0.045117993 -0.02439623 0.10441919 0.060940556 -0.017095763 0.13026717
-0.061199795 0.06405657 0.030526726 0.08291419 0.11167939 0.08805129 -0.0774898 0.016761761
-0.04625792 0.007637307 0.32141516 0.036991138 0.018626794 -0.112719454 0.1672877 0.012730684
0.07756507 0.1325629 0.07260961 0.11495559 -0.026704287 -0.031295214 0.094581366 -0.10865878
-0.075879894 0.057084642 -0.0003509773 -0.09152361 0.033157047 0.022736812 0.07585158 -0.060417924
0.03955478 0.0035069643 0.06430419 0.036458075 0.10272403 -0.010671981 0.15763202 -0.013698377
-0.034888245 -0.18822001 -0.06270549 -0.24340603 -0.04042866 -0.08706499 0.037176292 0.014163912
-0.16967408 0.040165294 -0.054797743 -0.13930394 -0.2308122 0.046833582 -0.073828965 -0.051382456
0.12732875 0.004528962 -0.00035046128 0.0032633392 -0.08370697 0.049658556 0.08455215 0.10027681
-0.06522838 0.052578285 -0.0023237092 -0.028662194 -0.013571119 0.10777819 0.07614334 -0.001622504
-0.024737364 0.11804408 -0.05908381 0.11940144 0.017640892 -0.055924516 0.040917665 0.085874654
0.43607113 -0.024030367 0.06606915 0.0045930827 -0.18014485 -0.089028105 0.061910648 -0.098919846
-0.04715717 0.050029326 0.022677155 -0.022000572 0.14276412 -0.0017549397 -0.07180131 0.021162132
-0.097988516 0.07095992 -0.029388145 -0.13902931 0.26972485 -0.08183674 0.04354379 -0.073405854
-0.0019246452 0.09439898 0.23797035 -0.094344966 0.0021928605 -0.09024932 0.059589025 -0.023323677
0.049032345 -0.063165106 -0.077885844 0.041663814 -0.048728965 -0.100286655 0.10434493 -0.10730229
0.051153343 -0.03205044 0.025866695 0.10472554 0.007589643 0.0793822 0.07242233 0.088705696
-0.064237885 0.07684019 0.10153544 0.0075248294 0.059195895 0.014192069 -0.11531373 0.11326655
0.07014558 -0.011024388 0.24657471 -0.08793592 -0.0061033694 0.04537491 0.02017637 -0.06931412
-0.04478415 0.1920899 -0.010061093 0.063636094 -0.09619208 -0.10139908 0.07035297 -0.014738374
0.009634308 0.056527402 -0.04885119 -0.12980925 0.06408597 0.06827106 0.10083825 0.005692071
-0.06923509 -0.037819464 0.038013037 0.08275451 0.06667875 0.00530659 0.02916185 -0.008990656
-0.09619004 -0.036282018 0.043635067 0.02707916 0.12151563 -0.1261894 -0.06841378 -0.12621565
-0.16838959 0.064509675 0.011480546 -0.08735798 -0.13511337 0.05208364 0.011081831 0.040323857
0.059548117 -0.008595864 -0.1444583 -0.13761817 -0.088593036 0.004457803 -0.048301857 -0.04780498
0.07019526 -0.09037069 0.10019794 0.13815731 -0.07806509 -0.035438288 0.06266108 0.01956248
0.09099428 -0.017729886 -0.025102543 0.2561311 0.078147076 0.020837823 0.17310308 0.024142016
0.29116184 0.026027342 -0.04809923 0.016214289 -0.07263595 0.06190509 0.0028537954 -0.024346905
0.0023424856 0.025192415 0.08736529 -0.0036022977 0.0070089395 -0.08219224 -0.06640735 0.011290855
-0.04150064 0.040010545 -0.0046034195 0.0514166 0.28201345 0.0958248 0.10476929 -0.06463683
0.009304797 -0.2534442 0.08596944 -0.047295596 0.045139298 0.055518396 -0.044763714 -0.06980073

fc3.bias f4 [64]
00000000: b7d4 b8bd 9620 40bd a6e2 2c3d af3a 883d
00000010: 93e3 ac3d 3605 c6bd 9c22 eb3c d2fa 91bd
00000020: e555 1dbd 2a82 1f3d f295 fbbc b204 bdbc
00000030: a64b b33c aa20 593d aff6 013d c527 df3d
00000040: b319 7fbd 0fe5 0cbd 87d1 cebb 1bc2 c33c
00000050: f837 2abd b69c 81bd fa26 a0bd 6fe9 45bd
00000060: b1a0 79bc a5b0 e13c 2a51 85bd 1113 cdbd
00000070: 9387 2d3e 2b2e 88bc a145 b0bd 0e53 083d
00000080: f600 1f3c 02bf ce3d 7407 0c3c 0f53 d23d
00000090: 96ea 7cbd ee2a 36bc 801e 9abd 5b9b 083d
000000a0: 404d 40bc df06 89bd 2d6f cc3d 4ea6 c0bd
000000b0: 09fb 94bd 3f5a 113d f7bd 8f3c b66f f23b
000000c0: 191e edbc f287 d7ba 8062 113d b4c8 7cba
000000d0: c53a 1f3c 0eaf 043e 598e 9e3a 19b3 19bd
000000e0: 79de aebc a615 6d3c 6a76 ff3c d66b 933b
000000f0: 4b49 74bb 96d6 b83d 590f 123e 1c19 ee3c
-0.09024947 -0.046906076 0.042208336 0.06651818 0.08441844 -0.09668963 0.028703026 -0.07127918
-0.038411994 0.038942493 -0.030711148 -0.023073528 0.021886658 0.053009667 0.031729396 0.10896257
-0.062280368 -0.034398135 -0.0063115987 0.023896268 -0.041557282 -0.06328718 -0.07819934 -0.048318323
-0.015236066 0.027550051 -0.065096214 -0.10013402 0.16946249 -0.016623577 -0.08607031 0.033282332
0.009704819 0.100950256 0.008546699 0.102697484 -0.061747156 -0.011118634 -0.07525349 0.033351284
-0.011737168 -0.06690764 0.099821426 -0.0940672 -0.07274444 0.035486456 0.017546637 0.007398571
-0.028945016 -0.0016443713 0.035494328 -0.0009642944 0.009718602 0.12957403 0.0012096866 -0.037524316
-0.021346318 0.014470493 0.031184394 0.004498939 -0.0037275131 0.09025304 0.14263667 0.029064707

fc4.weight f4 [2, 64]
00000000: 4473 033e 4342 e33d 7b4c d8bd 4fc2 45bf
00000010: a342 23bd a962 e43d 89ba ad3d 73bb 253e
00000020: 8c3a c0bd c33b 49bd bdfe ba3d 58b1 813d
00000030: 0dc2 c43d a1f7 72be 4bb3 61be 2eb7 d9bd
00000040: f8ff c43d 56e9 e0be a181 94bd 2815 b53e
00000050: 7b61 66be 9463 a2be d96d 9d3d aa8e 41bd
00000060: e518 003f b080 c4be d0fe 2cbe 01c2 c3be
00000070: 2aed e8bc 5810 d2bd 84aa cc3e 99ba 5cbd
00000080: 762b 043e e8f8 473e 51d6 debd 0050 083f
00000090: a243 04be 06d6 843e a4f5 5e3d e3d0 2abe
000000a0: c358 d73e 00c9 c1bd 5b05 e33b 365a 103e
000000b0: 2dc2 2ebf d86e 65be 8a17 1fbd 511b a23d
000000c0: 85e0 eabd 5238 9abe 7ade 893d 2531 18bf
000000d0: 9add 95bc 3a46 a63e 44de f33d a3c7 a8bc
000000e0: 3ba2 8d3e a483 8fbd 9315 79be cc8d e4be
000000f0: a600 113e 7a93 40bf 4d18 593e dd81 26be
00000100: 2cff 1abe 58dc 90bd 2a13 4d3d 84ab 183e
00000110: 17f1 25bf 5a62 aabe a50c 84be 7704 e1be
00000120: 73d2 a83e ab18 20bf a488 e43e a6d9 863e
00000130: 3abb 95bd 7156 dcbc 4a7c c3bc 0a6e 033f
00000140: 3772 9ebe bbe1 7b3e e915 14bf 8ac5 f63d
00000150: 4065 6ebb 90fa 84be 43fb 1b3e c483 df3e
00000160: 2e42 cbbe b3e1 a0bd 9a08 3abe 6f0f 3c3e
00000170: 6921 fa3e efa9 2e3f ee4a 81be 31c0 683e
00000180: e2ad f03b 33cf 843e 96f2 2cbe 9923 72be
00000190: 715d d7bd 755d c5bc 5d8b 063f 8ee8 0cbe
000001a0: 5a29 d33d 88f2 2dbe 54db d73e 8f38 c53e
000001b0: 40f7 23be 2f86 97be fa8e bf3e dca0 ec3e
000001c0: 46fc 803d 63cc ba3d 931b a6be 8433 e43d
000001d0: 3608 1bbe 1005 52be cfa1 14bf 2fb5 b7be
000001e0: 56ef 7b3e 6b19 a13d 526d dd3e ca3b c13e
000001f0: 6f95 4dbf 9f90 82bd 45e4 9a3d d36b df3d
0.12836939 0.11096623 -0.105614625 -0.77249616 -0.03985847 0.111516304 0.084828444 0.16184787
-0.09386167 -0.04912926 0.09130619 0.06332654 0.09607325 -0.23727275 -0.22041051 -0.10630642
0.09619135 -0.4392802 -0.07251287 0.35367703 -0.22498123 -0.31716597 0.076869674 -0.047255196
0.50037986 -0.3837943 -0.16894078 -0.3823395 -0.028433401 -0.102570236 0.39973843 -0.05388889
0.12907204 0.19528544 -0.10880721 0.5324707 -0.12916425 0.25944537 0.05443348 -0.16681246
0.42059907 -0.09462166 0.0069281287 0.14096913 -0.6826504 -0.22405565 -0.038840808 0.079153664
-0.11468605 -0.30121094 0.06731887 -0.5944999 -0.018294144 0.32475454 0.11907628 -0.020603007
0.27662835 -0.0700753 -0.24324636 -0.44639432 0.14160404 -0.7522503 0.21200676 -0.16260476
-0.15136403 -0.07073277 0.050067104 0.14909178 -0.64821 -0.3327816 -0.25790897 -0.4394872
0.3297306 -0.6253764 0.446355 0.26337928 -0.07311101 -0.026896687 -0.023862977 0.5133978
-0.30946514 0.24597828 -0.5784593 0.12049396 -0.0036376268 -0.25972414 0.15232567 0.43655217
-0.3969893 -0.07855549 -0.18167344 0.18365262 0.48853615 0.6822805 -0.2525248 0.22729565
0.007344947 0.2593933 -0.16889414 -0.23646392 -0.105158694 -0.024092415 0.525564 -0.13760588
0.103106216 -0.1698705 0.42159522 0.38519713 -0.16012287 -0.2959456 0.3741377 0.46216476
0.06298117 0.09121015 -0.32442912 0.11142638 -0.15139851 -0.20509744 -0.580594 -0.3588042
0.24603018 0.07866176 0.43247467 0.37740928 -0.8030614 -0.063752405 0.0756307 0.10909238

fc4.bias f4 [2]
00000000: c265 8ebc f26a 313c
-0.017382506 0.01082872
