checkpoints/Computer2-0-checkpoint-2.0611-actor.pth (torch, 193711 bytes, 8 tensors)

fc1.weight f4 [256, 24]
00000000: 5557 25bd 5e3b 50be 7db7 17be e819 0bbd
00000010: e1d0 f83e 5d80 7fbd 98cb ef3d 4953 5cbe
00000020: 54cf 943d 1881 143e 6f5e 503e f1d3 133e
00000030: 3736 b83d ff2a 763e 8963 d9bd 00f8 71bc
00000040: 5fea 6f3d 3b96 df3d e1ee cfbd 7975 5e3d
00000050: e150 5fbd 5cb8 c13e 46f0 febc 4eb4 073d
00000060: 8811 873e d6bf 1a3e 223f f83d 3be3 2b3c
00000070: 4e6e d93d f138 97be 7907 343e 7803 87be
00000080: 3e97 9bbc ddf0 163e a3d1 b13c ee0d 573e
00000090: 5e57 313d 895f d7be 44fa babd 2235 d4bd
000000a0: eafe a23d 957a 023e 7e25 ee3d cb34 103d
000000b0: f49b b73e 577e 42bf 8900 1dbe 2573 05be
000000c0: 1fb1 72bd 1d47 20be c9c6 c6bd cf82 5cbd
000000d0: 0d85 dbbd d625 cebd 7348 683d d439 49be
000000e0: c1c1 393d af39 74be 1751 0f3e 6353 abbd
000000f0: 0883 06be 742b c83e 845f 02be 1f2d da3c
00000100: 7755 ee3d e9a4 1abe 4fef 203d 2f46 bbbd
00000110: 70ed 18bd 7ef3 0a3f f68e e7bd 0781 96be
00000120: 0cf4 4a3e 4245 ee3b fc43 63bd e88f a03e
00000130: e649 673d 1f16 9c3e 3333 413c 4af8 553d
00000140: 6372 523e be33 7e3e 9d5b 283e 0195 d03e
00000150: 7ce6 bcbd a98c 333e 5966 2eba 1482 9c3e
00000160: 3b59 a63d 2aa9 473e ae99 f33c f330 243d
00000170: f63f ad3e 1338 7e3c 8fa9 aebd be6f 773d
00000180: c776 c13d df6f 15be 6aa7 4a3d a959 1a3e
00000190: 4da0 c7be 8859 943e 6647 ccbc ad98 21be
000001a0: 79dc 613e 6ca0 8cbe 9167 5a3d 924e 31be
000001b0: a574 89bd 54e5 973e 4c01 90bd dfa0 41be
000001c0: 821b 843e 9ff5 a9be 12b8 5abe cf34 a63d
000001d0: df9f c4be e5b1 0c3d d734 ca3d d9a0 6bbd
000001e0: dbb5 17bc a70f 8ebe 9bce f53c 235e 6ebe
000001f0: 43b0 393f 1d78 68be 9135 e13d 0c57 c4bc
00000200: 09cf 2ebe 80a9 6dbe 5a1f 493e 6863 9c3d
00000210: 2260 3b3f f09c 42be d429 34be 2902 c6bb
00000220: 6d31 a4bd ff17 ffbd 4836 00be f71d 3a3d
00000230: 9850 253f 2576 0f3e 7f70 213d b38e 8d3c
00000240: 6870 98bd 2c4a b8bd f99e b5bd 10b2 0939
00000250: 1f07 99be 5ff4 adbd aefb 703d a4d7 543d
00000260: 8ec6 953c 33bf f6bd 84ba 8d3d e811 70be
00000270: 6abc 093d 56fa 733d 3652 ff3d 0a7d 7fbd
00000280: cd21 52be 69ba 2c3e f949 9d3d 560e 433e
00000290: 4ac8 593d 85d3 07bf c1d4 58bd f9f3 dd3c
000002a0: 5aa3 913e bfdf 20be 4fae bd3c 76f1 c03d
000002b0: 76c9 893e ac76 833c 2567 81bd cdec 75bb
000002c0: 82b7 2dbe 979f 3ebe 9e63 bfbd f77f 0bbe
000002d0: 7dd2 ca3b 31ae 8fbe 5445 cb3c 6d08 10be
000002e0: 17e7 61be a638 10be e746 3abe 6c21 8bbe
000002f0: 3b2f 0ebe a8fe 9ebc 0b90 123e 2de9 a5be
00000300: 6396 30bd 9ffb 26be 5a0d 61bc bc12 323e
00000310: bbb6 e43d fe1f 86be ad76 203e 4de7 4e3e
00000320: 6e3f 813d fd92 393e 1e54 6e3d 695e 953e
00000330: b253 c63d edd1 263e 6ecd 243e 4baa a33e
00000340: 9c8c 503d 959d 31be c5fb 8dbd df96 0c3e
00000350: dc7c f7bd 4eb2 af3e 2fd0 0bbd 1c4d 47bd
00000360: f1f2 6a3e a589 34bd 610b c23c 67c4 83be
00000370: a3e7 4dbc c6ee cd3e 6ee3 63be d78d b63d
00000380: 6bd1 8b3e c53e 06be f954 acbc 171d b8be
00000390: cefc 123e 6337 fabd 6ee3 67bd a776 24be
000003a0: 2672 573e 767e 10be 8fe5 8f3d 8802 3d3d
000003b0: 8324 2f3c c875 74be 4bed 043e 89d9 b23d
000003c0: a64c 603e b09d dd3d d1e5 663d c59b 53bd
000003d0: f055 7bbe 8249 ca3d 5ab1 ba3d 7d21 713e
000003e0: 00b1 fa3d bdb5 3c3d 27ed 723d a8db d73d
000003f0: ac76 43bc a9d0 77bd d889 0abd 5c68 c03c
-0.04036649 -0.20335147 -0.14816089 -0.033960253 0.48596862 -0.062378276 0.11708754 -0.21516146
0.07266107 0.1450237 0.20348524 0.14436318 0.08994716 0.24039839 -0.10614688 -0.0147686
0.058573123 0.10917326 -0.101529844 0.05431125 -0.05452049 0.37835968 -0.03112043 0.033130936
0.26380563 0.15112242 0.12121417 0.010491188 0.10616742 -0.2953563 0.17580976 -0.26369834
-0.018993016 0.1474032 0.021706408 0.21001408 0.04329621 -0.42065075 -0.09129766 -0.10361697
0.07958777 0.12742074 0.11628245 0.035206597 0.3586117 -0.7597403 -0.15332235 -0.13032205
-0.059250947 -0.15652128 -0.09705884 -0.053835686 -0.10718737 -0.100658104 0.056709718 -0.19650966
0.045350794 -0.2385013 0.13995777 -0.08365514 -0.13135922 0.39095652 -0.12731749 0.026632844
0.11637395 -0.1510197 0.039290722 -0.09144246 -0.037335813 0.5427779 -0.113065645 -0.29395315
0.19819659 0.00727144 -0.055484757 0.31359792 0.05646696 0.30485627 0.011791992 0.05223874
0.20551448 0.24824426 0.16441198 0.4073868 -0.09223649 0.17534126 -0.0006652824 0.30567992
0.08122488 0.19498125 0.029736366 0.040085744 0.3383786 0.015516299 -0.085284345 0.0604093
0.09446483 -0.14593457 0.049476065 0.15073265 -0.38989487 0.28974557 -0.02493639 -0.15780897
0.2205676 -0.27466142 0.053321425 -0.17315128 -0.06711701 0.2966715 -0.07031497 -0.18909024
0.25802237 -0.33195207 -0.2135928 0.08115541 -0.38403222 0.03434934 0.0987336 -0.057526443
-0.009259666 -0.27746317 0.030005744 -0.23278098 0.7253458 -0.2270207 0.10996545 -0.023967288
-0.17071165 -0.2320919 0.19640866 0.07636148 0.7319356 -0.1900518 -0.17594081 -0.006042738
-0.0801724 -0.12455749 -0.12520707 0.045438733 0.645761 0.14009912 0.039413925 0.017279958
-0.07443315 -0.08998522 -0.08868212 0.00013131672 -0.29888245 -0.08493876 0.05883377 0.051963463
0.018283155 -0.12048187 0.06920341 -0.2344433 0.03362695 0.05956491 0.12466852 -0.062375106
-0.20520706 0.16867985 0.07680125 0.19048437 0.053169526 -0.5305713 -0.052937273 0.027093874
0.2844494 -0.15710352 0.023154406 0.09421055 0.26911515 0.016047798 -0.063185014 -0.0037525177
-0.16964534 -0.18615566 -0.09345172 -0.13623033 0.006189643 -0.28062585 0.024813332 -0.14065714
-0.2206081 -0.1408411 -0.1819111 -0.27173936 -0.13885204 -0.019408539 0.1431276 -0.32404462
-0.04311217 -0.16306923 -0.013736093 0.17389959 0.111676656 -0.26196283 0.15670271 0.20205422
0.063109264 0.18122478 0.05818569 0.29173592 0.09683932 0.16291018 0.1609399 0.3196586
0.050915346 -0.17345269 -0.06932787 0.13729428 -0.12084362 0.34315723 -0.034134086 -0.04865752
0.22944237 -0.04407658 0.023687067 -0.2573578 -0.0125674335 0.40221232 -0.22254726 0.089137726
0.2730821 -0.13109882 -0.021036612 -0.35959694 0.1435425 -0.122175954 -0.05661338 -0.16060887
0.21039638 -0.14110741 0.07026207 0.046144992 0.010689857 -0.23873055 0.12981145 0.08732898
0.21904239 0.10821092 0.056371514 -0.051662225 -0.24544501 0.09877302 0.091158584 0.23547931
0.12240791 0.046071757 0.059308197 0.10539943 -0.011930149 -0.06050173 -0.033822864 0.023487262

fc1.bias f4 [256]
00000000: 9eb1 843d 9201 0ebd 6257 193d 3056 763c
00000010: d7f6 dd3d 7f5d 423d 6bc0 c1bd c415 423e
00000020: ad2a 153b 30e1 9fbd b826 d9bd 2223 68bd
00000030: 58c4 36be 19f6 78bb ecf3 abbe c20a f4bd
00000040: 8207 5fbe 7eb3 993c 73d1 6e3c b514 3a3e
00000050: 6df4 05be 8f35 33bd b603 74bc 6c4a 02be
00000060: 736a fb3d 7983 2dbe d15f 03be c398 7c3d
00000070: c80e 69be 8cc6 b33d d971 8bbe c674 533e
00000080: 3cef 96bc 8ca3 e6bd 0d2f 5f3d ecac cabd
00000090: 4821 3bbb 7cd7 84bd 643a 1dbd bc95 30be
000000a0: b57f 143e 2275 83bd 4d80 13bb e6a6 bfbc
000000b0: 8bd6 0ebe e60f a1bd b5d0 8d3d 60a4 e63d
000000c0: 047c c4bd 0c10 1dbd 02f8 a63d 4cc4 4bbe
000000d0: 8442 8a3e d9e4 02be 5907 6fbe 0135 66be
000000e0: cf59 3abe 61df 29be c883 593e bf56 27be
000000f0: 27d7 0abe 2488 933b 7384 5cbd 4bf5 57be
00000100: c6b3 fdbd 6990 11be a311 0d3e 2596 01be
00000110: a2ac 54bd ca69 1cbe d54d 6ebe 6e9f 143e
00000120: 175d 2cbd b10e 283e ba69 e03b 1eb3 b43c
00000130: 27a3 65bd 816a 643a 1fc0 e63d ec8a d23c
00000140: d19f fa3d 3e19 863d 8207 f8bd d98c d83b
00000150: 1c98 42be a8e0 f0bc 785f c9bc c8d9 a93d
00000160: 95fd 13bd b770 023d 003d adbd f3f9 403e
00000170: 448f 5a3e 88a8 ca3d 404c 2fbe 67cc e83d
00000180: 44e6 82bd f302 9d3d 7374 273d 48d2 93bd
00000190: ad25 d73d 1425 46be c9af c63d 72c5 b9bd
000001a0: 086a b6bd 2575 d0bd 8758 d9bb b493 33be
000001b0: cbb6 78be 28f3 8abe 1ff0 963c cc5f 4dbe
000001c0: e43f 103e 5ad0 95bd b320 97be a460 51be
000001d0: 6a1b 2ebe ae88 2f3e 419f 493d d53a b03d
000001e0: c9f6 083e b91d 4ebe a78e d13b 94e3 85be
000001f0: b948 143c 5091 d4bd 4d63 efba dd29 a7bd
00000200: 8f36 11bd c50f 003e 5898 06be 5779 13bd
00000210: fe2a 06bd 6a73 0bbe 9f80 33bc 1a1d e1bd
00000220: 7617 78be 6e3e ce3d 6cb1 04be c091 e8bc
00000230: 61ab 18be 9b4a 1dbe 8d8d 33bc 620d 9f3d
00000240: 6ab0 19be 33a5 09be 5191 593e c7e6 41bd
00000250: 6033 2abd 154e 98be 49ff f4bd 881a 443c
00000260: 806b a03d 3ccc a33c 40f8 23be e95b 1a3e
00000270: 19a6 a2bd 1582 eabd 0d69 043e 1b53 5ebe
00000280: e2a2 1b3e 5c34 023e a4c7 cb3c 5414 54bb
00000290: 28f9 b33c a1ac 913d 988d e3bd db58 8dbc
000002a0: 128c 46be 2108 1abd 6eee 4dbd 53f9 d53d
000002b0: 14d1 363c a4f5 d23d 1e53 c4bd 75f1 e63c
000002c0: 0192 0ebd ca62 163d f6ac c53d dcfa cebd
000002d0: 4da6 003e 7f1c 24be af10 fd3d ae2c cfbd
000002e0: 0111 5f3d ef63 b33c 3259 e33c a022 c83c
000002f0: fafc 543e 7d64 be3d 5d1f 833d e672 4bbe
00000300: 87ee 3abd 065b 313e 707d b73d 26e0 e6bd
00000310: e73f 6abd 363a 573d 1fef de3d 88f0 20be
00000320: 9292 6abe c89e dfbd cc39 4ebd bc58 503e
00000330: e6cb cf3d f938 babd 7cb4 9f3c f6ca c63d
00000340: 244f 823c 4556 083e e3e6 87be f97e 6bbe
00000350: 9b73 bb3d c2bc 4a3d 257b 3abe 5168 083b
00000360: 3512 88be 960f dbbd dc2c e9bc 5140 c13d
00000370: 438f dfbd cd8e 2bbe 8910 45be e5a6 6fbd
00000380: 2425 4abe b445 393e 40c4 bebc ca18 d33d
00000390: ffec 273d e278 313e 11fd 873e 6b9a 23be
000003a0: 59fd 27be d59d a23d 8427 b3bd 68aa cbbd
000003b0: 1b6b ce3d ceec 1fbe adf5 983d c6ba 0abe
000003c0: cb40 c83d 74c6 d63d ef25 26be 42ab 9dbd
000003d0: 7beb 8bbd 286b 14be e9da 77be 5c35 193e
000003e0: e36d 543e bc4b 8cbc 0040 5c3e 6198 8cbc
000003f0: ff51 8bbe 3081 95bc b50e ba3d baed 663c
0.0647919 -0.034669466 0.03743685 0.015035197 0.108380966 0.047452446 -0.09460529 0.18953615
0.0022761032 -0.07806623 -0.10603088 -0.05667413 -0.17848337 -0.0037988483 -0.33584535 -0.119161144
-0.21780208 0.018762346 0.014576304 0.18171962 -0.13081522 -0.04375225 -0.014893463 -0.12723702
0.12276163 -0.16944684 -0.1282952 0.061669122 -0.22759545 0.08778104 -0.27235296 0.20650014
-0.018424623 -0.11261663 0.05448823 -0.098962635 -0.0028553773 -0.06486413 -0.038385764 -0.17244619
0.14501841 -0.06418826 -0.0022506893 -0.023395013 -0.13949029 -0.078643605 0.06924573 0.11261821
-0.095939666 -0.03834538 0.081527725 -0.198991 0.27003872 -0.12782611 -0.23342647 -0.22481157
-0.18198322 -0.16589119 0.21241677 -0.16341685 -0.13558637 0.004502313 -0.05383725 -0.21089666
-0.12387805 -0.14215244 0.13776259 -0.12654932 -0.051922448 -0.1527473 -0.23271878 0.14513943
-0.042080965 0.16411854 0.006848541 0.022058066 -0.056063797 0.000871338 0.11267113 0.025701009
0.12237514 0.06547783 -0.12110807 0.006608587 -0.19003338 -0.029404 -0.024581656 0.082934916
-0.036130507 0.031845775 -0.084589005 0.18845348 0.21343714 0.09895426 -0.17118931 0.11367112
-0.06391576 0.07666578 0.04088254 -0.07217842 0.10505233 -0.19350082 0.09701497 -0.09070863
-0.089069426 -0.101785935 -0.0066328677 -0.17536813 -0.2428848 -0.27138638 0.018425046 -0.20056075
0.14086872 -0.073151305 -0.29517135 -0.20447022 -0.17002645 0.17141983 0.049224142 0.08604971
0.13375391 -0.20128526 0.0063951793 -0.2615019 0.009050542 -0.10379279 -0.0018263847 -0.08162282
-0.03545242 0.12506016 -0.13144052 -0.03600439 -0.032755844 -0.13618246 -0.010955959 -0.10991879
-0.242277 0.10070501 -0.12958306 -0.028389812 -0.14909126 -0.15360491 -0.010959041 0.077662244
-0.15008703 -0.13441925 0.2124684 -0.047339227 -0.0415529 -0.29747072 -0.11962754 0.011969216
0.07833004 0.019994847 -0.16012669 0.15074123 -0.07941837 -0.114505924 0.12930699 -0.2171139
0.15198854 0.12715286 0.02487547 -0.003236075 0.021969393 0.071130045 -0.11110991 -0.017254284
-0.1938937 -0.03760541 -0.050276212 0.104479454 0.011158247 0.103007585 -0.09586166 0.028191308
-0.03480721 0.036715306 0.0965213 -0.101064414 0.12563439 -0.16026495 0.12356698 -0.10115944
0.054459576 0.021898238 0.027752493 0.024430573 0.20799628 0.0929651 0.064024664 -0.19868049
-0.045637634 0.17319879 0.08959472 -0.11273222 -0.05718985 0.05254575 0.108854525 -0.15716755
-0.22907475 -0.10918957 -0.05034809 0.2034635 0.101463124 -0.09092898 0.019495241 0.097066805
0.015906878 0.13314159 -0.2654334 -0.22997655 0.09152909 0.04949642 -0.18211038 0.002081413
-0.2657639 -0.10696332 -0.028463773 0.094360955 -0.10915997 -0.16753693 -0.19244589 -0.058508772
-0.1974073 0.18092996 -0.023286939 0.103074625 0.0409975 0.1733127 0.26560262 -0.15976875
-0.16405238 0.0794026 -0.087477714 -0.09944612 0.100790225 -0.15617678 0.07468734 -0.13547811
0.09777983 0.10487071 -0.16225408 -0.076986805 -0.06832024 -0.14494002 -0.24204601 0.14961761
0.20745043 -0.017125957 0.21508789 -0.017162504 -0.27210996 -0.018250078 0.090848364 0.014094764

fc2.weight f4 [128, 256]
00000000: 5172 ff3d e26e 443d 4ad9 0fbe e0ed b23c
00000010: 8927 bebd 4c3f 0c3e 8d52 cfbd 6087 4bbe
00000020: 96b9 fc3c bed3 17be 3be5 cd3d d811 b2bc
00000030: b034 9cbd 247e a7be 4c0e 413d 7013 c63d
00000040: 449f 933e 3128 1bbc 72bd cc3d 6f38 84bd
00000050: f31a 62bc a65c c1bd 373a 183c ae19 c13a
00000060: eb4c 8fbe 6933 dcbd f8a1 a8bd 944e 85be
00000070: c050 04be c13f 4a3c 7d06 a43d d9fc f2ba
00000080: ccfd 9cbc 30d1 dcbd 9963 0dbd c500 e6ba
00000090: cec8 333d d668 423c 02eb 55be 76e0 fcbd
000000a0: 8d4d 1cbe 5965 a33c cc44 093c 77cf cdbc
000000b0: 2275 953b 193f f73d 4a6d 983c c41d 3bbe
000000c0: d705 ec3d 0c78 42be 12ac 453e 6667 4abe
000000d0: 1454 e5bd 0b69 a0bd 208d 1fbd 4510 0ebd
000000e0: 350a 2dbe fc85 8f3d ca72 10bd af8e 09be
000000f0: 3fd3 153c c042 b5bd 571b 1b3e 6f11 32be
00000100: b507 77bd 5ac8 3cba 6a57 57bd 5fc7 99bc
00000110: 63e7 fcbd d2fb cb3c a359 bfbd 6c20 72be
00000120: be68 d8bd d096 06bd 58fb 2f3d c9f1 8bbd
00000130: a505 86bd 7ee0 aebc 47f7 8a3d 8328 9b3e
00000140: d542 e7bd 0d09 a8bd 3696 12bd 1ffa a53c
00000150: 5a92 c1bc bc7f a5bd 554f 1f3e 7071 91be
00000160: ff0c ed3b c270 6c3d 7d02 813b a4f6 0ebe
00000170: d892 8d3d 844f 90bc 3268 5ebe 3ecd 97bd
00000180: d0d3 98be fec3 d9bd b527 b73d 51de b6ba
00000190: 3e5a b9bd d490 033d 1fbd d33c 64ca 84bd
000001a0: bffc bbba 56f3 33bd 8a16 1abc 2050 eabd
000001b0: 0436 aebc 8a52 5e3d 53af 4c3d ecc7 d63a
000001c0: d68e 20be bf49 adbd 6c9b a63d 4ab4 eebb
000001d0: 4b66 85be e314 d5bd 5cc7 38bd 2daa 7f3d
000001e0: 7738 c0bc 5c3f adbe b1fb 0ebe da0d a33c
000001f0: 7d2f 213d f4da 413d db70 0bbe b63f d6bd
00000200: 9692 393d 3612 25bd 09a5 0bbe 85d0 c6bd
00000210: 56d4 44be 3f15 213d 80d1 04be aec0 6dbe
00000220: b020 663d e40b 063d adb7 c8be f33f 51be
00000230: 6809 303d 7f71 0a3d b4b8 55be 571a f7bd
00000240: 8d8a b33d 45e3 efbc e673 aebd 6917 73bd
00000250: c3a9 883c 0520 933d 403d 2d3d 936e 44bd
00000260: 4777 bfbd 9041 30bd 2b78 8ebd f050 e1bd
00000270: 5645 923d fd7c e7bc 9685 02be dd83 4d3d
00000280: 8a3f 113d b6e4 343e 2946 533d a017 ebbd
00000290: 8611 8ebe 171f 4b3d c88e 9cbd 9f86 e73c
000002a0: 9647 b1bc 6bd9 ad3b 7202 aebe dcb2 a4ba
000002b0: bb9e f73c 3445 a53c 145b cf3d bf10 02bd
000002c0: 6d77 cbbd 8182 4bbd d063 51bc d2c4 b53d
000002d0: f913 8d3d 7ded 6fbe 1801 f4bc ca19 053e
000002e0: 036a aebe 1480 20bd a76f 98bd dd94 303d
000002f0: 44a7 6bbd c10d f7bd 697c 6bbe c046 c1bd
00000300: f539 2a3d 314a 98bd d4bd 95be bc30 643d
00000310: 003c 383d 33b8 1bbe 0f36 3bbd 2069 99ba
00000320: 0dd7 7dbb f129 00bd cd18 6ebd e787 b4bc
00000330: 0204 88bd 5d8f 81bc cc6f 47bd c0c6 c43c
00000340: ce94 3c3d 7ccc 42bd 98f0 4cbd 3a1b b23b
00000350: 57cc 1bbd 1084 3b3d 951e a63d e5cc 203d
00000360: 6b6c 783e a3fa 05be 73af e3bd 4224 923c
00000370: 04af 5e3b 011a 4a3d 151f e63d ac26 67be
00000380: aa8c d1bd caf2 633d 453e 03bd 5473 5f3e
00000390: 99d9 4fbd ce34 30be 8582 febd 48cd e1bd
000003a0: 35cf 96bd 4bcb 51bd b9e4 96bd 5223 06bc
000003b0: 3afc abbd 60d5 d6bd 83f7 343e 3590 923c
000003c0: 9911 0dbd d5d1 29be 49d9 f53c def3 3fbd
000003d0: ba7a 82bd a863 e8bd b9aa f53d b032 f03d
000003e0: 8ebc b03d f990 c3bc 5b4a ecbd 041e a43d
000003f0: 4967 bb3d 35b3 483c be06 62be b66e 043d
0.12472976 0.04795731 -0.14047733 0.021841943 -0.092848845 0.13696021 -0.10123167 -0.1987586
0.030850213 -0.14826867 0.10053488 -0.021737024 -0.07627237 -0.32713425 0.047132775 0.09671676
0.28832448 -0.009470032 0.09997071 -0.06456076 -0.0138003705 -0.094414994 0.009291223 0.0014732385
-0.2798837 -0.10751993 -0.08234018 -0.26036513 -0.12921429 0.012344302 0.0800905 -0.0018538489
-0.019163989 -0.10782087 -0.03451881 -0.0017547837 0.043892674 0.011865815 -0.2089043 -0.123475
-0.15263958 0.019945787 0.008378219 -0.025123341 0.0045610825 0.12072582 0.0186068 -0.18273073
0.11524551 -0.18991107 0.19303921 -0.19766006 -0.11197677 -0.07832535 -0.038952947 -0.034683485
-0.16898425 0.07007977 -0.03526572 -0.13433336 0.009144603 -0.08850622 0.15147148 -0.17389463
-0.060310084 -0.00072014856 -0.0525736 -0.018771825 -0.12348821 0.02490035 -0.09343269 -0.2364518
-0.10566853 -0.03285867 0.04296431 -0.06833226 -0.06544045 -0.02134728 0.06785446 0.30304345
-0.11292044 -0.08204851 -0.035787784 0.020260869 -0.023629356 -0.08081004 0.15557607 -0.28406858
0.0072342153 0.05772472 0.003937064 -0.13961273 0.06912774 -0.017616041 -0.21719435 -0.07412194
-0.298491 -0.10633086 0.089431204 -0.0013951753 -0.090504155 0.03212054 0.025847016 -0.064839154
-0.0014342292 -0.043933235 -0.009404788 -0.11441064 -0.021265991 0.054277934 0.04997189 0.0016386486
-0.15679488 -0.084613316 0.08135113 -0.0072846757 -0.26054606 -0.104043745 -0.045112 0.06241815
-0.023464425 -0.33837402 -0.139632 0.019904066 0.03935193 0.04732795 -0.1361727 -0.10461371
0.04530581 -0.04030057 -0.13637175 -0.09707741 -0.19221625 0.039326902 -0.12970543 -0.23218033
0.056183517 0.032726184 -0.39202634 -0.20434551 0.04297772 0.033799645 -0.2087124 -0.12065571
0.08766661 -0.029283175 -0.085181996 -0.059348498 0.016682511 0.071838416 0.04229474 -0.047957014
-0.09348922 -0.043031275 -0.06956514 -0.11001766 0.07142131 -0.028257841 -0.12746271 0.050174583
0.035460986 0.17665371 0.05158058 -0.114791155 -0.27747744 0.049590196 -0.07644421 0.028262435
-0.02164058 0.0053054593 -0.3398624 -0.0012565511 0.030227056 0.0201746 0.10124794 -0.03175425
-0.09934888 -0.049685005 -0.012780145 0.08875431 0.06888575 -0.23430438 -0.029785678 0.12998119
-0.34065256 -0.039184645 -0.07443171 0.043110717 -0.057532564 -0.1206317 -0.22996677 -0.094373226
0.04155918 -0.07436026 -0.2924639 0.05571054 0.044979095 -0.15206985 -0.04570585 -0.0011704303
-0.0038732917 -0.03129 -0.05812912 -0.02203746 -0.066413894 -0.015815431 -0.048690602 0.024020553
0.04604035 -0.047558293 -0.050034136 0.0054353746 -0.03803667 0.04578024 0.08111302 0.039257903
0.24260108 -0.13083892 -0.11117449 0.017839555 0.003397883 0.049341206 0.11236397 -0.22573346
-0.10231908 0.055651464 -0.032041807 0.21821338 -0.050744627 -0.17207643 -0.124272384 -0.110254824
-0.0736374 -0.051219266 -0.07367844 -0.008187132 -0.08397718 -0.10489917 0.17672543 0.017891029
-0.03444061 -0.16583951 0.030010836 -0.04686343 -0.063710645 -0.11347133 0.119954534 0.11728418
0.08629714 -0.02387284 -0.1153762 0.080135375 0.091505595 0.012249758 -0.22072884 0.032332145

fc2.bias f4 [128]
00000000: 8a84 9cbd 29f6 c43d 2a8a 113c 3a09 27bd
00000010: a5a6 dd3c a6b0 423d 7e8f 003d 7373 0e38
00000020: d64c df3c a334 f2bc 7ec8 d43c 6a93 be3c
00000030: d2ac d83c e21c c73c 8a0b 28bd 7fa7 52bc
00000040: db55 1f3e 647e adbd c09f 363d 8ed1 003b
00000050: 9bd2 5cbd 7d93 d03d 301e a2bb dcb9 fb3c
00000060: 259e 1cbd 0676 07be 9042 c13d 89af 2ebc
00000070: 492d bcbb b008 83bd f35c b1bd 0299 633d
00000080: efeb c1bd 1567 a83d eb71 943d ac43 023d
00000090: da8f 363d b98f 9c3d b246 7b3d 777a e93a
000000a0: 5d35 05bc 0dac 3b3d 2c84 d33b 4a17 233d
000000b0: aa8a e93d 43cb 8b3c 9746 73bd 63a2 983d
000000c0: f2d8 ca3b 28ca 94bd 2a2d bc3d a19d 813d
000000d0: fcb1 0dbd 56cd acbd 7e0a 65bd 02f1 033b
000000e0: ff13 3cbd 2503 ebbd 5acc 03be 8c50 c3bc
000000f0: 4715 033a fdd9 083c 9885 1f3d 4a06 bfbd
00000100: 5ee7 403d 420d 70bc 1bf4 373c fcb2 263c
00000110: 2edc 9ebb 2fb6 c5bc 666f b1bd e8d4 0b3d
00000120: ae54 af3c af17 87bd ef55 163c 543b d0bd
00000130: 6847 d4bd 2441 e73c 9158 16bd 04f7 123d
00000140: ff1e f43c 9845 cabc c57c 4f3d a257 afbc
00000150: 030e 5c3d bd6a f4bc cb55 04be 83d6 2b3c
00000160: de9d 1d3d 0f30 9abc dedf 273d a058 b0bc
00000170: 4d67 2dbd 650e f1bc 36e7 c43c 61c6 91bd
00000180: b878 0abd 5cf5 88bd 7c09 c33d 9197 84bc
00000190: 96b2 56ba f073 1b3d 8aa6 bf3b ad99 0fbd
000001a0: 6c4c 363d 027f d53d f2e9 c3bd 3234 9c3d
000001b0: 6eaf d3bc acbf 1c3c 47f4 cc3c d5d2 273c
000001c0: e604 a53b 7a7b 2d3d 8365 81bd 9d05 3e3c
000001d0: 5d5c 84bc e894 8ebc 131d 91bc b547 053d
000001e0: 1b69 05bd c321 f43d 61c6 923c 937e 4d3d
000001f0: 6f6e 51bd 06f0 463d c9ad 97bd 8b0b 0abc
-0.07642467 0.09617264 0.008883039 -0.040780284 0.027057001 0.047531746 0.031386845 3.396296e-05
0.027258318 -0.029566115 0.025974508 0.023263652 0.026449595 0.024305765 -0.04102663 -0.012857317
0.15560095 -0.08471373 0.044585943 0.0019656154 -0.053911787 0.10184381 -0.0049474463 0.030728273
-0.038236756 -0.13228616 0.09436524 -0.010661968 -0.005742703 -0.063981414 -0.08660307 0.05556584
-0.09468829 0.08222786 0.07248291 0.03180282 0.04457078 0.076446004 0.061346717 0.0017812987
-0.008130399 0.045818377 0.006454965 0.039817132 0.11403401 0.017064696 -0.05939349 0.07452848
0.0061904127 -0.07265121 0.09188302 0.063288935 -0.034593567 -0.08437602 -0.05591821 0.0020132666
-0.045917507 -0.11475209 -0.12870923 -0.023842119 0.0005000424 0.008352754 0.038945764 -0.093273714
0.04709565 -0.014651598 0.011227633 0.010174509 -0.004848025 -0.024134723 -0.08663826 0.03413859
0.021402683 -0.06596314 0.009175762 -0.10167566 -0.10365182 0.028229304 -0.036705557 0.035880104
0.029799936 -0.024691388 0.0506561 -0.021404091 0.0537243 -0.029836053 -0.12923352 0.010488155
0.038480632 -0.018821744 0.04098498 -0.021526635 -0.042334843 -0.02942581 0.024036031 -0.07117916
-0.033806533 -0.066874236 0.095232934 -0.016185554 -0.00081900635 0.037952363 0.0058487104 -0.035058666
0.044506475 0.104246154 -0.09566106 0.07627143 -0.025840487 0.0095671825 0.025018824 0.010243137
0.0050359843 0.042354085 -0.0631819 0.011598018 -0.016157323 -0.017404988 -0.017714059 0.03253909
-0.03257094 0.11920502 0.01791686 0.05016954 -0.05113071 0.048568748 -0.07406194 -0.008425604

fc3.weight f4 [64, 128]
00000000: d152 1d3d a2c9 b8bc bf1f 9a3e d7b3 683e
00000010: a894 a6bd 7ab9 9a3d 9969 cc3a 8d1f d83b
00000020: a26c 3b3e 14bc 8d3d bb71 57be ac98 003e
00000030: 2f9b 07be 4f8c ebbc a760 893d 8842 3f3d
00000040: 5269 01be c70f 593d 108d 813d 6250 8cbc
00000050: 922d 6ebe 4812 c63d 7535 313e a30b d4bd
00000060: 09ef ef3d 2240 1f3e 61cf b9bb 7d27 883d
00000070: ee1b a5bd a967 843e 1289 973d 483d c53c
00000080: 106a 25be 15df aa3d 9d52 ff3b c112 a23c
00000090: 5ad9 babc 1988 cf3d 55e7 743c 8335 d03e
000000a0: acf3 f3bc 612e 173d c190 693e 0bd8 233e
000000b0: 5702 8abc 6552 0e3d 64e3 fd3d 387a 873b
000000c0: 2247 30be d762 983d ab76 95bd e981 c13c
000000d0: 8752 323d e5ab cabd 40e6 7f3e 1b71 753e
000000e0: e0b1 9fbd 5e45 e1bb 2efc 1a3d ad6e fc3c
000000f0: 7cb3 7d3d 6762 653c 4e33 babc 94b0 29be
00000100: 81d7 263d 5e70 c5bd f9c5 f0bd ed1e 2fbe
00000110: 84d7 f73d 1ae6 d13d bcd9 983c 0115 c8bc
00000120: 0bdf f13d 21de 363e 3314 b5be ab9a c03d
00000130: 04ae a33d 785b 8c3d 657e 613d ad32 b4bd
00000140: e543 deba 999b 8dbd 798b 513d 7635 423d
00000150: 7a64 083d 6b82 c6bd d1cb 40bd 9e05 89bd
00000160: 070d b6bc 3f35 153d ef0d c3bd 4a33 a0bd
00000170: a005 a13c d5d0 5c3e e9de 1b39 d8b8 803c
00000180: d6e5 353e 11be a93d 68f7 80bd 19e4 b33e
00000190: dd2a cd3c 7df2 d8bc a114 993e 11ca 7d3d
000001a0: 627d 8d3e 54be 3fbb 8f72 403e 8984 01bd
000001b0: 4ac4 03be 3f68 363e 7f16 e2bd 8124 f03d
000001c0: e7f7 babd 8335 a0bb 5f4c 103e a6c0 443d
000001d0: 0d13 89bb 796a 4a3d 8fff d03d 0a2a f53c
000001e0: ecd6 583e f537 d2bc 9c52 1ebe d416 81bd
000001f0: 8964 01be 0be3 593e 7a03 d53e 43d0 3e3e
00000200: 3eba b9be 1b5f b4bd b4a7 5e3d d4ab 08bd
00000210: ac40 6e3e 5fc0 6e3d 5404 ed3d d48a 003d
00000220: 67d2 c9be 086f dbbe ec64 0f3e d087 f8bc
00000230: b55c f4ba ce62 053d 0b90 d63d 9dfb 1dbd
00000240: 8d7b 1e3a ce38 08bd d5d7 02bd 9998 b13d
00000250: f005 d93d b696 403d ce6d e2bd 5be0 f93d
00000260: 6cc6 c43d 7912 71bd a973 8a3c fc05 12bf
00000270: 3d6a 613e 0cde e9be 9acf 0f3c 5052 1d3b
00000280: d6b8 cabd addd f43d 3bc0 793c 25b2 583d
00000290: 0ee1 d73d dcf6 adbd 8414 dabe e966 aabe
000002a0: 24a4 553d d09c a23d 696a 68be c890 1bbe
000002b0: 9895 e6bd 2633 6b3d 73fd 46be 2b73 02be
000002c0: d209 f6bd 2387 fdbc 4ca0 d53d 4585 8f3d
000002d0: 9c51 023e 9766 f5bd 2fad 77be 4141 b6bd
000002e0: 899a 313d f2df 2c3e 33c4 1fbd 0858 70bc
000002f0: 81a5 47bb 01a4 74be 2747 8bbd 7c53 9a3e
00000300: 365f cb3c 0e9e 67bd adf9 bebc fca3 b8bd
00000310: 5445 aabe c9af a83d 695f 073d 191b b83c
00000320: 4494 93be 2441 bcbd 58aa 823e b9f3 0dbe
00000330: 6b63 bbbd 98f0 cbbd 1a1d 2e3b 99cd 8a3d
00000340: 3fd2 2ebe 08ce a8bc a1e6 1a3d 364d 0cbe
00000350: 05ee ab3d 8e49 a3bd efbc 8bbd 2681 0ebd
00000360: ae9f 393e a15c 173e 2a03 f73c a98f b53d
00000370: ab1b 083e d9aa 3ebc d515 2b3c 37c1 0b3d
00000380: b6d2 933d 20bf 8d3d 02b6 083e 6c1f 43be
00000390: 4369 a93d 658e 55bd 8b91 bfbe d62b 333e
000003a0: 43cc 9ebe 3d39 a83d 894f 94be 4cf2 e43d
000003b0: fe36 d93c cc39 603d a4e9 263d 88ed 6cbb
000003c0: 3ace 9c3d 2f63 7d3d a55c f7bd 3fb9 63be
000003d0: b789 913d 8e7c 66bc 6401 4f3c 154c 2b3c
000003e0: 2ace 65be b332 f6bc 6b54 8bbe a281 803d
000003f0: 171b 143e 7e51 2ebe 6925 07be 8db7 92be
0.038409058 -0.022557084 0.30102345 0.22724853 -0.08133823 0.07554908 0.0015595435 0.006595558
0.18303159 0.06920639 -0.21039478 0.1255824 -0.13242792 -0.028753428 0.06707888 0.04669431
-0.12637833 0.052993562 0.06325734 -0.017128173 -0.23259571 0.096714556 0.17305548 -0.10353782
0.11715514 0.15551808 -0.0056704734 0.06648157 -0.08061968 0.25860336 0.07399191 0.024077073
-0.16153741 0.08343331 0.0077918307 0.019784333 -0.02280872 0.101333804 0.014947732 0.40665826
-0.029779278 0.036909465 0.22809125 0.16000383 -0.016846819 0.034746546 0.12396887 0.0041344427
-0.17214635 0.07440727 -0.07298025 0.023621516 0.043535735 -0.098960675 0.24990177 0.23968928
-0.07797599 -0.0068747243 0.037838154 0.030814493 0.061938748 0.014000512 -0.022729542 -0.16571265
0.040732864 -0.09640573 -0.1175651 -0.17101641 0.12101653 0.102489665 0.018658511 -0.024424078
0.1181012 0.17858173 -0.35366973 0.094045006 0.07992175 0.06853384 0.05505218 -0.08798728
-0.001695749 -0.069144435 0.051158402 0.047414266 0.033298947 -0.09692844 -0.047069374 -0.066905245
-0.022223009 0.036427733 -0.09524142 -0.078222826 0.019656003 0.21564038 0.00014864992 0.01571314
0.17763457 0.082882054 -0.06297189 0.35134962 0.025044853 -0.026482815 0.2989855 0.061960284
0.27634722 -0.0029257732 0.187937 -0.031620536 -0.12867847 0.17813204 -0.11039447 0.117257126
-0.09129315 -0.0048891916 0.14091633 0.048035286 -0.0041831792 0.049417946 0.10204994 0.029927272
0.21175736 -0.025661448 -0.154612 -0.06303182 -0.12636007 0.21278016 0.41604215 0.18634133
-0.36274904 -0.088072024 0.054359153 -0.033366993 0.23266858 0.058288928 0.11573091 0.031382397
-0.39418337 -0.42858148 0.14003342 -0.030338198 -0.0018643352 0.03256493 0.10476693 -0.038570035
0.0006045632 -0.0332573 -0.031944115 0.08671684 0.105968356 0.04701873 -0.110561 0.122009955
0.096081585 -0.058855508 0.016900854 -0.5704038 0.22013183 -0.4567722 0.008777523 0.002400536
-0.09898536 0.11956344 0.015243585 0.052904267 0.10540973 -0.0849435 -0.42593777 -0.3328164
0.05215849 0.07940066 -0.22696842 -0.15191948 -0.112590015 0.057421826 -0.1943262 -0.12739246
-0.12013592 -0.030948227 0.10430965 0.07007841 0.12726444 -0.11982458 -0.24187158 -0.08899165
0.043360267 0.16882303 -0.03900547 -0.014669426 -0.0030463638 -0.23890688 -0.068006806 0.3014182
0.024825674 -0.056547217 -0.023312414 -0.090156525 -0.33256018 0.08236653 0.033049975 0.022473859
-0.28824055 -0.09192112 0.25520587 -0.13862504 -0.09149822 -0.09957999 0.002656764 0.06777496
-0.1707239 -0.020606056 0.0378176 -0.13701329 0.08395008 -0.07973014 -0.068231456 -0.034791134
0.18127319 0.14781429 0.030152876 0.088652916 0.13291804 -0.011637413 0.010442217 0.03411981
0.07217924 0.0692122 0.1335068 -0.19054955 0.0827203 -0.05213775 -0.37415728 0.17497191
-0.31015214 0.08214042 -0.2896693 0.11179027 0.02651548 0.05474262 0.04075016 -0.0036152322
0.07656522 0.061862167 -0.120782174 -0.22238635 0.07106345 -0.014067782 0.012634609 0.010455151
-0.22441927 -0.030053472 -0.27212843 0.062747255 0.14463459 -0.17023274 -0.13197865 -0.28655663

fc3.bias f4 [64]
00000000: 99f2 aebd e2a5 073d a8f3 b43c 90b3 823d
00000010: 70f1 14bb 6814 113e 6188 dabc ac1e 9fbd
00000020: 13fb 55bd 945b 023e 62ce 0e3c 4b27 1bbd
00000030: 860b f3bc 2c1b 9a3d 8479 cf3d ed6b 843d
00000040: 8566 d23d bb6a e1bd 0b56 d33d 40d6 053d
00000050: 6cda dbbd 83c6 9a3b 23e4 ccbd b888 363d
00000060: 6ce0 313d 986e 543d 8423 d73d a442 dbbc
00000070: 2978 d23b 9232 95bd 1d8b 2c3c f8bc 833c
00000080: 646c 053e f302 12bd 7cde 8ebc 3a90 103d
00000090: e345 a5bd b533 d6bc 4efa 0e3c 62ef 6a3d
000000a0: 9899 c7bd 6fd3 c3bd 5042 883d b6e6 bd3c
000000b0: b651 883d 8b6e a3bc 7ebe 8a3d d66c 45bd
000000c0: 31ea 70bd 20f1 1e3c 64cb 1d3e 27c6 533d
000000d0: c318 fabd 305f 363c db7c 023b 94db 833d
000000e0: 4e10 b33d 0d50 733d 987f 853c 989e 20bd
000000f0: 92f4 c6bc 6512 fe3c d060 b2bd 4cd1 4ebd
-0.085423656 0.033117183 0.02208884 0.06381905 -0.0022726916 0.1416794 -0.026676359 -0.07769522
-0.052241396 0.12730247 0.008716198 -0.03787927 -0.02966858 0.07524714 0.10130599 0.06465898
0.1027346 -0.11006685 0.10319146 0.032675028 -0.1073502 0.0047233715 -0.10004451 0.04456398
0.043426916 0.051863283 0.10504821 -0.026765175 0.0064230156 -0.07285036 0.010531214 0.016081318
0.13029629 -0.035647344 -0.017440073 0.035293795 -0.080699705 -0.026147703 0.0087266695 0.0573572
-0.097460926 -0.09561812 0.06653273 0.0231813 0.0665621 -0.019950172 0.06774615 -0.048199497
-0.058817092 0.009701043 0.15409619 0.051702645 -0.12211754 0.011131093 0.0019910845 0.064383656
0.08743344 0.059402514 0.016296193 -0.039213747 -0.024286542 0.03101463 -0.08709872 -0.05049257

fc4.weight f4 [2, 64]
00000000: 62e7 aa3e 8d27 3bbf 55d4 71be 871f 8bbe
00000010: 7695 7e3d b258 d4bd 2138 e43e e31f 9a3d
00000020: 6eb0 1f3f 5635 80be a566 493e dcbb e83e
00000030: 1ce8 7dbd 61c9 94be 41d6 12be b4f5 72bf
00000040: baa9 95be dce8 603d 1ea3 52be 5978 2b3f
00000050: a52b eb3d 0d30 2abf a28d 013f 6bc6 b1be
00000060: 7ead df3d 376f 95be 468d 303f 1079 ff3d
00000070: 627b 45bf 2fa1 543f e974 893e 7357 21bf
00000080: dfed d5be f112 68be d823 243e e6d5 873d
00000090: de79 543e 9a8c 113e ac09 48be d7f2 7f3e
000000a0: d107 d23e 73f2 a73e a402 82be 65d9 f2be
000000b0: bf34 aabe 65f3 013e 0c0e 06bf f85c ac3b
000000c0: fb9c 113f 8e8b 7b3e e8ae a4be 3269 8e3e
000000d0: e043 063f f353 edbe a53e 173f b088 25bf
000000e0: d4aa 9ebe 5ed6 c3be 45e3 1abf ab8d 643a
000000f0: a305 f93d 2311 c13d 39f1 9e3e 0807 353f
00000100: 3126 393e 584e f03d 8153 333e 98ec b639
00000110: 46e2 2c3f 81cf 35be a86d d03d 154d f73d
00000120: 2def d53e 9770 68be 6fd8 c0be 1cf6 a53e
00000130: 716c eebe f474 e3be 6248 a6be 692e 963d
00000140: c2a0 90be cd5f 4e3e 1972 83bd 492a 0abf
00000150: 0732 8e3e 01e8 71bd f2a6 3c3e 7ac1 68bd
00000160: 671d 13be ea9a 56be fd9e 15bf 094b 8bbe
00000170: 1b98 9a3e f95f bebd e2b3 02bf ee45 993d
00000180: 77ce febe b0df 63bf 68f7 213f a746 1c3f
00000190: 366a 263e b1b3 53bf bab0 d93c d339 95be
000001a0: 6db9 743e 6476 343e 9ce4 183e 80bc 053f
000001b0: 1920 423e 052a 17bf c2bf 773e b5da 263f
000001c0: c662 84be 6c3b 29bd 76e7 50be 9f3a afbe
000001d0: cedd 853d 6b6f 56be 74f2 793e fc64 03bf
000001e0: 9774 383e 058a 0f3e 88d7 8bbf 171a b7be
000001f0: 0fdd 2e3f 2b54 323f 53be e4be ae52 ef3d
0.33379656 -0.73107225 -0.23616154 -0.2717249 0.062154256 -0.1036848 0.44574073 0.07525613
0.62378585 -0.25040692 0.19668062 0.45455825 -0.061988935 -0.2905989 -0.14339544 -0.94906163
-0.29231054 0.054909572 -0.20570037 0.6698051 0.11482934 -0.6647957 0.5060674 -0.34721693
0.10921763 -0.29186413 0.68965566 0.12474263 -0.7714139 0.83058447 0.26847008 -0.6302406
-0.41783044 -0.22663476 0.16029298 0.06632595 0.20749614 0.14213791 -0.1953494 0.2499498
0.41021588 0.32802162 -0.2539264 -0.47431484 -0.33243367 0.12690504 -0.52365184 0.005260106
0.5688016 0.24564955 -0.32164693 0.27814633 0.5244732 -0.4635311 0.5907996 -0.64661694
-0.30989707 -0.38249487 -0.60503036 0.000871862 0.12159278 0.09427097 0.31043413 0.70713854
0.18080975 0.11733693 0.17512323 0.0003489002 0.67532766 -0.17754938 0.10177165 0.12075249
0.4178404 -0.226992 -0.37665126 0.3241433 -0.4656711 -0.44425166 -0.324771 0.07333071
-0.28247648 0.20153733 -0.06418247 -0.5397077 0.27772543 -0.059059147 0.1842306 -0.05682514
-0.14366685 -0.20957533 -0.5844572 -0.27205685 0.30194172 -0.09295649 -0.5105573 0.07484041
-0.49766895 -0.89013195 0.63268137 0.61045307 0.16251454 -0.8269606 0.026573528 -0.2914568
0.2389886 0.17623287 0.14930958 0.52240753 0.18957557 -0.5904849 0.24194244 0.6517747
-0.25856608 -0.041316435 -0.20400795 -0.34224412 0.065364465 -0.2094094 0.24408895 -0.51325965
0.18013225 0.14017494 -1.092515 -0.35762092 0.6830606 0.6965968 -0.44676456 0.11685692

fc4.bias f4 [2]
00000000: 3c7a a3bd 155e a93d
-0.07982299 0.08269898
