checkpoints/Computer2-1-checkpoint-1.8923-actor.pth (torch, 193711 bytes, 8 tensors)

fc1.weight f4 [256, 24]
000000 bb 9b c7 3d 56 a0 26 be 63 1b bb bd c0 db 80 3d
       0.097465 -0.16272101 -0.09136083 0.06291914
000010 fa 75 88 bd 76 da 62 be 1a 71 5d 3d 0d 92 08 bd
       -0.06663127 -0.22153649 0.05406294 -0.03334241
000020 31 08 95 3e 10 ad b8 be 23 cb 02 be 1a 69 17 3e
       0.29107812 -0.36069536 -0.12772803 0.14786187
000030 fa 5a a1 3d 25 11 b2 bd c8 34 75 3d d6 3b 8a 3d
       0.078786805 -0.08694676 0.05986479 0.06749694
000040 d7 1c c8 bc d7 b0 8b bc fd 70 72 3c 5e d7 5d 3e
       -0.024427814 -0.017052097 0.014797446 0.21664187
000050 74 57 a9 3e 1b 9d 27 be 9b 01 30 3d 35 77 37 3e
       0.33074534 -0.16368525 0.04297028 0.17916568
000060 ec 87 86 3e 3e 42 eb be ba e6 89 3d 29 3b b8 3d
       0.26275575 -0.45948976 0.06733461 0.08995659
000070 9b 90 66 3d 8b f4 f6 3d f9 3c 04 be f9 ad 18 be
       0.05629025 0.120583616 -0.12913884 -0.14910115
000080 a9 c0 75 bd 57 4a 13 bf b9 e7 9b 3d 47 2b a6 3e
       -0.05999819 -0.5753531 0.07612557 0.32454893
000090 12 bd 02 be ad 74 7d 3c d9 c6 f9 bd 86 97 4e bd
       -0.12767437 0.015469712 -0.1219613 -0.050437473
0000a0 c4 7a e0 bd ae 20 db be f1 a7 e9 bd 4f 91 1f 3e
       -0.10960916 -0.4279837 -0.114089854 0.15582775
0000b0 c8 13 52 3d 9f 8d b1 be f1 f1 e1 bd 24 24 9b 3e
       0.051288396 -0.3467836 -0.11032475 0.3030101
0000c0 98 b1 2b bd 65 b6 22 bd 7c 97 75 bd 0e c2 8a 3e
       -0.041917413 -0.039724726 -0.05995892 0.27101177
0000d0 b1 92 be be 90 fe 99 3e c3 0c 22 3e f8 84 4f bc
       -0.37221292 0.30077028 0.1582518 -0.01266598
0000e0 1d 6e 72 be 55 8a 4f 3d 02 b8 71 3d 0c 41 f5 bd
       -0.23674817 0.050669033 0.059013374 -0.11975297
0000f0 09 ca 8d be f1 99 44 3d 63 4f 46 bd 1a b7 fc 3d
       -0.27693203 0.047998372 -0.048415553 0.12339611
000100 4e 68 3f be b8 8f 14 3c 9b fe 86 3d a8 08 4e bd
       -0.18692133 0.009067468 0.06591531 -0.050301224
000110 35 d8 71 3e 38 d8 93 be b1 f8 a1 bc ed 37 e1 bd
       0.23617633 -0.288759 -0.019771906 -0.10996995
000120 bb 9f f8 3d 47 f2 99 3e ba 6d ab bc 79 4d 17 be
       0.12139841 0.30067655 -0.020926345 -0.14775647
000130 0a ee 86 bd 6b b3 8b be 73 2e ca 3d 47 38 3f bd
       -0.06588371 -0.27285323 0.09872141 -0.04668453
000140 2c 1b 5e 3e 52 c6 c1 bc fb 2b 11 3e 57 0c 57 3d
       0.21690053 -0.023654137 0.14176933 0.052502003
000150 ec ee a6 be fe 6b 61 3d be 3f 40 be 28 ef fa 3d
       -0.32604158 0.05503463 -0.18774316 0.12252647
000160 52 ab 74 3e e3 0e 16 bc 98 ea 18 3e f7 1f 76 3d
       0.23893479 -0.009158823 0.1493324 0.060089078
000170 58 a9 79 be 1d a4 71 3e 46 65 03 3e 8d 61 16 3e
       -0.24381006 0.2359776 0.12831602 0.1468565
000180 a1 19 32 bd 56 0c fa bd 5c e0 a0 bd 2c fd 6e 3e
       -0.043481473 -0.12209384 -0.07855293 0.23338765
000190 f5 c5 7b 3e 63 ee 0c 3e 4e 7f 51 3d 73 f5 85 3e
       0.24587233 0.13762812 0.051146798 0.26163825
0001a0 29 fc 29 3c f3 b0 49 be 43 f7 58 3e ee 4e 2f bc
       0.010375061 -0.19696407 0.21188073 -0.010699971
0001b0 da e0 90 be 2f 32 8c 3e 85 cb 0f be 73 29 ab 3d
       -0.28296548 0.27382037 -0.1404248 0.08357515
0001c0 7b a3 f1 3c fd a2 9b be 45 f6 1d 3d fe 50 0b 3e
       0.029496899 -0.30397788 0.03856494 0.13605115
0001d0 46 f4 02 bf 35 77 b5 3e 8a d8 4c bb 52 f1 94 3d
       -0.5115398 0.3544251 -0.0031256997 0.07272591
0001e0 14 ab 8c 3e 6d 41 ca bd 72 ad c9 3d 14 e3 be bc
       0.27474272 -0.0987576 0.09847535 -0.023301639
0001f0 e2 82 24 be 25 1b c7 3d 12 06 59 be 4a 3c 2e 3e
       -0.16065553 0.09721974 -0.21193722 0.17015186
000200 8d a5 1d 3d 9d 14 8c be 51 a8 49 bd 26 ab a1 3c
       0.03848796 -0.27359477 -0.049232785 0.01973493
000210 52 f8 33 3e b5 74 1d 3e aa b2 2e 3d 5a 9d 81 bd
       0.17575195 0.15376551 0.042650856 -0.063288406
000220 ac e1 06 be 4a 7f 4f be 34 17 f0 bd 0a 97 8c bd
       -0.13172024 -0.202634 -0.11723176 -0.06864746
000230 dd a2 6f 3e 0c ce b3 3e 58 b7 47 3e 04 ee 35 bb
       0.23401971 0.3511814 0.19503534 -0.0027760277
000240 3b 3f 4c bd a9 ab 39 be 72 9c 89 3d cd f1 01 3e
       -0.04986499 -0.1813189 0.06719293 0.12689896
000250 45 3b a1 3d 72 e7 84 3e cc a5 ee bd 3e f0 4e 3e
       0.07872633 0.2595783 -0.11652717 0.20208833
000260 4c 55 d6 3e 52 ce 20 bc b8 b1 12 be 64 3b 4c 3e
       0.4186195 -0.009814816 -0.14325607 0.1994453
000270 3d 9e c7 3e b8 6b a9 3d 5d 4c c7 3d 55 6a 61 3e
       0.38987914 0.08272499 0.09731362 0.22013219
000280 a0 75 52 3e e2 0c e8 bd a4 4d 5f 3d 3f 81 9f 3d
       0.20552683 -0.11330582 0.054517403 0.077883236
000290 09 dd 0d 3f 9f d3 f7 3e e9 d7 8e bd d6 b0 78 3e
       0.554154 0.48403642 -0.06974775 0.24286208
0002a0 82 ed 51 3e a5 00 8b 3e 93 28 de 3d 63 f1 f6 bd
       0.20500758 0.2714893 0.10847583 -0.120577596
0002b0 4c 0d cc 3d c7 18 27 3c 68 41 0f 3e d8 c3 28 3e
       0.09963474 0.0101987785 0.13989794 0.16480958
0002c0 43 d9 07 3e a6 55 38 3e 7f bc 4d bd 49 f7 2f bd
       0.13266473 0.18001422 -0.050228592 -0.04296044
0002d0 5a b2 70 be 06 dd 82 3e 3b 01 93 3d 3e b4 27 3d
       -0.23505536 0.25559253 0.07177969 0.040943377
0002e0 7e d7 6a 3e ac e9 ed 3b cb e0 27 3e 58 c0 91 bd
       0.22933766 0.007260522 0.16394345 -0.07116765
0002f0 7c fd cf bd 9f 31 e2 3e 26 66 58 bd f2 d6 cf bd
       -0.1015577 0.44178483 -0.05283179 -0.101484194
000300 09 89 2b be 56 59 1d bc 79 05 8d 3d cf f8 0b be
       -0.16751494 -0.009603819 0.068858095 -0.13669132
000310 71 8d 57 be cb 3b 38 ba cd 0b 34 bd ae c4 0a be
       -0.2105005 -0.0007027953 -0.043956567 -0.1355159
000320 31 ab 4f 3e 99 42 18 3e 80 fa bd bd 0e 12 c3 3d
       0.20280148 0.14869155 -0.09276295 0.09524928
000330 71 11 03 bd 52 13 9e 3e c1 f0 0b 3d 1f fd 9e 3d
       -0.031999055 0.30874115 0.034165148 0.07763123
000340 8e d6 4f bd 5e 71 e7 bd 22 b9 d8 3c b4 04 80 be
       -0.050741725 -0.1130092 0.026455466 -0.25003588
000350 aa 12 84 3e ce 34 26 3f 4a bd d7 3a 4e 62 8d be
       0.2579549 0.64924324 0.0016459611 -0.27614063
000360 c4 df 86 3d 2d 99 25 3e 02 c2 b2 bd 14 28 af 3e
       0.06585649 0.16171713 -0.0872841 0.34210265
000370 be bd c7 bd f8 ca 21 bd 6d a2 90 3d 28 bb bd 3e
       -0.09752987 -0.039500207 0.0706223 0.3705685
000380 9b 97 83 3e 49 b4 03 3f 90 8f 23 3e 4a e1 81 3b
       0.25701603 0.5144697 0.15972733 0.003963624
000390 04 fb ea bd ae 07 70 3e 5f 9e 84 bd 88 ac 6e 3e
       -0.11473659 0.2344043 -0.064755194 0.23308003
0003a0 da 48 dd 3c ff 0e d8 3e 38 7e 60 3d 0a 4a 80 3d
       0.027012277 0.4219894 0.05480787 0.06264122
0003b0 50 fd 9e 3e 52 cb bd 3e a5 1a f1 bc 01 2a d4 3d
       0.31052637 0.37069184 -0.02943165 0.10359574
0003c0 8c 83 3a 3e 8a 72 02 bf 1f 97 97 bc f5 9d 57 be
       0.18214244 -0.5095602 -0.018504677 -0.2105635
0003d0 ff 24 7e 3e d6 b6 c4 3d e5 7a a3 3d 4e f0 c4 bd
       0.248188 0.09605186 0.07982425 -0.09616147
0003e0 65 79 c2 3e 73 0e 29 bd 63 85 94 3d ab 6d 7b 3e
       0.37983242 -0.041273545 0.07252004 0.24553554
0003f0 ab 6c 54 be 8e 9a 64 3e 7c 27 21 be f6 be d0 3d
       -0.20744579 0.22324583 -0.15737718 0.10192673

fc1.bias f4 [256]
000000 ad d7 15 bd 4e c2 52 bd e1 43 09 be 45 1e 74 be
       -0.036582638 -0.051454835 -0.134048 -0.23839672
000010 5c 71 dd 3d c7 30 0c 3e e7 e3 f1 be b4 16 ce bd
       0.10812637 0.13690482 -0.47244188 -0.10062924
000020 cd 0a 8d bd 54 77 39 3c 7b 94 02 3e 01 87 12 be
       -0.06886826 0.011319954 0.12751953 -0.14309312
000030 bb 80 3b be 2e 80 6a bd cd 95 a9 bd c9 33 62 be
       -0.18310826 -0.057251148 -0.08280525 -0.22090067
000040 3c 40 6c be 71 4c 0f be 19 d8 4d bc 30 51 d4 bd
       -0.23071378 -0.13994004 -0.012563729 -0.10367048
000050 2d 31 d9 bd f1 f7 9f 3c e0 30 00 3e 2c 2b 89 3b
       -0.10605083 0.019527407 0.12518644 0.0041860547
000060 7d 59 bd 3c 66 26 81 3d 10 37 69 be ee f4 4a 3d
       0.02311396 0.06306152 -0.22774911 0.04954999
000070 b9 70 13 3d 69 93 62 3e 36 eb 4c be a8 cf 49 be
       0.035996173 0.22126545 -0.20011601 -0.19708121
000080 4f b1 0b bd 40 d6 87 be 89 95 1f 3e fe 39 13 be
       -0.03410464 -0.26530647 0.15584387 -0.14377591
000090 60 d2 88 bd 5e fd 45 be fb 7e a1 be e9 70 e4 bd
       -0.06680751 -0.19334933 -0.3154219 -0.111543484
0000a0 04 99 eb 3c a3 ec 45 be 45 63 03 3b e4 b8 bb 3d
       0.028759487 -0.19328551 0.0020048183 0.091661245
0000b0 52 d7 27 be 64 07 86 be 17 a2 95 bc ac 25 af bd
       -0.16390732 -0.26177514 -0.018265767 -0.08552107
0000c0 5a e3 77 be 23 e5 46 3e 0a 2b a4 be 0f 49 87 bd
       -0.24207821 0.19423346 -0.32064086 -0.06605732
0000d0 64 ee 0f bd 7e 21 3c bd 5f 41 1c 3e 08 a2 12 3d
       -0.035139456 -0.04593038 0.15259312 0.035799056
0000e0 11 84 3d 3e 8e 98 34 be 60 ee db be 99 44 9a be
       0.1850741 -0.1763632 -0.42955303 -0.3013046
0000f0 a7 15 64 be 6f 69 ff bd d4 d4 f6 bb d1 b0 7a bd
       -0.22273885 -0.12471282 -0.0075326953 -0.06120378
000100 20 8c 88 be 9c 99 2c 3e 8f fa ea bd 40 b4 47 3c
       -0.26669407 0.16855472 -0.114735715 0.012188971
000110 95 41 b2 3d 8b 58 83 be c6 1d 27 3e 5a f7 39 bb
       0.08703915 -0.2565349 0.16319951 -0.0028376193
000120 30 78 a8 bd 9f c7 47 3d 6c 8b fc bd 8e 13 57 be
       -0.08226049 0.048774358 -0.1233128 -0.21003553
000130 d2 1f 00 be e8 63 91 bb e6 ad 05 be 90 22 79 3e
       -0.12512138 -0.0044369586 -0.13054618 0.24329591
000140 d1 e5 cb bd 7c a7 93 bd aa 4c a7 3d a1 72 c0 be
       -0.099559434 -0.072096795 0.081689194 -0.37587455
000150 f5 cb 80 bd 71 48 c6 bc 8b 04 89 bd ca d6 2e be
       -0.06288902 -0.024204465 -0.0669032 -0.17074123
000160 c9 67 6a 3c 59 10 d9 bc 98 4a 39 3e 0c db e9 bc
       0.014306971 -0.026497053 0.18094862 -0.028546833
000170 c5 47 57 bd a0 8e b5 be 3a 8c 07 be a3 8a 9f 3b
       -0.05255868 -0.35460377 -0.13237086 0.0048688217
000180 a9 e5 5a 3e 58 cd 04 be c8 01 86 be 0c c7 b4 3d
       0.21376671 -0.12968957 -0.26173234 0.08827028
000190 1a af d6 be 42 c4 26 bd a0 7f 17 3e bc c3 2b 3d
       -0.41930467 -0.04071451 0.14794779 0.041934714
0001a0 e0 eb 58 3e 89 0a d6 bd 3f af ba be 6b a6 11 3e
       0.21183729 -0.10451228 -0.36461827 0.1422364
0001b0 c5 d9 9d 3d 31 0e 4a 3d a2 db c1 be 4f 09 de bc
       0.07707552 0.04932994 -0.3786288 -0.027104048
0001c0 62 89 15 be 04 8d b9 be 27 a5 3f bc 84 52 53 3c
       -0.14603189 -0.362404 -0.01169709 0.012898091
0001d0 f7 34 7d be 0b f1 a8 bd 93 06 a6 3d 9b 90 74 be
       -0.24727236 -0.082491 0.08106723 -0.23883288
0001e0 fb eb 1c be c0 4b 81 bd 5b a3 e8 3b d6 40 9f 3d
       -0.15324394 -0.06313276 0.0070995516 0.07776038
0001f0 48 c3 8e be 71 6e e6 bd bd 5e 0d 3e 10 a9 47 bd
       -0.27883363 -0.11251534 0.13805671 -0.048745215
000200 dd 3e 16 3c f1 e3 4f bc 78 5d d6 3d f5 0f 6e bd
       0.009170261 -0.012688623 0.104670465 -0.058120687
000210 3f c7 71 be 64 34 7a be 32 19 09 be a9 ec 6b 3e
       -0.23611163 -0.24434048 -0.13388517 0.23039497
000220 b4 71 5f 3e 35 92 e7 be 12 4d c5 3d 18 27 4e 3e
       0.21820718 -0.45228735 0.096338406 0.201321
000230 ad 56 3f bc 15 27 33 be 3d 6e c6 be a8 a7 54 be
       -0.01167838 -0.17495377 -0.3875598 -0.20767081
000240 92 69 97 3d 4a 2a a1 bd 38 c6 46 be 0a 6b 05 3e
       0.07393183 -0.07869394 -0.19411552 0.13029113
000250 db 92 b7 3b d9 36 d0 3d 91 ef 57 be c7 df 6d bd
       0.0056022233 0.10166711 -0.21087481 -0.05807474
000260 20 95 50 be ba dc d6 bd 34 bc 7c be 02 81 5d be
       -0.20369387 -0.10491319 -0.24681169 -0.21631244
000270 5d 08 3d 3c d5 e0 f1 bd 18 f6 c6 be 21 3c b0 bd
       0.0115376385 -0.118104614 -0.3885963 -0.08605219
000280 f7 ae a6 be 72 f7 3d be 5e f0 4f 3e 05 5d ae be
       -0.32555363 -0.18551424 0.20306537 -0.34055343
000290 34 a8 d6 3d cc 6a 87 be 5e 3e ac bd 94 69 72 be
       0.10481301 -0.26448667 -0.08410333 -0.23673087
0002a0 0e 74 f8 3d db e9 6a 3e ba 39 3f bd 18 8c 81 bd
       0.12131511 0.22940771 -0.04668591 -0.06325549
0002b0 9a 46 28 3c 5d 06 82 be a3 47 4b bd 64 c5 f5 3d
       0.010270739 -0.2539548 -0.049628865 0.1200054
0002c0 31 8f 36 3e 2b f0 85 3e 5b ef 66 bd c6 1c 6e be
       0.1782806 0.26159796 -0.05638061 -0.23253164
0002d0 a2 33 8a bd 5a 5e 07 3d 90 0a 7b bb fe 83 63 be
       -0.067481294 0.033048965 -0.0038305856 -0.2221832
0002e0 af 2b e2 bd 13 cc 0d 3e bf 94 82 3d dc ae 84 bd
       -0.11043488 0.1384738 0.06376027 -0.06478664
0002f0 4a 9f ef bd f9 17 de bd 8d 84 d5 3d 32 5b 0e 3e
       -0.11700304 -0.10844416 0.10425673 0.13901976
000300 2f be d0 3d d8 71 cc 3c 07 c9 0d 3d ae 97 96 be
       0.10192525 0.024956629 0.034615543 -0.29412597
000310 44 cb c4 3d 87 20 82 be 80 7e 87 3d c4 ce 9e 3c
       0.09609082 -0.2541544 0.06615925 0.019385703
000320 de f4 c0 3c 9e dd b3 bd 63 43 8b be 30 03 de 3c
       0.023554262 -0.087825045 -0.2719985 0.02710113
000330 b3 50 29 3e 7b 97 9e 3c 9c 1b e5 bb 40 bd 06 be
       0.1653469 0.01935934 -0.0069918167 -0.1315813
000340 e6 d6 9b 3d 7f ed 5f be 0f 00 95 be 3d 5d a0 bd
       0.07609348 -0.21867941 -0.29101607 -0.07830284
000350 8f b8 1c be 2e a8 a3 be 15 13 86 be 30 e0 42 be
       -0.15304779 -0.31964248 -0.26186433 -0.19030833
000360 71 fc 2a be 34 83 92 be 51 9d c3 bd 87 27 f4 bd
       -0.16697861 -0.28615725 -0.0955149 -0.11921602
000370 2d eb 9f 3d a9 4a 40 3e 7f 7f f2 3c 46 20 71 be
       0.07808528 0.1877848 0.02960181 -0.23547468
000380 0e f1 65 be dc 6a c3 be 2b b4 fd bd 3a c8 40 3e
       -0.22455236 -0.38167465 -0.1238788 0.1882638
000390 53 09 6f 3e a5 e9 a3 bd f9 3e ee bd 52 42 b2 3e
       0.233434 -0.080035485 -0.11633105 0.34816223
0003a0 8e 83 db bd d3 74 81 3d d9 0e 02 3e 36 c1 34 3d
       -0.107184514 0.063211106 0.12700976 0.044129573
0003b0 ca 81 a1 3e b5 46 af bd 08 89 7c 3e 89 99 5c be
       0.31544334 -0.08558408 0.24661648 -0.21542944
0003c0 32 3f 76 be 42 c1 e9 3e ef 32 b0 3c 8a bb 54 3e
       -0.24047545 0.45655257 0.021508662 0.20774665
0003d0 ce ff 24 be 15 ab 99 be 0f 02 37 be c9 c7 08 3e
       -0.16113207 -0.30013338 -0.17871879 0.13357462
0003e0 99 f8 a8 be 55 07 87 bd 38 54 b7 3d 9b c1 16 be
       -0.33002165 -0.06593195 0.0895161 -0.14722292
0003f0 f6 c8 22 be 4c f5 a6 3d f0 bc 7a 3e e1 ee 6e bd
       -0.15896973 0.081522554 0.24486136 -0.05833328

fc2.weight f4 [128, 256]
000000 ca 8a 0e bd b1 93 10 3c f2 21 92 3d b0 55 7e bb
       -0.03480033 0.008824275 0.07135381 -0.0038808398
000010 07 dc 6a 3d 51 3e 18 3b 06 3e 05 3e 8c 53 da bd
       0.05733874 0.0023230503 0.13011941 -0.106604666
000020 49 ce 30 3e 83 a6 89 3d 76 e0 4d be 0e 04 33 3e
       0.17266192 0.06721213 -0.20105156 0.17482015
000030 85 65 37 bd e6 47 74 bd 09 34 71 3e 85 99 86 be
       -0.04477455 -0.05963888 0.23555006 -0.26289
000040 97 2e 5f 3e f4 a2 0a be 44 36 97 3c 33 e4 22 be
       0.21795116 -0.13538724 0.018458493 -0.15907364
000050 3f 82 f0 3d 7b 91 4e bd df 52 91 3d 6e 89 87 be
       0.117435925 -0.05043171 0.070958845 -0.26472038
000060 a0 f6 5d 3d 22 0d c6 3d 1b de ac bd 71 76 55 be
       0.054190278 0.09670474 -0.08440801 -0.20845963
000070 e5 c1 11 3d 9d b7 94 bb fb 1c eb bd 71 9a 44 bb
       0.035585303 -0.00453849 -0.11480137 -0.002999928
000080 62 d3 cd bd fd 44 2d bd 48 b8 0c be 2f d8 75 3d
       -0.10050084 -0.04230212 -0.13742173 0.060020622
000090 fc e9 97 3d c4 d3 87 bd f5 1e 17 be 06 94 44 3e
       0.07417676 -0.06632188 -0.14757903 0.19197091
0000a0 da 52 1d 3d fd e7 f0 bd 8a f3 26 bc ba 3d 2c 3e
       0.03840909 -0.11762998 -0.0101899 0.16820422
0000b0 7f b7 d9 3d 7e bc 95 3b 88 0b c5 3d 36 61 b8 bd
       0.10630702 0.004569589 0.0962134 -0.090029165
0000c0 07 e4 08 be a1 5a d2 bb fd 11 b4 bc 14 e6 b9 bd
       -0.13368236 -0.006419495 -0.021981234 -0.09077087
0000d0 ba b1 20 3b 6a 5d 0e be 38 05 9f 3c 90 13 87 bd
       0.0024519996 -0.13902822 0.019411668 -0.06595528
0000e0 8c ce 28 bd 22 a2 4b bd 39 91 05 3d 1b 9d 81 3d
       -0.041212603 -0.04971517 0.0326092 0.063287936
0000f0 7f 10 2c 3e 95 ea 92 be c8 75 a5 bd 67 62 ed 3d
       0.16803168 -0.28694597 -0.080791056 0.115910344
000100 76 45 f3 3d cc b0 26 be 9b b7 73 be a1 a8 13 be
       0.11878483 -0.1627838 -0.23800509 -0.14419796
000110 7a 1f 19 be 6b 04 6f bd 3c bf 62 3d 97 19 40 3d
       -0.14953414 -0.058353823 0.055358157 0.046899404
000120 16 e1 33 be 6e 9e 8c 3c bb ed 0c bd 15 bd 97 bd
       -0.17566332 0.017165389 -0.034406405 -0.074091114
000130 82 99 bf 3c 2e be be bd 5a eb 17 3e 96 07 93 3d
       0.023388628 -0.09313618 0.14835873 0.07179181
000140 05 6d 67 3d 04 c3 8c bc 92 2d 81 3d 60 45 2c bc
       0.056500454 -0.017182834 0.0630752 -0.010514587
000150 a4 bd fb bd ad b1 6d 3c ab 07 7f bc c1 23 e8 3c
       -0.122920305 0.014507693 -0.015565793 0.028337361
000160 e0 66 1d 3d 5f df 80 bd bb 42 65 3d 9a 49 81 bc
       0.038428187 -0.06292605 0.055971842 -0.015782166
000170 b9 19 9b 3d ae 0f 11 3e 14 2d 14 3d 82 1e 22 3d
       0.075732656 0.14166138 0.036175802 0.039579876
000180 e7 50 49 be 3a 18 28 3e 97 fb 7b bc 5c 16 0d be
       -0.19659768 0.16415492 -0.015379808 -0.1377806
000190 03 fc 00 3e d1 52 83 3d 44 5f 8a 3d 10 e7 78 bd
       0.12596135 0.0641228 0.06756452 -0.060767233
0001a0 42 d0 01 be 28 00 8f 3d ef cf d5 bd 18 d9 a0 bb
       -0.126771 0.06982452 -0.10440051 -0.004908692
0001b0 0b 51 6a bd 31 fa 8f be 57 74 73 3d 4f 6b ae 3c
       -0.057206195 -0.28120568 0.059437122 0.021291403
0001c0 2d 82 27 be 26 45 e7 3d 4a 7e 54 be cd c7 d4 bd
       -0.16358252 0.11292486 -0.207513 -0.103896715
0001d0 0c 8c 7c bd 37 a9 be bd 77 46 9b bd 78 c4 09 3d
       -0.061656997 -0.09309619 -0.075817995 0.033634633
0001e0 98 79 00 bc 0a d2 70 be 95 b6 dd 3d b6 69 14 3d
       -0.00784149 -0.23517624 0.108258404 0.036233626
0001f0 e4 42 15 3e 50 43 7f ba f6 e1 f8 bd e1 db 74 3e
       0.14576298 -0.00097375084 -0.12152474 0.23912002
000200 b8 44 20 3c 92 89 77 3e 98 c5 26 be 33 64 53 bd
       0.009782009 0.24173573 -0.16286314 -0.05160923
000210 3f e0 8a be 9b 63 bd 3c 22 be ed 3c ab b6 19 3c
       -0.2712421 0.023118785 0.029021326 0.00938193
000220 fe f4 3c be 17 34 e0 bc f0 6a 80 3d 83 85 b1 bd
       -0.18452832 -0.027368588 0.06270397 -0.086680435
000230 b7 6d aa bd 20 14 0a be 9f ed 03 be dd 53 a0 3d
       -0.08321708 -0.1348424 -0.12883614 0.07828496
000240 8b 0b 41 bd 2d a3 ec 3d 09 ae 3a 3d 9a b5 38 3d
       -0.04713015 0.11554561 0.04557613 0.045095064
000250 99 58 3b bc 9e 7b 50 3d ec ee 08 3c 6c 98 dd 3d
       -0.011434698 0.05089914 0.008357745 0.10820088
000260 ab 57 a7 bd f3 4b 2a bc 04 5f fd 3b d9 16 61 3c
       -0.08171018 -0.010394084 0.007732274 0.013738357
000270 d9 97 5b be e2 31 8d 3d b8 50 a4 3d e5 cf fe bc
       -0.21444644 0.0689428 0.080232084 -0.031104991
000280 ea 20 a1 3d 3f e2 9e 3d 06 b5 ad bd 76 e8 8f 3d
       0.07867606 0.07757997 -0.08481793 0.0702676
000290 84 38 8e bd 52 4f 20 be 86 2b ad 3c 75 ac 22 bc
       -0.06944373 -0.15655258 0.021138918 -0.009928812
0002a0 8f 05 72 3d dd c2 b6 be 0d 38 ae 3d 86 bf 84 bd
       0.059087332 -0.35695544 0.085067846 -0.06481843
0002b0 df 30 c5 3d 64 7a 3b be 70 29 4f bc c4 4c 42 3d
       0.09628462 -0.18308407 -0.012644157 0.04743649
0002c0 7f ed ad be 8e 0d 2a 3e ac 27 0a 3c 95 f2 d7 3d
       -0.33970258 0.16606733 0.00843231 0.10544316
0002d0 ca 31 9e bd d1 33 15 bd cc ab 7b bd 4d 20 80 be
       -0.0772434 -0.03642637 -0.061443135 -0.25024644
0002e0 84 e5 7d 3c 04 83 b3 be ab 81 b2 bd b2 f1 0a 3e
       0.015496615 -0.35060894 -0.087161385 0.13568762
0002f0 36 98 30 bc 70 77 0b bd 8b 26 03 be 6f da c1 ba
       -0.010778477 -0.03404945 -0.12807672 -0.001478983
000300 27 d0 3e bd ab 34 e4 bd eb 42 19 be aa 70 1b 3e
       -0.04658523 -0.11142858 -0.14966933 0.15179697
000310 76 68 40 be 22 5a bb bd 76 0b fa bd 27 66 47 bd
       -0.18789849 -0.09148051 -0.12209217 -0.048681404
000320 75 d3 1a 3d 2e 92 24 3e b4 dc 97 bd 22 b3 1c 3b
       0.037799317 0.16071388 -0.07415143 0.0023910482
000330 8a 05 f2 bd 18 12 80 3d c6 0d ab 3c df 31 5f be
       -0.11817463 0.06253451 0.020880591 -0.21796368
000340 73 0e 18 be 45 f9 cd bd 74 30 34 3d ba 5b e6 bd
       -0.14849262 -0.1005731 0.04399152 -0.11247964
000350 9b f0 3e be 61 ea 3e bd 77 d0 8e be 9a f6 a5 3d
       -0.18646471 -0.04661024 -0.2789342 0.08103676
000360 ff fd 90 3d 38 20 69 be f7 6e 28 3e 1c 58 39 be
       0.07079696 -0.22766197 0.1644858 -0.18100017
000370 7a 16 b3 bb 88 77 85 bd 96 30 f6 bb ed 33 e7 bd
       -0.005465326 -0.065169394 -0.007513116 -0.11289201
000380 25 1f b0 3d 64 c5 2b 3c 57 87 a9 bc e4 99 f4 3e
       0.0859969 0.010484073 -0.020694418 0.4777366
000390 85 2d 7c be e6 40 ab bd e3 f0 8f be a1 bf 56 3d
       -0.2462674 -0.08361988 -0.2811347 0.052428845
0003a0 e8 55 5d 3d a4 36 6a bd db cf 8a bd 70 c6 92 bd
       0.054037005 -0.057181016 -0.067779265 -0.07166755
0003b0 7a 91 32 bd fc 61 22 3a 69 c0 dd 3d e8 ed fb 3d
       -0.04359577 0.00061944104 0.10827715 0.123012364
0003c0 81 e7 63 3d e6 84 62 3d c1 e4 4e be 74 f5 c0 bd
       0.0556407 0.055302523 -0.2020445 -0.094218165
0003d0 ba 7b 07 3d 05 34 83 bd 65 5f 72 be c8 48 c9 bd
       0.03307698 -0.06406406 -0.23669203 -0.09828335
0003e0 97 6d 77 bc 5d 63 0a bd 07 24 85 3d 57 10 b6 bd
       -0.015101812 -0.033786166 0.06501012 -0.08889835
0003f0 9e 56 62 bc 02 dd 31 be 16 ab 8c be 5f 62 b9 bd
       -0.013814596 -0.17369464 -0.27474278 -0.09051966

fc2.bias f4 [128]
000000 ae e8 3c bd bb 2b 70 3d a2 87 c7 bd 4e 1b 4b 3d
       -0.04612034 0.058635455 -0.09742667 0.049586587
000010 1b b6 a3 bd 44 f4 39 3d 37 54 f5 bd 40 ca f8 bd
       -0.07993718 0.045398965 -0.11978953 -0.12147951
000020 61 d8 98 3d bb b5 fa bc 97 63 be bd 8b 72 5a 3c
       0.07463146 -0.030604234 -0.09296339 0.013332973
000030 74 76 06 3e fa f6 fa bd 72 44 a7 bc f7 03 ab 3d
       0.13131124 -0.12254138 -0.02041838 0.083503656
000040 3f 7c 0a bc eb bc 43 bd 4e 1a 31 be 2d 6f 84 bd
       -0.008452474 -0.047787588 -0.1729519 -0.064665176
000050 5f 1a b8 3d 30 c9 5b bd c5 ad ae bd 2a ab 5f bc
       0.08989405 -0.053658664 -0.08529238 -0.013651649
000060 64 8d 85 3d bc 72 37 3d 5f 3e 3b be 58 d3 4a bd
       0.06521109 0.044787154 -0.18285511 -0.04951796
000070 c5 b1 86 3c f0 9b 13 3c 41 bc 97 bd 88 5b bf 3c
       0.016442189 0.009009346 -0.074089535 0.023359075
000080 da ef 9c bc 18 d0 10 be 7f 1e aa bc 53 cf 1a be
       -0.019157339 -0.14141881 -0.020766495 -0.1511815
000090 e3 01 7b 3d 73 37 82 3d 85 63 4b 3d 8c c3 31 bd
       0.061281096 0.06358232 0.049655456 -0.04339938
0000a0 e7 9e 55 3d 13 1d 52 bd ba c6 d5 3d 66 bc 93 3c
       0.052153494 -0.05129726 0.10438295 0.018034171
0000b0 6e 79 d2 3a ee f6 b0 bd b9 9d 53 bd c0 78 19 bb
       0.0016057917 -0.08640848 -0.051664088 -0.002341792
0000c0 2d 34 ad bc 95 f4 46 3e 2a 9a 91 3d 4f e7 6e be
       -0.021143043 0.19429238 0.071094826 -0.23330425
0000d0 7b df ed 3c bd ba a7 bc ba 5e 71 bc f3 84 e3 3c
       0.029037228 -0.020474786 -0.014732057 0.027773356
0000e0 0d cb 89 3d 1b b3 86 bc ff b1 2c 3e 48 f4 ae bd
       0.06728182 -0.016442826 0.16864775 -0.08542687
0000f0 af d5 0e be ba a6 43 3c a1 a5 8d 3d fa e9 a2 bb
       -0.13948701 0.011941606 0.06916357 -0.00497174
000100 1a 5e 9f bc a6 52 2a 3e 9d af 77 b8 50 ee e6 3d
       -0.01945405 0.1663309 -5.905294e-05 0.11275923
000110 68 8d 69 3d 31 3e 16 bc 3a b4 43 bc 48 cf 30 be
       0.05701962 -0.009170101 -0.011944825 -0.17266572
000120 fc 16 72 bd 48 64 8c 3c 00 80 d7 bc 1d f9 8c bd
       -0.05910395 0.017137662 -0.026306152 -0.06883452
000130 d9 f6 95 3d 37 fd 5e bd ef a6 9f 3d b5 d0 8d bc
       0.07322473 -0.054440703 0.07795512 -0.017311433
000140 fb 18 8c bc dc 44 e2 3b d8 da cc 3d 00 98 ed 3d
       -0.017101755 0.0069051813 0.10002679 0.11601257
000150 d1 90 89 3d 3b 6c 74 bd 02 fd 7c 3d f8 f8 c8 3d
       0.06717075 -0.05967353 0.061764725 0.09813112
000160 b8 4a 85 bd 3d 21 ac bc 8a 86 c6 bd ae 18 5e bd
       -0.06508392 -0.021011943 -0.0969363 -0.054222755
000170 fe c7 65 bb f8 c2 99 bc a4 34 18 3d 95 73 b1 bc
       -0.0035061832 -0.018769726 0.037159577 -0.02166156
000180 5d 59 e8 bd a1 08 59 bd 8a 6e cb bc db 4b a2 bc
       -0.1134517 -0.052986745 -0.024832983 -0.019811561
000190 db f6 94 bd 3a 28 fa bd 47 99 02 3d c0 05 aa 3d
       -0.072736464 -0.12214704 0.031884458 0.08301878
0001a0 c5 9c 79 3b 0a 01 28 bd e9 9b 16 bc c9 f0 34 3b
       0.0038087827 -0.041016616 -0.009192445 0.002760934
0001b0 9a ff 63 3c c8 10 27 3d d3 69 a2 3b 4c 30 1e 3d
       0.013915921 0.04078749 0.004956463 0.03862028
0001c0 7c d2 eb 3d db e8 1a 3e 51 42 ec 3d 06 d9 f8 bc
       0.11514756 0.1512789 0.11536086 -0.030376922
0001d0 18 e3 eb bc 2a eb 1c bd bb 51 8d bc 28 61 81 bd
       -0.02879481 -0.038310207 -0.017250886 -0.06317359
0001e0 d4 16 5a bd b3 31 f6 bd 31 45 34 bd 39 97 8a 3c
       -0.053244427 -0.12021198 -0.0440113 0.016917812
0001f0 de 1d 96 3d b8 cd db bb 8a 8c a2 bc ae 2d 5c bd
       0.073299155 -0.006707873 -0.019842405 -0.0537545

fc3.weight f4 [64, 128]
000000 91 02 e3 3d 9f f0 d3 bc 7a 53 e4 3d 8c 8c 88 3d
       0.11084474 -0.025871573 0.111487344 0.06667432
000010 c2 0c e9 bd 23 52 90 bd c2 36 f5 3d 84 a1 e0 bd
       -0.113793865 -0.07046916 0.11973335 -0.10968307
000020 f7 c3 04 3e c7 1f 83 bd 0e cb fa 3d e1 18 1c bc
       0.1296538 -0.064025454 0.12245761 -0.009527416
000030 83 db e2 3d 6d 48 84 3d 65 d3 b9 bc 9e 84 a5 3e
       0.11077025 0.064591266 -0.022683809 0.3232774
000040 be 5d 37 bc 93 ad 55 bb 9a 63 07 bd fc cb 1c 3e
       -0.0111917835 -0.003260468 -0.03305397 0.15312189
000050 b8 c8 19 3e aa 08 9a 3d 98 57 1f be 1e 68 26 3d
       0.15017974 0.07521184 -0.15560758 0.040626638
000060 35 fc 88 bd 4a 74 64 3d 96 d2 a7 3e 40 07 6c 3d
       -0.0668873 0.055774964 0.32777852 0.0576241
000070 25 02 b6 bc b6 35 6d be 49 f3 04 3e a0 d4 33 bc
       -0.02221782 -0.2316502 0.12983431 -0.010975987
000080 63 c5 68 3d 10 8e 1b 3e 68 33 f1 3d 0b 5c c7 3c
       0.056828868 0.15190911 0.11777383 0.024335882
000090 79 7c 1b 3b 3e 66 ef bc 3f 29 a5 bd 42 c6 ba bd
       0.0023725315 -0.029223558 -0.08064508 -0.09119846
0000a0 1d 0d 2a be 8e 09 a2 3d cf d2 2f 3c f3 a7 3a be
       -0.16606565 0.07911979 0.010731413 -0.1822813
0000b0 3e 51 4f 3d 5f e1 ae 3c 3f 19 83 3e d4 04 7e bd
       0.050614588 0.0213477 0.256052 -0.062016323
0000c0 4d 7a 8f 3d e8 05 ab 3c 2b 43 9e 3c f0 19 61 3c
       0.07005749 0.02087684 0.019319138 0.013739094
0000d0 db 11 49 3e 2f 0c 00 3d bc 83 54 3e 72 52 b1 bd
       0.19635718 0.03126162 0.20753378 -0.08658303
0000e0 78 3a 21 bd 39 86 93 be ba 31 d5 bc b4 ee 34 be
       -0.0393624 -0.2881334 -0.026024688 -0.17669183
0000f0 e0 48 07 3d 83 7d 3d be 51 77 34 3d fc ac 08 be
       0.033028483 -0.1850491 0.0440591 -0.13347238
000100 5b b9 17 be ac 29 ac bc 5e bd fa bd 05 c3 82 be
       -0.14816801 -0.021015964 -0.1224315 -0.25539413
000110 c6 5e a6 be a4 9b 80 3d 7d 21 97 bd ae 83 0f 3c
       -0.3249418 0.06279686 -0.07379434 0.008759422
000120 76 5d 1c 3e d3 72 cf 3d 31 86 45 3c 9a 01 b2 3d
       0.15270028 0.10129323 0.0120559195 0.08691712
000130 85 b4 9e bd e9 be 4d 3e 49 0d c5 bd c4 46 1f 3e
       -0.07749275 0.20092358 -0.096216746 0.15554339
000140 75 93 0a be f3 93 8f 3d 75 c0 78 bc 39 b5 26 bc
       -0.13532813 0.07010641 -0.015182604 -0.010175043
000150 d4 df 99 bd e7 26 43 3e 44 e7 85 3d 83 48 9d bd
       -0.07513395 0.19057809 0.06538251 -0.07679846
000160 06 5c 16 bd d0 e2 f0 3d d6 51 ac 3b 26 f3 34 3e
       -0.036708854 0.11762011 0.005258779 0.17670879
000170 3a d9 06 3e 0a 73 52 bd 50 d1 ba 3b fb 18 c5 3d
       0.13168803 -0.05137924 0.0057012215 0.09623905
000180 5a 6e 01 3f 43 07 1d bd ef fd a8 3d af ce 0f bd
       0.5055901 -0.038337003 0.08251559 -0.03510922
000190 00 76 a9 be ba ac 06 be 18 54 a5 3d 31 95 84 bd
       -0.3309784 -0.13151827 0.0807268 -0.064737685
0001a0 9a 43 4b bd 25 21 06 3e ab 18 14 be 4c 96 96 bd
       -0.049625017 0.13098581 -0.14462535 -0.073528856
0001b0 02 94 5c 3e 88 6d 41 bd a1 41 72 bd 70 a0 80 3d
       0.21540835 -0.047223598 -0.05914462 0.06280601
0001c0 63 2d 07 be b0 8f 98 3d 82 0a f2 bd 6d 12 97 bd
       -0.13200907 0.07449281 -0.118184105 -0.07376561
0001d0 ce 69 7b 3e 42 bd f3 bd 72 93 92 3d f5 5d 90 bd
       0.2455208 -0.119013324 0.07157029 -0.07049171
0001e0 c2 73 a0 bb e4 70 17 3e ca 1d c5 3e ab fe eb bd
       -0.004896612 0.14789158 0.3849929 -0.115231834
0001f0 4c 36 87 3d 92 5a 49 bd f6 c4 0f 3e 2d 9a ac bd
       0.06602153 -0.04915864 0.14039978 -0.08427844
000200 df 32 80 bb b5 dc 13 3c 94 3b 34 be a2 b3 5a bd
       -0.0039123143 0.009024789 -0.17600852 -0.053393967
000210 34 6d 92 bd 66 9a 0f be 5d 22 0a 3e c1 d6 fd bd
       -0.07149735 -0.14023742 0.13489671 -0.12394477
000220 7d 16 05 3d ec 16 97 bd 2a 89 b4 3d 1b 7c b0 3d
       0.03249215 -0.07377419 0.088152245 0.08617421
000230 8f 70 b1 bd fe 16 99 3d 56 13 e8 3d 54 19 31 3e
       -0.08664047 0.074750885 0.11331813 0.17294818
000240 fe 3c a5 bd 39 d6 a8 3d 76 83 5f 3e 86 67 ef 3c
       -0.08068274 0.08243985 0.21827492 0.029224169
000250 19 04 d5 3d d2 aa 20 3d 70 57 f9 bd ca b9 25 3e
       0.10401172 0.039225407 -0.121748805 0.16184154
000260 52 a1 85 bc fe fe a1 3c a2 1f a0 3e 0e 7e 04 be
       -0.016312275 0.01977491 0.31274134 -0.12938711
000270 30 3b b5 bc 08 d6 a7 3d e0 25 1d 3d 78 8b c1 bd
       -0.02212295 0.0819512 0.0383662 -0.0945043
000280 46 28 23 bd 55 15 7a 3e ec 6a e8 3c 5f 5a 22 3e
       -0.03983333 0.244222 0.028371297 0.15854786
000290 6d 5a f0 bd 0d b5 0e be 91 f6 4a 3d ba 5f c0 3a
       -0.11735997 -0.13936253 0.04955155 0.0014676966
0002a0 db 0a 8d bd 6b 1c 69 3d bc 65 25 bd 51 8c 21 be
       -0.06886836 0.056911867 -0.040380225 -0.15776183
0002b0 f0 80 36 3d 07 fa 1a 3e ba 23 1d 3e 98 7b 11 3c
       0.044556558 0.1513444 0.1534566 0.008879565
0002c0 63 57 74 bd b6 2f a2 bd 2b 71 68 bc 40 ce 2b 3e
       -0.05965365 -0.079192564 -0.014187138 0.16777897
0002d0 1b 12 e5 3d da 20 da 3c 7d da fb 3c a5 5a 39 bd
       0.11185094 0.026626993 0.030743832 -0.04525246
0002e0 b9 fa c6 bd 19 37 6b bd 9c de be 3d fe 91 ce 3d
       -0.0971579 -0.057425592 0.09319803 0.100864395
0002f0 0f e2 1d 3e bd 33 11 be fc 4b 27 3b 77 dc ed bd
       0.15418266 -0.14179893 0.0025527468 -0.11614316
000300 5e 1e 23 be 9b 0b 90 3d ba 5d ca bd b6 c3 1f bd
       -0.15929553 0.070334636 -0.09881158 -0.039005004
000310 b0 62 c0 bd a2 52 09 bd 91 90 35 3c 94 f4 88 3d
       -0.09393823 -0.03352607 0.011081831 0.066872746
000320 c3 80 37 3d ee 45 48 3c b0 c0 24 be 6c 36 26 be
       0.04480053 0.012223704 -0.1608913 -0.16231698
000330 c5 52 97 bd 43 92 f9 3d 94 97 d3 bd df 6d 2b bc
       -0.07388834 0.121861 -0.103316456 -0.010463207
000340 cf b3 ce bc 19 a3 0e be 17 11 03 3e 9c 77 84 3e
       -0.025232224 -0.13929404 0.12799488 0.25872505
000350 19 e5 da bd 58 91 c5 bb fc 24 bc 3c 6e 61 e5 3c
       -0.10688228 -0.006029289 0.022966854 0.02800056
000360 e7 d5 8a ba ba a1 26 bb df f1 d6 3c 93 0d 96 3e
       -0.0010592312 -0.0025425986 0.02623838 0.2930723
000370 b6 c0 00 3e 00 4d 79 3d 82 81 24 3e 7b 3f 22 bc
       0.12573513 0.06086445 0.16065028 -0.00990283
000380 7d 7c 8c 3e ec f1 31 3d 66 a4 6c bd b2 31 a2 3d
       0.27438727 0.043443605 -0.05777397 0.07919635
000390 af 80 55 be f0 b7 20 3e f1 cd a9 3c ef 5d 5b bb
       -0.2084987 0.15695167 0.020728083 -0.0033472737
0003a0 c7 02 a4 bb b8 c9 3f 3c 86 e3 f2 3d c3 32 6f bd
       -0.005005214 0.011705808 0.11859803 -0.05839802
0003b0 c5 fc d2 3d 33 e5 6a bd b2 d8 f8 bc 99 9f 78 3d
       0.10302118 -0.057347488 -0.030376766 0.06069908
0003c0 97 88 43 bb 8c 80 af bd d3 4f 09 be 5e ea ce 3d
       -0.0029836053 -0.0856944 -0.13409357 0.10103296
0003d0 36 cf 73 3e 5e 07 f6 3c 4e ce 00 3e 59 f8 e5 bd
       0.23809513 0.03003281 0.12578699 -0.11229009
0003e0 85 90 93 bd 44 39 ba be 15 cd 48 3e ad 64 0b bc
       -0.07205299 -0.36371815 0.19609483 -0.00850789
0003f0 b7 7d 36 3d 20 77 05 3e ed 9a c8 bb 2f 7e 4c be
       0.044553485 0.13033724 -0.006121984 -0.1997001

fc3.bias f4 [64]
000000 27 c8 ee bd 8f e9 c0 bd 4a a0 0f 3d 7c d7 ac 3d
       -0.1165927 -0.09419548 0.035064973 0.08439538
000010 89 e8 bb 3d 0f 7a f2 bd 51 2c 21 bd cf 94 a0 bd
       0.09175212 -0.11839687 -0.039348904 -0.07840883
000020 cd 60 25 bc 05 fe 06 3d 57 13 c5 bd bb 7b 68 bd
       -0.01009388 0.032957096 -0.096228294 -0.056758624
000030 20 5c b6 3b 8d 70 7f 3d 01 a6 61 3c e4 32 d4 3d
       0.0055651814 0.062363196 0.013772489 0.10361269
000040 38 4b a5 bd ed 0a 97 bc 51 f0 6b bd b3 53 53 3d
       -0.080709875 -0.018437827 -0.05760223 0.051593494
000050 df 03 f0 bd c2 90 86 bd 44 73 b9 bd 60 bd bc bc
       -0.11719488 -0.06570579 -0.09055188 -0.02303952
000060 e3 66 94 bc 10 67 0a bd a8 fe 71 bd d4 56 d4 bd
       -0.018115466 -0.033789694 -0.05908075 -0.10368124
000070 b1 f9 50 3e cd 56 e2 3c f9 55 ef bd 05 47 ab bb
       0.2040775 0.02762928 -0.1168632 -0.005226972
000080 cf 88 17 3c 5c 16 f0 3d fb 02 da bc c6 9e af 3d
       0.009248926 0.11723015 -0.02661275 0.085752055
000090 d0 1b 9f bd 5c 45 02 3b 16 cf 1d bd 07 e2 19 3d
       -0.07768977 0.0019877767 -0.03852757 0.037569072
0000a0 5c 9c 90 bc 05 d6 8f bd 48 88 81 3d 7c 00 2a be
       -0.017652683 -0.07023243 0.06324822 -0.16601747
0000b0 ae ab 87 bd 66 fe a8 3d f8 aa 67 3d 59 41 8a bc
       -0.06624542 0.08251648 0.056559533 -0.016876863
0000c0 dc 9c 3d bd 60 e7 2b bd f1 fd 21 bc 73 11 3b bc
       -0.04629217 -0.041968703 -0.0098872045 -0.011417734
0000d0 03 6e d1 bb 94 00 d5 3d 6e 5b 3a bd 3e 6d a2 bd
       -0.0063912882 0.10400501 -0.04549735 -0.079309925
0000e0 b7 43 b7 bd d6 ed a7 3c 06 f0 67 3d 40 fd 15 3d
       -0.089484625 0.020499151 0.05662539 0.03661847
0000f0 3f fc 8d bd f3 b5 f8 3c dc 2b 1f 3e ba e0 57 3d
       -0.06932878 0.030360198 0.15544075 0.05270455

fc4.weight f4 [2, 64]
000000 7f cd a0 3e f9 be 87 3e 25 9d 44 bd a8 91 6a bf
       0.3140678 0.26512888 -0.048001427 -0.91628504
000010 f5 6f b4 bd f7 af 9e 3d 38 10 ad 3d 80 13 97 3e
       -0.088104166 0.077484064 0.08450359 0.29507065
000020 5c 25 a1 bd 6c ca 8c bd ce cb 83 3d df f4 33 3d
       -0.07868454 -0.068745464 0.06435357 0.0439347
000030 f2 7f 5c 3e ff 1e 9c be 0d a2 3e be 73 b4 42 be
       0.21533182 -0.30492398 -0.18616505 -0.19014148
000040 59 c7 c9 3d c1 d1 43 bf ab 1b 5a bd 34 3a 9f 3e
       0.09852476 -0.76491934 -0.053249042 0.31099093
000050 94 08 b1 be 4f c2 fe be 6a 6a 80 3d f0 40 32 be
       -0.34576857 -0.4975762 0.06270297 -0.17407584
000060 cd 8c 2d 3f 26 8b d9 be e1 6b 11 be a6 30 ab be
       0.6779297 -0.42488974 -0.14201309 -0.33435553
000070 ed 3e 34 bc 39 2f fd bd 88 f3 08 3f 08 21 1c be
       -0.011001331 -0.12362523 0.534966 -0.15246975
000080 a0 07 11 3e 97 34 42 3e c5 7a bc be 74 a5 5c 3f
       0.14163065 0.18965374 -0.36812416 0.8618996
000090 01 a7 fb be d5 b5 89 3e e8 f3 52 3d 68 d9 34 be
       -0.4915085 0.2689654 0.05150214 -0.17661059
0000a0 19 2f 37 3f 65 c2 d0 bd 1b ce 72 3d 1a fc 9f 3e
       0.7155624 -0.10193328 0.05927859 0.31247026
0000b0 a4 c1 50 bf 7a 85 f7 be cd db fd 3b dc d8 fb 3d
       -0.8154547 -0.48344022 0.0077471496 0.12297222
0000c0 24 d2 cf be 21 bd 94 be 2d 1a 77 3c fd 98 64 bf
       -0.40590012 -0.29050544 0.015081924 -0.8929594
0000d0 ae d6 1b 3c fd 1a d0 3e dd 32 d9 3d 63 8b fc bc
       0.009511633 0.4064559 0.106054045 -0.030828184
0000e0 2d 72 03 3f 61 45 51 bd 38 bf 93 be ed e1 0d bf
       0.51346093 -0.051091556 -0.28856826 -0.5542286
0000f0 67 3b 01 3e b8 53 96 bf 48 b4 26 3e 90 0d 2e be
       0.12620316 -1.1744299 0.1627971 -0.16997361
000100 16 6d 1c be c6 f5 46 be a1 a5 60 3d 72 f9 77 3e
       -0.15275988 -0.19429693 0.054845456 0.2421625
000110 3f 88 38 bf e0 77 ee be f0 2a 8d be 76 ac 07 bf
       -0.72082895 -0.46575832 -0.2757182 -0.5299753
000120 41 4e af 3e cb e6 32 bf 3a ed 37 3f 5a 52 aa 3e
       0.3423939 -0.6988341 0.71846354 0.33265954
000130 88 ff 8b bc 77 f3 8d bd 18 ae ed bc 18 5e 27 3f
       -0.01708962 -0.06931203 -0.029013678 0.6537795
000140 ea 69 a4 be a5 59 9d 3e 50 bc 5c bf 34 7e a3 3d
       -0.32112056 0.30732456 -0.8622484 0.07983056
000150 63 35 37 bc 37 bd 51 be c0 fb 1b 3e fa ca 18 3f
       -0.011182162 -0.20482336 0.15232754 0.5968472
000160 90 91 b9 be f8 2e 09 be a5 76 8b be 9f ca ac 3d
       -0.36243868 -0.13396823 -0.27238956 0.084370844
000170 6a 00 0d 3f 52 37 3f 3f 9a fc 2a be 7f 24 0d 3f
       0.55078757 0.7469379 -0.16697922 0.55133814
000180 e4 29 9a 3c 0b 5c a6 3e f1 f4 19 be 15 7f 6f be
       0.018818803 0.32492098 -0.15034844 -0.23388322
000190 18 a0 1b be 9b f9 42 be 8c 5f 2a 3f 37 cd 03 be
       -0.1519779 -0.1904053 0.6655204 -0.12871252
0001a0 ed cb ed 3d 95 8e 41 be 93 78 e0 3e b0 20 cd 3e
       0.116111614 -0.18902047 0.4384199 0.40064
0001b0 f6 7e 33 be 44 93 45 bf f0 85 07 3f d5 7d 43 3f
       -0.175289 -0.77177835 0.5293875 0.7636388
0001c0 ad ea 85 3e 73 f5 c7 3d 23 d0 d4 be 63 73 ef 3d
       0.26155606 0.097636126 -0.41565046 0.1169193
0001d0 0f ab f4 be 29 62 dc bd 3e 20 17 bf 20 be 00 bf
       -0.47786757 -0.1076091 -0.5903357 -0.5029011
0001e0 7b 5d f2 3e 0f 30 8b 3d 20 e5 bd 3e 76 83 1a 3f
       0.47336945 0.06796276 0.3708887 0.60356843
0001f0 e6 80 63 bf 23 b6 c1 3d d5 0b f2 3d 69 19 15 3e
       -0.8886856 0.09458568 0.11818663 0.14560474

fc4.bias f4 [2]
000000 9f 62 3a bd 70 23 6d 3c
       -0.04550421 0.014473781
