checkpoints/Computer1-1-checkpoint-2.2848-actor.pth (torch, 193711 bytes, 8 tensors)

fc1.weight f4 [256, 24]
00000000: 62e9 90bb 628b 723e 1c5d 3d3e 7f8e 07bd
00000010: 133f 9b3e 7dd1 2b3e a633 b2bc 9679 213d
00000020: 8d21 513e 8756 8d3e e355 89bd 4df2 1d3e
00000030: 0720 7b3e 3b36 53be 6eaf e53d cd1a 213e
00000040: ef1a 80be 5e74 e3bd 2fea fa3b 4e93 ac3d
00000050: eaa1 13be ecaa 8cbe 0af1 2d3e 5876 923e
00000060: 9d75 113d d536 f6be 6af5 89bc 5247 4ebd
00000070: d0af f6be f2d9 97be ac20 3ebd cfd8 34bd
00000080: b6ce f33d 57d8 07bf 7142 443d 89f7 953d
00000090: 3038 c3be e4f2 dcbd 07ab 2ebd 5bc0 923d
000000a0: 3e5a 4b3d 8478 9bbe bd6b 0b3c 7ef9 2dbd
000000b0: ce52 61be 432e d13e 3ebe 72bc 32eb e8bd
000000c0: 089a d63b cf8e 06bf d3ef 163c 889c 18be
000000d0: d7a1 bcbd ea55 da3d ea67 9c3d 77e6 393e
000000e0: e713 9c3e 6f46 ddbe 78d3 403d 2f18 c9bd
000000f0: 5807 56bd 279b 8abe 4bc2 e13d abd8 af3d
00000100: ff22 a53e 5cbf bbbe 7b98 19bd dd33 b23b
00000110: e6ef aa3e 5046 3abf 2403 193d a530 a4bc
00000120: c80c a53d de5c ac3c c1a4 c23c 6e9a 85be
00000130: 19b0 13bc e6f6 18be fec2 fbbc 9846 a2be
00000140: dc52 d53d 9d3a 2abe 873f db3d 0dcb e33d
00000150: 68c9 9f3e 3b09 67be 5e04 123e 9664 5b3d
00000160: b3df 8bbd ac10 b7bd 8b25 30be 714e 12bd
00000170: 4d8a 733e 603c 3dbf 74d2 e33d 5091 d5bd
00000180: e80b 913c 0b1b 463d f488 fb3d b246 f4bd
00000190: 030c c43d 74a0 d3be 0faa 203e 017e 6e3d
000001a0: 6c7b 5e3c dddf aa3e 824d 52bd 7aa6 9fbd
000001b0: c690 49be 27d7 4d3c 83b6 3b3e 5946 13be
000001c0: 9a66 173e 3850 e43d 2690 a6bd 58b8 98bd
000001d0: 0362 92be 4ae6 ef3e 94e5 ae3d 8883 54be
000001e0: 7ef6 85bc 1960 b1be 4e60 8f3d bd3b 26be
000001f0: 4a20 bc3a 99dc 7cbe 9251 b03d f933 733d
00000200: ee95 14be 5b71 96be cf8c 973c a060 f1bd
00000210: e7bf 3bba 9e6b 5abe 03f3 153e 6996 f4bd
00000220: 6c70 5cbe 606b a8be 224e dabd 01a4 5fbe
00000230: fed7 d93d 2984 dabe 3cd6 ca3d 1633 cebe
00000240: 057f 053e ed8d fd3a 2e96 3d3c 1b28 3d3e
00000250: dfc8 03bc b456 c03d ff5b 4b3e 48e2 c83d
00000260: 6030 bd3b c449 d13e 5f0f 983d b30e a93d
00000270: 96d0 3b3c d3b3 85be 0bb2 14bd 1cd7 433d
00000280: 1590 c93d aa06 403e 9b69 a2bc 247e edbd
00000290: db40 223e da4d 1bbf 2420 95bd 8745 cebd
000002a0: bbe5 fe3d 551f 2c3e 102b 04be 160d 33bd
000002b0: 1e98 95bd 6810 94bd 7798 b83d 57ca f8bd
000002c0: 1d52 0f3e 6eae db3d ae40 eabc d8f6 56be
000002d0: e773 a43e 09d5 f33d 1553 343c f647 51bd
000002e0: 74cd 80be c189 11be 94e1 af3c 7566 febd
000002f0: f4a7 e73e bcc8 623d b42f 89bd 5a40 45be
00000300: d2f9 083e 845c da3e eafe 04bd c897 da3d
00000310: 70c8 3cbe cea6 01bd 6e10 bb3d 94f5 d13d
00000320: 352e b23d 3d3c ad3d 218b 3a3e f38e 4cbe
00000330: 0e01 06be 8ee7 34be 9b54 0dbd 0618 debd
00000340: 6d4d 84bd 7740 343e 078d 463d 7f66 0dbe
00000350: 6f56 d13b d525 59be a5a1 cfbd b1f1 cf3d
00000360: 7156 9f3e 4234 89be b9d1 46be b0e7 06be
00000370: 5d6e 76bd 1eb6 b0be 547f 043e eedc 6dbe
00000380: cfa8 4d3e 929b 9fbe 9917 1a3e 429a 63be
00000390: 049f 883d 2cf6 6e3c 9551 433e 4428 a33d
000003a0: 1b9c 8a3e 236e c9be 7920 f3bd 2999 543d
000003b0: 9d7c 02be 47af 76bd 4804 ae3c 1bd2 e23d
000003c0: 2480 48be 249f 813e 3b43 ffbd 8442 58be
000003d0: 46bc 37be 5625 e4bc 869e 1cbd c31f 48be
000003e0: e57d 26be f265 ca3e f7ab 7ebd 72dc fd3c
000003f0: b6da 1cbe cf9e 993c 92a7 f5bd 30fb 21be
-0.0044223526 0.23685983 0.1849255 -0.03309488 0.3032156 0.16779132 -0.021753144 0.039422594
0.20422955 0.27605078 -0.06705835 0.15424462 0.24523936 -0.20626156 0.11215101 0.1573288
-0.2502055 -0.1110618 0.0076573114 0.08426534 -0.14417234 -0.27474153 0.1698648 0.28605914
0.035512555 -0.4808871 -0.016840655 -0.050360985 -0.4818101 -0.29658467 -0.046417877 -0.044152077
0.11904661 -0.53064483 0.047914926 0.07322604 -0.38128805 -0.10788515 -0.042643573 0.07165595
0.04964661 -0.30365384 0.0085095735 -0.042474262 -0.22004244 0.40855607 -0.014815865 -0.11372985
0.0065491237 -0.5256166 0.009212452 -0.14903462 -0.09210556 0.10660918 0.076370075 0.18154322
0.30483934 -0.432178 0.047076672 -0.09819066 -0.052253097 -0.27071497 0.110233866 0.08586248
0.32253262 -0.36669433 -0.037498932 0.0054383115 0.33386153 -0.7276354 0.03735651 -0.020042727
0.080590785 0.021040376 0.023760201 -0.26094383 -0.009014153 -0.14937934 -0.030732628 -0.31694484
0.10416195 -0.16623922 0.10705476 0.11122713 0.31208348 -0.22562115 0.14259478 0.053562723
-0.068297766 -0.08938727 -0.17201822 -0.03571934 0.23783226 -0.7392025 0.11124125 -0.10428107
0.017705873 0.048365634 0.12281981 -0.119275466 0.095726036 -0.41333354 0.15689872 0.058225635
0.013579231 0.3337392 -0.05134345 -0.07795425 -0.19684133 0.012563503 0.18331341 -0.14382304
0.14785233 0.11148113 -0.08132963 -0.07457036 -0.28590402 0.46855384 0.08539882 -0.207533
-0.016352888 -0.3464363 0.070007905 -0.16233726 0.0014352885 -0.24693526 0.08609308 0.059375737
-0.14510319 -0.29383358 0.01849976 -0.11786008 -0.00071620796 -0.21330115 0.14643483 -0.11942751
-0.2152726 -0.3289442 -0.10659434 -0.21839906 0.106369 -0.42678955 0.09904143 -0.4027335
0.13036735 0.0019344665 0.01157145 0.1847233 -0.008043497 0.09391537 0.19859312 0.09808785
0.005773589 0.4087659 0.07424807 0.08254757 0.011463305 -0.26113757 -0.036302608 0.047812566
0.098419346 0.18752542 -0.019825747 -0.11596325 0.15845053 -0.6066567 -0.07281521 -0.10071855
0.12446161 0.16808827 -0.12907052 -0.04371365 -0.07304405 -0.07229692 0.09013455 -0.12147968
0.13996167 0.10726629 -0.028595295 -0.20992601 0.32119676 0.119058676 0.011006136 -0.051094018
-0.25156748 -0.14212705 0.021469869 -0.12421886 0.45245326 0.055367216 -0.06698552 -0.1926283
0.13376549 0.4264871 -0.032469667 0.10673481 -0.18435836 -0.031653218 0.09133993 0.102519184
0.087002195 0.08458755 0.18217136 -0.19976406 -0.1308634 -0.17666456 -0.034504514 -0.10844426
-0.0646008 0.17602716 0.048474338 -0.1380863 0.0063884775 -0.21205838 -0.10138253 0.10153521
0.31120637 -0.26797682 -0.1941594 -0.1317432 -0.060163844 -0.34513944 0.12939197 -0.23228809
0.20083927 -0.31173378 0.15048064 -0.22226813 0.06670955 0.014585059 0.1907409 0.079666644
0.27072224 -0.3934184 -0.11871428 0.051903877 -0.12742849 -0.06022575 0.021242276 0.11075231
-0.19580132 0.25316727 -0.12463995 -0.21119124 -0.17942914 -0.027849834 -0.038237117 -0.19543366
-0.16258962 0.39530903 -0.062175717 0.030988906 -0.15317807 0.018752484 -0.11994852 -0.15818477

fc1.bias f4 [256]
00000000: 180b 563d 331c 843c 72a7 723d 235b 16be
00000010: c4eb 3dbe b24f 403d a541 0d3e 4fe7 4b3e
00000020: d84a 3abe 5254 033e 65f0 393e 6acd f13c
00000030: f1c9 21be ae84 15bd 2edc 26be fd13 56bb
00000040: 0380 2ebe f306 b63d d4af 0c3e 3711 3e3e
00000050: 9b81 81bd ddeb 88bd 530b 54be 979f 7c3e
00000060: 24cc 953d 4396 f8bd 472f d13c 0a24 dfbc
00000070: 7317 82be 4e4b 6cbe 5a79 ab3d 198a 13be
00000080: 7cb0 bcbc 82d8 59be 0a5a 023e b62c 81bd
00000090: 4228 6cbe becf 80bd 5d28 303e 9825 c1bd
000000a0: 322b 6e3d 3771 0b3e 0b6e 9abe 5a5f 15bd
000000b0: 9fd8 47bd 465f 093d 50f1 6cbe 9223 5c3e
000000c0: 9295 3ebe 0add 94bd 93e4 29be a6a0 943d
000000d0: be10 9fbe d1ac 50be a3b7 a5bd b7b9 16bd
000000e0: 2d75 3abe 064a 74be fabc 48be e487 f33d
000000f0: 498d 9fbe 7cca 013e 4492 8e3d 83d9 4a3e
00000100: 64ce 2cbe 0c4d 8aba f61e 15be b205 7e3d
00000110: adee 783e 6f78 fd3c 6692 eebd 427c 863c
00000120: 15ea c5bd 88e1 78be b269 8fbe 3758 1d3e
00000130: d8f0 8dbd b9d1 77be bfe2 50be a0b0 023e
00000140: be00 88be 464b b13d 09e4 c93d 9437 073e
00000150: 86a2 343d 79ef 7f3c 9d9f 13be aad7 7bbe
00000160: e8fe 15be 6b96 0abd b84b 42be ed51 17be
00000170: 0307 c6bd 9d25 1ebe 0f02 29be cce6 2b3e
00000180: 34c0 cdbc cf3e 0f3e 1205 a6bc 4d4d 4abe
00000190: 3137 ac3d bdc0 643d 97ab e93d 2643 13be
000001a0: 35e0 00be 1598 e1bc 4e64 a4bd 6186 07bd
000001b0: 93de 363e 856c 62be c0ba 97be 0f0b aabd
000001c0: d47e 7dbc 49dc fb3d 782a 66be 34f1 a63e
000001d0: 23c6 3dbe 8b9e 3fbe 2098 52bc 0fe2 0cbd
000001e0: 5fc2 40be 079f aa3d 7ed6 73bc 9446 32be
000001f0: 6c3b ea3d 8ddb 003e 2d9c 4abe 0322 8a3e
00000200: 065a 613d 421d 29be b2e9 82be 2065 883e
00000210: cca1 46be 9b6f 9abe c86c 523e 0cc2 3a3e
00000220: 2666 233d 2242 473e b73a 27be cb5b cbbd
00000230: a5ad a53e 96d9 76bd 7ace 9bbd 8c2d e93d
00000240: 94bc fabd 6231 4fbe 574e 42bd 3482 38be
00000250: e035 a2be 1ce1 a7be 7bb0 efbd 5db5 963d
00000260: ccf0 05be dd9e 49bd 7d28 98be 6975 ab3d
00000270: 82b5 c7bd 24b0 b3bc 0986 79be 5d51 f53d
00000280: 0e92 923d d15b 513c bbd6 7abe f5af 223e
00000290: bf36 c2bc 03cc 9bbe 21e4 083e 03a7 5ebd
000002a0: 3ec6 0fbe 0219 debd 263c 73be 0d3d 89bc
000002b0: 4311 ba3e 9188 67be da37 a6be de05 8dbe
000002c0: 1ec2 58be a36b 07bc 4d17 dfbb bdd1 003e
000002d0: 98fc 89bd 0acc 9c3c a6d7 ffbc b4fb 92bc
000002e0: ca30 3d3c 8278 cebd f104 1ebe 40be cfbe
000002f0: ce98 043e d2f5 293e 7ba3 eebd 4d73 e43b
00000300: fae1 9dbd c455 8abe ac44 41be 2271 4cbe
00000310: 0fef 3b3e 3e66 c5bd d92d 17be 0de2 adbd
00000320: f942 d5bd 2659 5bbd 63a5 883d 942b 9abe
00000330: fa12 e6bc b391 b2bd d09e e73c ead1 94bd
00000340: 708a 193c 02d4 90be 9d32 993d e45b 00be
00000350: 1831 573d e6fd 5fbe 9b93 7bbe 7cbf 3b3e
00000360: 0c80 513e afe1 893c b80c 663e 95f8 38be
00000370: 1326 773e 4ef7 dfbd 91f5 a0be 67e9 5cbe
00000380: 2d5f e1bc fc93 83bd 9807 ad3b ff93 1a3e
00000390: 3a96 55bc 7538 113e 1d3c 203c 6836 013e
000003a0: 44a1 0dbe e913 143e 9a6a 803c 8197 13be
000003b0: 33c9 45bd c45d 26bd 1729 9f3d 33c7 75be
000003c0: 4160 46be 3ad2 8dbe 28b9 47be 5957 0abe
000003d0: 256a 94be b305 eebd a868 3cbe 30ec 5c3e
000003e0: ae28 5bbd 07fb 95be ead2 0cbe 0d8a 793e
000003f0: 41b0 923c 467f 0abe d515 403d f842 833e
0.052256674 0.016126728 0.05924172 -0.14683203 -0.18546969 0.046951003 0.13794573 0.19912456
-0.18192613 0.12825134 0.1815811 0.029516894 -0.15799691 -0.036503486 -0.1629493 -0.0032665723
-0.1704102 0.08888044 0.13738948 0.18561254 -0.063235484 -0.06685612 -0.20707445 0.24670254
0.07314327 -0.12138035 0.025535239 -0.027238864 -0.25408515 -0.23075601 0.08372755 -0.14408149
-0.023033373 -0.21273997 0.1272966 -0.06307356 -0.23062232 -0.06289624 0.17202897 -0.094309986
0.058146663 0.13617407 -0.3016208 -0.036467887 -0.04879057 0.033538125 -0.23138928 0.21497944
-0.18611744 -0.07268722 -0.165911 0.07257204 -0.3106746 -0.20378424 -0.080916665 -0.036798205
-0.18208762 -0.23856363 -0.19603339 0.118911535 -0.3116248 0.12674898 0.06961492 0.19809537
-0.16875607 -0.0010551526 -0.14562592 0.06201715 0.24309798 0.030941216 -0.11649017 0.016416673
-0.09663788 -0.24304783 -0.28010327 0.15365683 -0.06930703 -0.24201097 -0.20398997 0.1276269
-0.26563066 0.086569354 0.098579474 0.13204795 0.044100307 0.01562106 -0.14416356 -0.24593988
-0.1464802 -0.033834856 -0.18974197 -0.14777346 -0.09669306 -0.15444036 -0.16504692 0.16787261
-0.025116064 0.13988803 -0.02026609 -0.1975605 0.084089644 0.055847872 0.11409681 -0.14381084
-0.12585528 -0.027538339 -0.08026944 -0.033087138 0.17858343 -0.2211171 -0.29634666 -0.083028905
-0.015472133 0.122978754 -0.22477138 0.32605898 -0.18532614 -0.18712823 -0.012853652 -0.034395274
-0.18824147 0.08331113 -0.014882682 -0.17409736 0.11437115 0.12583752 -0.19786139 0.26979074
0.055017494 -0.16515067 -0.2556892 0.26639652 -0.19397658 -0.30163273 0.20549309 0.18238086
0.03989234 0.19458821 -0.16330992 -0.099296175 0.32359043 -0.0602661 -0.07607742 0.113856405
-0.12243 -0.20233682 -0.047437992 -0.18018419 -0.31681728 -0.32788932 -0.11703583 0.07358811
-0.13080138 -0.04922377 -0.2971839 0.083720036 -0.09751417 -0.021934576 -0.24367537 0.119784094
0.07156764 0.012778238 -0.24495976 0.15887435 -0.023707746 -0.30429086 0.13368274 -0.054358494
-0.14040467 -0.108446136 -0.23753414 -0.016752744 0.36341295 -0.2261069 -0.32464486 -0.2754354
-0.211678 -0.008265409 -0.0068081976 0.12580009 -0.067376316 0.019140262 -0.031230759 -0.017942287
0.011547277 -0.10081579 -0.15431572 -0.40574837 0.12948915 0.1659768 -0.11652275 0.0069717527
-0.07709117 -0.2701856 -0.18873852 -0.19965032 0.18352912 -0.09638642 -0.14763583 -0.084903814
-0.10413165 -0.053551815 0.0667217 -0.30111372 -0.02808522 -0.08719196 0.02827397 -0.072666004
0.009371385 -0.2828675 0.07480357 -0.12535053 0.052537054 -0.21874198 -0.24568026 0.18334764
0.20459002 0.016831247 0.2246579 -0.18063577 0.24135618 -0.109358415 -0.31437352 -0.21573411
-0.027511204 -0.0642471 0.0052804463 0.15095519 -0.013036305 0.14181693 0.009779957 0.1261841
-0.13831049 0.1446072 0.015675832 -0.14413263 -0.04828758 -0.040616766 0.07771509 -0.2400177
-0.19372655 -0.27699453 -0.19504225 -0.13509883 -0.28987232 -0.11622181 -0.18399298 0.21574473
-0.053505592 -0.2929308 -0.13752332 0.24369068 0.01790631 -0.13525113 0.04689582 0.2563703

fc2.weight f4 [128, 256]
00000000: cd02 cebd 4652 aabc 48f4 453e 9592 cdbd
00000010: 470e 3cbb 4155 cabc 538a eb3c 367a 1e3e
00000020: fe75 c0bd 96c1 b83c 07b1 86bd 3bc2 ab3d
00000030: f2ad c73d 1624 4bbe 3b04 233d f97d ac3a
00000040: 6565 993d 0650 09bd aaa3 8b3c cbed 5bbd
00000050: 61dd 1fbd f606 70bd d1d3 9ebc 798c b33d
00000060: 977f 3e3d 0867 3dbd c2c5 85bd 4299 c4bc
00000070: 991e 5c3d 219e 083d 7729 b1bd 11f6 ac3d
00000080: 55f0 95bd 90ee 1ebd 7497 d53d 5c28 9d3d
00000090: 50ef 65bb 13f2 5e3d dce0 323c 64bf 6abd
000000a0: 046d cabd 6edc 873d 2a91 16be bb64 4c3c
000000b0: ee4f 1b3e 0646 81bd 1a86 583d 1198 90ba
000000c0: fbd4 9e3d 1fea e8bd 8ca3 3cbe d888 343c
000000d0: c459 11bd 4313 ebbd dd1f a43d 055d 253e
000000e0: d435 843c b055 3c3d 474a f9bd e8e1 db3c
000000f0: 016a 263d 81a5 0dbb c09b 653d 1190 89bc
00000100: 0c16 9dbd a06d 3fbd d606 3d3d 1026 5fbd
00000110: 5074 77bc b75b c03d 458e 60be 4d5a 2e3b
00000120: 65f2 2cbd 2a5b c6bb 7cad 33bc b75e 053e
00000130: 9f28 52bd 03d4 43bc b246 b838 805d 92bd
00000140: 762b 8ebe b0f9 81bd fe9f c63d 74e0 2fbe
00000150: f24f c9bd 31b5 cc3d 632c 0a3e 7019 e4bc
00000160: 2a2e 183e 972d 4f3d f35b 11be 7d46 e7bd
00000170: 0cc0 ff3b 9581 083e 09df b7bc c9a4 f5bc
00000180: 76a6 99bc eed6 123e 29a6 d8bb 5566 8fbc
00000190: 6483 89bd 57f9 2c3d 48ab 51bc 510d 98bd
000001a0: 9f1a 2fbc cf5c aebd bc37 193e c11d 56bd
000001b0: 2f26 943c 722e 30be 21c7 b23c caac 1b3e
000001c0: 75aa 4ebd d2b1 b5be 3042 4abe a860 8bbd
000001d0: 71b0 8fbd 422d efbc f407 9ebc 1352 b4bc
000001e0: 9c6b 85bd 84d7 eabd 1ebb bfbd cfbc b43d
000001f0: 4801 af3d 92ae b53d 193f 1f3d ef2f 8a3d
00000200: 35fb 233d a842 463c 516e f03c b3bb 1b3e
00000210: 5700 083d e08d afbc acff 34be f7f5 f43d
00000220: 8282 dabb 3538 b0bd a0ba 55bb 5ba7 09be
00000230: 7936 99bd 7bc8 b93d 539d 13bf 4756 533d
00000240: 901e 5abe 3989 95bd 9988 1cbc 63b4 953d
00000250: b90d 703d efb0 4e3d bf93 993a cad1 64be
00000260: 0846 833d ed5e 6a3d 5561 a33c 61e3 433d
00000270: 1f73 45bd a4ae 633d 90d2 a3bb 1579 b1bc
00000280: 545c 90bc d175 a23d f0ae 62bd f385 103d
00000290: 108d 00be 0c66 7bbd 3ed7 b63b 621c 413c
000002a0: 9485 8fbd ec67 9bbc aa86 893d 51ef f5bc
000002b0: 80d7 b03d 92c1 84bb 33c2 3cbb 4d8f ecbd
000002c0: 32a2 93bd 63bf 633e 39fc 113d 3d5d 8e3b
000002d0: 1668 a43c 2efd 6a3d 1c38 233d 43a7 be3b
000002e0: 5a26 1abe b094 69bc f90c c63d b36d f93c
000002f0: 282e 6cbe 8230 d23d e6a1 03bd 4c66 a03d
00000300: ae10 ebbd 4f2f 913d 9b82 d53d 9c17 09be
00000310: 9247 59be 0f08 20bd 4e18 473d 777a 17be
00000320: 4ba2 803b bc5b e53d 0052 893d 8d34 a73c
00000330: 9c3b 39bd 9fb7 b03d e27c 31be f162 d33d
00000340: bf39 88bd 97d1 3f3c 76a5 2cbe 2baf dabd
00000350: 3201 943a f0b0 07bc 98c5 433d 3dc3 143b
00000360: 1e0d 4abd 6848 6fbe 4049 8ebc bcbe 3ebd
00000370: cf59 a13d ac67 b0bd 9e1e 713d 2050 de3d
00000380: eb09 3fbd 9bc2 e6bc 709b 02bc 15c2 0abe
00000390: 3031 133d 41e5 59bc 5c33 a03d 2018 85bd
000003a0: 2c18 c3bd 17cb cbbd 3b83 063e 7fb8 a5bd
000003b0: 4cf5 8cbd d8b3 e1bd 963b ea3b 6774 8f3d
000003c0: 1905 4bbd d46a d2bd 2798 fcbc b209 e63d
000003d0: f569 8d3c 5f95 1e3c 51d6 c43d 5500 173d
000003e0: 46b2 fbbb ccee d4bd 3111 963d a81f 96bc
000003f0: abef 993c 5f07 003d 8c54 3c39 2f87 18be
-0.10059128 -0.020791184 0.19331467 -0.10037724 -0.0028695033 -0.024698855 0.028752482 0.15476307
-0.09397505 0.022553246 -0.06576734 0.08386656 0.09749974 -0.19837984 0.039798956 0.0013160101
0.074900426 -0.033523582 0.017045815 -0.053693574 -0.039029483 -0.05860039 -0.019388111 0.087670274
0.046508398 -0.046240836 -0.0653186 -0.02399886 0.053740118 0.03335393 -0.08650487 0.08445371
-0.0732123 -0.03880173 0.10429278 0.076737136 -0.0035085268 0.05443008 0.010917868 -0.05731143
-0.09884074 0.066338405 -0.14703813 0.012475188 0.1516721 -0.06312184 0.052862264 -0.0011031647
0.077554666 -0.1137278 -0.18421763 0.011018954 -0.035485998 -0.11478283 0.0801389 0.16148765
0.016138949 0.045980155 -0.121723704 0.026841119 0.040628437 -0.002161354 0.056056738 -0.016792329
-0.07670221 -0.046735406 0.046149097 -0.05447966 -0.015103415 0.09392493 -0.21929272 0.0026604116
-0.042223353 -0.006053348 -0.010966655 0.13024412 -0.05130827 -0.011952403 8.786972e-05 -0.0714674
-0.27767533 -0.06346452 0.09698485 -0.17175466 -0.098297015 0.09995497 0.13493495 -0.02784416
0.1486136 0.050580587 -0.14195232 -0.112927414 0.007804876 0.13330682 -0.022445219 -0.029985802
-0.018756133 0.14339802 -0.0066116047 -0.01750485 -0.06714514 0.042229977 -0.012797184 -0.07424415
-0.010687499 -0.085137956 0.14962667 -0.05227447 0.018084614 -0.17205217 0.021823468 0.15202633
-0.05045553 -0.3548723 -0.19751811 -0.06805545 -0.070160754 -0.029196385 -0.019290902 -0.022011792
-0.065146655 -0.114668876 -0.09361862 0.08825075 0.08545166 0.08871187 0.038878534 0.06747424
0.04003449 0.012100853 0.029349478 0.1520832 0.03320345 -0.021429956 -0.17675656 0.119609766
-0.00666839 -0.08604471 -0.0032612458 -0.13442747 -0.07481093 0.09071442 -0.5766193 0.051595952
-0.21300721 -0.07301564 -0.009554052 0.07309797 0.058606837 0.050461706 0.0011717005 -0.22345653
0.06409842 0.057219435 0.019943872 0.047824267 -0.04820549 0.055586472 -0.0049994662 -0.021664182
-0.01762215 0.07932628 -0.055342615 0.035283994 -0.12553811 -0.061376616 0.005579858 0.011786552
-0.070079 -0.018970452 0.06715138 -0.030021342 0.08634853 -0.0040513957 -0.0028802275 -0.1155077
-0.07208671 0.22240977 0.03564093 0.004344611 0.020069163 0.057370357 0.039848432 0.005818279
-0.15053692 -0.014256641 0.09670443 0.030447816 -0.23064482 0.102631584 -0.03213682 0.078320116
-0.11477791 0.070891015 0.10425302 -0.13387913 -0.21218708 -0.039070185 0.048607163 -0.1479281
0.003925597 0.111991376 0.067050934 0.0204108 -0.045222864 0.08628773 -0.17332795 0.10321606
-0.06651639 0.011707685 -0.16859993 -0.10677942 0.001129186 -0.008281931 0.047795862 0.002269938
-0.049328916 -0.23367465 -0.017368913 -0.046568617 0.07878458 -0.08613524 0.05886709 0.108551264
-0.046640318 -0.028168967 -0.0079716295 -0.13550599 0.03593558 -0.013299287 0.07822296 -0.06498742
-0.09526095 -0.09950846 0.13135998 -0.080918305 -0.06882724 -0.110206306 0.0071482165 0.07004624
-0.04956541 -0.10274282 -0.03083427 0.11232318 0.017262438 0.0096791675 0.0961119 0.03686555
-0.007681164 -0.103971094 0.07327498 -0.018325642 0.01879104 0.03125703 0.00017960573 -0.14895318

fc2.bias f4 [128]
00000000: d999 febc 82f0 abbd e67c 51bd 8a0a 2bbd
00000010: 04fd 84bc 69a9 6bbd a9f8 d6bb f80d 84bd
00000020: d652 c9bc 0cd1 93bb 4ee9 a03c 01bc d9bd
00000030: 4a8b 8e3d f3ce 74bd cde1 19bc f309 d3bb
00000040: 16f4 a43d 4e71 a1bc a4b7 e9bc 6520 ccbc
00000050: 3b0b cdbb 7043 02bb fbd7 20bc 4d72 c7bd
00000060: fbfb 043c 5428 c4bc 3b93 ccbc d722 183b
00000070: d8a4 943c a966 a3bd e920 ac3d 05d1 a5bd
00000080: 09ab e7bd 962a e5bc 958f 993c 1216 85bd
00000090: 9c04 7f3c ffb1 533d 4d50 af3c c32e 90bd
000000a0: 1cb3 303d a2b5 83bb 8252 4cbc c3e1 7fbd
000000b0: aeb8 0d3e 4545 39bd f8e7 b0bc e491 ef3a
000000c0: 6ae1 fd3c 36af 193d f5ed 963b e484 5cbd
000000d0: 769a 673d a0ad ab3d a944 15bd 0160 a83c
000000e0: d02d 223d 5295 713d b66a 533d 90bc 883b
000000f0: f731 cb3c f31b 18be 6df0 a3bd 7361 423d
00000100: 0ac4 ddbc 1226 80bd 0c23 b1bd 017a 83bd
00000110: e546 e93c dcee a0bd 0c75 f1bb 5910 083e
00000120: 2694 a4bd 718b e1bb f3bb 35bd 8289 9abc
00000130: aa06 c8bc a3a4 cebc e08e a2bd e82c f13d
00000140: d916 843d 955b aebc 889d ddbd 4280 8a3d
00000150: 8f64 51bc 32d3 8c3c e82b 0e3c e8ef f0bc
00000160: f899 9b3c 5e70 58bd 1fb4 eb3c 1423 dd3d
00000170: 0c86 44bd db56 77bd e791 14bd 13c8 dfbc
00000180: af34 873d ffa9 5b3d e512 35bd 0dee b1bd
00000190: 30e2 09bd 21ae 46bd 5e7f 70bd 1c1f 96bd
000001a0: 610e fdba 2a67 acbc 4fb5 133d f2c8 6abb
000001b0: 1ac3 053d b738 7abc 1734 3dbd b116 8ebc
000001c0: bb55 693d d9cf 3a3c a41c 1ebe 3c3f bebd
000001d0: a980 a2bd 95d2 8c3d 87dc 393d 962c 53bd
000001e0: b52a e03c dfee 3dbc 29fe debd 046d d63d
000001f0: 9a1d 91bc ae5c 8ebd 36f4 cabd feba 23bd
-0.03107922 -0.083954826 -0.051144503 -0.041758098 -0.016233929 -0.05753461 -0.0065604043 -0.06447977
-0.024575632 -0.0045110043 0.019642498 -0.10631562 0.06960161 -0.059767675 -0.009392214 -0.006440395
0.08054368 -0.019707348 -0.02852995 -0.02491779 -0.0062574423 -0.0019876622 -0.009817119 -0.09738598
0.008116717 -0.023945011 -0.024972549 0.0023214126 0.01814501 -0.07978565 0.084047146 -0.08096508
-0.11311919 -0.027974408 0.018745223 -0.0649835 0.015565064 0.051683422 0.021400595 -0.07040169
0.043139562 -0.004019455 -0.012470843 -0.062471163 0.13839981 -0.045232076 -0.021594986 0.0018277732
0.030991275 0.03752061 0.0046060034 -0.053837672 0.05654379 0.08382726 -0.036442433 0.02055359
0.03959447 0.058980294 0.05161544 0.004172869 0.024804099 -0.14854412 -0.08004842 0.047456216
-0.027071018 -0.06257261 -0.08649263 -0.06419755 0.028476188 -0.07858059 -0.0073686894 0.13287486
-0.080360696 -0.006883078 -0.044368695 -0.018864397 -0.02441724 -0.02522499 -0.079374075 0.11776143
0.0644967 -0.021283904 -0.10821062 0.067627445 -0.012780323 0.01719055 0.00867746 -0.029411271
0.018994316 -0.052841537 0.028772412 0.10797706 -0.0479794 -0.060385566 -0.036271956 -0.027317083
0.066018455 0.053628918 -0.044207472 -0.08687983 -0.033662975 -0.048505906 -0.058715217 -0.073301524
-0.0019306653 -0.021045286 0.03606158 -0.003582534 0.032656766 -0.015272311 -0.046192255 -0.017344804
0.056966525 0.011402094 -0.15440613 -0.09289405 -0.07934696 0.06876103 0.045376327 -0.051556192
0.027364114 -0.011592596 -0.10888321 0.10470012 -0.01771431 -0.06951271 -0.09909861 -0.03997325

fc3.weight f4 [64, 128]
00000000: b8b8 733e bd25 6f3e 1507 ac3e 6f30 913e
00000010: 0269 3cbb 7cc9 193c 16b4 57be 1568 443d
00000020: 9fcb 433d 1f6e 4abe e258 553e 856b 3e3d
00000030: 296f 4e3e e72d 1cbe bc8e fe3d 5139 fbbd
00000040: d0f9 04be ac46 e43c b037 083e 4ef4 293d
00000050: 9f75 eb3d 34d1 cbbd 02c0 253e cc49 edbd
00000060: 738b 04bb b25c 2ebd bcc1 d63d c478 8dbe
00000070: 9efe 04be ed21 80bc 5895 19be 9ee1 c03c
00000080: 7978 5e3e d75f acbe d683 a93d 914c 2d3d
00000090: 3c53 db3d 59f3 90bd a7c5 843b 8a24 c03d
000000a0: efda 93bd ef5c 78be 793a 6cbc 9611 f33d
000000b0: 554a 83be 8b70 683d bb9e 033d a5c1 13be
000000c0: 4fa8 003e 5fbc 72be a267 9fbd abfe e7bd
000000d0: c637 893d 174c f93d 7400 65bd fea2 0e3d
000000e0: fbd1 48bc 2d01 513d a07b 9ebe 0b7c f5bc
000000f0: e5ee 4ebe c13a 133e 4e5a b5be 02c8 68be
00000100: 65cc 7bbe de4d fbbd cac0 893c 32e5 683e
00000110: 0c1d c5bd 6198 573e 2fb2 043d 8adf 6bbe
00000120: 411d a63e 3862 b23c 8004 6ebe 89b3 523d
00000130: 2a82 d4be 558f 5bbd 5641 723e a869 afbe
00000140: e522 89bc b8e7 853d a2a3 283e 9a46 c3be
00000150: ad29 d7bd b594 2e3e 6ea6 493e 44ae 31be
00000160: 894b c1be f980 353d 72ba f7bc 5d68 043d
00000170: 2b14 623e 358d 6c3e 1256 81bd ef59 5e3e
00000180: 84df 19bd b498 56be 5d58 413d 3f0b 673c
00000190: a377 93be 25a5 db3c a475 303e 44b2 1d3e
000001a0: 05e4 953d e7e1 313d fbb1 713e ca12 0ebe
000001b0: cb6a e53d 0d6c 26be 08c1 873d c7e7 2ebe
000001c0: 01b1 72bd 2d0b 123e 0fa6 29be 60c8 243d
000001d0: 4b61 b83d 3d37 6dbd ac51 9b3e 169b f83d
000001e0: cec1 82bd 72aa 0f3e 1fff 503e ce6d 9fbd
000001f0: b8f7 4e3e ced1 2b3e bdc8 9fbc 6595 3a3c
00000200: 073c 1c3e ec24 85bd a10e c93d 9153 2fbc
00000210: 52fb 793c 9ed5 173d 3c7a f6be 9e10 4cbc
00000220: 543a 1d3e f6a2 1b3c 92cf 123e 32a7 fd3d
00000230: 0114 1abd 693d 00bf e179 0e3e 4c61 e83d
00000240: fc53 14bd 1a81 b9bc 4f50 913d bad5 1d3e
00000250: 6cef 92bd a71a 81be 6edd b33d 69da 3b3d
00000260: c126 273d 33de bdbd 312e d13d 2d34 05be
00000270: 8782 153e eaa5 adbb c6b9 27be 8369 babd
00000280: 26c3 27be 64da 0dbf 38ab 533e e565 17bb
00000290: 0fbb 293e d7c3 a1bc 71a0 e33d e35b b2bd
000002a0: 3ebb 8bbe e317 50bf dc22 143b da34 d53d
000002b0: 89cc 073e ade1 783e abe5 2c3d 9546 1f3e
000002c0: 3332 1a3c 806b 0d3d 49da a2bc 1c15 6dbe
000002d0: 186d 44bd 3301 86be c063 10be 5be9 43bc
000002e0: c572 a13d 2659 84bd d636 d1be c87b 47be
000002f0: fe16 b5bd d1c1 05bd 4110 94be 58aa 80bd
00000300: bffd 13bb 6e11 00be e0a9 9c3d ac79 82bd
00000310: 04f4 14be 2b4d 6c3d eab8 28bd d08d 8dbe
00000320: e01d 083e a731 90bd f43d a9bd 3b68 a6bd
00000330: ab19 fabe 9d9c 11be 18c1 493e efcb e13c
00000340: 48c7 fb3d b883 d53d 634b 4d3e bfa4 9abc
00000350: 7ec2 f7bd 737f 843d 2330 11bd ef13 b7be
00000360: c983 fabc 310b 173e b043 aabc 2ed6 333e
00000370: 1d1a 003d 38e1 f43d ac53 213d 75f9 a83d
00000380: 00cc 633c fe24 753c c345 8d3d 10b0 4a3d
00000390: 9c9e 67be 7d11 2a3e b39d 00be d3c4 173e
000003a0: edc3 0dbe b255 96bc 98ac ed3b a25f d4be
000003b0: 7e14 893e 4b97 06be f4d9 dc3d 4ece 9f3d
000003c0: e01b 2f3e 58fc 0f3d b5fb 89be 1ae0 80bd
000003d0: 3c5c c23d 919d 883d 4d63 0e3e 2256 9e3d
000003e0: 6e38 9cbe b242 c33d bf9d b73e 6ada 69be
000003f0: 8f1c 6abc 66d7 a63d cc02 31be dd7b 56bd
0.23800933 0.2335424 0.33599153 0.28357264 -0.0028749113 0.0093864165 -0.21064791 0.047950823
0.04780161 -0.1976857 0.20834687 0.046489257 0.20159592 -0.15251885 0.12429568 -0.122667916
-0.12985921 0.02786573 0.13302493 0.041492753 0.11497044 -0.09952012 0.16186526 -0.11586341
-0.002022472 -0.04256887 0.10486171 -0.276312 -0.12987754 -0.015641177 -0.14998376 0.023545083
0.21725644 -0.3366687 0.08277099 0.042309348 0.10709235 -0.07077665 0.0040518823 0.09381969
-0.07219493 -0.24254201 -0.014418238 0.118685886 -0.25642648 0.056747954 0.0321338 -0.14429338
0.12564205 -0.2370467 -0.07783438 -0.11327871 0.06700091 0.12172716 -0.055908635 0.03482341
-0.0122570945 0.051026512 -0.30953693 -0.029966375 -0.20208319 0.14377882 -0.3542046 -0.22732547
-0.24589689 -0.12270711 0.016815562 0.22743681 -0.09624681 0.21054222 0.03239649 -0.23034492
0.32444194 0.02177535 -0.23243904 0.05144075 -0.41505557 -0.05360349 0.23657736 -0.34260297
-0.016740272 0.065383375 0.16468671 -0.38139802 -0.10505996 0.17048915 0.19692394 -0.17351633
-0.3775294 0.04431245 -0.030240271 0.03232609 0.22078006 0.23100741 -0.06315245 0.21713994
-0.037566677 -0.20956689 0.04720341 0.014101802 -0.28802213 0.026812145 0.17232376 0.15400034
0.07318882 0.043428328 0.2360305 -0.13874355 0.1120201 -0.16252156 0.06628615 -0.17080604
-0.059250835 0.14262076 -0.16567253 0.040230155 0.09002932 -0.057914007 0.30335748 0.12138955
-0.063846216 0.14029863 0.20409821 -0.077846155 0.20211685 0.16779253 -0.0195049 0.0113881575
0.15257274 -0.06501183 0.09817243 -0.010701076 0.015257673 0.037068956 -0.48140132 -0.012455134
0.15354282 0.009499302 0.14336994 0.123854056 -0.037616733 -0.50093704 0.1391368 0.11346683
-0.036212906 -0.022644568 0.07095396 0.15413561 -0.07174572 -0.25215647 0.08782469 0.04586259
0.040808443 -0.09270897 0.102138884 -0.13008185 0.14600573 -0.0052993195 -0.1637946 -0.09102156
-0.16383037 -0.5541136 0.20670784 -0.0023101505 0.16575263 -0.019746704 0.11114586 -0.08708932
-0.27291292 -0.8128645 0.0022603786 0.10410471 0.13261618 0.24304838 0.042211216 0.15554269
0.0094113825 0.034526348 -0.019879477 -0.23152584 -0.047955602 -0.2617279 -0.14100552 -0.011957492
0.07883219 -0.06462316 -0.4086215 -0.19480813 -0.08842276 -0.03265554 -0.2891865 -0.062824905
-0.0022581664 -0.12506649 0.076495886 -0.06370863 -0.1454621 0.05769078 -0.041191973 -0.27647257
0.13292646 -0.070407204 -0.0826377 -0.08125349 -0.48847708 -0.142199 0.19702566 0.027563063
0.12293869 0.10425514 0.20048289 -0.018877385 -0.12097643 0.064696215 -0.035446297 -0.35757396
-0.030580418 0.14750363 -0.020784229 0.17562172 0.031274904 0.119570196 0.039386436 0.08250705
0.013903618 0.014962433 0.068980716 0.049484313 -0.22619098 0.16608234 -0.12560157 0.14821176
-0.13844271 -0.01835141 0.007253241 -0.41479212 0.26773447 -0.13143651 0.10783759 0.07803021
0.17100477 0.035152763 -0.2694985 -0.06292744 0.094902486 0.066706784 0.13905068 0.07731272
-0.30511802 0.095342055 0.35862538 -0.22837225 -0.014289035 0.08146553 -0.17286223 -0.05236422

fc3.bias f4 [64]
00000000: 0e9d f2bd 32b3 8dbd de84 f5bc 3e14 99bb
00000010: 4f59 0bbd c010 413d 614d 0ebe 0fa1 f23c
00000020: 7d12 bcbd 771e b0bd 940f 223d 8ea5 8dbd
00000030: 2f0b 76bc fc06 25be 4454 c4bd 02d7 2bbe
00000040: 1af8 3dbd 11a7 febc 7fbd 043e 4499 6fbc
00000050: 53cd cbbd 934b 8e3c ddbc 44bd 9bdf a8bd
00000060: 5778 ee3c 88ed aa3d 196c 93bc 6edd f2bd
00000070: b521 2a3d 18d7 01be ac82 b63d 5809 a5bd
00000080: b3e1 12bc 0ea6 49be 33d7 9bbd 1746 9b3d
00000090: 08e6 7b3b 3766 923d 30ec ecbc 60aa ba3c
000000a0: 627e b8bd c132 16be 3de2 7c3d d1eb 073d
000000b0: 9297 c43c 927d 213c 7dc3 d9bd 4a36 0ebd
000000c0: 26ed 0e3b 514f e6bc d7c8 06bd d551 8d3d
000000d0: c408 2b3c 04ad 7bbc 7984 5fbd 1105 c3bd
000000e0: 8635 873d 3da4 19bd 24e8 4abd 781f 643c
000000f0: f53c ecbc f5a1 4f3c ac4f c1ba 9ef7 14be
-0.11846362 -0.069189444 -0.029970583 -0.0046716025 -0.03402072 0.047135115 -0.13896705 0.029617814
-0.09183214 -0.08599561 0.039565638 -0.06916343 -0.015017315 -0.16115946 -0.09586385 -0.16781238
-0.046379186 -0.031085523 0.12962912 -0.014623944 -0.09951272 0.017370021 -0.048031677 -0.08245774
0.029110117 0.08346087 -0.01799588 -0.118586406 0.04153605 -0.12679708 0.089116424 -0.08058423
-0.008964944 -0.19692251 -0.07609405 0.07581728 0.003843667 0.07148402 -0.028921217 0.02278632
-0.090084806 -0.14667799 0.061739195 0.033183876 0.023998056 0.009856598 -0.106329896 -0.034719743
0.0021808832 -0.028113993 -0.03290638 0.06900374 0.010439102 -0.015361074 -0.054569695 -0.09522451
0.06602006 -0.037510145 -0.049537793 0.013923518 -0.02883766 0.012672891 -0.0014748476 -0.14547583

fc4.weight f4 [2, 64]
00000000: 358a 04bf 3af8 20be 09c9 133f 9c7e b93e
00000010: aef2 5a3d 87ab c3be d71a e93e 3aaf 263f
00000020: c0e8 dabe b59b 5fbe cc06 65bf ee11 5abe
00000030: ac30 d63e dd91 71be e84c 143f a1cb a93e
00000040: aa2b 13bf 899b ba3d 1bac 4b3e 2c36 4dbe
00000050: 598b f23d 0f5c 813d 761b e23b 05e4 d93e
00000060: d3b3 183d 1b6a 9ebc 369d 183f da57 0dbe
00000070: ec3b 113d 3cb1 103f c726 8abc d086 783e
00000080: 7ac1 9b3e ffdd 06bf 2030 2cbf eaeb 5d3d
00000090: 8f5a 573f 17ad 383e ebe8 4dbd f4c7 053e
000000a0: bf3c 12bf adef 3fbe 267a 0bbe 6250 52be
000000b0: 829c a43e 597b 873d 3c34 f1be 499c a9bd
000000c0: 250c 28be 2c90 b1bf 1e7f 6ebf 0e7b 643e
000000d0: 082e 873f b8bf bbbe d7ce 473e da70 e03e
000000e0: aa56 4e3e 7a97 38bf f00e 493d bd48 303c
000000f0: f64d dabe 7f68 d83d d7c7 86bf 7a5b 32bf
00000100: 1b6e 263f 4700 293f 1adf efbe 034d 823e
00000110: 324f 043f 42cd 20bf 698d d1be efac 4fbf
00000120: 1b02 c43e f104 563e feda e9be d796 783d
00000130: 2f5e 5abe c1a3 433d 3546 31bf bc2d 3ebe
00000140: c7e9 19bf 5fc7 033f 4aef 62be 17e2 c0be
00000150: fbb4 043f 8118 0b3f 55d0 58bf 6def 5abe
00000160: da8c 0f3f eefd 4fbf 8174 463e 2848 36bd
00000170: 58f4 313f 6cdf b1bd 1d42 6b3f 3d08 10be
00000180: 685b d5be 125f ce3d 51a3 98bd 0316 5e3d
00000190: c5ce 2a3f c4c5 79bf 7e79 b23e 2f41 0c3e
000001a0: 4cce 1dbe 988d c6be 9aaa bb3e c9d6 9e3e
000001b0: 1a84 003f 1dce 84bf 6221 ebbe 299d ae3e
000001c0: c448 f3be 3b9e dc3e 0b13 9dbc ddd0 30be
000001d0: 4339 9cbe 5a3d 6bbe 4721 803e 554a 95bd
000001e0: fc72 5f3e 9339 01bf 182b bf3e fe3a 063f
000001f0: bc39 7fbe ec15 ddbd 152b bb3c 3931 cebd
-0.5177339 -0.15719691 0.5772863 0.36229408 0.053454094 -0.38216802 0.4552829 0.65111125
-0.427557 -0.21836741 -0.89463496 -0.21295902 0.4183401 -0.23590799 0.5792985 0.3316317
-0.574885 0.09111697 0.19889872 -0.20040196 0.11842985 0.06316387 0.0069002463 0.42556778
0.03728087 -0.019337704 0.59614885 -0.13803044 0.035457537 0.5652044 -0.016864194 0.24270177
0.30421048 -0.5268249 -0.6726093 0.054180063 0.84122556 0.18034779 -0.050270956 0.13064557
-0.5712394 -0.18743773 -0.13620815 -0.20538476 0.32150656 0.066153236 -0.47110164 -0.08281762
-0.16410883 -1.3872123 -0.93162715 0.22312567 1.0560923 -0.36669707 0.19512497 0.438361
0.20150247 -0.72106135 0.04908651 0.01075953 -0.42637604 0.10566806 -1.0529736 -0.6967083
0.6501176 0.6601605 -0.468499 0.2544938 0.5168334 -0.628132 -0.409282 -0.8112325
0.38282856 0.20900322 -0.4567489 0.060690727 -0.2132499 0.04776359 -0.6924775 -0.18572134
-0.6012234 0.5147609 -0.22161594 -0.37672493 0.51838654 0.54334265 -0.8469289 -0.21380396
0.560743 -0.8124684 0.1938038 -0.044502407 0.69513464 -0.086851925 0.91897756 -0.14065643
-0.416713 0.10076727 -0.07453025 0.05422021 0.66721755 -0.9756739 0.34858316 0.1369674
-0.15410727 -0.38779902 0.36653596 0.31023243 0.5020157 -1.0375401 -0.45923907 0.3410428
-0.47516453 0.4308947 -0.01917412 -0.17267175 -0.30512437 -0.22972623 0.2502539 -0.07289568
0.21821207 -0.50478476 0.37337565 0.52433765 -0.24924368 -0.10795197 0.022847692 -0.10067982

fc4.bias f4 [2]
00000000: b8f7 b93b b9b3 13be
0.0056752823 -0.14424028
