checkpoints/Computer2-1-checkpoint-2.4090-actor.pth (torch, 193711 bytes, 8 tensors)

fc1.weight f4 [256, 24]
000000 aa fa 35 3e 33 3a 78 bd 43 c4 8b bd fa 75 b2 3d
       0.17771402 -0.060602378 -0.06824543 0.087139085
000010 47 1d 60 be dd ae 89 be 4c 11 9e 3d 5d 74 15 bc
       -0.21886168 -0.26891223 0.07718143 -0.009121981
000020 d7 bf b0 3e 29 97 3b be f9 ca 2b be e2 9e 96 3e
       0.34521362 -0.18319382 -0.16776647 0.29418093
000030 64 0e cc ba 55 63 09 be d9 61 a2 3c b9 f0 5a 3e
       -0.0015568254 -0.13416798 0.019822048 0.21380891
000040 a0 cc 7f 3d f2 fd 9e 3e 12 7a 69 3c a4 44 8e 3e
       0.062451005 0.3105312 0.014250295 0.27786744
000050 64 42 b2 3e 10 0b 9b be 55 c2 2d 3d 47 2b 76 3e
       0.34816277 -0.30281878 0.042421658 0.24039946
000060 e0 e6 dc 3e 60 98 fe be a5 df 22 3e 2e b4 86 3d
       0.43144894 -0.49725628 0.15905626 0.06577335
000070 66 74 92 3d da a4 fa 3d 3c 3c 19 bd 9d 70 31 be
       0.071511075 0.12238474 -0.03741096 -0.17328115
000080 61 c8 c7 3d 2b 99 32 bf bc e0 36 3e 07 55 74 3e
       0.09755016 -0.69764966 0.17859167 0.2386056
000090 7f 20 07 be 32 e8 dc bc 18 b8 9f bc 97 aa 0b be
       -0.1319599 -0.026966188 -0.019496962 -0.13639294
0000a0 32 be e1 bc 0e fe 12 bf b4 84 41 bd e3 52 1f 3e
       -0.027556513 -0.57418907 -0.047245696 0.15558963
0000b0 c7 62 e6 bc 19 0f 2c bf c2 18 32 bd ec 06 9b 3e
       -0.028123273 -0.6721054 -0.043480642 0.30278718
0000c0 5f 2a e8 3c e9 5d 4e 3d e4 a9 a2 bd 94 2c 39 3e
       0.028340517 0.05038253 -0.0794256 0.18083411
0000d0 4e 57 85 be 34 0b bd 3e f8 1b 0e 3e 1f 9d d2 bd
       -0.2604317 0.3692261 0.13877857 -0.10283875
0000e0 4b b8 45 be 45 4b c8 3d 41 d8 d2 3d 3e fb 61 be
       -0.19308583 0.097799815 0.102951534 -0.22068498
0000f0 cd 1e f0 bd a2 f7 46 bd 49 bd 92 bb 51 fd b7 3c
       -0.11724625 -0.048576005 -0.004478131 0.022459658
000100 cc 96 40 be 8a 5c 14 3d c3 07 6f 3d a1 ad a0 bd
       -0.18807524 0.036221065 0.05835701 -0.07845617
000110 d9 8c ed 3e ed 86 2f bf bf e0 df bc 74 6f 0d be
       0.4639652 -0.68565255 -0.027328847 -0.13812047
000120 a5 e5 47 3e 95 00 c3 3e 0c 31 16 be 7a 97 d4 be
       0.19521196 0.38086382 -0.14667147 -0.41521817
000130 1b 4b b3 bd 95 d9 ac be ba 68 dd bc 66 d7 a0 be
       -0.087545596 -0.33759752 -0.027027477 -0.31414336
000140 f7 40 97 3e 71 8f a1 bc 10 e2 cd 3d ff ec 7e 3d
       0.29541752 -0.019721719 0.100528836 0.062237736
000150 c6 77 bb be 7b b7 aa 3d e6 7a 6a be c4 6e 07 3e
       -0.36614817 0.08335777 -0.22898445 0.13225847
000160 97 da af 3e 80 a1 55 3d b8 ae fe 39 b9 48 a5 3d
       0.34346458 0.05215597 0.0004857683 0.08070511
000170 fa 80 90 be d5 a5 12 3f f3 28 a8 bc ca 7d 2b 3e
       -0.282234 0.5728429 -0.020527339 0.16747203
000180 c7 5a 66 3d 99 a7 9e bd 3f a6 8b bd 37 18 0e 3e
       0.056238916 -0.077468105 -0.06818818 0.13876425
000190 8d 37 bd 3e ba 84 b5 3d a9 ee 7b 3d 43 05 2b 3e
       0.36956444 0.08863206 0.0615069 0.16701226
0001a0 d4 a3 f3 3d 2b 89 39 be 3b 39 18 3e ba 3b 00 be
       0.11896482 -0.18118732 0.14865582 -0.12522784
0001b0 2d 40 4d be 61 7b a9 3e 81 89 50 be ea 97 fd bc
       -0.20044012 0.33101943 -0.20364954 -0.030956227
0001c0 5d 7f 22 3e 77 f4 9f be 43 d9 75 bd aa ea d8 3d
       0.15868898 -0.312412 -0.06002165 0.105916336
0001d0 1f d3 f2 be 15 77 1c 3f 21 4e d0 bd 62 73 2e 3d
       -0.47426698 0.61119205 -0.10171152 0.042590506
0001e0 dc c1 87 3e 98 80 bd bd 11 7f 3e 3e 38 2a 7f bd
       0.2651509 -0.09253043 0.1860316 -0.062296122
0001f0 b8 cb 82 be 35 f7 57 3e cc ba fe bd 14 4f 06 3e
       -0.2554605 0.21090396 -0.124379724 0.13116103
000200 a9 51 3e 3d 5a 13 a7 be 36 d3 1b bd 50 9d 14 be
       0.046464596 -0.32631952 -0.038043223 -0.14513135
000210 34 eb 87 3e 60 1c 8f 3e 90 89 5c 3d c7 a0 69 be
       0.26546633 0.27951336 0.053842127 -0.22815238
000220 10 d1 06 be 08 9b af be d6 3f 1e be 59 51 69 be
       -0.13165689 -0.34297967 -0.15454039 -0.22784938
000230 a6 b1 fb 3e 4c f3 fe 3e 17 84 21 3e 25 de 25 be
       0.49158973 0.49794996 0.15773045 -0.16198023
000240 2b f0 04 3e f3 f7 6b bc 40 17 82 3d 20 47 d4 bc
       0.12982242 -0.014402377 0.06352091 -0.025912821
000250 c1 0e 6d 3d 37 ea 94 3e 12 28 f6 bd c2 d0 49 3d
       0.0578754 0.29084942 -0.120193616 0.049271353
000260 2b da 05 3f 4b 03 f9 3d eb 96 08 be 01 09 19 3e
       0.5228602 0.12158831 -0.1333882 0.14944841
000270 81 53 f8 3e e5 09 68 3e 9c 7e db 3d d4 37 2e 3e
       0.48501208 0.22660024 0.10717508 0.17013484
000280 5f b0 92 3e 91 a0 9d 3d 4d b9 36 3d a2 b7 25 3d
       0.28650185 0.07696641 0.04461031 0.04045833
000290 be 93 3b 3f 88 c8 3d 3f 56 23 a3 bd 2a 5e 52 3e
       0.7327231 0.7413411 -0.07965724 0.20543733
0002a0 1a f0 3b 3e f9 d2 4e 3e bc b1 15 bd d3 47 ed bd
       0.1835331 0.20197667 -0.036546454 -0.11585965
0002b0 83 f5 f7 3c db 92 1a 3d 40 fc a7 bb 9b 98 2d 3e
       0.030268436 0.03773771 -0.005126506 0.16952746
0002c0 69 33 f7 3d 9f 05 88 3d 70 7f cd bd 22 2e e0 bc
       0.120703526 0.06641697 -0.100340724 -0.027365748
0002d0 b3 18 a3 be 23 2a b7 3e 68 7c b1 3c f9 95 67 3d
       -0.31854782 0.35774335 0.021665767 0.05653951
0002e0 85 c0 6f 3e 7d ef b3 bb 0d ff cd 3d 49 04 fe 3d
       0.23413284 -0.0054911957 0.10058413 0.12403161
0002f0 b3 3a 47 be 48 6e 2d 3f 4a f5 ed bd f2 ee bf 3d
       -0.19455986 0.677464 -0.11619051 0.09371747
000300 99 f8 65 be 37 4d 7b be e5 f9 20 3d 4c f3 23 bd
       -0.22458114 -0.24541174 0.039300818 -0.040026948
000310 c7 b4 95 be de 44 ac bd ba 8f 96 bd 50 22 1f bd
       -0.29239485 -0.08411573 -0.073516324 -0.038851082
000320 b4 db 33 3e f9 e3 c0 ba ae af 7d bd 48 9b 6c 3e
       0.17564279 -0.0014716379 -0.06193512 0.2310611
000330 54 0a 1c bd a8 ce b0 3e b8 1a 85 3d fc 8f 5a 3e
       -0.038095787 0.34532666 0.06499237 0.21343988
000340 52 ab 2b bd 1c 02 16 be ba 3c e8 3c c0 1d 64 be
       -0.04191143 -0.14649242 0.02834927 -0.22276974
000350 99 d1 a6 3e be 64 64 3f 10 08 68 3b 2d d8 7e be
       0.32581785 0.8921622 0.0035405196 -0.24887152
000360 91 c6 17 3c 73 a9 f3 3d 85 78 b7 bd 23 bd b6 3e
       0.0092636505 0.11897554 -0.08958534 0.35691175
000370 c9 89 26 be 4b cf a0 bc a4 eb 8b 3d 33 50 c5 3e
       -0.16263498 -0.019630095 0.06832054 0.3853775
000380 24 e4 7c 3e d8 ab f4 3e cf bd e4 3d 32 d2 c2 3c
       0.24696404 0.47787356 0.111690156 0.02378187
000390 34 eb a7 bd 83 0c bc 3e 7b 00 e7 bd 50 7d 81 3e
       -0.08199158 0.36728296 -0.112793885 0.25290918
0003a0 d1 8b a6 3d bf 77 11 3f e5 53 80 3c 1f f0 2f 3e
       0.081321366 0.56823343 0.015665004 0.17181443
0003b0 38 8b cd 3e 5c 48 26 3f 95 70 8c bd f0 df 59 3e
       0.40145278 0.6495416 -0.06857411 0.21276832
0003c0 85 c8 ee 3d 6c 9c 1c bf c2 ca 41 bd 79 79 00 be
       0.1165934 -0.6117618 -0.047312506 -0.12546338
0003d0 ff 81 54 3e cb 33 8f 3e 01 f9 50 3d 50 3a 35 bc
       0.20752715 0.27969202 0.05101872 -0.011061266
0003e0 b4 da b0 3e 1f 77 ce bd ee 6a c0 3d da 46 9c 3e
       0.34541857 -0.10081314 0.09395395 0.30522805
0003f0 13 c8 99 be 1d ff e4 3e 70 34 0b be 47 7c 25 3e
       -0.30035457 0.44725886 -0.13594222 0.1616069

fc1.bias f4 [256]
000000 25 10 02 be d8 dc 49 bd f5 ee c3 bd 3a e6 ad be
       -0.12701471 -0.04928288 -0.09567062 -0.3396471
000010 2c 04 63 bd 91 59 fc 3d 9f 5b 47 bf 68 f8 2b be
       -0.0554239 0.12321771 -0.7787418 -0.16793978
000020 8c 16 05 be b4 45 b5 bd 97 f0 61 3e 7c 31 5b be
       -0.12996882 -0.088511854 0.22064434 -0.21405596
000030 9b 91 da be fb 5d 83 3c 19 f6 47 3d 5b 9e 0c be
       -0.42689213 0.016036024 0.04881868 -0.13732283
000040 3b 12 b1 be 06 ab d5 bd 64 8c fd 3d 25 8c 05 be
       -0.3458422 -0.10433011 0.12380293 -0.13041742
000050 cd 6c 7e be 33 c4 80 bd c7 ba 91 3e a1 28 d3 3d
       -0.24846192 -0.06287422 0.28462812 0.10310484
000060 93 bf a3 bc 73 49 10 3e de 42 8c be 32 de b9 3d
       -0.01998881 0.14090519 -0.27394766 0.090755835
000070 76 aa 89 3d fc e2 a7 3e 8c 00 35 be a3 c4 52 be
       0.06721966 0.32790363 -0.1767599 -0.20582823
000080 2c 50 e5 3d 23 c0 fc be 2e 68 51 be e3 d1 91 bd
       0.11196932 -0.4936534 -0.20449898 -0.07120111
000090 f3 24 df bd 42 37 11 be 22 28 49 be 97 b7 26 be
       -0.108957194 -0.14181235 -0.19644216 -0.16280971
0000a0 6e 66 a4 be 79 9a b0 be 4b c2 57 bd b2 fe db bd
       -0.32109398 -0.34492853 -0.052675527 -0.10741939
0000b0 2e e0 aa be b1 43 6b be ae bf cb 3d c4 0b c4 bd
       -0.3337416 -0.22975041 0.099486694 -0.095725566
0000c0 bb 79 34 be 95 da 8d 3e 9e df 14 bf fd 4f 9d bd
       -0.17624561 0.27705827 -0.5815371 -0.07681272
0000d0 39 13 3a 3d 62 cb fb 3d e8 55 22 3e c5 d0 e2 3d
       0.04542849 0.122946516 0.15853083 0.11074976
0000e0 69 95 dc 3c ce a7 90 be 14 33 0d bf cc f3 de be
       0.026926713 -0.28253025 -0.55156064 -0.43545377
0000f0 a4 60 9f be dd e5 38 be 4a 6b 8d 3c b6 14 88 bd
       -0.31128418 -0.18056436 0.017263073 -0.06644575
000100 1b a6 d0 be 3a 7a 68 3e ce 89 8c bd a4 9c 98 be
       -0.40751728 0.22702876 -0.06862222 -0.29807007
000110 eb 1c d6 3d 88 b2 c2 be a6 48 94 3e e9 26 3a be
       0.104547344 -0.38026834 0.28961676 -0.18178906
000120 00 5d e7 bd 4e 08 34 3e 89 28 9e bd 48 b2 6f be
       -0.11297035 0.17581293 -0.07722575 -0.23407853
000130 a1 2f 5c be a8 4b 59 bc 52 8e e0 bd 3c 34 c9 3e
       -0.21502544 -0.013262667 -0.109646454 0.39297664
000140 05 55 da 3c 7a 46 1d bd 6e 3e a1 bd a1 49 0b be
       0.026651869 -0.03839729 -0.07873236 -0.13602306
000150 1c ed 0a be 79 06 25 bd 02 a5 29 be b9 80 b9 be
       -0.13567013 -0.040289376 -0.16566852 -0.3623102
000160 93 0e 2b be 37 10 05 be ca d3 1c 3d 35 98 39 bd
       -0.16704778 -0.12994467 0.038287915 -0.04531117
000170 ed 80 cb bd d7 30 ff be 50 0d 25 be d1 e1 21 3d
       -0.099367 -0.4984195 -0.1611836 0.039521996
000180 18 76 a5 3e 68 97 25 bd 9b 40 a2 be 79 6b 6c 3d
       0.3231666 -0.040427595 -0.31689915 0.05771968
000190 04 25 3b bf 68 d7 cc bd 1a c0 d1 3d 53 f4 4a 3d
       -0.73103356 -0.10002023 0.102417186 0.049549412
0001a0 ac f3 3f 3e 69 f9 3c be e8 39 23 bf 25 fa 77 3d
       0.18745297 -0.18454517 -0.6376023 0.06054129
0001b0 b2 42 18 3e aa 56 b6 3d 57 52 d0 be ce e3 e9 3d
       0.14869192 0.089032486 -0.4068782 0.114204034
0001c0 07 3c 21 be 64 dc 06 bf 96 b6 13 3d ce 8b 91 3c
       -0.15745555 -0.5268004 0.0360628 0.01776686
0001d0 ee 2d ac be c8 0f c3 bd fa 99 a6 3e 75 ad d8 be
       -0.33628792 -0.095244944 0.3253935 -0.42319837
0001e0 e6 bb 11 be 55 8f a4 bd 16 63 14 3d 9a c0 1e 3e
       -0.14231834 -0.08035151 0.03622731 0.15503159
0001f0 0c e1 ee be 8f 38 c1 bd 38 b6 df 3d 76 1e f3 3d
       -0.46656072 -0.09434616 0.10923427 0.11871044
000200 b2 2c bd bd c0 b7 e1 3c c4 b0 f2 3c f3 c4 26 3d
       -0.092370406 0.02755344 0.029625304 0.04071517
000210 44 48 cd be d9 25 ab be 1a c4 81 be bf 73 c2 3e
       -0.40094197 -0.33427313 -0.25344926 0.37978932
000220 7a e1 38 3e d6 2d 1b bf d6 57 2f 3e 6c 79 b6 3e
       0.18054762 -0.60616815 0.1712335 0.35639513
000230 07 17 c0 3b 43 1a f4 be 24 25 20 bf 1e 3b ac be
       0.00586212 -0.47676286 -0.6255667 -0.33638853
000240 69 8a 3b 3e a1 d5 72 3d 80 86 93 be 70 b1 32 3e
       0.18314518 0.059285764 -0.28813553 0.174505
000250 8e 91 7f bd 49 fa 2a 3e e0 a2 92 be 7f 1b 92 3d
       -0.06239467 0.16697039 -0.2863989 0.07134151
000260 9b b3 c7 bd 45 15 20 bd 76 3b 93 be 5f 98 14 bf
       -0.09751054 -0.039082784 -0.28756303 -0.58045
000270 01 9a 55 3d d1 93 ae bd 86 97 eb be a1 25 c2 be
       0.052148823 -0.085242875 -0.4601404 -0.37919334
000280 27 e5 b1 be cd 1c 4d be f1 1a 1f 3e 22 4e c7 be
       -0.34745142 -0.20030518 0.15537621 -0.38926798
000290 cf 46 19 3e 76 9d f7 be 78 da 33 be 17 6b 82 be
       0.14968418 -0.4836232 -0.17563808 -0.25472328
0002a0 4b 2a f2 bd 6d 01 9f 3e be d1 1e bd c8 1b 9e bd
       -0.11824473 0.31055775 -0.038774244 -0.077201426
0002b0 f1 56 d5 bd fc e4 44 be 87 c5 1a be fe 1d 5f 3e
       -0.104169734 -0.19227976 -0.15114413 0.21788785
0002c0 30 29 86 3e d3 a9 e1 3e 49 fd ff bc 91 f4 8f be
       0.262033 0.44074878 -0.031248705 -0.28116277
0002d0 f7 78 65 be 3e 6d f9 3c da 4f 87 bb 5c bd b9 be
       -0.22409426 0.030447599 -0.004129392 -0.36277282
0002e0 30 27 4b be eb 57 44 3e c8 53 28 3e 6e 39 ba bd
       -0.19839168 0.19174163 0.1643821 -0.09092985
0002f0 ee ad 56 be 56 5f c7 bd 16 54 02 3e 78 81 b1 3e
       -0.20964786 -0.09734981 0.12727389 0.3466909
000300 d3 44 80 3d c4 b0 2c be 10 bb 2d be 4f 63 cd be
       0.06263127 -0.16864306 -0.1696589 -0.4011483
000310 a5 6a 2c 3e ab 6f 96 be 82 72 c4 b9 9b 90 98 bc
       0.16837557 -0.2938207 -0.00037469348 -0.01862364
000320 67 a8 23 3e 23 da 14 be ba 16 c0 be 4d 60 40 bd
       0.15982209 -0.14536338 -0.3751734 -0.04696684
000330 5e e7 04 3f ef aa 98 bd f7 a9 8a 3c 18 dc e8 bc
       0.5191554 -0.07454478 0.016926749 -0.028425261
000340 68 06 26 3e 1b 18 84 be 11 4b a4 be be 3c a5 3c
       0.16213381 -0.2579964 -0.3208852 0.020170566
000350 73 57 df bd bb 88 ea be 00 3f 97 be 2e 23 99 be
       -0.109053515 -0.45807442 -0.29540253 -0.29909652
000360 0e 88 29 be 8f 46 88 be 2c 55 1a be 95 b5 f8 bd
       -0.16555807 -0.26616332 -0.15071553 -0.12144009
000370 82 55 0b 3e d6 64 a8 3e 9d fc 9a 3c 65 13 9f be
       0.13606837 0.32889432 0.018919284 -0.31069484
000380 a7 b8 4c be 71 09 fa be 03 8b b6 be e2 b8 89 3e
       -0.19992314 -0.48835328 -0.35652933 0.26898867
000390 88 1d eb 3e 40 77 45 bd fb 88 6c bd ad 03 db 3e
       0.45920968 -0.04820943 -0.057747822 0.42776242
0003a0 a3 f4 c4 be 97 65 1d 3d 2c d7 90 3e 1d 2c fd 3d
       -0.38467893 0.03842696 0.28289163 0.123619296
0003b0 70 ca dc 3e 36 6c 9c bd 88 ab bb 3e 9d 95 a1 be
       0.43123198 -0.07637827 0.36654305 -0.31559458
0003c0 75 d7 4e be 6d 81 25 3f eb ee dc bc 96 81 8d 3e
       -0.20199378 0.64650613 -0.026969394 0.2763793
0003d0 11 b1 24 bd df 26 93 be 88 85 88 be 68 9f 47 3e
       -0.040207926 -0.28740594 -0.26664376 0.19494402
0003e0 22 4b c5 be 4b d9 13 be ab 70 09 3e ac 1c 45 be
       -0.38533884 -0.1443836 0.13421886 -0.19249219
0003f0 4f 79 a3 be 23 56 27 3d b2 f8 8b 3e fd 2f 23 be
       -0.3192849 0.04085363 0.27338177 -0.15936275

fc2.weight f4 [128, 256]
000000 84 c0 7d 3d 77 ce 3f bd e9 99 b3 3d 0d 7d 89 be
       0.061951175 -0.04682776 0.087695904 -0.2685322
000010 13 36 4a bd 2a fc 9a 3e 71 a6 13 3e 4a 28 d0 bd
       -0.049367975 0.3027051 0.14418961 -0.101639345
000020 a5 bc bc 3d 7b cb f2 bd d6 d9 cb bd 99 ad b5 3e
       0.092156686 -0.11855217 -0.09953658 0.35484007
000030 af 4f 2c 3e a6 9c bd bd ba 69 6b 3e fc 30 fd bd
       0.16827272 -0.09258394 0.2298955 -0.12362859
000040 44 a7 cd 3e b7 a2 56 3d 0b 78 1c 3e a8 4f b1 bd
       0.40166676 0.05240127 0.15280168 -0.08657771
000050 c8 15 45 3e 59 ef bd 3c 9e 64 ad 3d 43 0c bb be
       0.1924659 0.023185419 0.08466457 -0.36532792
000060 90 31 a3 3d 9d 86 1d 3e a1 d0 94 3d 79 3e be be
       0.07968438 0.15383382 0.07266355 -0.37157038
000070 6c 20 ac 3c 51 38 e4 3d e1 04 a6 be d4 3a a1 be
       0.021011554 0.11143554 -0.32425597 -0.31490195
000080 c1 19 a4 bd b4 39 78 be 67 76 86 3e f4 db 8b bd
       -0.08012725 -0.24240762 0.2626221 -0.06829062
000090 84 48 80 bc e5 2d a2 3d 88 05 f8 bd a7 0d 90 3e
       -0.015659578 0.0791891 -0.1211043 0.28135416
0000a0 94 0f 9b 3e 8b b5 9b be 67 c3 d9 bc 84 1f 04 bd
       0.30285323 -0.30411944 -0.026582433 -0.03225662
0000b0 c7 5b 49 3e 87 0f 30 3e a0 36 d2 3c 13 47 91 be
       0.19663917 0.17193423 0.025660813 -0.28374538
0000c0 a6 9a 74 be e2 b4 d0 3d 70 62 3b bd 12 c2 4f 3d
       -0.23887119 0.10190751 -0.045748174 0.05072219
0000d0 06 eb 2d 3d cd 2c f3 be d2 f6 10 bd 64 e6 63 be
       0.042460464 -0.47495118 -0.035391636 -0.22255856
0000e0 d0 2d 98 be 0b 32 9c 3b 56 e3 80 be d8 13 51 3d
       -0.29722452 0.004766708 -0.25173444 0.051044315
0000f0 9c 77 08 3e c9 5e 31 bf 26 34 8c 3d c3 5f 36 3e
       0.13326877 -0.69285256 0.06845884 0.17809968
000100 c0 03 5d 3e 16 c9 41 be 07 ba f7 bd 27 32 0c bd
       0.21583462 -0.18924364 -0.12096029 -0.034227517
000110 d8 38 11 be 6f c4 06 be 1f d2 b9 bc 02 0c a2 3e
       -0.1418184 -0.13160871 -0.022683201 0.31649786
000120 88 5a 8b be 67 ed 36 be 34 16 07 bd be 54 da bd
       -0.27217507 -0.17864 -0.03298016 -0.106606945
000130 42 67 1a bd c8 19 47 3d 26 1b 77 3e 07 1a 8f 3d
       -0.03769613 0.04860857 0.2413145 0.06987386
000140 91 55 b8 3e b1 79 9c be a5 09 75 3d 54 16 52 bd
       0.36002782 -0.30561593 0.05982365 -0.051290825
000150 7b 7f ca 3d ff c4 19 be 20 7a f6 bd 80 0e e1 bd
       0.09887596 -0.15016554 -0.12035012 -0.10989094
000160 b3 ff a4 3e 17 bd c5 be 2e 61 92 3e d9 68 c8 bd
       0.32226333 -0.38620827 0.28589767 -0.09785623
000170 6f 16 05 3e ac ee c1 bb 75 e4 75 3d eb 90 0d 3d
       0.12996839 -0.0059183445 0.060032327 0.034562033
000180 37 b7 5c bd d9 3a 83 3e 61 c7 92 3e 16 fb f3 3c
       -0.053885665 0.25630835 0.2866774 0.029782813
000190 70 90 61 3e 52 cc a4 3d 3d e2 ba bd 3e 20 4d bc
       0.22027755 0.080467835 -0.09125183 -0.012519894
0001a0 94 3e 12 be 5a c2 21 bd de d3 94 3c 98 83 3c be
       -0.14281684 -0.03949199 0.018167432 -0.18409574
0001b0 d5 78 d6 bd d4 bd c4 be a5 0b 38 3e f6 8f cc 3c
       -0.10472266 -0.38426077 0.17973192 0.02497099
0001c0 29 82 94 be 09 a2 60 3e 9f 36 28 bd 81 3e b9 bd
       -0.29005554 0.21936812 -0.041067716 -0.09045125
0001d0 cb 09 2f bd e8 37 d1 be 98 09 e1 bd fc 1e 2e 3d
       -0.04273395 -0.40862966 -0.10988158 0.042510018
0001e0 ea 8b c5 3d fa 6e 78 be 5c c8 04 be ce 24 27 3d
       0.09645827 -0.24261084 -0.12967056 0.040806584
0001f0 12 b4 4d 3e b2 bc 88 bd 6a d1 b1 3d 72 11 f3 3e
       0.20088223 -0.06676616 0.08682521 0.47474247
000200 ca 9b 1c 3e 69 a3 b9 3e 7a 3d 1f be 83 7d 96 3d
       0.15293804 0.36257485 -0.15550795 0.07348158
000210 c4 a8 5e be 92 4d 43 be 14 2a a9 3d 49 f8 8e 3d
       -0.21744066 -0.1907256 0.08259979 0.069809504
000220 b8 84 ca be be ea fa bd 05 90 13 3e 15 8d ae 3c
       -0.3955438 -0.12251805 0.14410408 0.021307508
000230 9b 8c e0 3c 95 7a fd bc ca 88 b0 bd 28 de 95 bd
       0.027410796 -0.03094224 -0.086198404 -0.073177636
000240 37 8e e2 3c 20 3d 26 3e 1d bf 5d 3d a9 c4 5a bc
       0.027655704 0.16234255 0.054137338 -0.0133525515
000250 51 4e 2c bd 59 13 fb 3d a7 f8 71 be f8 22 20 3e
       -0.042066876 0.1225955 -0.2363001 0.1563834
000260 63 1a a7 be f8 67 56 3d 79 fa 78 be 36 eb 92 3e
       -0.3263732 0.052345246 -0.24314298 0.28695077
000270 97 aa 56 be 17 d5 ce 3e 93 c0 c7 3d bb c7 16 3e
       -0.20963512 0.4039695 0.097535275 0.14724629
000280 c0 ce 6f 3d 29 a4 1b 3e a3 0c a0 bd 05 fd 8a 3d
       0.05854678 0.15199341 -0.0781491 0.06786541
000290 6e 7a 70 be 91 dd 19 be 14 09 06 3e 94 d8 c4 bc
       -0.23484203 -0.15025927 0.130894 -0.024029054
0002a0 49 8f 31 3e 8b 96 e1 be 3a a5 35 3e 8d 6c 33 3a
       0.17339815 -0.44060168 0.1773881 0.00068444834
0002b0 70 38 19 3e e2 3c 35 bf bd 81 63 bd 9b 29 09 3e
       0.14962935 -0.70796025 -0.05554365 0.13394777
0002c0 96 da ac be 59 56 52 3e 33 41 e6 3c fa 21 96 3e
       -0.33760518 0.20540752 0.028107261 0.29322797
0002d0 ec 2e 09 be 97 63 7c be bd e2 ca 3c d0 b5 94 be
       -0.13396806 -0.24647366 0.02476632 -0.29044962
0002e0 3d 0a 12 3c e3 43 5a be cf 86 af be 52 03 b2 bc
       0.008913574 -0.21314959 -0.34282538 -0.021730099
0002f0 c8 95 a4 be b5 0e 23 be 09 ca b4 be 3e e9 05 bc
       -0.32145524 -0.15923579 -0.3531039 -0.008173285
000300 d0 27 a7 3d b2 a5 81 be 73 e4 1c 3d d7 c3 56 bd
       0.081618905 -0.25321728 0.038303804 -0.05243286
000310 90 6f 97 3b 8a 7b 2e bd b7 f3 5e bd b7 b3 b0 39
       0.0046214536 -0.042598285 -0.054431643 0.00033703234
000320 3e cc 84 3b 21 1d 53 3e 99 ae 09 be a5 b0 4d bd
       0.004052668 0.2061658 -0.1344551 -0.05021729
000330 d5 79 48 bd 9d e1 7c be e3 08 06 3e 19 e8 af be
       -0.048944313 -0.2469544 0.13089328 -0.34356764
000340 10 94 c5 bd 2a 05 13 bd 4e a4 1b 3e 11 ee 4d bd
       -0.09647381 -0.035893597 0.15199396 -0.050275866
000350 c6 f1 8e be 46 df 79 bd 03 36 b3 be 51 e1 12 3e
       -0.27918833 -0.061003946 -0.35002145 0.14343764
000360 4b f1 fb 3d e5 a6 93 be 3e 5d 09 3e 78 fc 55 be
       0.12301882 -0.28838268 0.13414475 -0.2089709
000370 ff b5 42 be 73 1a 63 bc e4 87 85 bd 85 82 6a ba
       -0.19014739 -0.013861286 -0.0652006 -0.00089458405
000380 ac 5a df 3d 31 0f b9 3d bc 48 15 3e 4a 0f 39 3f
       0.10905966 0.09036101 0.14578527 0.72288954
000390 3e fb 19 be 67 04 a4 be 86 d1 00 be 5f cc 22 3c
       -0.15037248 -0.3203461 -0.12579927 0.009936421
0003a0 79 92 c0 3d 50 1b 94 bd d0 72 14 be ad 52 9f bd
       0.094029374 -0.07231772 -0.14496922 -0.07779441
0003b0 a8 9c 67 3d 12 96 6a 3e 38 6d d7 3d e7 79 1c 3e
       0.056545883 0.2290881 0.10518879 0.15280877
0003c0 15 29 d2 ba d2 6d 0c bd d7 6f 85 be 86 d0 9e bd
       -0.0016033972 -0.03428442 -0.2606189 -0.077546164
0003d0 ea 65 c9 3b cf a3 02 be 55 af 00 bf e9 c6 8a bd
       0.0061461823 -0.127578 -0.50267535 -0.0677622
0003e0 37 ef 24 bd 6e 20 2e bc 3b aa 82 3e 43 44 57 be
       -0.040267196 -0.010627849 0.255205 -0.21022134
0003f0 00 ef f2 3c 0f 50 8f be 65 de a5 bd 9c 68 5f be
       0.02965498 -0.27990767 -0.08099059 -0.21817249

fc2.bias f4 [128]
000000 f1 2c 95 bd 6f ae 54 bd 2d bc 09 bd 3c f7 87 3e
       -0.072839625 -0.051924165 -0.033626724 0.26555812
000010 60 f2 96 be 5e 61 02 3d 62 47 7b be 19 c6 15 be
       -0.29481792 0.031831138 -0.24538949 -0.1462635
000020 b7 55 45 3d 50 07 e9 bd 19 f9 6a be 3f 55 70 3d
       0.048177447 -0.11378348 -0.22946586 0.058675047
000030 fa e1 07 3e ec 52 90 be a5 da b3 3d d2 60 6f 3e
       0.13269797 -0.28188264 0.087819375 0.23376778
000040 1a 03 30 be a4 ad 28 bb 9f 46 04 be 02 0f 41 be
       -0.17188683 -0.0025738264 -0.12917565 -0.18853381
000050 4f 23 6e bc dd 42 a8 bd 36 01 fa bd 3c 17 d2 bb
       -0.014534785 -0.08215878 -0.12207262 -0.006411461
000060 3d eb 65 3d ae da d9 bd 9f e1 0b bd b8 ae 68 be
       0.056132544 -0.10637413 -0.034150716 -0.227229
000070 07 25 6e bd ef 48 98 3c e3 03 9e bd 9f f4 03 3e
       -0.05814078 0.018589465 -0.07715585 0.12886284
000080 79 bf 09 be 88 13 3c be ff 17 4b bd 4b d9 37 bd
       -0.13451947 -0.18366826 -0.04958343 -0.04488496
000090 af e6 4e 3e 30 f6 82 3d 73 20 02 3e 1b f1 33 bc
       0.20205186 0.06394613 0.12707691 -0.010982777
0000a0 55 84 50 3e 38 c4 37 bd 71 67 86 3d 81 9a fb 3d
       0.2036298 -0.044864863 0.06562699 0.12285329
0000b0 ab 23 86 bc 45 ea 13 bd f0 9d 03 bd a6 71 02 3e
       -0.01637443 -0.03611209 -0.032133043 0.12738666
0000c0 43 ec 65 bc b8 34 84 3e 1a b7 f0 ba 63 fe cb bd
       -0.01403338 0.2582147 -0.0018365115 -0.0996063
0000d0 b5 97 2a 3d f7 5b 5c be e1 7d c7 bd 77 70 47 bc
       0.041648585 -0.21519457 -0.09740806 -0.01217281
0000e0 8e 50 53 3e 54 eb 12 be 94 30 a6 3e 93 0e 66 be
       0.20636198 -0.14347583 0.32458937 -0.22466497
0000f0 3f 8c 19 be 69 52 2b 3c 80 4c 1c 3e 44 52 99 3d
       -0.14994906 0.01045666 0.15263557 0.07486394
000100 a5 d6 a5 be de db 90 3e e3 87 42 3c d8 af c7 3d
       -0.32390323 0.28292745 0.011873218 0.097503364
000110 d4 55 98 3d 75 b1 9e be 9e 35 62 bc 9d 9f 48 be
       0.074382454 -0.30994764 -0.013806729 -0.19592138
000120 d8 e2 5c be 93 38 bb 3d 26 af 81 3d 15 2b 1f be
       -0.21570909 0.0914165 0.06332235 -0.15543778
000130 aa 6b db bd cd 56 81 bd f6 0c 39 3e 64 72 07 bd
       -0.10713895 -0.06315384 0.1807135 -0.033068076
000140 12 69 4e be e9 2d 5d bd b4 96 6a 3d 12 ee be 3d
       -0.20157269 -0.05399886 0.057272628 0.09322752
000150 06 1c 8e 3e 78 f1 66 bc 78 51 cd bc 3e d1 6a 3e
       0.27755755 -0.014095657 -0.025063261 0.22931382
000160 a1 31 75 be e3 7b f9 bc 18 65 2e be b5 e6 9e bd
       -0.23944713 -0.030454582 -0.17030752 -0.077588476
000170 35 f4 84 be f9 07 36 be 94 6e 8f 3d 73 e0 94 3d
       -0.25967565 -0.17776479 0.07003513 0.07269373
000180 d9 e1 2e be 03 8a ae bd ea 19 25 be 81 ae 0a be
       -0.17078342 -0.085224174 -0.16123167 -0.1354313
000190 3d e7 1e be 6b 64 84 be 51 fc 90 3d 9f c2 64 3d
       -0.15517898 -0.25857863 0.070793755 0.055849668
0001a0 a0 94 cc 3d 08 19 0f bd f2 4d 85 bd fc 2e 6d bd
       0.099892855 -0.03493598 -0.065090075 -0.057906136
0001b0 73 8f 1f be 7d fa 29 bd 43 a3 9c 3d de 11 9a 3d
       -0.15582065 -0.04149865 0.07648327 0.07522939
0001c0 23 28 d5 3c ae ec 04 3e 4e 8e 73 3e 4f 7c aa bd
       0.026020115 0.12980911 0.23784754 -0.08324491
0001d0 41 28 f4 bd da 06 8c bd e6 37 a5 3d b8 02 fb bd
       -0.1192174 -0.06837244 0.080673024 -0.12256378
0001e0 df 62 23 be b1 ed 99 be b4 c4 5f 3c b9 0b cd bc
       -0.15955685 -0.30064157 0.0136577375 -0.025030004
0001f0 6c 56 ce 3c 08 52 43 bc 22 10 8d 3b ef 72 51 bd
       0.025187694 -0.011921413 0.0043049017 -0.051135

fc3.weight f4 [64, 128]
000000 d7 b1 f0 3d b9 65 e2 bd 74 0a 2e 3d d5 2e 3d be
       0.1175267 -0.11054558 0.042490438 -0.18474896
000010 53 95 82 bd c4 69 96 be ba 9f b3 3d f4 c3 1e be
       -0.063761376 -0.29377568 0.087707 -0.15504438
000020 a1 03 d3 3d 96 60 17 be 68 6b 96 3e b7 73 85 3b
       0.103034265 -0.14782938 0.2937882 0.004072632
000030 d2 2a 8e be da 4c 5a 3d 22 f1 9b 3d 26 dc df 3d
       -0.27767044 0.053295948 0.07614352 0.10930662
000040 2a 71 14 be 72 44 ac 3c aa 62 92 3c 81 03 90 3e
       -0.14496294 0.021028731 0.017869312 0.28127673
000050 5f 83 8a 3e 06 2c 10 3e 43 18 62 be f1 20 47 be
       0.27053353 0.14079294 -0.22079568 -0.1944616
000060 3e f5 88 be 20 a6 d5 bd c0 a8 3d 3e f0 ef e6 3e
       -0.26749605 -0.104320765 0.18521404 0.45104933
000070 4d 5c a8 3d 26 1a be be b9 47 95 3e 2d 3c 7c be
       0.0822073 -0.37129325 0.29156283 -0.2463233
000080 65 c5 65 3d e4 bb 5b 3e f1 74 89 3e 99 5d 9e bd
       0.056096453 0.21458393 0.26847032 -0.07732696
000090 91 2c 92 bd c7 85 32 be 06 f5 17 3d 8c 1d a2 3d
       -0.071374066 -0.17433845 0.037098907 0.07915792
0000a0 32 06 d9 be 19 30 36 3e 45 44 3c be 97 d2 85 be
       -0.4238754 0.17791785 -0.18385418 -0.2613723
0000b0 b4 9c 80 3d a1 a0 2a 3e 50 13 b8 3e ba 9d 21 3e
       0.06279889 0.16662838 0.35952234 0.15782824
0000c0 e1 ac 1f bd cb 19 a1 be 15 9b 50 3e 69 f3 7f bd
       -0.03898323 -0.3146499 0.20371659 -0.062487993
0000d0 d6 3b 8b 3e 38 62 a7 3e d1 cc 34 3e 2a 6a d1 3d
       0.2719409 0.32692122 0.17656256 0.10225327
0000e0 51 0f 4c bc f9 ba 9b be 25 25 25 3d 96 9b 26 be
       -0.012454824 -0.30416086 0.040318627 -0.16270289
0000f0 63 fe d5 3c 2a 54 09 bf cf c7 0d 3d f5 6c 6b be
       0.026122278 -0.5364405 0.03461438 -0.22990783
000100 ea 72 91 3d 0d f0 76 3d 7f 2c 8c be af 88 70 be
       0.07101996 0.060287524 -0.27377698 -0.2348964
000110 23 19 57 bf 9c d9 2d 3e 01 02 94 bd 16 3b 27 3e
       -0.8402273 0.16977543 -0.07226945 0.16331133
000120 2c f2 4f bc ca c6 54 be 6c e5 ad 3c 6d dc 7b 3e
       -0.012692016 -0.20778957 0.021227561 0.24595805
000130 c0 ed 56 be b6 33 01 3f 72 75 56 be cd b7 85 3e
       -0.20989132 0.5046953 -0.2094324 0.2611679
000140 fc 96 96 bd aa 05 8b 3e 47 d2 83 3c 3a 33 fa bb
       -0.07353017 0.2715276 0.016091479 -0.007635501
000150 8b dd bf bc 87 5f 85 3e 44 0b 9e 3e 87 51 fb 3d
       -0.02342107 0.26049444 0.3086797 0.122714095
000160 01 44 8a 3c f1 f3 18 3e d6 ec 6b 3e 63 0a 6c 3e
       0.01687813 0.14936806 0.23039564 0.23050837
000170 3f 46 12 be bd 75 c7 3d 54 9a 0c 3e 5b 47 95 3d
       -0.1428461 0.09739254 0.13730747 0.072890006
000180 e8 32 c9 3e d9 71 81 3d 82 0b 0e 3e 39 f4 ef 3c
       0.3929665 0.06320543 0.13871577 0.02929126
000190 41 4b 9b be 7d 42 53 be fe bf 88 3e 4e 1c 30 3b
       -0.30330852 -0.20630832 0.26708978 0.002687234
0001a0 ae e5 4c be ae e7 e1 bd eb 54 bb bd 65 5e 9f 3c
       -0.20009491 -0.110305175 -0.09147056 0.01945419
0001b0 10 ea 77 3e 00 12 49 3c b0 40 cc bd cf 8e 81 be
       0.24210382 0.012272358 -0.09973276 -0.25304267
0001c0 26 bc aa 3c 1e bd ed 3d 64 c5 8e be 0d fc 9e bd
       0.02084167 0.11608337 -0.27884972 -0.077629186
0001d0 7c ed bf 3e 06 a8 48 be d2 f2 02 3e eb d4 b0 bd
       0.37485874 -0.19595346 0.12787941 -0.08634361
0001e0 79 54 12 be 38 a1 1b 3e ef ef b5 3e 8d 55 01 bc
       -0.14290036 0.15198219 0.35534617 -0.007893932
0001f0 88 d1 1c 3e 45 62 b2 3d 7f ba ff 3c 57 f0 ce 3b
       0.15314305 0.0871015 0.031216858 0.006315272
000200 20 ab 46 3e ee 38 b9 3e df e4 dc be 09 3b 9e be
       0.19401217 0.36176246 -0.43143365 -0.30904415
000210 6c 3b 89 bd f0 cc 80 be 35 35 d7 3e 87 33 7d be
       -0.06700787 -0.25156355 0.4203278 -0.24726687
000220 87 a2 c6 3d 25 12 c5 bd 7f c0 97 3d cf bc 68 3e
       0.096989684 -0.096226014 0.074097626 0.22728275
000230 49 b3 4d bd 4a 51 68 3e 60 fd 1b 3e 6c 13 1e 3c
       -0.050219808 0.2268726 0.15233374 0.009648185
000240 8f 1d 83 be d0 59 65 3d 17 6d 30 3e 37 38 07 3e
       -0.2560849 0.055993855 0.17229114 0.13205038
000250 cc 44 4d 3e b1 cf b9 3d 00 b3 51 be dd 8b 35 3b
       0.20045775 0.09072817 -0.2047844 0.0027701773
000260 d4 9b 68 be c6 15 2c be 08 50 c4 3d ed cc 98 bd
       -0.22715694 -0.16805181 0.09585577 -0.074609615
000270 c8 d4 4a 3d 08 6b 1d 3d 4b bb 94 3e f5 50 90 be
       0.04951933 0.03843215 0.29049143 -0.28186765
000280 85 d9 dc bd c3 fa b2 3e b0 77 59 3e c7 56 b5 3c
       -0.10783676 0.3495694 0.21237063 0.022136105
000290 07 02 95 be cc ac f1 be b7 5e 32 3e a0 3a 29 bd
       -0.2910311 -0.47202146 0.17418943 -0.041315675
0002a0 2e e9 a1 be 4a 7f 88 3e 01 64 5f be 88 45 99 be
       -0.31623214 0.26659614 -0.21815492 -0.2993586
0002b0 13 e1 f8 3d de 46 1a 3e 87 b3 25 3e 76 69 84 be
       0.121523045 0.15066096 0.16181765 -0.2586171
0002c0 2e f3 38 be 3f df 84 be 07 5e 8a bd db 6f d0 3c
       -0.18061516 -0.25951573 -0.067562155 0.025443962
0002d0 dc fd 0d 3e 44 35 54 3d 17 fc a4 3d c6 7d 68 bd
       0.13866371 0.05180861 0.08055895 -0.056760572
0002e0 48 42 47 be 90 c3 a7 3d 94 56 fc bc df e3 f1 3e
       -0.19458878 0.081915975 -0.030803002 0.47244164
0002f0 9b 5b e2 3d 24 5c a9 be f3 5f ad be 0e 3a 26 be
       0.110526286 -0.3307811 -0.33862266 -0.16233084
000300 91 ff 9b be 96 c7 18 3d e9 03 72 be 06 d8 80 bd
       -0.3046842 0.037299715 -0.23634304 -0.06291203
000310 b8 2f f6 bd 48 cf e2 bd d9 05 33 3c 21 8a 05 3d
       -0.120208204 -0.11074692 0.010926687 0.032602433
000320 c3 e9 6e bc 5d 72 c2 bd 90 48 a3 be 92 81 1b be
       -0.0145821 -0.09494469 -0.31891298 -0.15186146
000330 09 19 22 3d 0b 83 d4 3e e7 1a cb bd 08 25 04 3e
       0.039574657 0.41506228 -0.099172406 0.12904751
000340 02 c4 b7 bd c9 b0 85 bd 49 44 88 3e d6 d6 d9 3e
       -0.089729324 -0.0652786 0.26614597 0.4254672
000350 80 fc a4 be df 3c 4d bc 99 38 05 3d b5 5d cd 3d
       -0.32223892 -0.01252672 0.03252468 0.10027639
000360 d8 d5 1e 3e 2e b6 a6 3d 2f 7f d6 bc 3c b1 ac 3e
       0.15511262 0.08140217 -0.026183693 0.3372897
000370 19 75 2d 3e 2a d4 01 3e 7a 4b a5 3d 7f a5 11 be
       0.169392 0.1267859 0.08071037 -0.14223288
000380 3f 57 a4 3e f4 56 aa 3c dd bb f4 bd 8f be 89 bc
       0.32097813 0.020793416 -0.119498946 -0.016814498
000390 ec af 2f bf 5e a8 50 3c 1a 19 74 3d 1d df 57 bd
       -0.6862781 0.012735454 0.05959425 -0.05270301
0003a0 62 e9 96 3c fc 45 a5 3c 21 55 67 3e 3a 2a b7 bb
       0.018421832 0.020174973 0.22591068 -0.0055897506
0003b0 e8 ba 99 3e 4d 30 f8 bc c4 76 f5 bd 7d e1 f4 bd
       0.3002541 -0.03029647 -0.11985543 -0.11957071
0003c0 85 e3 32 3d 5d 5a 4f be ae 75 a7 be 86 6a 86 3e
       0.04367401 -0.20249315 -0.3270697 0.26253146
0003d0 14 15 c2 3e 93 15 79 3c 2d aa a1 3d 7f bc a1 3b
       0.37906706 0.015202898 0.078937866 0.0049358006
0003e0 63 64 7b be 8b d5 e0 bd bb e7 70 3e 64 46 15 3d
       -0.24550013 -0.1097823 0.23525898 0.036444083
0003f0 82 05 ca bd f9 81 96 3d 2b c7 c7 bc 49 4b 82 be
       -0.09864332 0.07349009 -0.024386963 -0.25448063

fc3.bias f4 [64]
000000 cb da 55 bd 04 93 f6 bd 2f d2 8f bd 0a a7 a0 bd
       -0.05221061 -0.1203976 -0.07022511 -0.0784436
000010 8c 76 2f bd 60 11 be 3d ca a7 79 bd 60 f6 0f bd
       -0.042837664 0.09280658 -0.06095103 -0.03514707
000020 77 c7 39 be 1a e6 cc 3d f5 5f 71 be 7a ca 8d be
       -0.18142496 0.10004826 -0.23571761 -0.2769354
000030 45 ac 89 3d 7f fc dc 3d 94 59 24 bc d3 1e a1 3a
       0.06722311 0.10790347 -0.010031123 0.0012292512
000040 58 91 18 bd 6a 21 b8 bc f4 87 28 bc 7e 48 d8 3d
       -0.037247986 -0.02247687 -0.01028632 0.10560702
000050 11 bd 94 be 29 9c 21 be cd a6 1e bd 61 d4 31 be
       -0.29050496 -0.15782227 -0.038733292 -0.17366172
000060 a4 bd 59 3d a9 d7 54 be c2 d0 f5 3d 33 c9 c0 bb
       0.05315937 -0.20785393 0.12002708 -0.00588336
000070 ea f7 c3 3d 06 2f c3 bd 2f 20 20 be 44 3a 71 be
       0.0956877 -0.095304534 -0.15637277 -0.23557383
000080 41 ac d7 bd 6c b1 e5 3d 27 43 52 be 99 b4 32 3e
       -0.10530902 0.11215481 -0.20533429 0.17451705
000090 28 ee 4d be 58 fe ad 3c d7 3a 95 bd 8c 61 be 3c
       -0.2011038 0.021239445 -0.072866134 0.023239873
0000a0 e7 38 50 3d ce 99 3b bd a1 c9 d4 3c e8 1a a8 bd
       0.050835516 -0.045800976 0.02597505 -0.08208257
0000b0 02 8a 3f 3d e4 a2 fb bc b5 41 82 bc 41 bb 1e be
       0.046762474 -0.03071732 -0.015900472 -0.15501119
0000c0 f0 fd 79 be 54 37 96 bd 41 f6 09 3e 86 b0 31 be
       -0.24413276 -0.07334772 0.13472845 -0.17352495
0000d0 5e 21 5c 3e 21 bb 27 3e 1d c8 33 bd 2f c5 5e bd
       0.21497104 0.16379978 -0.043892015 -0.054387268
0000e0 6d 26 8f bd c4 a2 cb 3d 10 4a 5c bd 4c 77 07 3d
       -0.06989751 0.099431545 -0.05378157 0.033072755
0000f0 8e f7 12 3d 9f c3 32 be 7b 4a 19 3e 03 11 92 3d
       0.035880618 -0.17457436 0.14969818 0.07132151

fc4.weight f4 [2, 64]
000000 1c ba 10 3f 04 b4 1d 3f 66 d4 23 be 3b 5c c9 bf
       0.5653398 0.6160281 -0.15998992 -1.5731272
000010 28 3b 20 be e5 dc 9a 3d 4b 05 81 3e c7 e4 ec 3e
       -0.15647566 0.075616635 0.2519935 0.46268293
000020 eb 7d 05 be d0 8b 88 be c0 ff b8 3c 31 67 b2 3e
       -0.13036315 -0.26669168 0.022582889 0.34844354
000030 48 8d 28 3f 8f ba 38 bf d5 0a e1 bd ff cd b7 be
       0.6584058 -0.72159666 -0.10988394 -0.3589935
000040 74 67 c6 3e e6 ed fa bf 1b d6 38 3e c5 9a a5 3e
       0.38750803 -1.9603851 0.18050425 0.32344642
000050 f4 19 07 bf e1 ae 2a bf 26 59 b5 3e 37 70 47 bf
       -0.52773976 -0.66673094 0.35419577 -0.779056
000060 65 59 8b 3f 20 f1 6e bf 54 8d 5f be e6 63 01 bf
       1.0886656 -0.9333668 -0.21831256 -0.5054306
000070 a8 95 8c be 11 52 1b bd 25 88 5b 3f 49 6e f5 be
       -0.2745793 -0.03792006 0.85754615 -0.47935703
000080 71 20 bf 3e 6c 7a a4 3e 2c aa ad bf 3b 14 af 3f
       0.37329438 0.3212465 -1.3567557 1.3678049
000090 c5 a8 51 bf 2a 03 73 3f f4 33 81 3e 5d a3 1e be
       -0.81898147 0.949267 0.2523495 -0.15492006
0000a0 18 74 5c 3f ab 9d a1 bd ac aa f2 3d 79 52 5b 3f
       0.86114645 -0.07891401 0.11848959 0.8567272
0000b0 5a f3 9d bf 2d e9 57 bf 94 e8 0d 3c 33 63 49 3e
       -1.233989 -0.84340173 0.008661408 0.19666748
0000c0 c7 89 69 bf 61 a3 fd be 18 56 2d be 28 59 ab bf
       -0.91225857 -0.4953871 -0.16927373 -1.3386583
0000d0 36 72 11 3e e1 d5 2b 3f 12 a7 ea 3e c9 1d 7b 3e
       0.14203724 0.6712323 0.4583059 0.24523081
0000e0 28 cf 7b 3f 1c 61 06 bf 0f 8d 33 bf f6 3a a5 bf
       0.9836297 -0.5249193 -0.70137113 -1.2908618
0000f0 bb 36 0c 3f ee 2c 0b c0 b7 90 96 3e 63 49 a1 be
       0.5477101 -2.1746173 0.29407284 -0.31501302
000100 6f 35 ce bd 1d 98 0e bf 6b c7 14 3f e2 ba b9 3e
       -0.100687854 -0.55700856 0.5811679 0.36275393
000110 8c f3 8e bf e9 01 11 bf 37 2a 88 be 2b 18 e4 be
       -1.1168075 -0.5664354 -0.26594707 -0.4454969
000120 fd 5d 11 3f b1 8f 50 bf 6b 26 6b 3f f6 53 e6 3e
       0.5678404 -0.81469256 0.91855496 0.44985932
000130 15 47 0d 3e 1b 8c b2 bd 3d 7d 8e 3d d7 a9 33 3f
       0.13796647 -0.08718129 0.06957481 0.7018103
000140 ea e6 1b bf 3f a9 c8 3e 1f 45 a1 bf e6 db e6 3d
       -0.6089922 0.39191625 -1.2599219 0.11272411
000150 db 4d d5 bd 7e e7 b6 be ad 00 e8 3e 69 81 ea 3e
       -0.104152404 -0.3572349 0.45313016 0.45801857
000160 7a 77 8b bf df fe 91 be 82 a1 1a bf 91 b2 87 3d
       -1.0895836 -0.28514764 -0.6040269 0.06625856
000170 71 77 85 3f b4 af 33 3f 59 d3 07 be 00 e5 83 3f
       1.0427076 0.70189977 -0.13264216 1.030426
000180 0f 2d a6 3e 53 b8 29 3f 4a 3e 30 be f3 95 96 be
       0.32456252 0.6629688 -0.17211261 -0.29411277
000190 f8 28 a1 3c c5 d9 80 3d fb ea 66 3f b0 13 03 be
       0.019672856 0.06291536 0.902023 -0.12800479
0001a0 a4 72 9c be 67 cd b3 be 10 49 2e 3f 6d 3a a3 3e
       -0.30556214 -0.35117647 0.68080235 0.31880513
0001b0 a5 de 07 bf d1 14 32 bf e7 86 3b 3f 98 e5 40 3f
       -0.53074104 -0.69563013 0.7325272 0.7535033
0001c0 1d ba 75 3e f8 f7 00 be d3 84 46 bf 74 e5 e5 3d
       0.23996778 -0.12594593 -0.77546424 0.11225405
0001d0 b9 92 1f bf 1e a6 f9 be c8 fc 1d bf c1 cd 51 bf
       -0.62333256 -0.4875955 -0.6171384 -0.8195458
0001e0 61 9b e5 3e 7c 96 39 3d c8 06 a1 3e 18 e5 73 3f
       0.44845107 0.04530953 0.31450486 0.95271444
0001f0 ce d4 2c bf e8 99 70 be 79 ce 81 3e 34 09 61 3d
       -0.67512214 -0.2349621 0.2535284 0.054940417

fc4.bias f4 [2]
000000 66 b1 56 3c 32 1d 20 be
       0.0131038185 -0.15636137
