checkpoints/Computer1-1-checkpoint-2.3338-actor.pth (torch, 193711 bytes, 8 tensors)

fc1.weight f4 [256, 24]
00000000: 1f6f 95bb 78df 733e 7c07 3e3e 4439 02bd
00000010: 391d 9b3e 786b 2b3e 7ce0 acbc d1ce 263d
00000020: 70db 503e b6de 8d3e 2edb 8cbd 63cb 1c3e
00000030: 5e33 7b3e 0d57 54be 232a e23d e3f3 1f3e
00000040: 6e6b 80be 39db e1bd 9af7 ad3b 8a6d aa3d
00000050: 4984 13be 7b6a 8dbe 6c89 2b3e ebec 913e
00000060: d716 103d 4925 f6be 1b21 8dbc 25d0 48bd
00000070: 6e73 f7be ea4a 98be 7fb6 3fbd a261 2fbd
00000080: 8610 f23d 3af8 07bf 82db 3f3d b971 973d
00000090: 1e2d c4be ea63 debd f611 33bd 8b3a 943d
000000a0: d254 473d 3139 9bbe 4e03 e23b 7d0f 25bd
000000b0: d420 63be 208e d03e 2c94 86bc 2c76 e4bd
000000c0: 3ac1 e83b 1638 06bf 5649 183c 8411 19be
000000d0: 8de1 bdbd 9722 da3d 1d93 9c3d 7b71 393e
000000e0: ba94 9c3e 83c0 dcbe 7e0a 403d 5371 ccbd
000000f0: c0e3 57bd 1cbb 8abe cd5d e13d 877f ac3d
00000100: ed50 a53e 85ac bbbe 3b75 1bbd 766a 6d3b
00000110: 22bd aa3e 3653 3abf 6426 173d 4d10 b3bc
00000120: 8106 a33d 46e9 b63c 2f58 ba3c d398 85be
00000130: f328 07bc ffc3 16be d007 02bd fd44 a2be
00000140: 987f d33d 2e7d 29be 329a dd3d 3b2b e43d
00000150: f058 a03e 11bb 64be b931 133e e924 5c3d
00000160: afc4 8ebd 91d9 b5bd 008f 32be 0b28 16bd
00000170: c803 753e 31b6 3cbf 77ff de3d 167e d7bd
00000180: d829 7f3c cf16 3b3d f5f4 ff3d 3132 f1bd
00000190: e99b c23d da9b d2be 10e0 223e fca6 743d
000001a0: 3228 363c 7792 a93e df29 53bd 48d0 9abd
000001b0: e8e7 4abe c3dc 783c 637f 3b3e 45db 10be
000001c0: 0c12 153e 140c e33d 3220 a6bd 7be3 90bd
000001d0: 2a11 93be 202d f13e 8855 af3d 0f99 50be
000001e0: 448b 85bc 3ccf b1be 838a 913d e942 26be
000001f0: 44a0 413b 5ca9 7dbe c77b b23d 5917 733d
00000200: 07e8 14be 69f3 96be 5c2c 883c 1aa0 f0bd
00000210: eeb8 4f3a fe29 5bbe fa06 143e e3d5 f3bd
00000220: 8989 5cbe adb6 a8be 187b d8bd ac34 5dbe
00000230: 89ad dc3d 6ce2 dabe 46a9 cc3d 68fb ccbe
00000240: 636d 043e af1b f93a a56a 4d3c 64b2 3d3e
00000250: eb50 00bc e85f c23d 4559 4c3e daf6 c93d
00000260: 1bfc a43b 4c87 d13e 94af 973d 0867 aa3d
00000270: 2675 3f3c 252a 85be a571 15bd c887 463d
00000280: 88dc c73d 35c2 403e 04a0 a5bc 1e25 eebd
00000290: 7a78 223e 38fd 1abf bced 95bd 81ec cebd
000002a0: 4fb8 003e 6934 2f3e b61b 03be 7526 39bd
000002b0: 1a86 98bd fa8d 95bd 25b7 ba3d 01d7 fbbd
000002c0: a106 103e 50e6 e03d 2876 f9bc 8578 58be
000002d0: 79cf a33e 70b3 f23d 2ce8 153c 8f4e 57bd
000002e0: 1cbb 80be 6c43 10be b6f9 9e3c 0f0c 02be
000002f0: 1103 e73e 7859 633d ad69 8dbd 2f19 48be
00000300: fd69 083e 8c49 d93e 390e 05bd 0852 db3d
00000310: 8414 3dbe 416e 02bd c308 bb3d d4af d23d
00000320: 8462 b03d 0380 a83d 19be 3b3e cbe4 4abe
00000330: 7afa 06be 09f5 34be cd88 08bd b4c3 dabd
00000340: 9fe2 85bd a23d 333e 575f 483d 3fd5 0abe
00000350: c0b8 b03b 1f1f 59be 7ab8 cebd 3114 d53d
00000360: 7103 9f3e 678e 88be 7fda 47be 86b3 07be
00000370: 9d9b 7abd 49da b0be 8e76 033e c4a8 6ebe
00000380: 5d6b 4d3e 34d4 9ebe 9924 1a3e 0caf 64be
00000390: 8003 893d 312d 673c 955e 433e aafe a03d
000003a0: 8098 8a3e 034e c9be 7a9c f2bd fb46 483d
000003b0: dafc 01be 6623 78bd 3314 b03c 00a9 dc3d
000003c0: 726d 47be c8b6 813e 481d ffbd 7d6d 57be
000003d0: 0439 36be a085 e7bc b752 1cbd bc4a 47be
000003e0: d804 25be d623 cb3e 0f29 7dbd ab47 023d
000003f0: ffdc 1abe b707 953c 1de6 f4bd da24 21be
-0.004560366 0.23815715 0.18557543 -0.031792894 0.30295733 0.16740215 -0.021103136 0.04072458
0.20396209 0.27708977 -0.06877743 0.15311961 0.24531314 -0.20736332 0.11043193 0.15620379
-0.25081962 -0.110281415 0.0053090574 0.08321674 -0.14405932 -0.276203 0.16751641 0.28501067
0.03517803 -0.4807532 -0.0172277 -0.049026627 -0.48330253 -0.29744655 -0.0468049 -0.04281772
0.11819558 -0.5311314 0.0468402 0.07394738 -0.38315672 -0.10858901 -0.0437183 0.07237729
0.048664875 -0.3031707 0.0068973666 -0.040297974 -0.22180492 0.40733433 -0.016428076 -0.11155352
0.0071031125 -0.5242933 0.009294828 -0.14948088 -0.09271536 0.10651129 0.07645247 0.18109696
0.3058222 -0.43115625 0.046885006 -0.099825524 -0.052707434 -0.27095878 0.11004219 0.084227614
0.32288304 -0.3665506 -0.037953597 0.0036226786 0.33347422 -0.7278322 0.036901847 -0.021858359
0.07960225 0.02232803 0.022747127 -0.26093158 -0.008249509 -0.14723204 -0.03174573 -0.3169326
0.10327071 -0.16551659 0.10820426 0.11141058 0.31317854 -0.22336985 0.14374436 0.053746138
-0.06971108 -0.08879388 -0.17437363 -0.03665928 0.23927224 -0.737155 0.1088857 -0.10522096
0.015573941 0.04567605 0.12497894 -0.117771514 0.09502394 -0.4113453 0.15905786 0.05972956
0.011117982 0.33119556 -0.051553603 -0.07559258 -0.19815028 0.015189352 0.18310313 -0.14146145
0.14557666 0.11086288 -0.081116095 -0.070746385 -0.28724033 0.4710474 0.08561236 -0.20370887
-0.016301759 -0.3472842 0.07106497 -0.16236462 0.0029544989 -0.24771637 0.08715015 0.059348438
-0.14541636 -0.29482582 0.016622715 -0.11749287 0.000792398 -0.21402737 0.14455786 -0.1190603
-0.2153684 -0.3295187 -0.10570353 -0.21602124 0.10775287 -0.4275087 0.09993224 -0.40035558
0.12932353 0.0019005443 0.012537633 0.18525082 -0.007831792 0.09490949 0.19955929 0.09861536
0.005034936 0.40923536 0.07406536 0.08320433 0.011685645 -0.26008716 -0.036485333 0.048469335
0.0975886 0.18824084 -0.020217903 -0.11628173 0.1586627 -0.6054263 -0.07320735 -0.10103703
0.12570308 0.17109837 -0.1280354 -0.04520269 -0.07447453 -0.073024705 0.09116963 -0.12296868
0.14065029 0.109814286 -0.03045185 -0.21139725 0.31994227 0.11850631 0.009149592 -0.052565154
-0.25142753 -0.1408822 0.01940618 -0.12699912 0.45119527 0.055505246 -0.06904922 -0.19540857
0.13321681 0.42438924 -0.032484267 0.107090056 -0.18464857 -0.031843428 0.091325305 0.10287443
0.0861254 0.08227541 0.18334235 -0.1981384 -0.13181487 -0.17671598 -0.03333359 -0.10681859
-0.06537365 0.1750398 0.04891905 -0.1355791 0.0053931177 -0.21203278 -0.1009378 0.10404242
0.31057313 -0.26671144 -0.19516943 -0.13252077 -0.06118356 -0.34541538 0.12838194 -0.23306566
0.20060487 -0.31021273 0.15053023 -0.223324 0.06690121 0.014109896 0.19079049 0.07861073
0.27069473 -0.3931733 -0.11846252 0.048895817 -0.12694111 -0.060580634 0.021494007 0.10774422
-0.19475344 0.25334764 -0.12456757 -0.2103786 -0.17795187 -0.02826196 -0.03816482 -0.19462103
-0.16115129 0.39675778 -0.061806735 0.03180663 -0.15123366 0.018192155 -0.11957953 -0.15736714

fc1.bias f4 [256]
00000000: 717c 563d 2ccd 883c 8a94 723d f6e6 14be
00000010: 516b 3bbe 2262 3e3d b046 0e3e 7ce8 4b3e
00000020: ad60 39be aac3 023e ab6a 383e e2c9 003d
00000030: b783 21be 7fb3 15bd a455 26be d500 16bb
00000040: a54b 2ebe f253 b43d 2b76 0f3e 4510 3d3e
00000050: c37c 84bd cbd1 86bd b753 53be 7601 7c3e
00000060: 8cc7 943d 60aa fbbd 4334 dc3c 9b30 e7bc
00000070: 856b 81be 9258 6bbe 6963 a83d 5cf1 12be
00000080: 764b b1bc 4cc6 57be 71bf 003e bda1 86bd
00000090: bfc4 6abe 9107 80bd 973c 2e3e ca71 c0bd
000000a0: e3f7 743d b7e2 0a3e 68b1 99be 2da3 17bd
000000b0: 264c 40bd 7794 0e3d bc8a 6dbe 2c7d 5c3e
000000c0: 985b 3fbe 8c99 94bd 0c18 2abe 9189 903d
000000d0: 8745 9fbe b615 50be 406e a8bd d5bc 0dbd
000000e0: e9ff 3abe 2b7f 72be 8d9e 48be 722a f53d
000000f0: a4ff a0be f74c 033e 7e5b 8c3d 3c61 4a3e
00000100: d9a8 2cbe cbac abb9 5390 12be 3b4c 763d
00000110: a846 773e 5728 f83c 2002 f1bd d22d 963c
00000120: aebf c3bd 9cba 78be b369 8fbe ecbd 1c3e
00000130: 0e23 8ebd 5939 76be 3508 51be 3734 033e
00000140: 4c12 88be 1d7e b53d db9a c83d f77a 073e
00000150: 938d 383d 3cec 803c 124f 12be 5ddc 7abe
00000160: f8c7 17be 13de 09bd 285e 42be e244 16be
00000170: 2ebe c4bd 7c6a 1fbe 9941 28be b493 2a3e
00000180: 4ac7 d7bc 6a60 0f3e 197d a3bc f877 4abe
00000190: 64ce ac3d 77ae 623d 6496 e83d 24b3 12be
000001a0: d394 02be 0c8f d1bc db80 a3bd f835 02bd
000001b0: a1b3 343e 2898 63be b365 98be 92f1 aabd
000001c0: 6b27 82bc 9974 f83d 4796 65be 8330 a63e
000001d0: 230b 3ebe 7f4b 3fbe 25e7 6ebc adde 0cbd
000001e0: 51f2 40be 7968 a73d a606 6dbc d00f 32be
000001f0: 2b98 eb3d 8c16 fe3d bf81 49be 189f 893e
00000200: c300 643d ad4a 29be 5f97 82be fa3c 893e
00000210: 64b9 45be a89f 99be 229c 523e 7098 3a3e
00000220: 3e89 293d b86a 463e b05c 27be 453d ccbd
00000230: 6653 a53e 5687 77bd a566 9cbd 5000 ed3d
00000240: 49da fabd 3a50 4cbe d4b1 3abd 3aed 38be
00000250: e80c a1be 56d4 a8be 3a7b f2bd 393e 983d
00000260: 5cd9 05be ba21 4fbd 2b8b 98be 7a6c a93d
00000270: 32d2 c6bd 155a b5bc 0119 78be 7b42 f33d
00000280: 147d 943d d880 603c a473 7abe 12b0 203e
00000290: f2fa b6bc 5e7b 9bbe 88dc 083e ac73 64bd
000002a0: fd38 11be f033 debd e548 74be 2a80 8bbc
000002b0: c975 b93e ce86 67be b2cd a5be 019b 8cbe
000002c0: af8b 5bbe af2c 17bc d6d3 cbbb d734 003e
000002d0: 1f55 87bd e1ca a03c 7f29 ffbc 71bc 9bbc
000002e0: 8411 5b3c 02bc ccbd 5b24 1bbe 7c27 d0be
000002f0: 37f0 043e 9ec9 293e cf69 efbd 0d88 c53b
00000300: 3074 a0bd 472f 8abe e2dd 41be 0137 48be
00000310: 0733 3a3e e5e1 c2bd 540b 15be 727d afbd
00000320: 30c6 d5bd 1249 60bd 41ef 863d 8a38 9abe
00000330: 8dd8 e5bc 3251 b3bd 7a94 e73c 74ad 92bd
00000340: 33da 113c 94bb 90be 0a7d 9b3d 7ba3 00be
00000350: 8004 4c3d 114e 5fbe 379f 7bbe 12c8 3a3e
00000360: 968b 533e 1351 803c 9f7c 673e ec64 3abe
00000370: 5b49 773e 9b8a e2bd dea4 a1be 54c8 5dbe
00000380: 37c0 d9bc f19f 82bd a2f8 9f3b 5fc7 1a3e
00000390: 9d53 64bc 6db3 123e 3418 293c 6d9e 013e
000003a0: 20ea 0bbe 2395 133e ee40 8d3c 13e2 13be
000003b0: bddb 46bd d18f 22bd f7e2 a23d a82c 75be
000003c0: aad3 46be 9efe 8dbe ecf8 48be c8f5 0bbe
000003d0: e53c 94be 5f5e efbd e3b1 3bbe 5d6f 5c3e
000003e0: fed1 5ebd 54c9 96be a082 0cbe 951f 793e
000003f0: 1df3 923c e67d 0abe 4568 413d 8897 823e
0.05236477 0.016699396 0.05922369 -0.1454123 -0.18302657 0.046480305 0.13894153 0.19912905
-0.18103285 0.12769952 0.1800944 0.03144253 -0.15772901 -0.036548134 -0.16243607 -0.002288868
-0.17021044 0.08805074 0.14009921 0.18463238 -0.06469109 -0.065829836 -0.20637403 0.24609932
0.07264623 -0.12288356 0.02688039 -0.02822142 -0.25277343 -0.22983006 0.08222086 -0.14349884
-0.021642428 -0.21071738 0.12573029 -0.06573818 -0.22926615 -0.06251443 0.170153 -0.093967035
0.059806716 0.13563047 -0.30018163 -0.03702085 -0.04694762 0.034809556 -0.23197454 0.21532124
-0.18687284 -0.07255849 -0.16610736 0.07057489 -0.31107733 -0.20320782 -0.082241535 -0.034603912
-0.18261684 -0.23681323 -0.19591732 0.119709864 -0.31445038 0.12822329 0.06853388 0.19763654
-0.16861285 -0.00032744402 -0.14312868 0.060131293 0.24148047 0.030292673 -0.117679834 0.018332396
-0.095580444 -0.24289936 -0.2801033 0.15306824 -0.0694028 -0.24045314 -0.20413287 0.12812887
-0.2657646 0.08861945 0.09795161 0.13230501 0.04505689 0.015737645 -0.14287975 -0.24498124
-0.14822376 -0.033659052 -0.1898123 -0.14674714 -0.096065864 -0.15567964 -0.16431274 0.16657907
-0.026340146 0.14001623 -0.019957112 -0.19772327 0.084378034 0.055342164 0.1135681 -0.14326149
-0.12752084 -0.025580905 -0.079835616 -0.03178975 0.17646648 -0.22226012 -0.2976509 -0.08346857
-0.015887937 0.12131614 -0.22420608 0.32458887 -0.18558936 -0.18681143 -0.014581476 -0.034392048
-0.18842436 0.081742235 -0.014466917 -0.17388844 0.11503633 0.12406644 -0.196784 0.2687919
0.05566479 -0.16532393 -0.25506112 0.26804334 -0.19309002 -0.3000462 0.20567372 0.18222213
0.04139065 0.19376647 -0.16343951 -0.09972624 0.3229019 -0.0604318 -0.076367654 0.11572325
-0.12248666 -0.19952479 -0.045579746 -0.18059245 -0.3145516 -0.329745 -0.1183991 0.07433743
-0.13071197 -0.050569274 -0.29793677 0.082726434 -0.0970806 -0.022137681 -0.24228288 0.118779145
0.07250419 0.013702594 -0.24458176 0.15692165 -0.022336457 -0.3036756 0.13365376 -0.055774376
-0.14181896 -0.1084975 -0.23855932 -0.017028887 0.36222675 -0.22610018 -0.32383496 -0.2746201
-0.21440004 -0.009226962 -0.006220321 0.12520157 -0.066080324 0.01962799 -0.031147717 -0.019010754
0.013370875 -0.09996797 -0.15150587 -0.40655124 0.1298226 0.16580817 -0.11690103 0.0060281814
-0.07834661 -0.26989195 -0.18932298 -0.19552232 0.18183528 -0.09515742 -0.14555103 -0.08568849
-0.10438192 -0.054757185 0.06588603 -0.3012126 -0.028057361 -0.08755721 0.028269041 -0.0716199
0.00890212 -0.2826811 0.07592209 -0.12562363 0.04980898 -0.21807124 -0.24572454 0.18240383
0.20658717 0.01566366 0.22606133 -0.18202561 0.24149077 -0.11061593 -0.31571096 -0.2165845
-0.026580913 -0.06378163 0.0048819343 0.15115117 -0.013935951 0.14326258 0.010320712 0.12658091
-0.1366353 0.1441236 0.017242875 -0.14441709 -0.048549403 -0.039687935 0.07953446 -0.23942816
-0.19416681 -0.2773332 -0.19626206 -0.13667977 -0.2895271 -0.11687922 -0.18329577 0.21526857
-0.054399483 -0.29450476 -0.13721704 0.24328454 0.017938191 -0.13524589 0.04721858 0.25506234

fc2.weight f4 [128, 256]
00000000: 4510 d0bd 4152 90bc 5c6f 443e db77 cabd
00000010: f649 a237 482a b7bc 276a fe3c 6b3b 1f3e
00000020: d5b4 bdbd 3e8b bc3c 5971 85bd 339a ab3d
00000030: 00e8 c73d a0dc 4bbe 12fa 293d 7334 b63a
00000040: 0bfa 993d 9699 04bd 0780 8d3c 3ea8 59bd
00000050: f097 12bd e4d0 6abd 7767 98bc cc61 b53d
00000060: cd05 3d3d cf4a 33bd 4c2f 85bd 0efc bcbc
00000070: cd21 603d a937 083d 83a0 aebd 3647 ad3d
00000080: bbc2 96bd 7d13 1ebd 0652 d23d 1385 9c3d
00000090: c128 57bb 3a46 5a3d 5a72 233c 10e8 64bd
000000a0: 2853 cbbd 7ede 873d c177 18be bd6d 5c3c
000000b0: 09cd 1a3e 3134 83bd 718d 503d 17ba 473a
000000c0: dfc9 a13d 0fd2 e6bd fd42 3dbe 3bcc 353c
000000d0: d505 0ebd 1f91 eebd 0f0d a43d 3ab1 263e
000000e0: e397 8c3c f50c 443d a0d9 f6bd 0ea9 eb3c
000000f0: f0a3 2a3d c356 edba b887 673d e1dd 8ebc
00000100: ae30 9abd eceb 38bd 67fb 423d ca0b 5dbd
00000110: 2d41 82bc 76e1 c03d a8bf 5fbe 46dd 7c3b
00000120: 0edd 2cbd 1497 88bb 8d33 34bc 44e7 053e
00000130: c56b 4abd f80c 1abc 663b 103a 3747 90bd
00000140: b57e 8cbe 1739 7cbd b242 ca3d 331d 31be
00000150: 68d7 cbbd 809c cc3d 4a3d 0c3e 3ecb dcbc
00000160: d59f 183e fc4c 443d 8f1b 11be 9410 e0bd
00000170: 4bb9 0f3c dc72 093e 9cf9 b3bc 7a7d efbc
00000180: a707 87bc 7879 133e 3aee d6bb 1f98 85bc
00000190: e214 86bd 6435 293d 6790 3fbc 0efb 95bd
000001a0: e3e1 0ebc 8135 b0bd 61fa 183e b27d 5abd
000001b0: 4c51 a63c 22c6 2dbe c2b0 bc3c 0f2a 1d3e
000001c0: 9769 48bd 9be2 b5be 4293 48be 4933 8abd
000001d0: d32a 8ebd 646e 00bd 9dd0 9bbc 4ac8 bcbc
000001e0: 4a03 84bd 3604 e4bd 16fb bbbd 693b b33d
000001f0: f48c af3d d62e b73d d52a 1e3d b9df 8a3d
00000200: f5e8 213d daac 453c 7600 f13c 868c 1c3e
00000210: 6d72 073d 7bea a6bc 4469 35be 5771 f53d
00000220: 5f46 e7bb 1019 b3bd f821 e5b8 567d 07be
00000230: 2bfb 96bd c09a b93d 5ab8 13bf 52e2 503d
00000240: e4f6 59be e70a 94bd 9630 f0bb c69d 963d
00000250: fcb6 753d d092 553d d5a5 4d3b 14f4 63be
00000260: 58c0 843d ea14 6a3d 42b7 a83c f7ab 483d
00000270: 4eed 30bd b703 633d ab64 7cbb 79d3 b5bc
00000280: 2fd9 89bc 7fb7 a53d ebc1 5dbd 90bb 1d3d
00000290: 67bb 01be 63fe 7fbd 85b2 b83b e07d 523c
000002a0: 79ab 8ebd d2a8 a5bc 9e02 893d b8c0 e9bc
000002b0: 220e b13d f048 8cba 81b9 a9ba 6f62 efbd
000002c0: 78b5 90bd 7e6a 643e 0329 123d 6ecd b03b
000002d0: 5d4b a23c 8e1f 6c3d 34f0 1e3d 8eee d43b
000002e0: bb66 18be 260c 75bc aa1e c63d ad1e 023d
000002f0: acde 69be a7cd d53d c60d 05bd 7a67 a33d
00000300: 1ca5 e9bd 2903 933d e9f8 d53d b353 08be
00000310: b164 57be 1687 1ebd 6b6a 4d3d b280 18be
00000320: ae50 173c 1459 ea3d 132c 893d a455 ae3c
00000330: 69d1 36bd 75ff b13d f3b7 32be e09e d53d
00000340: b63b 87bd f70f 5b3c 25da 2bbe 7719 debd
00000350: 5503 853b 4223 e3bb 8739 403d d3be bb3b
00000360: cb20 47bd 02d7 6fbe d6c3 8fbc 0205 3bbd
00000370: 8d02 a53d 3e02 b0bd 7bfb 763d 9196 df3d
00000380: 33bd 41bd 8aa0 d7bc 3777 bfbb 9a57 08be
00000390: d643 103d d4e7 4bbc 7b1b a13d f83a 7dbd
000003a0: 403f c3bd 5e5a c6bd 85ab 063e 4b19 a4bd
000003b0: 8479 8cbd 4a0b e0bd da95 bf3b 1376 903d
000003c0: 50fe 48bd 448c d1bd a8f2 07bd 8d9b e73d
000003d0: 58ac 863c d18b 443c eb58 c93d 05b1 1a3d
000003e0: d5d7 20bc d051 d3bd 6fa2 983d 12cc 8bbc
000003f0: eb62 953c f37f 063d 03cc a63a 7a89 15be
-0.10159353 -0.017617347 0.19183105 -0.09886142 1.9346346e-05 -0.022359028 0.031056477 0.1555001
-0.092630066 0.023015615 -0.0651576 0.083790205 0.09761047 -0.1990838 0.04149825 0.0013901129
0.07518395 -0.032373033 0.017272962 -0.053138964 -0.03578943 -0.05732812 -0.018604023 0.08856544
0.04614811 -0.043772515 -0.06503162 -0.023069408 0.054719735 0.033256207 -0.08526709 0.08460848
-0.07361361 -0.038592804 0.10269551 0.076425694 -0.0032830688 0.05328963 0.009975994 -0.055885375
-0.0992797 0.06634234 -0.14889432 0.013453898 0.15117277 -0.06406439 0.05091614 0.0007618977
0.07899832 -0.11270534 -0.18482585 0.011096056 -0.03467353 -0.116487734 0.08010303 0.16278544
0.017162269 0.04786392 -0.120532274 0.028767135 0.04166025 -0.0018107522 0.056525916 -0.017439784
-0.07528816 -0.045146868 0.047603037 -0.05396632 -0.015900219 0.09418003 -0.21850455 0.0038584038
-0.042203 -0.0041684005 -0.010998619 0.13076502 -0.049419183 -0.009402506 0.0005502015 -0.07044833
-0.2744042 -0.061577883 0.09876002 -0.17296295 -0.09953195 0.099907875 0.13695255 -0.026952382
0.14904721 0.04792498 -0.14170669 -0.10940662 0.008772205 0.13422722 -0.021969609 -0.029234637
-0.016483141 0.14401805 -0.0065591605 -0.016307889 -0.06546952 0.041310683 -0.011692143 -0.073232755
-0.008720848 -0.08603955 0.14939262 -0.05334253 0.020302437 -0.16970113 0.023033503 0.15348075
-0.048928823 -0.3552445 -0.19587424 -0.06748063 -0.06941762 -0.031355277 -0.019020373 -0.023044724
-0.0644594 -0.11133616 -0.0917875 0.08751566 0.085718066 0.0894448 0.038615067 0.06780953
0.039528806 0.012065137 0.029419165 0.1528798 0.03306811 -0.02037548 -0.17715937 0.119845085
-0.0070579494 -0.08745015 -0.00010925898 -0.13231406 -0.07372125 0.09062719 -0.57703173 0.050997086
-0.21285588 -0.07228642 -0.0073300106 0.07354312 0.05998896 0.052141964 0.0031379361 -0.22261077
0.06481999 0.05714885 0.020595197 0.048992123 -0.04319506 0.055423465 -0.0038512151 -0.022195565
-0.016827194 0.0809164 -0.054140013 0.03850895 -0.12669145 -0.06249846 0.0056365156 0.012847394
-0.069662996 -0.020222101 0.06689952 -0.028534278 0.08645274 -0.0010702889 -0.0012948961 -0.116886966
-0.070658624 0.22306249 0.035683643 0.005395583 0.019811327 0.05764728 0.038803294 0.0064981645
-0.14882939 -0.01495651 0.096738175 0.031767536 -0.22838849 0.10439616 -0.03248384 0.07978721
-0.11408445 0.07178337 0.104478665 -0.13313179 -0.21034504 -0.038703047 0.050150316 -0.14892843
0.009235544 0.114427716 0.066978596 0.021281071 -0.044633303 0.08691303 -0.17452984 0.104306936
-0.06603186 0.0133705055 -0.16782434 -0.10844701 0.004059235 -0.0069316933 0.046929862 0.005729535
-0.04861526 -0.23421863 -0.017549437 -0.045659073 0.08057127 -0.08594178 0.060298424 0.1091739
-0.047299575 -0.026321668 -0.005843069 -0.13314667 0.035220943 -0.012445409 0.078665696 -0.061823815
-0.09533548 -0.09685205 0.13151367 -0.08012637 -0.06859115 -0.10939653 0.005846721 0.07053771
-0.049070656 -0.10231832 -0.0331904 0.11308966 0.016439602 0.011996225 0.09831413 0.037766475
-0.009817083 -0.10318339 0.07452857 -0.017065082 0.018235644 0.032836866 0.0012725595 -0.14603224

fc2.bias f4 [128]
00000000: f883 00bd 1a9d aabd 4874 53bd 5144 2cbd
00000010: 829f 85bc bf49 6bbd 2335 bcbb a12e 84bd
00000020: dd44 cabc cd6c 96bb dcbf a03c 92e8 dabd
00000030: 9f95 8c3d c7e2 7ebd 1cae 02bc ffb6 f0bb
00000040: ef4a a33d 0038 a7bc d4a3 f8bc 5777 d1bc
00000050: f7b4 e4bb 0722 22bb 16f1 0bbc e2e0 c6bd
00000060: 2000 f93b 2ac2 d1bc 3b74 c7bc c788 ac3a
00000070: a8da aa3c e649 a2bd 05eb a73d 6341 a6bd
00000080: 9f20 e9bd fce5 e0bc b680 8f3c 21a9 84bd
00000090: 7cae 803c 8901 523d 8f9e ae3c 020b 8fbd
000000a0: 3cb7 283d dd34 babb 2fa1 77bc 6256 81bd
000000b0: 4b9c 0e3e c603 34bd 4516 b5bc e340 463b
000000c0: fd6b 013d bdd3 1a3d 1c1f a03b afb1 58bd
000000d0: f2ec 6a3d 9854 ab3d 7f64 12bd 67ed b93c
000000e0: 266c 203d 37cb 6e3d e076 523d a24d 583b
000000f0: 8a02 c53c 7348 19be 54b2 9fbd fbcd 3b3d
00000100: 1ea8 dfbc f822 81bd 2ffc b1bd 0b8d 84bd
00000110: 5982 dd3c 8b3c 9dbd 0c75 f1bb 0a91 063e
00000120: 79b4 a6bd c305 c7bb 1f6a 35bd 4fc2 9dbc
00000130: a979 c8bc a1f8 dabc b42b 9ebd 8d4d f03d
00000140: 8328 863d ecb2 b4bc 3a3d dcbd 128d 8a3d
00000150: d770 4fbc 0e2b 8e3c d442 163c 654d fbbc
00000160: 8646 993c 5d87 54bd e652 e53c 4a01 db3d
00000170: f831 4ebd 8c7d 77bd be35 19bd 7d05 e8bc
00000180: 7952 873d 4e9c 553d 5a53 2fbd 7a52 b0bd
00000190: 0f3d 0bbd 355b 40bd 0296 6dbd 3a3f 96bd
000001a0: b9d1 49bb e55e a0bc e734 113d aebe ffba
000001b0: 701a 083d b738 7abc b904 39bd ede1 96bc
000001c0: 89ab 693d e745 683c 3ed2 1dbe 9426 b9bd
000001d0: 0596 a1bd 51c8 8e3d 1ef7 393d 77ac 56bd
000001e0: e798 da3c 178c 4abc 53ef dbbd 3002 d63d
000001f0: 8558 8ebc 2000 8fbd 78b9 cbbd 7d0e 27bd
-0.031375855 -0.08330746 -0.051624566 -0.04205734 -0.01631141 -0.057443377 -0.005743639 -0.06454206
-0.02469104 -0.004590607 0.019622736 -0.106888905 0.068644755 -0.06222799 -0.007976081 -0.0073460336
0.07973277 -0.020412445 -0.030351557 -0.025569601 -0.0069795805 -0.002473952 -0.008541366 -0.09710862
0.007598892 -0.02560528 -0.024347415 0.0013163321 0.020856217 -0.07924251 0.08199123 -0.0811794
-0.11383175 -0.027453415 0.017517429 -0.06477571 0.0157082 0.051270995 0.021315841 -0.069845214
0.04119037 -0.0056825713 -0.015114113 -0.06315304 0.13926809 -0.04394891 -0.022105346 0.0030251078
0.031597126 0.037799586 0.004886521 -0.052903827 0.057354875 0.08365744 -0.03574037 0.02269621
0.03916564 0.05829927 0.0513829 0.0033005257 0.024049062 -0.14969043 -0.07797685 0.045850735
-0.027301844 -0.06305498 -0.08690678 -0.06472214 0.027039694 -0.07677563 -0.0073686894 0.13141266
-0.08139891 -0.006073685 -0.044290658 -0.019257693 -0.024472075 -0.026729884 -0.077231795 0.11733542
0.06550696 -0.022057973 -0.107538655 0.06765188 -0.01266118 0.017354514 0.0091712065 -0.030676553
0.018710386 -0.051886905 0.02799363 0.10693605 -0.050340623 -0.060422465 -0.03740477 -0.02832293
0.06607527 0.052151017 -0.0428041 -0.08609481 -0.033993777 -0.04696198 -0.058004387 -0.07336278
-0.003079517 -0.0195765 0.035450842 -0.0019511783 0.033228338 -0.015272311 -0.04517052 -0.018418277
0.057048354 0.014176822 -0.15412232 -0.09040561 -0.07889942 0.06971801 0.045401685 -0.05241057
0.026684238 -0.012362502 -0.10739007 0.10449636 -0.017376194 -0.06982446 -0.09947485 -0.0407853

fc3.weight f4 [64, 128]
00000000: a222 743e 0f86 6f3e 38b2 aa3e 1952 913e
00000010: b0ca 4bbb 58ba 153c 2499 58be a9b5 3e3d
00000020: 2b94 473d 7c85 49be a3e6 553e 73d4 413d
00000030: baf6 4d3e 920e 1bbe a37f ff3d 17e0 fcbd
00000040: 7237 09be e8b4 e33c 0258 083e 9a3d 173d
00000050: 3092 ea3d 2fd1 cdbd 37fe 253e e873 eebd
00000060: f1b2 afbb ab1e 2cbd 06d9 d73d 7f53 8ebe
00000070: 34f8 05be 78c7 72bc a405 19be aca3 c73c
00000080: 83bc 5d3e b968 acbe 1f5c aa3d a754 323d
00000090: baf3 db3d 1e0b 92bd b1ad 9c3b 0535 bf3d
000000a0: 8ba5 8fbd b84d 77be 61af 5abc 0604 f03d
000000b0: db8a 83be ffc9 653d 61b6 0b3d 8f6b 15be
000000c0: 4799 ff3d fda2 71be c1e4 9cbd 168d e6bd
000000d0: c5b7 843d 6502 f83d f673 63bd 1be4 013d
000000e0: 4984 5dbc 5778 503d 36c2 9dbe 922e ffbc
000000f0: 4df2 4ebe b8a4 123e 4f25 b5be 6587 68be
00000100: fb37 7bbe 1fbc fabd 3377 913c 51af 6b3e
00000110: 33b9 c7bd de58 5a3e 2fb2 043d 67d8 6abe
00000120: cd9e a63e 6595 b33c ef97 6fbe ac98 593d
00000130: 4aa0 d4be 9b52 56bd 808a 6f3e 40ff b1be
00000140: 6346 90bc c377 813d 010a 283e 40ae c2be
00000150: 9515 d7bd 33cc 2f3e e623 4a3e d4f0 30be
00000160: 4d0e c1be f2ba 343d 02ba f3bc b5e7 053d
00000170: 9f37 623e aec0 6c3e a61c 82bd b732 5d3e
00000180: 5697 17bd 5d70 58be b533 4e3d 8022 603c
00000190: e9c9 93be 4e38 cd3c 5252 2e3e 74f8 1a3e
000001a0: 4d32 983d fd0d 323d 18f6 713e dd22 0ebe
000001b0: 45e5 e33d 0d6c 26be 7d82 873d 6d80 2ebe
000001c0: f134 80bd a9f7 103e be01 2bbe b98a 273d
000001d0: 4930 b53d a13a 6fbd 31ba 9b3e 7e04 f63d
000001e0: 2327 85bd 9aa0 0f3e 8b64 503e 73f6 9dbd
000001f0: 7bfe 4f3e 89dc 2b3e 0d11 98bc 8415 3f3c
00000200: 1f7f 1a3e 320d 8cbd 78b4 c53d ad3d 3bbc
00000210: f29c 693c f1fe 153d 17c6 f6be 6a25 71bc
00000220: 65fc 1a3e b307 203c a6cb 133e b442 ff3d
00000230: c12c 13bd 4342 00bf edd1 0d3e c0f6 e73d
00000240: e008 0ebd 217a bbbc 43b9 943d 2e61 1d3e
00000250: d7c6 8fbd 5fce 80be 8def b63d 983c 3a3d
00000260: 442d 2b3d 3f53 bcbd 716a ce3d b0a2 04be
00000270: bfea 153e 2b9e 82bb 93e7 25be 6cd7 bebd
00000280: f49d 2cbe acdb 0dbf ea38 523e 00ab dbba
00000290: fa99 293e 93de 99bc 8286 e13d 3a23 babd
000002a0: 4051 8bbe c0f8 4ebf 2d51 553a 2d19 d03d
000002b0: b789 093e 430e 7b3e 0e3d 2e3d 52f8 1e3e
000002c0: c43a 393c 3d01 093d d441 9cbc 85c7 71be
000002d0: 42f8 42bd 13b0 85be da33 11be f425 53bc
000002e0: 2eb2 a13d e0d0 82bd 63fe cfbe 6966 46be
000002f0: 413b b6bd 852c 02bd 3a17 94be 0367 7ebd
00000300: 4f64 adba 1d7b 00be b6e3 9c3d aa62 84bd
00000310: 029f 15be 236c 6e3d eab8 28bd 3008 8ebe
00000320: 20e4 0b3e 8433 92bd f919 aabd cd3f a9bd
00000330: baa1 fabe 28d6 13be 217c 493e e320 e43c
00000340: f89e fd3d c296 d53d 66a7 4c3e f65a 8dbc
00000350: 2134 f8bd 09f5 853d 28ce 09bd 5ad9 b6be
00000360: b70e 06bd 0aee 183e cea2 afbc fab2 333e
00000370: 3080 fc3c 0fa6 f53d 8f96 253d 095f a73d
00000380: 068c 653c 40be 6d3c 0bce 8f3d 500b 4b3d
00000390: 1d64 66be 5277 2a3e 7b90 00be 3ea0 183e
000003a0: eaff 0abe c27f 94bc 378b ab3b 6c8a d4be
000003b0: 74a8 883e 4b97 06be cec7 d83d c92c 993d
000003c0: 2ee8 2c3e a5f9 123d 98ac 89be 33e6 83bd
000003d0: 9247 c13d b619 873d 2de4 0d3e 1278 9e3d
000003e0: 347e 9cbe e449 c93d 1489 b73e 05d8 6cbe
000003f0: dfd2 7bbc cce7 a33d ef65 2ebe 9bd1 59bd
0.23841336 0.23390983 0.33339095 0.28382948 -0.0031096153 0.009138666 -0.21152169 0.046559963
0.04872529 -0.19679826 0.20888762 0.047321748 0.2011365 -0.15142277 0.12475517 -0.12347429
-0.13400057 0.027796224 0.13314822 0.036923982 0.11453664 -0.10049664 0.16210257 -0.11643201
-0.0053619076 -0.042021435 0.10539441 -0.27798077 -0.13082963 -0.014818065 -0.14943558 0.024370037
0.21653943 -0.33673647 0.08318352 0.043537762 0.107398465 -0.07131027 0.004781448 0.093362845
-0.07013997 -0.24150741 -0.013347478 0.117195174 -0.25691876 0.05610084 0.034109477 -0.14591812
0.12480407 -0.23597331 -0.07660819 -0.11257379 0.06480364 0.12109832 -0.05553051 0.03171168
-0.013520309 0.050896015 -0.30812234 -0.031150136 -0.20209618 0.14320648 -0.35380027 -0.22707899
-0.24533074 -0.122429125 0.017757034 0.23016097 -0.09752121 0.21322963 0.03239649 -0.22934113
0.3254303 0.021921823 -0.23397802 0.053124115 -0.4152854 -0.052324872 0.23392677 -0.34765053
-0.017611688 0.06321671 0.16410066 -0.38023567 -0.10502163 0.1716774 0.19740257 -0.17279369
-0.37706223 0.044123597 -0.029751781 0.032691676 0.2209153 0.23120376 -0.063531205 0.21601377
-0.03700956 -0.21136613 0.05034228 0.0136801 -0.28864983 0.025051262 0.1702359 0.1513384
0.07431469 0.04347037 0.23629034 -0.13880487 0.11127714 -0.16252156 0.066166855 -0.17041178
-0.06260098 0.14156975 -0.16699883 0.04090378 0.088471 -0.058405522 0.3041549 0.120125756
-0.06501605 0.14026108 0.20350854 -0.07713022 0.2031192 0.16783346 -0.018562818 0.011662845
0.15087555 -0.06838454 0.09653562 -0.011428279 0.01425861 0.036620084 -0.48198006 -0.014718393
0.15135343 0.009767461 0.14433154 0.124638945 -0.035931353 -0.5010111 0.13849612 0.11326361
-0.034676433 -0.022885384 0.07261898 0.15369102 -0.070203476 -0.2515745 0.089324094 0.045467943
0.041791216 -0.091955654 0.10078896 -0.12952685 0.1464033 -0.0039861402 -0.1620162 -0.09318432
-0.1685713 -0.5541332 0.20529523 -0.0016759336 0.16562644 -0.01878289 0.110119835 -0.0908875
-0.27210426 -0.8084831 0.00081374013 0.10161052 0.1343144 0.24517159 0.042538695 0.15524414
0.011305515 0.033448447 -0.019074358 -0.23611267 -0.04760004 -0.26110896 -0.14179936 -0.012887467
0.07895313 -0.06387496 -0.4062377 -0.19375004 -0.088980205 -0.03178074 -0.2892397 -0.06210996
-0.0013228747 -0.12546964 0.0766062 -0.06464131 -0.14611438 0.058208596 -0.041191973 -0.27740622
0.13661242 -0.07138732 -0.08305735 -0.08264122 -0.48951513 -0.14437163 0.19676258 0.027847713
0.123838365 0.104291454 0.19985732 -0.017255288 -0.12119318 0.06540877 -0.03364387 -0.357127
-0.032728877 0.14934555 -0.021439936 0.17548743 0.030822843 0.11994564 0.040426787 0.081724234
0.014010435 0.014510691 0.070217215 0.049571335 -0.22499128 0.1664708 -0.12555115 0.14904878
-0.13574186 -0.018127326 0.0052351016 -0.41511858 0.2669102 -0.13143651 0.10584985 0.07479245
0.16885445 0.03588261 -0.2688949 -0.064403914 0.09437479 0.06596701 0.13856573 0.07737745
-0.30565035 0.09828547 0.3584677 -0.2312928 -0.0153701 0.08003196 -0.17031072 -0.05317841

fc3.bias f4 [64]
00000000: 572d f6bd ff86 8cbd 0cbf f3bc 2e25 afbb
00000010: 3ae5 11bd 114f 4d3d ea7a 10be aa5d f33c
00000020: 884c babd dbcf b3bd 94c9 253d 20e1 8abd
00000030: bd37 86bc 9b40 25be eb90 c4bd 4d75 2dbe
00000040: b9ce 42bd 93aa f5bc 61db 043e f4e0 5fbc
00000050: 8c2f cebd a385 813c 9a05 51bd 826c acbd
00000060: b60b e23c efcf a83d 6935 9ebc b27d f5bd
00000070: d601 2d3d ff7a 03be e2e3 b63d 6461 a5bd
00000080: 6597 29bc a9f4 47be 1a9d 9bbd e6d9 963d
00000090: ab07 863b 3f98 963d 4897 e4bc cef2 b33c
000000a0: f310 b7bd 8dd1 14be fd45 803d a3ba 0a3d
000000b0: bb1d c53c afcb 1a3c cd24 dabd 80f9 0ebd
000000c0: b6ef ed3a 1389 dfbc d82f 03bd e18f 873d
000000d0: 5a2a 3d3c f74b 89bc 4069 66bd 8e7e c4bd
000000e0: f232 833d f2d8 12bd ac54 4dbd 29f3 833c
000000f0: 637c ebbc 91ab 283c ec82 1fba cbf9 15be
-0.12020367 -0.06861686 -0.029754184 -0.0053450083 -0.035618998 0.05012423 -0.14109388 0.029707748
-0.090966284 -0.0877988 0.040475443 -0.067812204 -0.016384 -0.16137926 -0.095979534 -0.16939278
-0.047560427 -0.029988563 0.12974311 -0.013664473 -0.100676626 0.015810793 -0.051030733 -0.08419134
0.027593475 0.08242785 -0.019312577 -0.11986865 0.04223808 -0.12839888 0.08930184 -0.080752164
-0.010351037 -0.19526924 -0.07598324 0.073657796 0.0040902696 0.073532574 -0.027904168 0.021966364
-0.0893878 -0.14533062 0.06263349 0.033869397 0.024062028 0.009447976 -0.106515504 -0.03490591
0.0018153104 -0.027287042 -0.03202805 0.066192396 0.011545742 -0.016759856 -0.056252718 -0.09594451
0.064062014 -0.035851426 -0.050129578 0.016107159 -0.028745836 0.010294811 -0.00060848775 -0.1464607

fc4.weight f4 [2, 64]
00000000: 5aa9 04bf 6717 20be 04bb 133f cf1f b93e
00000010: 9de2 583d ffbf c6be d598 e83e eeee 263f
00000020: 15d8 dabe 1c71 5ebe c520 65bf c5c8 5abe
00000030: 65c6 d53e 5be2 72be 8bdd 143f e2cb a93e
00000040: 6342 13bf 4c25 ba3d 4820 4c3e 85ba 4ebe
00000050: a4ca f13d 9b61 763d bc4b dd3b 8187 d83e
00000060: a5c2 1a3d 8024 99bc df7e 183f 43a5 0cbe
00000070: 9473 073d 2b5b 103f ae2e 9fbc 9816 793e
00000080: 643a 9b3e 0d1f 07bf 793b 2cbf 8b0e 573d
00000090: 8a57 573f 4be8 383e e9ed 53bd dcad 043e
000000a0: 9d2b 12bf fd73 41be d864 0bbe 54d7 52be
000000b0: 01c6 a43e 37c9 833d 2297 f1be 301d aabd
000000c0: 6450 27be c2b4 b1bf 1b2e 6fbf ee9d 633e
000000d0: 062a 873f ec3f bbbe 8176 483e 445a e03e
000000e0: dd7e 4c3e a1fc 38bf 4bf2 4e3d b739 083c
000000f0: 0726 dabe 1faf d43d 5ae8 86bf aba3 32bf
00000100: 7ca5 263f 26d8 293f 8238 eebe 58f4 813e
00000110: 4638 043f 403f 21bf 5209 d0be ce69 4fbf
00000120: 37db c33e 5995 543e 66fa eabe f521 7b3d
00000130: 4026 5abe b8b7 413d 2425 32bf a76f 3dbe
00000140: d029 1abf ba61 043f 5666 63be 1040 c1be
00000150: 7d85 043f b539 0b3f 13a8 58bf 955a 58be
00000160: 4f3a 0f3f f5de 4fbf 949c 473e cd17 39bd
00000170: 304a 323f 4bd4 b1bd 0d8e 6b3f 43f4 0fbe
00000180: db5d d5be 1595 ce3d 96b8 95bd c7b5 5e3d
00000190: 4718 2a3f 933e 7abf 8737 b23e 916b 0a3e
000001a0: 1c3e 1cbe 2a2b c7be 4dd2 ba3e bef3 9e3e
000001b0: 2189 003f 7c06 85bf 5406 ebbe bd8f ad3e
000001c0: f8b9 f2be d394 db3e 5832 a6bc 91dd 2fbe
000001d0: b312 9cbe d03a 6bbe 6f9b 803e 321f 93bd
000001e0: fe01 603e e266 01bf 57ff be3e 5db7 063f
000001f0: 2695 7ebe eec6 ddbd 94ac ba3c 49a3 cfbd
-0.5182091 -0.15633927 0.5770724 0.3615708 0.05295049 -0.38818356 0.45429102 0.6520833
-0.42742983 -0.21722835 -0.8950313 -0.2136565 0.41752926 -0.2371916 0.5815055 0.33163363
-0.57523173 0.09089145 0.1993419 -0.20188339 0.11806229 0.060151678 0.006753413 0.4229088
0.037783284 -0.018694162 0.5956859 -0.13734917 0.03306921 0.5638911 -0.019431438 0.24325025
0.30317986 -0.52781755 -0.6727825 0.052504104 0.8411795 0.18057363 -0.05174056 0.12956947
-0.570978 -0.18891902 -0.13612688 -0.20589954 0.32182315 0.06434863 -0.47185618 -0.08306348
-0.1633926 -1.3883288 -0.93429726 0.22228214 1.05597 -0.36572206 0.19576456 0.43818867
0.1997027 -0.7226048 0.050524037 0.008314542 -0.42607138 0.10384964 -1.0539658 -0.6978099
0.6509626 0.6634544 -0.46527487 0.25381732 0.51648366 -0.62987137 -0.4063211 -0.8102082
0.38253185 0.20760097 -0.45894164 0.06131168 -0.21303654 0.04729435 -0.6958792 -0.18499623
-0.6022005 0.5171162 -0.22207007 -0.37744188 0.51766187 0.5438493 -0.8463146 -0.21128304
0.55948347 -0.8119958 0.19493324 -0.045188714 0.6964445 -0.0868307 0.9201363 -0.14058022
-0.4167317 0.10087029 -0.073105976 0.054372575 0.66443294 -0.9775173 0.3480799 0.13517596
-0.15258068 -0.3890012 0.36488572 0.31045336 0.5020924 -1.0392604 -0.45903265 0.33898726
-0.47407508 0.4288698 -0.020287678 -0.17174365 -0.30483016 -0.22971654 0.25118586 -0.071836844
0.2187576 -0.5054761 0.37304184 0.5262354 -0.24861583 -0.108289585 0.02278737 -0.10138566

fc4.bias f4 [2]
00000000: 4d66 803b d2e5 13be
0.003918445 -0.14443138
