checkpoints/Computer1-1-checkpoint-1.5682-actor.pth (torch, 193711 bytes, 8 tensors)

fc1.weight f4 [256, 24]
0	0xbd0db9b5	-0.034600932
1	0x3e59a9e9	0.21256222
2	0x3e16bb11	0.14719798
3	0x3d1640d8	0.036682934
4	0x3e8ed28e	0.27895015
5	0x3e0eaf61	0.13934089
6	0xbd73a53d	-0.059483755
7	0x3ddfa46c	0.10920033
8	0x3e432de2	0.19060472
9	0x3e871c25	0.2638866
10	0xbd60d8c0	-0.05489421
11	0x3e4cf55e	0.20015475
12	0x3e8aa7f8	0.27081275
13	0xbe553431	-0.2082069
14	0x3dfe9874	0.12431422
15	0x3e501dde	0.20323893
16	0xbe7d39ca	-0.24729076
17	0xbdfed9a6	-0.12443857
18	0x3c683585	0.014172916
19	0x3cca689d	0.024708087
20	0xbdabf5f2	-0.0839652
21	0xbe5a00c6	-0.21289358
22	0x3e349cfb	0.17638008
23	0x3e67f086	0.22650346
24	0x3d9185d5	0.071056046
25	0xbec645b6	-0.3872506
26	0x3af9a4d7	0.0019046318
27	0xbd265e89	-0.0406175
28	0xbebbda74	-0.36690104
29	0xbe6dd4e0	-0.23225737
30	0xbce2b204	-0.027672775
31	0xbd0ceffc	-0.034408554
32	0x3e13bfd4	0.14428645
33	0xbed93e1a	-0.42430192
34	0x3d9229ed	0.07136903
35	0x3da1f354	0.07907739
36	0xbea0c89a	-0.31403047
37	0xbdf8fb56	-0.121573135
38	0xbc9d3282	-0.019189123
39	0x3d9ebc26	0.0775073
40	0x3d03efed	0.032211233
41	0xbe44ca1d	-0.19217725
42	0xbcec5055	-0.028846899
43	0xbdd01b10	-0.10161412
44	0xbe555eed	-0.20836993
45	0x3e931202	0.28724676
46	0xbd55b2ca	-0.05217246
47	0xbe31058c	-0.17287272
48	0xbd22e7ee	-0.039771967
49	0xbefa02d6	-0.4883029
50	0xbbf1f87c	-0.007384358
51	0xbe45f5eb	-0.19332092
52	0xbd3b901e	-0.045791738
53	0x3db1cabd	0.086812474
54	0x3d74d54d	0.059773732
55	0x3e0c8d10	0.13725686
56	0x3e89b7cf	0.26898047
57	0xbed04fb0	-0.40685797
58	0x3d581a53	0.05275948
59	0xbde4a8dd	-0.111650206
60	0xbd7c89a8	-0.061654717
61	0xbe86d386	-0.26333255
62	0x3ded64d0	0.11591494
63	0x3d9447f2	0.07240285
64	0x3ea59b36	0.3234498
65	0xbeae5a42	-0.34053236
66	0xbca81c70	-0.020521373
67	0x3d10a0e7	0.0353097
68	0x3e8b1305	0.27162948
69	0xbf2ce332	-0.6753417
70	0x3d5e8d6f	0.0543341
71	0x3c210a46	0.00982911
72	0x3daffaca	0.08592756
73	0xbd2d5449	-0.04231671
74	0x3cd0d0f8	0.025490269
75	0xbe2b3979	-0.16721143
76	0xbcf329de	-0.02968305
77	0xbe091952	-0.13388565
78	0xbced96f1	-0.029002639
79	0xbe649249	-0.22321428
80	0x3dd799dd	0.10527394
81	0xbe42c4b6	-0.19020352
82	0x3df8b4c4	0.12143853
83	0x3de714be	0.11283253
84	0x3e890d12	0.26767784
85	0xbe3d151c	-0.18465084
86	0x3e20be29	0.1569754
87	0x3d61f975	0.05516954
88	0xbd9b6f1f	-0.07589554
89	0xbdf60480	-0.12012577
90	0xbe337bfc	-0.17527765
91	0xbbeacec7	-0.007165763
92	0x3e215f72	0.15759066
93	0xbf16997c	-0.5882795
94	0x3ddd25f2	0.10798253
95	0xbd9b16cc	-0.075727075
96	0x3ce87f0d	0.028380895
97	0xbd57fb74	-0.05273004
98	0x3dfeeda9	0.12447674
99	0xbe42efba	-0.19036761
100	0x3dbab487	0.09116464
101	0xbec798b9	-0.38983706
102	0x3e225bd3	0.1585534
103	0xbc52c01f	-0.012863188
104	0x3cb010af	0.02149233
105	0x3e3f284a	0.18667713
106	0xbd587791	-0.052848402
107	0xbdc0c6ae	-0.09412895
108	0xbe5715e4	-0.21004444
109	0xbbb7a235	-0.0056040534
110	0x3e3a2bcd	0.18180771
111	0xbe23d728	-0.16000044
112	0x3e02b323	0.12763648
113	0xbd2fdebb	-0.04293702
114	0xbdb90212	-0.09033598
115	0xbe3ca6a4	-0.18422943
116	0xbea283c2	-0.31741148
117	0x3ec54036	0.38525552
118	0x3d9c73a8	0.07639247
119	0xbea26739	-0.31719378
120	0x3d3aae15	0.045576174
121	0xbeb934ae	-0.36173004
122	0x3db18c60	0.086693525
123	0xbe22d03f	-0.15899752
124	0xbd263cf2	-0.040585466
125	0xbe8d8e74	-0.27647746
126	0x3dd27d74	0.102778345
127	0x3d807175	0.0627164
128	0xbdeed91d	-0.11662505
129	0xbea891e1	-0.32923797
130	0xbd10630c	-0.03525071
131	0xbe6acc20	-0.2292943
132	0xbd724e70	-0.059156835
133	0xbe6313f2	-0.22175577
134	0x3dbdd1ce	0.09268533
135	0xbe6c671e	-0.23086211
136	0xbe38721e	-0.18012282
137	0xbec7dbeb	-0.39034972
138	0xbdb64bf2	-0.08901204
139	0xbe651315	-0.2237056
140	0x3ce3f0f9	0.027824866
141	0xbec866a1	-0.391408
142	0x3deed842	0.11662342
143	0xbed0ea06	-0.40803546
144	0x3e07a3c1	0.13246061
145	0x3d999fb4	0.07501164
146	0x3bda251d	0.0066572563
147	0x3d9b8213	0.07593169
148	0xbc652a9a	-0.013987208
149	0x3d7f32e3	0.06230439
150	0x3e4652ee	0.19367573
151	0xbc2f625a	-0.010704601
152	0xbbca6813	-0.0061769574
153	0x3ecac1d2	0.39600998
154	0x3d87c9c9	0.06630284
155	0xbc326def	-0.010890468
156	0x3c4fbfb2	0.012679981
157	0xbe6515ba	-0.2237157
158	0xbd353d1a	-0.044247724
159	0xbd3ae13a	-0.04562495
160	0x3dd139c3	0.10216095
161	0x3e01c8b3	0.12674217
162	0xbd132231	-0.03592128
163	0xbe2e1e55	-0.17003758
164	0x3e23df0e	0.16003057
165	0xbefb999c	-0.49140632
166	0xbdb61649	-0.08890969
167	0xbe1e81b8	-0.15479171
168	0x3db7254c	0.08942661
169	0x3e7d403b	0.24731533
170	0xbe08e440	-0.1336832
171	0xbb04723b	-0.0020209688
172	0xbdc2c327	-0.095098786
173	0xbcdf6674	-0.027270533
174	0x3daf2545	0.085520305
175	0xbda366f2	-0.0797862
176	0x3ddc2103	0.10748484
177	0x3e520e4b	0.20513265
178	0xbd604da4	-0.054761544
179	0xbe05432a	-0.13013902
180	0x3e8c69b9	0.2742441
181	0x3e2137b5	0.15743907
182	0xbc786254	-0.015160162
183	0x3ceb084d	0.028690482
184	0xbe8ff333	-0.28115234
185	0xbb44db19	-0.003003782
186	0xbc38b945	-0.01127464
187	0xbd90c3ee	-0.070686206
188	0x3ecee800	0.40411377
189	0x3d7badfd	0.061445225
190	0xbdcc3f64	-0.09973028
191	0xbe0e6fc1	-0.13909818
192	0x3dac64bd	0.08417652
193	0x3ec86d2e	0.39145797
194	0xbbae3d22	-0.005317346
195	0x3d9624f6	0.073312685
196	0xbe21841a	-0.15773049
197	0x3d277798	0.040885538
198	0x3df2ac28	0.118492424
199	0x3d8d82c1	0.06909705
200	0x3c7b1e34	0.015327025
201	0x3d16291c	0.0366603
202	0x3e32349c	0.17402881
203	0xbe489d2e	-0.1959121
204	0xbe03b7dd	-0.12863107
205	0xbde07064	-0.10958937
206	0xbd2eafec	-0.04264824
207	0xbdd635a2	-0.104594484
208	0xbe0f1a21	-0.13974811
209	0x3df4dac2	0.11955787
210	0x3cfdee59	0.030997442
211	0xbe3a4617	-0.181908
212	0xbc359590	-0.011083022
213	0xbe120349	-0.14259066
214	0xbdf36d89	-0.118861265
215	0x3d6c6613	0.057714533
216	0x3e9d4231	0.30714563
217	0xbea3f4fb	-0.32022843
218	0xbe04c569	-0.12965931
219	0xbdbe49da	-0.0929143
220	0xbd3b5f5b	-0.045745235
221	0xbeafa839	-0.3430803
222	0x3e468bae	0.19389221
223	0xbe461b2b	-0.19346301
224	0x3e4a5784	0.19759947
225	0xbeb9c695	-0.3628432
226	0x3e06aa35	0.13150866
227	0xbe8049c3	-0.25056276
228	0x3dd52ee8	0.10409337
229	0x3c3477cc	0.01101489
230	0x3e2fe458	0.1717695
231	0x3d5269d5	0.05137046
232	0x3e892871	0.26788667
233	0xbee61e2a	-0.44944888
234	0xbe07629c	-0.1322121
235	0x3c55fa98	0.0130602345
236	0xbdb2d6ed	-0.087324
237	0xbda8341f	-0.08213066
238	0x3bfdc485	0.007744374
239	0x3d934595	0.07191006
240	0xbe38ca29	-0.18045868
241	0x3e59996d	0.21249934
242	0xbe1e8826	-0.15481624
243	0xbe462e0b	-0.19353501
244	0xbe3d73e7	-0.18501244
245	0xbe0d6970	-0.13809752
246	0xbd8c1cfa	-0.06841464
247	0xbe360b4a	-0.17777744
248	0xbe0ee305	-0.13953789
249	0x3eb07e00	0.3447113
250	0xbd99e140	-0.07513666
251	0x3d138a15	0.036020357
252	0xbe29738d	-0.16547985
253	0xbcc3e892	-0.02391461
254	0xbe081930	-0.13290858
255	0xbe1cd3ff	-0.15315245

fc1.bias f4 [256]
0	0x3d24eebe	0.040266745
1	0x3d83bab1	0.06432093
2	0x3d06a97e	0.032876484
3	0xbe0fb9fa	-0.14035788
4	0xbe10195a	-0.14072171
5	0x3c4dabe7	0.012553192
6	0x3de2bbc0	0.11070967
7	0x3e66ec5a	0.22551098
8	0xbdc33a12	-0.095325604
9	0x3e10f72a	0.14156786
10	0x3dcd8371	0.10034836
11	0xbc3755c7	-0.0111898845
12	0xbe19cf59	-0.15020503
13	0xbdaeead3	-0.08540883
14	0xbe08862d	-0.13332434
15	0xbcdc629e	-0.026902493
16	0xbe402dff	-0.18767546
17	0x3dcbf12e	0.09958111
18	0x3e198a1a	0.14994088
19	0x3e1a9bcb	0.15098493
20	0xbd89915e	-0.0671718
21	0xbdb27f2d	-0.08715663
22	0xbe2a2a87	-0.16617785
23	0x3e3231e2	0.17401841
24	0x3e08fcba	0.13377658
25	0xbe3dd934	-0.18539888
26	0xbcfd20e1	-0.030899467
27	0x3cab757a	0.02093004
28	0xbe8600bb	-0.26172432
29	0xbe4fb1e3	-0.20282702
30	0x3dabf310	0.0839597
31	0xbe1bcb0d	-0.15214176
32	0x3b4b99f2	0.00310671
33	0xbe512719	-0.20425071
34	0x3e2baf17	0.1676601
35	0xbca4764a	-0.020075936
36	0xbe38385a	-0.17990246
37	0xbc822aa0	-0.015889466
38	0x3e0072dc	0.12543815
39	0xbd99497e	-0.07484721
40	0x3d62dd14	0.055386618
41	0x3e142adb	0.14469473
42	0xbe97aa11	-0.29621938
43	0x39b67a6e	0.00034804962
44	0xbd50befc	-0.050963387
45	0x3d335616	0.04378327
46	0xbe396fd6	-0.18109068
47	0x3e2b197c	0.1670894
48	0xbe18aa45	-0.14908703
49	0xbd5eb853	-0.054375004
50	0xbe0b970e	-0.13631842
51	0x3dee2cae	0.11629616
52	0xbe8893bf	-0.2667522
53	0xbdedff67	-0.1162098
54	0xbda67726	-0.081281945
55	0xbd77e4a2	-0.060520776
56	0xbdfb598c	-0.12272939
57	0xbe3f2b8c	-0.18668956
58	0xbe3f7650	-0.18697476
59	0x3d7da4d7	0.06192478
60	0xbe9c74b8	-0.305578
61	0x3e32255f	0.17397068
62	0x3d6bc043	0.057556402
63	0x3e11eccf	0.14250492
64	0xbe1ef71c	-0.15523952
65	0x3dc1a0ad	0.094544746
66	0xbe00f9ce	-0.12595293
67	0x3d6d42c9	0.05792502
68	0x3e5017e2	0.2032161
69	0x3c7814db	0.015141691
70	0xbe2d103e	-0.16900727
71	0xbc0c8863	-0.008577439
72	0xbd9e30d4	-0.07724157
73	0xbe544cc6	-0.20732412
74	0xbe454a35	-0.19266589
75	0x3dfcf17e	0.123507485
76	0xbd738f2f	-0.059462722
77	0xbe342f7c	-0.17596239
78	0xbe321a10	-0.17392755
79	0x3e074c8a	0.13212791
80	0xbe6202f5	-0.2207144
81	0x3df5a0fd	0.11993597
82	0x3dd0cb45	0.101950206
83	0x3def4430	0.116829276
84	0x3cc3d4d7	0.0239052
85	0x3ce05103	0.02738238
86	0xbe11abd0	-0.14225698
87	0xbe66d571	-0.22542359
88	0xbe6df8b8	-0.2323941
89	0xbd950410	-0.072761655
90	0xbe52b331	-0.20576169
91	0xbe20a562	-0.15688089
92	0x3c5493c4	0.012974683
93	0xbe5a512d	-0.21320029
94	0xbded1075	-0.115754046
95	0x3e1c37bb	0.15255634
96	0x3d98d6fa	0.074628785
97	0x3e0bd2dc	0.13654655
98	0x3d610f03	0.054945957
99	0xbe10c54b	-0.14137761
100	0x3d3c79fb	0.046014767
101	0x3dc4db4b	0.09612139
102	0x3db267e3	0.08711221
103	0xbdbee181	-0.09320355
104	0xbd8fdc49	-0.07024438
105	0xbd3bbab3	-0.045832347
106	0xbd9206be	-0.07130192
107	0xbc8ae495	-0.0169547
108	0x3e5f97ae	0.21835205
109	0xbe2c516a	-0.16827932
110	0xbe8863ca	-0.26638633
111	0xbcdc788c	-0.02691295
112	0xbb8d209a	-0.004306865
113	0x3d9b2ba0	0.0757668
114	0xbe5a88e5	-0.21341284
115	0x3e8ff6f9	0.28118113
116	0xbe3620c3	-0.17785935
117	0xbe0c898d	-0.13724346
118	0x3ccabc31	0.02474794
119	0x3b888fea	0.0041675465
120	0xbe2556dc	-0.16146415
121	0x3d7126b9	0.05887482
122	0xbd02267f	-0.031774994
123	0xbe2fd79a	-0.17172089
124	0x3e253b9b	0.16136019
125	0x3e097abf	0.1342573
126	0xbe35ff0e	-0.17773077
127	0x3e816025	0.25268665
128	0x3dc2f6ad	0.09519706
129	0xbe442ab2	-0.19156912
130	0xbe4d4aad	-0.20048018
131	0x3e82e012	0.25561577
132	0xbe2cd87d	-0.16879459
133	0xbe7dde66	-0.2479187
134	0x3e4e69c1	0.2015753
135	0x3e5b65cd	0.21425553
136	0x3dbc10f7	0.09182923
137	0x3dd9ea74	0.106404215
138	0xbe10f978	-0.14157665
139	0xbe21a4ed	-0.1578557
140	0x3e9d757f	0.30753705
141	0xbd93dda4	-0.07220009
142	0xbd3d4945	-0.046212453
143	0x3dea0c9c	0.11428186
144	0xbe3d9dd6	-0.18517241
145	0xbde10c84	-0.10988715
146	0xbdbb3ffb	-0.09143063
147	0xbe38dc2b	-0.18052737
148	0xbe885ac6	-0.26631755
149	0xbe99adf3	-0.30015525
150	0xbe105720	-0.14095736
151	0x3dabc8a3	0.08387878
152	0xbdda9764	-0.10673407
153	0x3bbcd2e0	0.005762443
154	0xbe8bb2c5	-0.27284828
155	0x3dc19ce2	0.09453751
156	0xbd64289d	-0.055702794
157	0xbc1d50c0	-0.009601772
158	0xbe8113ae	-0.25210327
159	0x3d9728df	0.073808424
160	0x3d988ba6	0.07448511
161	0x3c8dbd55	0.017302195
162	0xbe54a086	-0.2076436
163	0x3e0e115f	0.13873814
164	0xbba88b98	-0.005143594
165	0xbe95821d	-0.2920083
166	0x3df4e887	0.119584136
167	0xbd327b9d	-0.043574918
168	0xbdedfa6a	-0.11620028
169	0xbde7f0f8	-0.11325258
170	0xbe40f595	-0.18843682
171	0x3cc45b14	0.02396921
172	0x3ea387e9	0.3193963
173	0xbe5015b8	-0.20320785
174	0xbe8b592a	-0.27216464
175	0xbe6d8b03	-0.2319756
176	0xbe4c37b6	-0.19943127
177	0xbc5844e4	-0.013200019
178	0x3d28753d	0.041127432
179	0x3db8e47d	0.09027956
180	0xbcaf240a	-0.02137949
181	0x3d0083f6	0.031375848
182	0x3c82e3fb	0.01597785
183	0x3c79537f	0.015217661
184	0x3d46bb8f	0.048518714
185	0xbcfe483e	-0.031040307
186	0xbdc68dad	-0.09694991
187	0xbeb5edbf	-0.35532948
188	0x3e3af8f9	0.18259038
189	0x3e2a725f	0.16645192
190	0xbe06774e	-0.13131449
191	0xbd362a10	-0.044473708
192	0xbdc4809d	-0.095948435
193	0xbe54e829	-0.20791687
194	0xbe109b3a	-0.14121714
195	0xbe200a58	-0.15628946
196	0x3e530d00	0.20610428
197	0xbdb1900c	-0.08670053
198	0xbe0af6b2	-0.1357067
199	0xbdf5f66a	-0.120098904
200	0xbd86b721	-0.06577898
201	0xbcfde195	-0.030991355
202	0x3c8d050a	0.017214317
203	0xbe92119f	-0.2852907
204	0x3c0e5709	0.008687743
205	0xbdcc4118	-0.09973353
206	0x3d16cb8f	0.036815222
207	0xbbd49c20	-0.006488338
208	0xbc27d21f	-0.010242968
209	0xbe80138a	-0.25014907
210	0x3dbff1a6	0.09372263
211	0xbde18882	-0.11012365
212	0x3d1c3fa1	0.03814662
213	0xbe68fa32	-0.22751692
214	0xbe3d110e	-0.18463537
215	0x3e3af923	0.182591
216	0x3e4577f6	0.19284043
217	0xbc886a8b	-0.016652366
218	0x3e672d21	0.22575809
219	0xbe388d6e	-0.18022701
220	0x3e5e5201	0.2171097
221	0xbd59e164	-0.053193465
222	0xbe9aa9b7	-0.30207607
223	0xbe5a6a66	-0.2132965
224	0xbc78dc04	-0.015189175
225	0xbd4a9096	-0.049454294
226	0xbba7e2ed	-0.005123487
227	0x3e3e5f37	0.18591009
228	0xbd0a564d	-0.03377371
229	0x3dbc2d39	0.09188313
230	0x3d2bd5a0	0.041951776
231	0x3e1588ed	0.14603014
232	0xbe0a39e3	-0.13498645
233	0x3e25c3a9	0.1618792
234	0x3cd7689b	0.026294997
235	0xbe05d229	-0.13068451
236	0xbcaaa7d5	-0.020831982
237	0x3a9e81a8	0.0012093084
238	0x3d9dfa8a	0.07713802
239	0xbe4e5ec5	-0.20153339
240	0xbe2f64e7	-0.17128335
241	0xbe6a9e82	-0.22912028
242	0xbe3bf698	-0.18355787
243	0xbe2f8bbf	-0.17143153
244	0xbe830b36	-0.2559449
245	0xbde953c6	-0.11392932
246	0xbe13b5fe	-0.14424893
247	0x3e33a0cf	0.17541812
248	0x3b5c8113	0.003364627
249	0xbe8a5dfd	-0.27024832
250	0xbdc925c5	-0.09821657
251	0x3e465203	0.19367222
252	0x3d3994d6	0.045307957
253	0xbda80e9b	-0.08205911
254	0x3d92b66e	0.07163702
255	0x3e64e2bd	0.22352119

fc2.weight f4 [128, 256]
0	0xbd4c1137	-0.049821105
1	0x3ce5b140	0.028038621
2	0x3e282e46	0.16423902
3	0xbdc509a7	-0.09620982
4	0xbcd8998e	-0.026440408
5	0xbd05bc98	-0.03265056
6	0x3d31d30a	0.043414153
7	0x3e0514ee	0.12996265
8	0xbda5ec69	-0.08101732
9	0xbcf26941	-0.029591205
10	0xbd56d9c2	-0.052453764
11	0x3d557a3c	0.052118525
12	0x3db9c1f3	0.09070196
13	0xbdcfaa85	-0.10139946
14	0x3caf9833	0.021434879
15	0x3d316b37	0.04331514
16	0x3da3e752	0.08003105
17	0xbd4d234a	-0.050082482
18	0x3cb4bbfd	0.022062296
19	0xbcc7f56f	-0.024409024
20	0xbd6f8151	-0.058472935
21	0xbd383aa4	-0.0449778
22	0x3c83d615	0.016093293
23	0x3c7c9620	0.015416652
24	0x3d1f0828	0.038826138
25	0xbd73e06e	-0.059540205
26	0xbd0ac6bb	-0.03388093
27	0xbc3f01bf	-0.011658131
28	0x3dafbd03	0.08580973
29	0x3d061713	0.03273685
30	0xbd19a46b	-0.037510317
31	0x3d865f67	0.06561165
32	0xbd25958b	-0.04042582
33	0x3c49a888	0.012308247
34	0x3da03e39	0.07824368
35	0x3d39ff55	0.04540952
36	0xbc700e51	-0.014651851
37	0x3d7c0cc6	0.06153562
38	0x3ccbb05c	0.024864368
39	0xbd649709	-0.0558081
40	0xbda9b74f	-0.082869165
41	0x3d723572	0.059133
42	0xbd9e99f2	-0.077442065
43	0x3c6409ec	0.013918381
44	0x3e11d3e6	0.14240989
45	0xbd59f079	-0.05320785
46	0x3d76502d	0.060135055
47	0x3d089344	0.03334357
48	0x3dac3ad3	0.08409657
49	0xbdb4f908	-0.088365614
50	0xbdfa31db	-0.122165404
51	0x3c182a3c	0.009287413
52	0xbc8f4313	-0.017488038
53	0xbdac3a94	-0.084096104
54	0x3dacbbee	0.08434282
55	0x3e0e06a9	0.13869728
56	0x3c8b4715	0.017001668
57	0x3d3ce66f	0.046118196
58	0xbdd7d7d3	-0.10539212
59	0xb94272c1	-0.00018544031
60	0x3c770bec	0.015078526
61	0xbcf36235	-0.029709915
62	0x3d190202	0.03735543
63	0xbc06c3f5	-0.008225431
64	0xbd7e452d	-0.06207769
65	0xbd4a7270	-0.049425542
66	0x3ce5bd1f	0.028044282
67	0x3b870de1	0.0041215275
68	0xbcfbe59e	-0.030749138
69	0x3d98f80b	0.074691854
70	0xbdb5789a	-0.088608935
71	0x3a8b029d	0.0010605637
72	0xbd4c23f5	-0.04983898
73	0xbc6f134d	-0.014592004
74	0x3a4dad9b	0.00078459986
75	0x3d8c7a55	0.068592705
76	0xbd344333	-0.0440094
77	0x3cc52400	0.024065018
78	0xbd2db2c8	-0.042406827
79	0xbd78a22e	-0.06070154
80	0xbe937158	-0.28797412
81	0xbdcdb6d2	-0.10044636
82	0x3d96fe20	0.07372689
83	0xbdd2d4da	-0.102945045
84	0xbdc0f45e	-0.09421609
85	0x3db8e686	0.09028344
86	0x3d965091	0.073395856
87	0xbd24cc20	-0.04023373
88	0x3d8289e2	0.06373955
89	0x3ccfcddb	0.025366714
90	0xbdd81295	-0.10550419
91	0xbd5facb0	-0.054608047
92	0x3d01d480	0.031696796
93	0x3da8fc36	0.082512304
94	0x3cb36316	0.021897834
95	0x3d020695	0.03174456
96	0xbd2e7546	-0.04259231
97	0x3e18cb2c	0.14921254
98	0x3ce0b550	0.027430207
99	0xbc4bcd60	-0.012439102
100	0xbd291a20	-0.04128468
101	0xbc21c1e7	-0.00987289
102	0x3c2ef4c7	0.010678477
103	0xbd9489b3	-0.072528265
104	0xbd1174ac	-0.035511658
105	0xbd6bc9d4	-0.057565525
106	0x3e2dca1d	0.16971631
107	0xbd3b1fe2	-0.045684703
108	0xbc2058f4	-0.009786833
109	0xbdd34eb9	-0.103177495
110	0xbceecf8b	-0.029151699
111	0x3e05fff4	0.1308592
112	0xbc4b13fa	-0.0123948995
113	0xbec80b9a	-0.3907135
114	0x3b9aefbe	0.0047282865
115	0xbdb05cca	-0.08611448
116	0xbc286f98	-0.010280512
117	0xbbdfe810	-0.006833084
118	0xbd0ffea4	-0.035154954
119	0xbd332857	-0.043739643
120	0xbc8aa1f7	-0.016922934
121	0xbe1778ff	-0.1479225
122	0xbd9233b3	-0.07138767
123	0x3d9e4149	0.07727296
124	0x3d9110a9	0.07083256
125	0x3d0fbb92	0.03509099
126	0x3cc2c751	0.023776682
127	0x3d960ca5	0.073266305
128	0x3d28aa65	0.041178126
129	0xbd8c68d6	-0.06855933
130	0x3c6124a5	0.013741647
131	0x3e151dc2	0.14562133
132	0x3d6a56a6	0.05721154
133	0xbc39f0ec	-0.011348944
134	0xbde61c01	-0.1123581
135	0x3de7d72b	0.11320337
136	0xbac7c9ac	-0.0015242598
137	0xbd9110f0	-0.07083309
138	0x3d7f7e4f	0.062376317
139	0xbd270d94	-0.040784433
140	0xbe21f721	-0.15816928
141	0x3cfc515a	0.03080051
142	0xbee244c5	-0.44193092
143	0x3d358822	0.04431928
144	0xbe12497a	-0.14285842
145	0xbd31c7c6	-0.04340341
146	0xbd549a3b	-0.051904898
147	0x3d6772aa	0.056505837
148	0x3dac892f	0.08424603
149	0x3ced89aa	0.028996307
150	0x3b53bd50	0.0032308884
151	0xbe5aedbb	-0.2137975
152	0x3d741604	0.05959131
153	0x3d46feb7	0.04858276
154	0xba5e8fa1	-0.00084900303
155	0x3d7f202f	0.062286552
156	0xbdbdbe65	-0.092648305
157	0x3d4f8332	0.050662227
158	0x3b9f059f	0.004852965
159	0xbc056e8e	-0.008144034
160	0x3d6637a2	0.0562054
161	0x3c20efb4	0.009822775
162	0xbd5ba416	-0.05362328
163	0x3c85ef6a	0.016349513
164	0xbd306048	-0.04306057
165	0xbd3da396	-0.046298586
166	0x3c84ca3c	0.016209714
167	0x3d37a5d9	0.0448359
168	0xbd3fd798	-0.046836466
169	0xbc16c53f	-0.009202301
170	0x3d656ee4	0.056013957
171	0xbb99a07c	-0.0046883207
172	0x3c5e825e	0.013580887
173	0xbd44517d	-0.047929276
174	0xbba4fd01	-0.005035043
175	0xbd9c3a17	-0.07628267
176	0xbd404a07	-0.046945598
177	0x3e1f9005	0.15582283
178	0x3b18e60a	0.0023330473
179	0x3cd8bd6a	0.026457507
180	0x3cbcf041	0.02306378
181	0x3d80e7aa	0.062941864
182	0xbc7b13a1	-0.015324504
183	0xbce07e79	-0.027404057
184	0xbe26c13c	-0.1628465
185	0x3b83cff0	0.004022591
186	0x3d4a5412	0.049396582
187	0x3c649f49	0.013953992
188	0xbe4f864d	-0.20266075
189	0x3da4dd3f	0.08050012
190	0x3bd95151	0.006632008
191	0xbc90ef27	-0.017692162
192	0xbd7b4344	-0.061343446
193	0x3d5b1c5d	0.053493846
194	0x3dbe3841	0.09288073
195	0xbd68c41c	-0.05682765
196	0xbe7c8d5e	-0.24663302
197	0x3a8a79a2	0.0010564814
198	0x3d44a0bb	0.048004847
199	0xbdf60f5e	-0.1201465
200	0xbd439e2c	-0.047758266
201	0x3db6a374	0.08917895
202	0x3d8e54de	0.06949781
203	0x3c8c7f6e	0.017150607
204	0xbd877e67	-0.06615906
205	0x3d9e1454	0.07718721
206	0xbe00625e	-0.12537524
207	0x3daa981d	0.083297946
208	0xbd45f4bd	-0.048329104
209	0xbcf60657	-0.03003232
210	0xbcc321c0	-0.023819804
211	0xbd6b2723	-0.05741037
212	0xbcbb807d	-0.022888416
213	0xbbbf2455	-0.0058331885
214	0x3d673de4	0.056455508
215	0x3c2db18b	0.010601412
216	0xbcfaf601	-0.030634882
217	0xbe48834e	-0.19581339
218	0x3c7fb7e4	0.015607808
219	0xbdc9fc6a	-0.09862597
220	0x3db7b4cb	0.089700304
221	0xbdda4fe4	-0.10659769
222	0x3d6fcab3	0.05854292
223	0x3dd00ba2	0.10158469
224	0xbd41786e	-0.04723399
225	0xbd82423f	-0.06360292
226	0xbc6bd0e7	-0.014393068
227	0xbe405044	-0.18780619
228	0x3d5b7d05	0.053586025
229	0xbcad3ee9	-0.021148162
230	0x3d3f1bce	0.046657376
231	0xbd9e077b	-0.077162705
232	0xbd901ff6	-0.07037346
233	0xbda2569e	-0.07926677
234	0x3e0b5c3e	0.13609406
235	0xbdae3bea	-0.085075215
236	0xbd2953c2	-0.041339643
237	0xbd960a6f	-0.07326209
238	0x3d1a71cc	0.03770618
239	0x3d8a9440	0.06766558
240	0xbd87034d	-0.065924264
241	0xbdbad23a	-0.09122129
242	0xbd7e1565	-0.062032122
243	0x3c6eaee2	0.0145680625
244	0x3cb50eae	0.022101726
245	0x395528a6	0.00020328406
246	0x3dffadba	0.124843076
247	0xbbf2ccc9	-0.007409666
248	0x3d319223	0.043352257
249	0xbd85b1db	-0.06528064
250	0x3cdaba77	0.026700241
251	0xbc274b04	-0.010210756
252	0x3ce30170	0.027710646
253	0xbc161181	-0.009159447
254	0x3ca24dbc	0.019812457
255	0xbe3c03c5	-0.18360813

fc2.bias f4 [128]
0	0xbcb36a90	-0.021901399
1	0xbdb6f097	-0.089326076
2	0xbd72c042	-0.059265383
3	0x3c8b0aa2	0.016972844
4	0xbd0aef41	-0.033919577
5	0xbd510b90	-0.051036417
6	0xbb73d62e	-0.0037206518
7	0xbd2271fd	-0.03965949
8	0xbcad9df6	-0.021193486
9	0x3c2a0c27	0.010378874
10	0x3c82ae7c	0.015952341
11	0xbd6fe6bc	-0.058569655
12	0x3c4cbb3f	0.012495815
13	0xbd0b8d22	-0.03407014
14	0xbb903dd4	-0.0044019017
15	0xbcb03f3b	-0.021514526
16	0x3d84c068	0.06482011
17	0xbd24731c	-0.04014884
18	0xbd0e8553	-0.034795117
19	0xbcb60a42	-0.022221688
20	0x3c458951	0.012056665
21	0x3a6e908e	0.000910052
22	0x3af52217	0.0018702176
23	0xbd7ee71a	-0.062232114
24	0xbc2af5a5	-0.010434543
25	0xbc5bd2a4	-0.01341692
26	0xbc6172c0	-0.013760269
27	0xbbfa3a90	-0.0076363757
28	0x3c9fef01	0.019523146
29	0xbda70b27	-0.08156424
30	0x3d8e52cb	0.06949385
31	0xbcfdbbdc	-0.030973367
32	0xbdbf8111	-0.09350789
33	0xbb1fa768	-0.0024361257
34	0x3d2f5665	0.042807
35	0xbd11d57d	-0.03560399
36	0x3b56e3ca	0.0032789581
37	0x3d9492a5	0.07254533
38	0x3c12c09e	0.008957056
39	0xbda73b73	-0.08165636
40	0x3cf3ae1b	0.029746106
41	0xbb26228d	-0.0025350184
42	0xbc477353	-0.0121734915
43	0xbcff9d24	-0.03120286
44	0x3de7efba	0.11325021
45	0xbd8af80e	-0.06785594
46	0xbd594c6b	-0.053051393
47	0x3c57bcd6	0.013167581
48	0x3cad53ba	0.021158088
49	0x3d5f2602	0.054479606
50	0xbbab52b5	-0.0052283653
51	0xbd0d9653	-0.03456719
52	0x3cf15387	0.029458774
53	0x3d8ef294	0.06979862
54	0xbceaae67	-0.028647615
55	0x3c37a03f	0.011207639
56	0x3d3e94c1	0.04652858
57	0x3d485be9	0.048915777
58	0x3d664117	0.05621442
59	0xbc94e9d4	-0.018177904
60	0x3d1f1020	0.038833737
61	0xbde9c4ad	-0.11414466
62	0xbd52b2d3	-0.05144007
63	0xbabf656c	-0.001460237
64	0xbc232dd4	-0.009959657
65	0xbd886cbb	-0.06661364
66	0xbda9ab5a	-0.08284636
67	0xbd94637e	-0.07245539
68	0x3d6c0332	0.057620235
69	0xbdac7427	-0.08420592
70	0xbbf1750c	-0.0073686894
71	0x3df08638	0.1174435
72	0xbdbfd9fe	-0.093677506
73	0xbc521a72	-0.012823688
74	0xbc96d5be	-0.018412467
75	0xbc15c318	-0.009140752
76	0x3b8e7cf9	0.004348394
77	0xbcd4eb0a	-0.025990982
78	0xbd5875b9	-0.052846644
79	0x3de06884	0.10957435
80	0x3d85300f	0.06503307
81	0x3be8df5b	0.007106704
82	0xbddbef2b	-0.10738977
83	0x3da9f751	0.08299125
84	0x3be538d5	0.0069953003
85	0x3c68bc29	0.014205017
86	0x3cb13ce9	0.02163549
87	0x3c5f0f22	0.013614448
88	0x3cc51dd4	0.024062075
89	0xbd6610a0	-0.0561682
90	0x3cc07e05	0.02349759
91	0x3dd53743	0.10410931
92	0xbc66ed3c	-0.014094647
93	0xbdb09133	-0.086214446
94	0xbd448cec	-0.047985956
95	0xbc87082a	-0.016483385
96	0x3d88ca67	0.0667923
97	0x3d0f9fd1	0.035064522
98	0xbd664b75	-0.056224305
99	0xbdaa8462	-0.08326031
100	0xbcde1060	-0.027107418
101	0xbcaf5755	-0.021403948
102	0xbd8ddab1	-0.06926478
103	0xbd929633	-0.071575545
104	0x3cb74c09	0.022375124
105	0xbb2b5dcb	-0.0026148434
106	0x3c9ca0b8	0.019119605
107	0xbd08f19d	-0.033433545
108	0x3c012394	0.007882018
109	0xbc7a38b7	-0.015272311
110	0xbd8a783c	-0.06761214
111	0xbd0575b7	-0.032582965
112	0x3d8c002c	0.0683597
113	0xbb630020	-0.0034637526
114	0xbe0e67c0	-0.13906765
115	0xbd836ff3	-0.06417837
116	0xbd5cff12	-0.05395419
117	0x3d61cbb7	0.05512592
118	0x3d4c5091	0.04988152
119	0xbd1125f7	-0.035436597
120	0x3d097222	0.03355611
121	0xbd0d17cf	-0.034446534
122	0xbdb0f2c6	-0.08640055
123	0x3da3601f	0.07977318
124	0xbc7531b8	-0.014965467
125	0xbd86f92d	-0.06590495
126	0xbd496248	-0.049165994
127	0xbb52f1ac	-0.0032187505

fc3.weight f4 [64, 128]
0	0x3de47f07	0.11157041
1	0x3e33e199	0.17566527
2	0x3e4c2921	0.19937564
3	0x3e8acb15	0.27108064
4	0xbd85f3c2	-0.06540634
5	0xbdb8bdf3	-0.09020605
6	0xbe8430ff	-0.2581863
7	0x3d1acd6e	0.03779357
8	0x3c92d0d7	0.017921848
9	0xbe15c4f0	-0.14625907
10	0x3e05f809	0.13082899
11	0x3d522547	0.05130508
12	0x3e0784cf	0.13234256
13	0xbda24253	-0.079228066
14	0x3e0c92d6	0.13727888
15	0xbdc7876d	-0.09742627
16	0xbddb650f	-0.10712635
17	0x3d761e0c	0.06008725
18	0x3ded4623	0.11585643
19	0x3dcc91b7	0.099887304
20	0x3d868c4d	0.06569729
21	0xbe5252b1	-0.20539357
22	0x3e037344	0.12836939
23	0xbe11e73b	-0.14248364
24	0xbdde4490	-0.10852921
25	0xbcf64863	-0.030063814
26	0x3e263140	0.16229725
27	0xbe32b9d4	-0.174537
28	0xbdb9bd13	-0.09069266
29	0x3b75c60f	0.0037502085
30	0x3b96212b	0.0045815906
31	0xbcafc80d	-0.021457696
32	0x3e42583f	0.18978976
33	0xbecae90f	-0.39630935
34	0x3d50ed86	0.05100777
35	0x3d60b25f	0.054857608
36	0x3e3770ea	0.17914167
37	0xbda8806f	-0.08227622
38	0x3dee2658	0.11628407
39	0x3d904598	0.07044524
40	0x3b3595cc	0.0027707694
41	0xbe4a1bef	-0.19737218
42	0x3d90b8cf	0.070664994
43	0x3da2e7a8	0.07954341
44	0xbe4a53fb	-0.19758599
45	0x3ce60372	0.028077815
46	0x3b78123d	0.0037852668
47	0xbd06aa4a	-0.032877244
48	0x3e38e472	0.18055895
49	0xbde12b1e	-0.10994552
50	0xbcc79965	-0.024365136
51	0x3d04739a	0.03233681
52	0x3d27ff23	0.0410148
53	0x3ce9a9cd	0.02852335
54	0xbe06718a	-0.13129249
55	0x3d0a5220	0.033769727
56	0xbcbbe8e6	-0.022938203
57	0x3d11fecb	0.03564338
58	0xbe9ba7a8	-0.3040135
59	0xbe5d7dff	-0.21630095
60	0xbdb4e0e5	-0.08831958
61	0x3d87c9a9	0.066302605
62	0xbdd783d3	-0.1052319
63	0xbe0d08c1	-0.1377287
64	0xbe63959b	-0.22225039
65	0xbcd5517f	-0.026039837
66	0x3e30b536	0.17256626
67	0x3e2ccf7f	0.16876028
68	0xbdcc2229	-0.09967453
69	0x3e5217df	0.20516919
70	0x3d04b22f	0.03239649
71	0xbe0e079c	-0.1387009
72	0x3e97ca14	0.2964636
73	0xbb51b11d	-0.0031996437
74	0xbe1dece3	-0.15422396
75	0xbd094489	-0.033512626
76	0xbe1d0c59	-0.15336742
77	0xbd9b0176	-0.07568638
78	0x3dfaf91d	0.12254546
79	0xbeb86732	-0.36016232
80	0xbd835869	-0.06413347
81	0x3dd52db2	0.10409106
82	0x3d9ad6dc	0.075605124
83	0xbe3bd71b	-0.18343775
84	0xbd7d06b3	-0.061773967
85	0x3e0c97ab	0.13729732
86	0x3dfa4000	0.12219238
87	0xbe160bc8	-0.14652932
88	0xbe4eb92f	-0.2018783
89	0xbc4cd684	-0.012502316
90	0xbdd85216	-0.10562532
91	0xbd358722	-0.044318326
92	0x3d142b6d	0.036174227
93	0x3e1a6214	0.15076476
94	0xbbcbb322	-0.0062164227
95	0x3de4ebd0	0.1117779
96	0x3aa120fc	0.0012293155
97	0xbe2f0a15	-0.1709369
98	0x3e3fd7d9	0.18734683
99	0x3d8d8e68	0.069119275
100	0xbe3955d3	-0.18099146
101	0x3b6ea7a7	0.0036415847
102	0x3e2bf483	0.16792493
103	0x3e7c4f04	0.24639517
104	0xbb602823	-0.003420361
105	0x3d602ef3	0.054732274
106	0x3e2891a2	0.16461805
107	0xbdd680ca	-0.10473783
108	0x3c952401	0.018205645
109	0xbe266c0d	-0.16252156
110	0x3e0e2384	0.13880736
111	0xbe47afbd	-0.19500633
112	0xbcb975b6	-0.022639137
113	0x3dc443e4	0.095832616
114	0xbe145216	-0.14484438
115	0x3cf57f26	0.029967856
116	0x3db550b0	0.088532805
117	0x3da0fe1d	0.07860968
118	0x3daa3907	0.08311658
119	0x3d27780e	0.040885977
120	0xbe07633c	-0.13221449
121	0x3de40f4d	0.11135731
122	0x3dcad11b	0.09903165
123	0xbce344e4	-0.02774281
124	0x3e0d4b25	0.13798197
125	0x3db009cf	0.08595621
126	0xbbf216ed	-0.007387987
127	0xbc660ddd	-0.014041391
128	0x3de5145a	0.111855224
129	0x3db61f29	0.08892662
130	0x3d970cac	0.07375464
131	0x3db92eda	0.09042139
132	0x3d5076d0	0.05089456
133	0xbdaf7ead	-0.08569083
134	0xbe3109b4	-0.17288858
135	0xbd086fef	-0.033309873
136	0x3e00a7fc	0.12564081
137	0xbd443bb3	-0.047908496
138	0x3e345707	0.17611323
139	0x3d7f076d	0.06226294
140	0x3b8259d7	0.003977995
141	0xbe34c8de	-0.1765475
142	0x3e0a8455	0.13527043
143	0x3e0583e5	0.13038595
144	0xbdd120e8	-0.102113545
145	0x3c916ab9	0.017751085
146	0x3d90df25	0.070738114
147	0x3d67fe6d	0.056639124
148	0xbd84134e	-0.064489946
149	0xbe999008	-0.299927
150	0x3dbb4e1f	0.0914576
151	0x3cf37acd	0.029721642
152	0x3c55097f	0.013002752
153	0xbd557599	-0.052114103
154	0x3e06f6fc	0.13180155
155	0xbd380d5a	-0.044934608
156	0x3e06190b	0.1309549
157	0xbca9d91a	-0.020733405
158	0xbd9e0104	-0.077150375
159	0xbd833305	-0.064062156
160	0x3d567679	0.052359078
161	0xbede431c	-0.43410575
162	0x3dc88ade	0.09792112
163	0xbd93b8c9	-0.07212979
164	0x3db53f4d	0.08849964
165	0xbe0f74f1	-0.14009453
166	0x3df8f2e7	0.12155705
167	0x3e04d538	0.12971961
168	0xbe3db318	-0.1852535
169	0xbf5906f9	-0.84776264
170	0xbc9920c0	-0.018692374
171	0x3db50559	0.088389106
172	0x3dc99acd	0.09843979
173	0x3e4783db	0.19483893
174	0x3dcb7d4f	0.0993601
175	0x3d8b06ab	0.06788381
176	0x3dda7e1c	0.10668585
177	0x3e01e233	0.12683944
178	0xbce1bf3c	-0.027557008
179	0xbe81940b	-0.2530826
180	0xbb6a51c0	-0.0035754293
181	0xbe745d0d	-0.23863621
182	0xbdac0ef2	-0.08401288
183	0xbb8b3463	-0.0042481883
184	0x3d017355	0.03160413
185	0xbdbfcaef	-0.093648784
186	0xbeb8602d	-0.36010876
187	0xbe1d1f0f	-0.15343879
188	0xbba1da25	-0.004939335
189	0xbc77ea85	-0.015131597
190	0xbc2e1462	-0.010624977
191	0xbdbd4956	-0.09242503
192	0xbceeaa7f	-0.029134033
193	0xbda6a046	-0.081360385
194	0x3e05bb55	0.13059743
195	0x3d8b2c20	0.067955256
196	0xbde88a28	-0.11354476
197	0x3d40e38f	0.047092017
198	0xbd28b8ea	-0.041191973
199	0xbe14b82c	-0.14523381
200	0x3db15ba2	0.08660056
201	0xbc1be9f7	-0.009516231
202	0xbb9853d3	-0.0046486645
203	0xbda1083a	-0.07862897
204	0xbe818ca5	-0.25302616
205	0xbe125f1a	-0.14294091
206	0x3e2c59e2	0.16831163
207	0xbbb619c2	-0.00555727
208	0x3bbfbfb4	0.00585171
209	0x3e0f65a4	0.14003617
210	0x3e62f793	0.22164755
211	0xbd986be4	-0.074424535
212	0xbd368b82	-0.04456664
213	0x3d755ef3	0.059905004
214	0x3db04be0	0.08608222
215	0xbea8f28f	-0.32997558
216	0xbd7c84b9	-0.06165001
217	0x3e02aeb8	0.12761962
218	0xbd8de8d0	-0.06929171
219	0x3e075e6a	0.1321961
220	0x3dd9ae1c	0.10628912
221	0x3df5cc66	0.120018765
222	0xbdb39edc	-0.087705344
223	0x3d35a033	0.04434223
224	0x3cac3b12	0.02102426
225	0xbd87313f	-0.0660119
226	0x3c70c6b0	0.014695808
227	0x3d735a27	0.059412148
228	0xbe6fb9a9	-0.23410667
229	0x3df31ca9	0.11870701
230	0xbda2a876	-0.079422876
231	0x3e3958d1	0.18100287
232	0xbc87f3a4	-0.01659567
233	0xbc810235	-0.015748123
234	0x3de10482	0.10987188
235	0xbe8f7d46	-0.28025264
236	0x3e2ba5a9	0.16762413
237	0xbe06974b	-0.13143651
238	0x3d8e2d6a	0.06942256
239	0x3d0557df	0.032554504
240	0xbd3c27f8	-0.045936555
241	0x3cc8e38d	0.024522567
242	0xbe5d8ec3	-0.2163649
243	0xb99a9025	-0.00029480565
244	0x3d6e67c4	0.058204427
245	0x3ddb4d88	0.10708147
246	0xbb29038a	-0.0025789463
247	0x3d4699d3	0.048486542
248	0xbe8b7149	-0.27234867
249	0x3df80a35	0.12111322
250	0x3e9579a0	0.29194355
251	0xbd93bc4c	-0.07213649
252	0x3d056f16	0.032576643
253	0xbcc49067	-0.023994638
254	0xbdb6c867	-0.089249425
255	0x3c8fbdca	0.017546553

fc3.bias f4 [64]
0	0xbdb3e837	-0.08784526
1	0xbda6acb8	-0.08138412
2	0x3c8d6d8c	0.01726415
3	0xbc586a5a	-0.01320895
4	0xbd7fd283	-0.06245662
5	0x3d4015de	0.046895854
6	0xbdd709a5	-0.104998864
7	0x3ca7f3e1	0.020502033
8	0xbdd0d552	-0.101969376
9	0xbd8a3ba5	-0.067496575
10	0x3d09ed3b	0.033673506
11	0xbd1f02f2	-0.03882117
12	0x3ccad83d	0.024761314
13	0xbdb761a2	-0.08954169
14	0xbd430e9c	-0.047621354
15	0xbdc5a340	-0.09650278
16	0xbd5f3ed4	-0.054503277
17	0x3ba011b6	0.004884924
18	0x3de2e7d8	0.11079377
19	0xbbfbcea6	-0.0076845465
20	0xbdce1f26	-0.10064535
21	0xbccfddf4	-0.02537439
22	0xbc652ea9	-0.013988175
23	0xbd3f76fc	-0.04674433
24	0x3c8ca795	0.017169753
25	0x3d268539	0.040654395
26	0x3b2955b9	0.0025838448
27	0xbdaf4ae8	-0.08559209
28	0x3d317f53	0.043334316
29	0xbd8f1479	-0.06986327
30	0x3d756ab8	0.059916228
31	0xbdaa9fa8	-0.08331233
32	0xbb8be925	-0.0042697364
33	0xbe0876fb	-0.13326637
34	0xbdb5b949	-0.08873231
35	0x3d92bcb3	0.07164898
36	0x3c5c9726	0.013463771
37	0x3d2fd081	0.042923454
38	0xbcb5ef88	-0.022208944
39	0x3a47df86	0.0007624555
40	0xbd90a392	-0.070624486
41	0xbde8ff39	-0.11376805
42	0x3d212f2d	0.03935163
43	0x3cd3d443	0.02585805
44	0x3d0cd8e8	0.034386545
45	0x3c8fff0b	0.017577669
46	0xbdbf1946	-0.093309924
47	0xbcfcf799	-0.030879783
48	0x3d82a53b	0.063791715
49	0xbd13e489	-0.03610662
50	0x3b595715	0.0033163477
51	0x3da0ce07	0.078517966
52	0x3d012c9a	0.031536676
53	0x3a39fd55	0.00070949394
54	0xbcdb0687	-0.02673651
55	0xbd331e0f	-0.043729838
56	0x3dbcf3de	0.092262015
57	0x3c10fccc	0.008849334
58	0xbdd9f60f	-0.10642635
59	0x3c1ccd4d	0.009570432
60	0xbcc15da2	-0.023604218
61	0x3cfb93cb	0.030710122
62	0x3c845673	0.016154503
63	0xbdf1841b	-0.11792775

fc4.weight f4 [2, 64]
0	0xbe91bf56	-0.2846629
1	0xbdbe6c2a	-0.092979744
2	0x3ec2a814	0.38018858
3	0x3ea6d38c	0.32583272
4	0x3cbb1f96	0.02284221
5	0xbeb1a0ea	-0.3469308
6	0x3eb47cc2	0.35251433
7	0x3e7fb9c4	0.24973208
8	0xbef0a004	-0.46997082
9	0xbdef7ed1	-0.1169411
10	0xbee2a408	-0.4426577
11	0xbe1b2015	-0.15148957
12	0x3eca7674	0.39543498
13	0xbe3c7427	-0.18403684
14	0x3ee2fc8d	0.44333306
15	0x3e41f403	0.1894074
16	0xbed5f7a3	-0.41790494
17	0x3cfc63c0	0.030809283
18	0x3e5c40ea	0.21509138
19	0xbe50f812	-0.20407131
20	0x3e000428	0.12501585
21	0x3da2a551	0.07941688
22	0x3d163be0	0.036678195
23	0x3e96caaf	0.2945151
24	0xbc49220a	-0.012276182
25	0xbcb8c636	-0.022555452
26	0x3ef6165b	0.4806393
27	0xbdf9d8ba	-0.121995404
28	0x3c91d4e5	0.017801711
29	0x3ead31b6	0.3382699
30	0xbcb90576	-0.022585612
31	0x3d99caa0	0.07509351
32	0x3e93eee6	0.28893203
33	0xbeae1bf9	-0.34005716
34	0xbeef5deb	-0.4675134
35	0x3dafd751	0.0858599
36	0x3f03e780	0.51525116
37	0x3e022b3f	0.1271181
38	0xbd9cae6d	-0.076504566
39	0x3e05f8c3	0.13083176
40	0xbefc37d0	-0.49261332
41	0xbe42c87d	-0.19021793
42	0xbcaa55fc	-0.020792954
43	0xbe1f352f	-0.15547632
44	0x3e82a81b	0.2551888
45	0x3d060d22	0.03272737
46	0xbeba9d12	-0.3644796
47	0xbd7a51a3	-0.06111301
48	0xbdc616ac	-0.09672293
49	0xbf631248	-0.8869977
50	0xbef66cc4	-0.48129857
51	0x3e58073e	0.21096513
52	0x3f6fcf9f	0.9367618
53	0xbeaa317e	-0.33240885
54	0x3dedcda0	0.116114855
55	0x3e9408aa	0.2891286
56	0x3de84ccd	0.113427736
57	0xbec56dd4	-0.38560355
58	0x3c49972a	0.012304107
59	0xbcfd0fa8	-0.030891255
60	0xbebcd8fc	-0.36884296
61	0x3e324ba2	0.17411664
62	0xbf342288	-0.7036519
63	0xbe73e93a	-0.23819438
64	0x3ed87586	0.42277163
65	0x3ec0529d	0.3756303
66	0xbeb587d2	-0.35455185
67	0x3de11227	0.109897904
68	0x3e9a582c	0.30145395
69	0xbea173b8	-0.315336
70	0xbea46ad0	-0.3211274
71	0xbf1ffeef	-0.6249837
72	0x3eb2d19d	0.34925547
73	0x3e29a33e	0.16566178
74	0xbf0975fe	-0.53695667
75	0x3dc285cc	0.09498176
76	0xbe4939b5	-0.1965092
77	0x3c793632	0.015210675
78	0xbf165741	-0.5872689
79	0xbde6c615	-0.1126825
80	0xbf068fb8	-0.5256305
81	0x3ee20611	0.44145253
82	0xbe169857	-0.1470655
83	0xbeba3c48	-0.36374116
84	0x3f01f192	0.5075923
85	0x3ee78b80	0.45223618
86	0xbf1adae9	-0.6049028
87	0xbdb0a4c9	-0.0862518
88	0x3e9bf2c9	0.30458668
89	0xbf29068a	-0.660256
90	0x3e1edec4	0.15514666
91	0x3ba81545	0.0051294887
92	0x3f207b69	0.6268831
93	0xbdc4dda8	-0.0961259
94	0x3f4c0fa2	0.79711354
95	0xbc59905e	-0.013279049
96	0xbeaa6fe6	-0.33288497
97	0x3c9aaaf8	0.018880352
98	0xbdc6cdc4	-0.097072154
99	0x3dc692fd	0.096960045
100	0x3f12ca9e	0.5734042
101	0xbf495fdc	-0.78661895
102	0x3e9ab930	0.30219412
103	0x3d7529fa	0.059854485
104	0xbe20db37	-0.15708624
105	0xbeb4d8ea	-0.35321742
106	0x3e1ed8b3	0.15512352
107	0x3e59152a	0.2119948
108	0x3edbdd41	0.4294224
109	0xbf4ffba8	-0.8124337
110	0xbec43118	-0.38318706
111	0x3dce5dde	0.100764975
112	0xbed73888	-0.42035317
113	0x3eca55ab	0.39518484
114	0xbd60b826	-0.054863118
115	0xbdc6278a	-0.0967551
116	0xbe9bc595	-0.3042418
117	0xbe4eca1e	-0.20194289
118	0x3dd1b9d5	0.10240523
119	0xbdb2322f	-0.08700978
120	0x3e3476b6	0.1762341
121	0xbeeb5728	-0.45964932
122	0x3e567eea	0.20946851
123	0x3e986b9d	0.29769602
124	0xbe64face	-0.223613
125	0xbd74ac87	-0.059734847
126	0xbd874420	-0.06604791
127	0xbe6d3c95	-0.23167641

fc4.bias f4 [2]
0	0xbbd17d92	-0.006393143
1	0xbe0d3cca	-0.1379272
