checkpoints/Computer2-0-checkpoint-2.1401-actor.pth (torch, 193711 bytes, 8 tensors)

fc1.weight f4 [256, 24]
-0.038451932 -0.20403403 -0.14627315 -0.037145305 0.48455718 -0.06550889 0.118975416 -0.21834616
0.074289426 0.14338584 0.20256627 0.14308652 0.087567836 0.23762248 -0.10706603 -0.016045306
0.05961049 0.107632644 -0.10241356 0.054426383 -0.057935376 0.37608203 -0.032004174 0.033246066
0.2631796 0.15211003 0.1205167 0.011559017 0.10375566 -0.2966531 0.1751121 -0.26263064
-0.01928206 0.14776695 0.021418117 0.207078 0.040440753 -0.42182565 -0.09158591 -0.10655317
0.07911367 0.12765943 0.11524844 0.03494301 0.35533324 -0.7607903 -0.15435651 -0.1305854
-0.058993887 -0.1561176 -0.09875906 -0.051798075 -0.10620932 -0.10062765 0.055009495 -0.19447187
0.045566272 -0.23855774 0.1388452 -0.08581561 -0.13064012 0.39129892 -0.12843005 0.024472384
0.1165236 -0.15127312 0.037496224 -0.08944757 -0.036795314 0.5436072 -0.1148601 -0.29195824
0.19928022 0.0058378023 -0.05100055 0.31549796 0.056572866 0.3055444 0.01627623 0.054139003
0.20633756 0.24670878 0.16263877 0.4078369 -0.091907 0.1759241 -0.0024386358 0.30613002
0.082005486 0.19272244 0.026587486 0.036704715 0.33899245 0.016179012 -0.0884333 0.05702827
0.09476735 -0.14506386 0.05015753 0.15117793 -0.38919625 0.2918987 -0.024254965 -0.1573637
0.2208617 -0.2748844 0.05470517 -0.17676143 -0.0667573 0.2985414 -0.06893126 -0.19270039
0.2580589 -0.3332168 -0.21482493 0.07956082 -0.38394192 0.03597731 0.097501144 -0.059121076
-0.009287662 -0.27655864 0.03096906 -0.23193604 0.7231936 -0.2286749 0.11092882 -0.023122504
-0.17234203 -0.23035064 0.19368085 0.081875786 0.72862226 -0.19079334 -0.17866862 -0.0005285538
-0.081053935 -0.12207197 -0.124168724 0.051755242 0.64217985 0.14020486 0.040452424 0.0235966
-0.074850395 -0.09033204 -0.08579985 -0.0013589998 -0.2983434 -0.08216811 0.061716173 0.050473146
0.018083746 -0.12021629 0.07207095 -0.23226692 0.034539953 0.06221946 0.12753609 -0.06019859
-0.20575742 0.1687195 0.07587474 0.18861872 0.054413334 -0.52857476 -0.053863645 0.025228374
0.28342447 -0.15227136 0.02625044 0.093590766 0.26908514 0.018298278 -0.060089074 -0.0043721874
-0.17034091 -0.18151234 -0.089759186 -0.13767473 0.0059587206 -0.27885327 0.028505774 -0.14210154
-0.22156239 -0.1364348 -0.18407586 -0.2745422 -0.13931355 -0.018364988 0.14096284 -0.32684746
-0.04265438 -0.16031441 -0.014861827 0.17535159 0.11153855 -0.26332787 0.15557677 0.20350622
0.063391685 0.1834094 0.056409374 0.29011717 0.096813306 0.16218631 0.15916368 0.31803986
0.05172306 -0.1716714 -0.06788301 0.13680528 -0.12092182 0.34341484 -0.03268909 -0.049146365
0.22912973 -0.04330345 0.023020074 -0.25938797 -0.012670936 0.40335137 -0.2232143 0.08710701
0.27372912 -0.12995568 -0.020094883 -0.3569586 0.14405729 -0.12140384 -0.055671714 -0.15797019
0.21071419 -0.14002374 0.06962207 0.04627539 0.012346704 -0.2388144 0.12917155 0.08745941
0.22199453 0.10558115 0.056550916 -0.050756052 -0.24166858 0.09852935 0.0913379 0.23638552
0.12289489 0.042976264 0.057980753 0.10100567 -0.0074940347 -0.06110504 -0.03515031 0.019093579
00000000: c67f 1dbd 4cee 50be a1c8 15be ad25 18bd
00000010: e117 f83e 8629 86bd 62a9 f33d 2396 5fbe
00000020: 0e25 983d bdd3 123e 886d 4f3e 4685 123e
00000030: c456 b33d 4f53 733e 6f45 dbbd 7271 83bc
00000040: 212a 743d 816e dc3d 33be d1bd 33ee 5e3d
00000050: a54d 6dbd d38d c03e cf16 03bd 072d 083d
00000060: 7abf 863e bbc2 1b3e 76d1 f63d 0862 3d3c
00000070: d97d d43d eae2 97be 9650 333e 8677 86be
00000080: 69f5 9dbc 3850 173e 0c75 af3c 410c 543e
00000090: 34a5 253d 88f9 d7be 6591 bbbd 8c38 dabd
000000a0: 5906 a23d 27b9 023e 6007 ec3d 6720 0f3d
000000b0: 3dee b53e 27c3 42bf a20f 1ebe 2eb8 05be
000000c0: 93a3 71bd 4bdd 1fbe 3142 cabd 382a 54bd
000000d0: 4684 d9bd df15 cebd a351 613d a223 47be
000000e0: b3a3 3a3d 7b48 74be 702d 0e3e 18c0 afbd
000000f0: 86c6 05be 5558 c83e 2b83 03be 4f7a c83c
00000100: eda3 ee3d 57e7 1abe a495 193d 4a30 b7bd
00000110: afb6 16bd d729 0b3f c63b ebbd 8d7b 95be
00000120: 1d10 4c3e 094b bf3b f4e5 50bd f388 a13e
00000130: f3b8 673d 5170 9c3e ba55 853c dcc0 5d3d
00000140: 274a 533e 3aa1 7c3e c78a 263e 00d0 d03e
00000150: bd39 bcbd 7325 343e 85d1 1fbb 13bd 9c3e
00000160: 7ef2 a73d 0859 453e 00ce d93c af57 163d
00000170: 6b90 ad3e d989 843c 851c b5bd 7a96 693d
00000180: 6215 c23d 9f8b 14be fb71 4d3d 63ce 1a3e
00000190: bb44 c7be bf73 953e 59b2 c6bc f323 21be
000001a0: 9229 623e a6bd 8cbe 8712 603d f300 35be
000001b0: 0db8 88bd 6bda 983e d52b 8dbd 4053 45be
000001c0: 4c20 843e 649b aabe 11fb 5bbe c8f0 a23d
000001d0: 0994 c4be f25c 133d aeae c73d f128 72bd
000001e0: 472b 18bc 1899 8dbe d3b2 fd3c a480 6dbe
000001f0: 3723 393f c129 6abe a62e e33d 686b bdbc
00000200: 6e7a 30be 0ae1 6bbe 4654 463e 7eae a73d
00000210: fd86 3a3f 545f 43be e8f4 36be a58e 0aba
00000220: 9bff a5bd de00 fabd 2c4c febd 4efd 533d
00000230: e665 243f dd91 0f3e 71b1 253d a84d c13c
00000240: 2a4b 99bd 0100 b9bd d5b7 afbd 7720 b2ba
00000250: 77c0 98be c147 a8bd 19ca 7c3d eebc 4e3d
00000260: 5d24 943c f533 f6bd ef99 933d 61d7 6dbe
00000270: c479 0d3d d5d9 7e3d d298 023e cc92 76bd
00000280: 13b2 52be cec4 2c3e 3764 9b3d 4425 413e
00000290: 84e0 5e3d ad50 07bf 20a0 5cbd bcab ce3c
000002a0: 031d 913e 06ed 1bbe 2a0b d73c 84ac bf3d
000002b0: 87c5 893e 45e6 953c f61f 76bd 9144 8fbb
000002c0: d96d 2ebe 5fde 39be aad3 b7bd 9bfa 0cbe
000002d0: 5f41 c33b dbc5 8ebe f184 e93c 1183 11be
000002e0: 40e1 62be 90b5 0bbe 627e 3cbe cc90 8cbe
000002f0: 36a8 0ebe 2c72 96bc 9058 103e 8d58 a7be
00000300: 5cb6 2ebd 7629 24be 057f 73bc 5e8f 333e
00000310: 536e e43d e9d2 86be 844f 1f3e ef63 503e
00000320: 80d3 813d accf 3b3e 840d 673d 3d8a 943e
00000330: 0e46 c63d 2b14 263e cefb 223e 1fd6 a23e
00000340: 8fdb 533d a1ca 2fbe 3f06 8bbd af16 0c3e
00000350: dca5 f7bd 12d4 af3e ffe4 05bd b34d 49bd
00000360: fca0 6a3e f55e 31bd 9894 bc3c 80ce 84be
00000370: c299 4fbc 1284 ce3e 4a92 64be 2965 b23d
00000380: 3926 8c3e 1a13 05be 069e a4bc 47c3 b6be
00000390: c183 133e 94a2 f8bd 0608 64bd f0c2 21be
000003a0: 76c5 573e 6262 0fbe 0496 8e3d 438b 3d3d
000003b0: d449 4a3c c38b 74be 8c45 043e eb1d b33d
000003c0: 8952 633e ee3a d83d efa1 673d 94e5 4fbd
000003d0: f877 77be c1c9 c93d 5d0f bb3d 0c0f 723e
000003e0: 51b0 fb3d e107 303d 3a7d 6d3d 10dc ce3d
000003f0: 8590 f5bb 4749 7abd c5f9 0fbd 236a 9c3c

fc1.bias f4 [256]
0.06446364 -0.03562773 0.03701725 0.013665664 0.108731285 0.047591284 -0.093389355 0.19054496
0.0008504609 -0.07825448 -0.10616029 -0.056161717 -0.17530507 -0.0038314029 -0.33413363 -0.122998774
-0.21792428 0.022739979 0.016174402 0.18052712 -0.1294743 -0.045463707 -0.015904697 -0.12606128
0.12365139 -0.16886942 -0.1258375 0.061517388 -0.22873388 0.08438396 -0.27062336 0.20834361
-0.01575081 -0.11280863 0.05402962 -0.09952174 -0.004330357 -0.0666329 -0.037327465 -0.1733829
0.14519283 -0.06331793 -0.0054483437 -0.026395112 -0.13898371 -0.081571504 0.06930105 0.11369498
-0.09481813 -0.039749652 0.08263062 -0.19833007 0.26895967 -0.12723766 -0.23469292 -0.22725125
-0.17732626 -0.16663983 0.2138899 -0.16487785 -0.135958 0.005229607 -0.05291695 -0.21367416
-0.12522057 -0.14460209 0.13879304 -0.12684245 -0.050685696 -0.15390505 -0.23608427 0.14293039
-0.04479311 0.16426177 0.0042022164 0.02250346 -0.055371035 4.846909e-05 0.10666052 0.025943669
0.12339882 0.064914 -0.120794766 0.005460923 -0.18994074 -0.030551376 -0.022678379 0.087288804
-0.034893148 0.031007867 -0.08585356 0.18926841 0.21828973 0.10037537 -0.17067353 0.1164877
-0.06061267 0.078291215 0.045836393 -0.07083549 0.10343716 -0.19057842 0.09368685 -0.093057506
-0.08886828 -0.1002948 -0.00856667 -0.17771201 -0.24273188 -0.27070343 0.019006552 -0.20251097
0.14022373 -0.06837719 -0.29605007 -0.20455107 -0.17138758 0.1713678 0.049499713 0.08942526
0.13276987 -0.20229484 0.008698453 -0.2654769 0.0070609646 -0.10360369 -0.0043414654 -0.078953154
-0.037993006 0.12420868 -0.12913585 -0.035257254 -0.033744812 -0.13445976 -0.00831847 -0.10828227
-0.24325646 0.10195907 -0.13076387 -0.027940726 -0.15249829 -0.15521288 -0.010253719 0.077833824
-0.14997801 -0.13425803 0.21280245 -0.044629406 -0.0405682 -0.29907516 -0.121558025 0.010916735
0.0772915 0.020347772 -0.16053037 0.15107256 -0.07874797 -0.114270635 0.13001522 -0.2164971
0.14821829 0.12556525 0.022939358 -0.0040095826 0.024311941 0.070728086 -0.108644605 -0.017497484
-0.19344322 -0.035847213 -0.049869005 0.10395227 0.0124424 0.09720944 -0.09630498 0.02876853
-0.0351108 0.0324887 0.096239254 -0.10129335 0.12519796 -0.1599455 0.120715834 -0.10102708
0.05208866 0.02260352 0.027718024 0.022083705 0.207745 0.09398081 0.066949554 -0.19858073
-0.044634517 0.17307198 0.09187445 -0.11317119 -0.056049135 0.05425858 0.10719791 -0.1599782
-0.22912377 -0.10845826 -0.05219551 0.2038286 0.10393438 -0.08948937 0.019107418 0.09811421
0.01614881 0.13288046 -0.26451477 -0.22834006 0.09307808 0.04935774 -0.18199445 0.0035330574
-0.2665293 -0.10506571 -0.025522616 0.094167724 -0.111323 -0.16796315 -0.19311282 -0.057177674
-0.19809549 0.17852522 -0.023466138 0.10110874 0.04112794 0.17065974 0.2672444 -0.16514525
-0.16467464 0.07882841 -0.08557348 -0.10016399 0.09983436 -0.15453374 0.070892915 -0.13717985
0.0968084 0.10533769 -0.16261977 -0.074998 -0.0677573 -0.14594848 -0.24348387 0.14690793
0.20813243 -0.01909739 0.21481411 -0.019953812 -0.2744949 -0.017612174 0.087736785 0.012498219
00000000: 8305 843d 62ee 11bd 669f 173d f3e5 5f3c
00000010: 82ae de3d 14ef 423d eb42 bfbd 381e 433e
00000020: 77f1 5e3a e343 a0bd 916a d9bd d409 66bd
00000030: 2c83 33be 4618 7bbb 9013 abbe c8e6 fbbd
00000040: 8b27 5fbe 3149 ba3c 2e80 843c 1adc 383e
00000050: e994 04be 2738 3abd 914a 82bc 3516 01be
00000060: f13c fd3d 1bec 2cbe 8cdb 00be a8f9 7b3d
00000070: 3739 6abe 7fd1 ac3d 258f 8abe 0758 553e
00000080: d807 81bc 3608 e7bd 2a4e 5d3d 0ed2 cbbd
00000090: abe5 8dbb d476 88bd afe4 18bd 498b 31be
000000a0: 6ead 143e d5ac 81bd 0588 b2bb 903a d8bc
000000b0: bf51 0ebe f60e a7bd b5ed 8d3d ead8 e83d
000000c0: 0230 c2bd 88d0 22bd 3e3a a93d 0a17 4bbe
000000d0: 15b5 893e 974a 02be 5753 70be 8db4 68be
000000e0: 0495 35be a2a3 2abe f405 5b3e bdd5 28be
000000f0: 9338 0bbe 205d ab3b 72bf 58bd 66cd 5abe
00000100: d239 00be 9212 14be c31f 0e3e fde2 01be
00000110: ce9b 4fbd 4999 1dbe 13c0 71be 585c 123e
00000120: fb78 37bd 3d34 283e bfb2 893b 2d59 b83c
00000130: bdcc 62bd 4a4b 4b38 d570 da3d d187 d43c
00000140: 85b8 fc3d a2f1 843d 3f63 f7bd 8bf1 b23b
00000150: d37f 42be e146 fabc 02c8 b9bc 79c4 b23d
00000160: 1eec 0ebd 3604 fe3c fed3 afbd 94cf 413e
00000170: 5887 5f3e 9a91 cd3d 0bc5 2ebe 1a91 ee3d
00000180: fe44 78bd 2557 a03d f1be 3b3d 3312 91bd
00000190: ddd6 d33d fd26 43be e4de bf3d ef94 bebd
000001a0: 9300 b6bd 5c67 cdbd 385b 0cbc 23fa 35be
000001b0: b58e 78be a499 8abe a1b3 9b3c 095f 4fbe
000001c0: cf96 0f3e 5709 8cbd e093 97be d675 51be
000001d0: 3a80 2fbe 0a7b 2f3e 36c0 4a3d 9724 b73d
000001e0: d3f4 073e 6126 4fbe f583 0e3c 97ec 87be
000001f0: aa5f e73b 2c2e d4bd da42 8ebb 31b2 a1bd
00000200: 8e9e 1bbd 1f61 fe3d 303c 04be e969 10bd
00000210: 0038 0abd d2af 09be 314a 08bc 18c3 ddbd
00000220: 3918 79be ebcf d03d f7e6 05be f3e3 e4bc
00000230: 8328 1cbe 20f0 1ebe 37ff 27bc 5767 9f3d
00000240: d693 19be f07a 09be e3e8 593e 53cd 36bd
00000250: d72a 26bd 6120 99be 6af3 f8bd 1bdc 323c
00000260: 024b 9e3d 5fb0 a63c 1362 24be c4b2 1a3e
00000270: 9e46 a1bd b906 eabd b622 053e 6ab1 5dbe
00000280: 89c6 173e 2d94 003e 52eb bb3c d162 83bb
00000290: d629 c73c e3d9 903d 1081 debd e256 8fbc
000002a0: fb15 46be 87d4 12bd 7143 4cbd ede4 d43d
000002b0: 35db 4b3c be15 c73d 8c3b c5bd fbab eb3c
000002c0: 58d0 0fbd df12 053d 1619 c53d e372 cfbd
000002d0: e533 003e c1c8 23be dd39 f73d 49e7 cebd
000002e0: eb5a 553d 042b b93c e910 e33c e3e8 b43c
000002f0: 1bbb 543e 0379 c03d d91c 893d bf58 4bbe
00000300: afd2 36bd c839 313e ac28 bc3d 4cc6 e7bd
00000310: c793 65bd 3f3e 5e3d 948a db3d 53d1 23be
00000320: 6c9f 6abe 5d1f debd f6ca 55bd 72b8 503e
00000330: 8cdb d43d 3446 b7bd 2987 9c3c 1af0 c83d
00000340: 824a 843c d111 083e 7b6e 87be fad1 69be
00000350: b89f be3d 572b 4a3d c15c 3abe de8a 673b
00000360: 8776 88be b12c d7bd ce14 d1bc 02db c03d
00000370: 50fd e3bd 88fe 2bbe 5ebf 45be 2333 6abd
00000380: 8bd9 4abe 51cf 363e 0f3c c0bc 1912 cf3d
00000390: c575 283d 6dc1 2e3e 42d4 883e d61b 29be
000003a0: 78a0 28be ca70 a13d 2641 afbd c722 cdbd
000003b0: f575 cc3d 183e 1ebe 4e30 913d e078 0cbe
000003c0: 7b43 c63d 49bb d73d cc85 26be 8d98 99bd
000003d0: 57c4 8abd 8573 15be d653 79be 086f 163e
000003e0: ab20 553e 2172 9cbc 3bf8 5b3e 2d76 a3bc
000003f0: 988a 8cbe 6847 90bc 58af b33d 54c5 4c3c

fc2.weight f4 [128, 256]
0.11680289 0.04235679 -0.14224182 0.012406623 -0.096150964 0.12922007 -0.10780517 -0.19961634
0.024497205 -0.15167114 0.092887826 -0.026257854 -0.0806473 -0.336518 0.0494296 0.08769965
0.2809576 -0.018588247 0.09463187 -0.06577498 -0.018120147 -0.10291054 0.0053127394 -0.0015504349
-0.27898827 -0.10864061 -0.089956276 -0.2632255 -0.13072532 0.0074685263 0.07706699 -0.004638439
-0.024320621 -0.11457899 -0.036737293 -0.004537491 0.036086675 0.0067306226 -0.21380685 -0.12639637
-0.15208782 0.021878459 0.0049470584 -0.03476396 -0.0015040004 0.12072582 0.022013165 -0.19168311
0.10863018 -0.19216882 0.18673041 -0.20400792 -0.11031619 -0.07832535 -0.044076424 -0.038524386
-0.17663491 0.06831229 -0.0322709 -0.13898602 0.011793191 -0.09334377 0.14430302 -0.17389463
-0.060310185 0.0031942045 -0.05547371 -0.023003936 -0.121830486 0.023705209 -0.09520436 -0.24577032
-0.11343348 -0.029868593 0.037594933 -0.07106369 -0.06506097 -0.022188168 0.06785446 0.30304345
-0.11686061 -0.08509995 -0.037172623 0.013450375 -0.031310763 -0.08617955 0.15265934 -0.2903939
-0.0010951647 0.053409275 -0.0028882565 -0.14194241 0.06635527 -0.021765182 -0.2246258 -0.076460265
-0.29742962 -0.107962124 0.08064438 -0.00559627 -0.09239925 0.023137279 0.018588105 -0.071982436
0.0016848848 -0.045621593 -0.015842017 -0.11683246 -0.024786659 0.04643871 0.048383705 0.0006393236
-0.15672931 -0.09030315 0.08419952 -0.005445638 -0.2680055 -0.10111173 -0.047621034 0.05557221
-0.022140494 -0.34057754 -0.1459974 0.019839792 0.031010134 0.045913827 -0.13806695 -0.10474834
0.044293065 -0.04173469 -0.13487528 -0.096723 -0.19403121 0.037268713 -0.12635994 -0.23793617
0.048122212 0.034355137 -0.3873647 -0.20470205 0.040065583 0.027824273 -0.20651904 -0.12263399
0.08411477 -0.03265236 -0.08840056 -0.061055202 0.007853146 0.063108906 0.04286375 -0.054692294
-0.09016705 -0.048497934 -0.07279347 -0.110017754 0.06997334 -0.032617178 -0.13393296 0.04212685
0.035460986 0.16843328 0.043530934 -0.12121033 -0.27747744 0.048527077 -0.07891896 0.020928193
-0.023663329 -0.0028739804 -0.34500682 -0.0089114085 0.030227056 0.010480426 0.10124794 -0.0338512
-0.09934888 -0.05726517 -0.02070812 0.09139221 0.060877778 -0.23807774 -0.038676742 0.12620099
-0.33882135 -0.044484135 -0.07732423 0.0408119 -0.06477156 -0.12865654 -0.23078966 -0.10237644
0.03504882 -0.07556381 -0.29178464 0.053870063 0.03873282 -0.1528137 -0.052323677 0.00015878795
-0.0076435767 -0.025167562 -0.058052715 -0.02598424 -0.06648088 -0.0197501 -0.055887133 0.02427136
0.044753954 -0.054640956 -0.048529103 0.007428221 -0.04097396 0.03905704 0.07346091 0.034076884
0.23908113 -0.13294135 -0.118432544 0.010400528 0.0054539517 0.042246018 0.10476771 -0.2288864
-0.10644359 0.057947975 -0.033159606 0.20938228 -0.04749288 -0.17111087 -0.12818673 -0.112479776
-0.079163074 -0.05450956 -0.07157262 -0.013226347 -0.087979816 -0.10970098 0.16962674 0.012012887
-0.033631127 -0.16477416 0.022939747 -0.042966995 -0.063710645 -0.11295171 0.1199152 0.109177776
0.08287788 -0.029722352 -0.122398734 0.07106776 0.092916414 0.0042076358 -0.22012343 0.032332145
00000000: 5b36 ef3d 507e 2d3d d7a7 11be 2645 4b3c
00000010: ccea c4bd 4452 043e f5c8 dcbd 3a68 4cbe
00000020: 5dae c83c ae4f 1bbe f93b be3d b61a d7bc
00000030: 692a a5bd 164c acbe b176 4a3d e09b b33d
00000040: add9 8f3e 6146 98bc 5bce c13d 08b5 86bd
00000050: b470 94bc c3c2 d2bd 7d16 ae3b f637 cbba
00000060: 8dd7 8ebe f87e debd ff3a b8bd 7ec5 86be
00000070: dcdc 05be 8aba f43b 4cd5 9d3d 0cfe 97bb
00000080: 0a3c c7bc 64a8 eabd d879 16bd 3caf 94bb
00000090: 9fcf 133d 8e8c dc3b 2ff0 5abe 0d6e 01be
000000a0: e9bc 1bbe 743a b33c ef1a a23b a764 0ebd
000000b0: e121 c5ba 193f f73d f454 b43c 9448 44be
000000c0: 8079 de3d e7c7 44be 4236 3f3e 74e7 50be
000000d0: 74ed e1bd 0b69 a0bd 7b89 34bd bfcb 1dbd
000000e0: c8df 34be 50e7 8b3d 7e2e 04bd 5a52 0ebe
000000f0: 3a38 413c 052b bfbd 2cc4 133e 6f11 32be
00000100: d007 77bd dc55 513b 6738 63bd c072 bcbc
00000110: 4382 f9bd 6d31 c23c 81fa c2bd 37ab 7bbe
00000120: d04f e8bd fbae f4bc 25fd 193d d789 91bd
00000130: b03e 85bd f6c3 b5bc 47f7 8a3d 8328 9b3e
00000140: 9e54 efbd e248 aebd 5242 18bd f65e 5c3c
00000150: b73f 00bd e77e b0bd bb52 1c3e 82ae 94be
00000160: a18b 8fba afc3 5a3d e748 3dbb 5a59 11be
00000170: 46e5 873d e54c b2bc 4e04 66be 3397 9cbd
00000180: b248 98be 3f1b ddbd e128 a53d ea60 b7bb
00000190: d13b bdbd 648a bd3c 1546 983c 876b 93bd
000001a0: 5ad7 dc3a b5dd 3abd 1ec7 81bc db45 efbd
000001b0: 640d cbbc 8436 3e3d fe2d 463d 4898 273a
000001c0: a67d 20be dcf0 b8bd cc70 ac3d 5371 b2bb
000001d0: 0438 89be ab13 cfbd 460e 43bd b09f 633d
000001e0: fb5f b5bc 2e60 aebe 5880 15be 0f87 a23c
000001f0: f708 fe3c 2310 3c3d 6c61 0dbe 4c86 d6bd
00000200: a56c 353d fff1 2abd bf1c 0abe b516 c6bd
00000210: 1eb0 46be 14a7 183d 8064 01be 8aa5 73be
00000220: cc1b 453d f9b7 0c3d aa54 c6be 6a9d 51be
00000230: cf1b 243d bbef e33c ba79 53be 8827 fbbd
00000240: 5d44 ac3d 7bbe 05bd 5a0b b5bd 0515 7abd
00000250: 7baa 003c 3e3f 813d e691 2f3d 0705 60bd
00000260: 81a9 b8bd c5a5 46bd be14 95bd fd50 e1bd
00000270: 2f4e 8f3d 9799 05bd b925 09be 348d 2c3d
00000280: 8a3f 113d c679 2c3e 7e4d 323d 1f3d f8bd
00000290: 8611 8ebe 54c4 463d 44a0 a1bd 9a71 ab3c
000002a0: 99d9 c1bc 6459 3cbb bca4 b0be 2801 12bc
000002b0: bb9e f73c 18b6 2b3c 145b cf3d 8ea7 0abd
000002c0: 6d77 cbbd e28e 6abd 13a4 a9bc d72b bb3d
000002d0: fa5a 793d a7ca 73be 816b 1ebd d53a 013e
000002e0: fe79 adbe ff34 36bd 2a5c 9ebd 612a 273d
000002f0: f4a6 84bd 8abe 03be 2054 6cbe bdaa d1bd
00000300: 5a8f 0f3d 33c1 9abd cc64 95be dba6 5c3d
00000310: 4ea6 1e3d 327b 1cbe 5a51 56bd 5180 2639
00000320: f876 fabb 342c cebc afc8 6dbd e7dc d4bc
00000330: 2127 88bd f6ca a1bc e8e9 64bd bbd4 c63c
00000340: ec4f 373d 32cf 5fbd 74c6 46bd 6f68 f33b
00000350: 50d4 27bd 46fa 1f3d ac72 963d 3494 0b3d
00000360: afd1 743e c721 08be c38c f2bd fa66 2a3c
00000370: 10b7 b23b 290a 2d3d 7490 d63d 3261 6abe
00000380: 19ff d9bd db5a 6d3d 5ed2 07bd 4f68 563e
00000390: e587 42bd b037 2fbe 6243 03be cc5b e6bd
000003a0: 4020 a2bd 6b45 5fbd aa94 92bd 52b3 58bc
000003b0: c32e b4bd e8aa e0bd a2b2 2d3e b3d1 443c
000003c0: cbc0 09bd 8fba 28be 23ec bb3c 29fe 2fbd
000003d0: ba7a 82bd 3a53 e7bd 1a96 f53d 9998 df3d
000003e0: e1bb a93d 4a7c f3bc 30ac fabd f98b 913d
000003f0: f64a be3d 35e0 893b 0968 61be b66e 043d

fc2.bias f4 [128]
-0.08109229 0.09753749 0.008066738 -0.04214951 0.026557561 0.047531746 0.031962845 0.0012003791
0.028238902 -0.028888443 0.02651856 0.0223488 0.02612315 0.024305765 -0.042972848 -0.01375787
0.15516138 -0.08471373 0.046923373 0.004281826 -0.05456708 0.10283332 -0.006469673 0.03005728
-0.036859088 -0.13259056 0.09246908 -0.010747057 -0.0061773127 -0.06266006 -0.08963025 0.057475835
-0.09293817 0.081190825 0.072139725 0.031666033 0.044870332 0.07644255 0.06067158 0.00018779348
-0.010738285 0.045818377 0.006877639 0.039241288 0.11169869 0.016482642 -0.058251757 0.07859847
0.0065835007 -0.073087 0.09222522 0.0639049 -0.036600355 -0.0871114 -0.058062997 0.003678463
-0.049695726 -0.11566985 -0.12938818 -0.023097305 0.0013403019 0.007089149 0.03805957 -0.08945816
0.04686808 -0.014639624 0.0111225415 0.008647012 -0.0062989816 -0.024451481 -0.08657202 0.03546814
0.021309739 -0.06616177 0.011129663 -0.102550134 -0.104909256 0.026968474 -0.036705557 0.037256256
0.030204931 -0.024691388 0.05091855 -0.023191942 0.053188432 -0.027745308 -0.12942047 0.010488155
0.03802857 -0.0145856785 0.041472796 -0.02097784 -0.04210606 -0.03114582 0.025761846 -0.06925658
-0.033314914 -0.06602682 0.09378423 -0.014380818 -0.0015335549 0.03669709 0.009870181 -0.03436893
0.042626984 0.10477219 -0.09648629 0.07698687 -0.02501934 0.00837243 0.025460921 0.009321702
0.006619739 0.041929796 -0.06545239 0.01083679 -0.014660505 -0.013699204 -0.018179547 0.030641634
-0.031557295 0.12043694 0.017226808 0.050085466 -0.05176364 0.048518542 -0.07388152 -0.005528643
00000000: b713 a6bd bcc1 c73d 5a2a 043c f7a4 2cbd
00000010: 3e8f d93c a6b0 423d 79eb 023d 0a56 9d3a
00000020: 4555 e73c 75a7 ecbc 733d d93c d514 b73c
00000030: 3700 d63c e21c c73c 4c04 30bd b068 61bc
00000040: a0e2 1e3e 647e adbd b932 403d 8f4e 8c3b
00000050: bb81 5fbd 479a d23d 8dff d3bb af3a f63c
00000060: 8ef9 16bd d2c5 07be 6e60 bd3d 6d14 30bc
00000070: 0e6b cabb eb53 80bd 1190 b7bd c86b 6b3d
00000080: 5e56 bebd 6047 a63d febd 933d 3eb4 013d
00000090: f4c9 373d e98d 9c3d c382 783d 6eea 4439
000000a0: a2ef 2fbc 0dac 3b3d d15d e13b 79bb 203d
000000b0: 48c2 e43d 9b06 873c 6599 6ebd 3cf8 a03d
000000c0: 68ba d73b a3ae 95bd 93e0 bc3d 92e0 823d
000000d0: 41ea 15bd 7667 b2bd 77d3 6dbd 5e12 713b
000000e0: bf8d 4bbd 50e4 ecbd 567e 04be 8f36 bdbc
000000f0: 12ad af3a 184c e83b 5ae4 1b3d d735 b7bd
00000100: bef8 3f3d 09db 6fbc 523b 363c 32ac 0d3c
00000110: b067 cebb 794e c8bc ac4c b1bd 0a47 113d
00000120: c391 ae3c d27f 87bd 3159 363c ce05 d2bd
00000130: aada d6bd fdec dc3c 9158 16bd 049a 183d
00000140: 5570 f73c 9845 cabc f88f 503d 07fd bdbc
00000150: 1ddc 593d 214a e3bc cd86 04be 83d6 2b3c
00000160: d9c3 1b3d c5f8 6ebc 61df 293d b8d9 abbc
00000170: 6777 2cbd 8525 ffbc 820a d33c 65d6 8dbd
00000180: 3875 08bd 1239 87bd f211 c03d 869d 6bbc
00000190: 9001 c9ba b04f 163d 8ab6 213c 6fc6 0cbd
000001a0: a299 2e3d cd92 d63d 9b9a c5bd 4bab 9d3d
000001b0: 5cf5 ccbc 842c 093c 6c93 d03c 0dba 183c
000001c0: 65ea d83b 94be 2b3d e70b 86bd cb8c 313c
000001d0: 9d32 70bc a072 60bc 46ed 94bc 2a04 fb3c
000001e0: 3942 01bd a4a7 f63d 3c1f 8d3c 6b26 4d3d
000001f0: 1c06 54bd 61bb 463d 324f 97bd 9e29 b5bb

fc3.weight f4 [64, 128]
0.04863547 -0.024321552 0.30053797 0.22647533 -0.0787319 0.07554908 0.0007594754 0.00730912
0.18301362 0.06819173 -0.21403135 0.12711366 -0.13352266 -0.028753428 0.066274375 0.044061325
-0.12523946 0.052993562 0.062786974 -0.015658144 -0.22753225 0.09919794 0.18106845 -0.10038639
0.12083035 0.15386327 -0.00706504 0.06439842 -0.081677675 0.25883457 0.069706224 0.028445141
-0.16109776 0.08350114 0.007896387 0.021448301 -0.022807054 0.09954952 0.01566126 0.40471902
-0.030786177 0.036909465 0.22707243 0.159213 -0.017649375 0.03239146 0.12398168 0.00021698138
-0.17321661 0.07710929 -0.07374037 0.024202691 0.044436645 -0.097950384 0.24856657 0.24432059
-0.07985328 -0.008720214 0.041015986 0.030899674 0.064744145 0.016285341 -0.02041063 -0.16758168
0.042456824 -0.09849603 -0.117226 -0.17199087 0.12000987 0.10216113 0.01815574 -0.024046721
0.117124416 0.1774406 -0.3600417 0.09461414 0.080949 0.06673912 0.05505218 -0.09199113
-0.00083473226 -0.069144435 0.05131361 0.050590668 0.034907963 -0.09615848 -0.052644674 -0.066905245
-0.022594636 0.03629813 -0.09846927 -0.07655815 0.02378399 0.21641764 0.0017259049 0.019334797
0.17972864 0.086213805 -0.060097054 0.34909955 0.026895398 -0.027548771 0.30074972 0.059868537
0.26980618 -0.0026227678 0.1887788 -0.030215755 -0.1322144 0.1803852 -0.10924872 0.11973247
-0.09526462 -0.006698097 0.13744894 0.048577715 -0.004188683 0.046946373 0.10484777 0.030958135
0.2098167 -0.026574297 -0.1538362 -0.060288817 -0.12595293 0.21262462 0.41487518 0.1869045
-0.37017676 -0.086986184 0.054529462 -0.031436145 0.23026954 0.058288928 0.1164501 0.0293677
-0.39655066 -0.4275453 0.1425499 -0.032056406 1.24076805e-05 0.03256493 0.1061644 -0.0402031
-0.00014592813 -0.0332573 -0.034189798 0.08332404 0.106558606 0.044114627 -0.11949306 0.11690129
0.095621236 -0.056455538 0.017847078 -0.5686358 0.22164306 -0.4599262 0.012200333 -0.0020118693
-0.09628225 0.11765259 0.015328289 0.05374007 0.10718325 -0.08607459 -0.42646548 -0.3328164
0.049640555 0.07940066 -0.22588488 -0.15239204 -0.11210012 0.058501642 -0.19381775 -0.12092065
-0.12001293 -0.033371132 0.104562856 0.0695906 0.12550247 -0.11973256 -0.24439615 -0.08688802
0.045677844 0.16877627 -0.042717636 -0.013721039 -0.005973556 -0.24459273 -0.06875075 0.30140507
0.02019157 -0.05679365 -0.02457623 -0.09379181 -0.3329578 0.08305092 0.034931522 0.020586662
-0.2914645 -0.08515776 0.26213586 -0.13527954 -0.09268607 -0.09868597 0.002656764 0.06815518
-0.16282049 -0.020606056 0.03724189 -0.13271888 0.08263999 -0.0807505 -0.059744332 -0.034791134
0.18234104 0.14856702 0.03067326 0.088791505 0.12620437 -0.010555553 0.008237523 0.0268423
0.06905687 0.06551984 0.13398242 -0.18941239 0.07965304 -0.052698664 -0.37720957 0.17764962
-0.30431566 0.0803559 -0.28967106 0.10993102 0.029381888 0.052853703 0.03783655 -0.0070072496
0.08116575 0.06301116 -0.11871786 -0.22471648 0.070897646 -0.011288618 0.008766256 0.0077051437
-0.22552404 -0.029494964 -0.26642236 0.062210497 0.14632718 -0.16889946 -0.13229302 -0.28704026
00000000: fd35 473d fe3d c7bc 1de0 993e 26e9 673e
00000010: 313e a1bd 7ab9 9a3d 8817 473a 5881 ef3b
00000020: ec67 3b3e 1ba8 8b3d 092b 5bbe 152a 023e
00000030: 2aba 08be 4f8c ebbc dcba 873d a679 343d
00000040: c63e 00be c70f 593d 7596 803d 8245 80bc
00000050: 37fe 68be 4a28 cb3d 026a 393e 6197 cdbd
00000060: e775 f73d 558e 1d3e da81 e7bb 52e3 833d
00000070: a046 a7bd f785 843e 23c2 8e3d c905 e93c
00000080: d0f6 24be a502 ab3d d95f 013c 59b4 af3c
00000090: dcd5 babc 9ee0 cb3d 0b4c 803c 5537 cf3e
000000a0: 4b33 fcbc 612e 173d ad85 683e bc08 233e
000000b0: 6c95 90bc e8ac 043d 1bea fd3d 7f85 6339
000000c0: b25f 31be 7aeb 9d3d 3105 97bd b944 c63c
000000d0: 3303 363d 369a c8bd 3c88 7e3e 2d2f 7a3e
000000e0: 1e8a a3bd 3adf 0ebc 6100 283d 5021 fd3c
000000f0: 9498 843d d668 853c 3234 a7bc 889a 2bbe
00000100: 35e7 2d3d 49b8 c9bd 2f14 f0bd 601e 30be
00000110: bcc7 f53d db39 d13d 59bb 943c a1fd c4bc
00000120: edde ef3d fdb2 353e 6357 b8be 0fc5 c13d
00000130: 97c8 a53d 85ae 883d 657e 613d d865 bcbd
00000140: efd1 5aba 999b 8dbd 382e 523d 2938 4f3d
00000150: a7fb 0e3d bdee c4bd f1a1 57bd 9e05 89bd
00000160: 6318 b9bc 59ad 143d 42aa c9bd 85ca 9cbd
00000170: a4d6 c23c 969c 5d3e c237 e23a 0264 9e3c
00000180: c90a 383e dd90 b03d 5428 76bd 2dbd b23e
00000190: bd53 dc3c f6ad e1bc defb 993e b638 753d
000001a0: 0924 8a3e bee2 2bbb 3b4f 413e 0887 f7bc
000001b0: 3663 07be e6b6 383e cbbd dfbd 4c36 f53d
000001c0: 191a c3bd b67b dbbb 6abf 0c3e 6df9 463d
000001d0: 3841 89bb d74a 403d 6dba d63d ea9b fd3c
000001e0: 30da 563e 57b2 d9bc 3d87 1dbe 68f1 76bd
000001f0: cef9 00be 45ba 593e 856a d43e e563 3f3e
00000200: cf87 bdbe d025 b2bd 495a 5f3d 30c3 00bd
00000210: c7cb 6b3e 5fc0 6e3d 647d ee3d 8894 f03c
00000220: b008 cbbe 38e7 dabe 9af8 113e 944d 03bd
00000230: 952a 5037 ce62 053d b96c d93d 01ac 24bd
00000240: 4904 19b9 ce38 08bd 9a0a 0cbd cba5 aa3d
00000250: 663b da3d 8ab1 343d c7b8 f4bd f269 ef3d
00000260: 11d5 c33d ec3d 67bd 0934 923c 1e92 11bf
00000270: 66f6 623e 727b ebbe e8e3 473c 91d9 03bb
00000280: a12f c5bd d7f3 f03d 8123 7b3c 8c1e 5c3d
00000290: e482 db3d e047 b0bd af59 dabe e966 aabe
000002a0: e553 4b3d d09c a23d 5e4e 67be a90c 1cbe
000002b0: bf94 e5bd 6b9f 6f3d 2978 46be 3fa5 f7bd
000002c0: 57c9 f5bd 2bb0 08bd 0d25 d63d 8485 8e3d
000002d0: b883 003e 5836 f5bd fc42 7abe 59f2 b1bd
000002e0: b118 3b3d b0d3 2c3e b0f8 2ebd 35ce 60bc
000002f0: d2bd c3bb 8476 7abe 31cd 8cbd c451 9a3e
00000300: cb68 a53c 75a0 68bd 1754 c9bc ec15 c0bd
00000310: 7279 aabe 9a16 aa3d 5b14 0f3d 5ca5 a83c
00000320: d63a 95be 3167 aebd ac36 863e b886 0abe
00000330: 32d2 bdbd df1b cabd 1a1d 2e3b f194 8b3d
00000340: 6aba 26be 08ce a8bc f48a 183d 75e7 07be
00000350: 283f a93d 8560 a5bd 79b6 74bd 2681 0ebd
00000360: 9cb7 3a3e f421 183e 7d46 fb3c 52d8 b53d
00000370: b83b 013e 33f1 2cbc adf6 063c 62e4 db3c
00000380: b06d 8d3d 442f 863d b032 093e 52f5 41be
00000390: 2221 a33d 8eda 57bd 9d21 c1be c8e9 353e
000003a0: 43cf 9bbe a291 a43d c44f 94be 8423 e13d
000003b0: 49b2 f03c 207d 583d 80fa 1a3d 129d e5bb
000003c0: 3b3a a63d ff0b 813d 5922 f3bd 141c 66be
000003d0: c932 913d e5f3 38bc 58a0 0f3c 6e7b fc3b
000003e0: c6ef 66be 6c9f f1bc 8368 88be 6fd0 7e3d
000003f0: cbd6 153e fbf3 2cbe d277 07be f1f6 92be

fc3.bias f4 [64]
-0.08564897 0.033256266 0.01913405 0.06481234 0.0016535334 0.14082323 -0.026343888 -0.07769522
-0.053070508 0.12618895 0.0069638547 -0.037752848 -0.031036206 0.07443277 0.10007864 0.06452972
0.10362883 -0.10847045 0.10470416 0.034272604 -0.10998291 0.003422452 -0.10021674 0.044859316
0.04453076 0.05205004 0.10532438 -0.023656039 -0.00014282165 -0.07462901 0.010616787 0.014905928
0.1311713 -0.03687775 -0.01738907 0.035163205 -0.081052415 -0.025136003 0.008735343 0.05864816
-0.09997184 -0.09554607 0.067819506 0.022150656 0.06771242 -0.021292254 0.06986439 -0.048665218
-0.057360243 0.011721792 0.15521188 0.052322246 -0.12131768 0.010509222 0.0019975558 0.06389544
0.08966295 0.061430823 0.016470667 -0.039114792 -0.022831416 0.03016651 -0.08861354 -0.049702346
00000000: ba68 afbd b937 083d 03bf 9c3c 55bc 843d
00000010: 60bb d83a f733 103e 23cf d7bc ac1e 9fbd
00000020: 7660 59bd ad37 013e 0c31 e43b bba2 1abd
00000030: a43f febc 3570 983d 08f6 cc3d 2828 843d
00000040: 5a3b d43d c125 debd 226f d63d 6e61 0c3d
00000050: b83e e1bd 374b 603b 6f3e cdbd 67be 373d
00000060: e365 363d 6c32 553d 4fb4 d73d 4fca c1bc
00000070: 65c2 15b9 18d7 98bd 08f2 2d3c fe37 743c
00000080: c551 063e 200d 17bd 8673 8ebc 4b07 103d
00000090: cffe a5bd 05ea cdbc af1e 0f3c 0e39 703d
000000a0: 09be ccbd a8ad c3bd f4e4 8a3d 4b75 b53c
000000b0: cfac 8a3d 186d aebc 1015 8f3d 2e55 47bd
000000c0: 93f2 6abd c20c 403c ddef 1e3e da4f 563d
000000d0: 6775 f8bd df2e 2c3c 6de9 023b 9ddb 823d
000000e0: 35a1 b73d e39e 7b3d 7eed 863c d536 20bd
000000f0: f308 bbbc c21f f73c 047b b5bd b094 4bbd

fc4.weight f4 [2, 64]
0.33644563 -0.73050684 -0.23699664 -0.27177587 0.062412273 -0.10402559 0.4460936 0.07525613
0.62368697 -0.2512727 0.19738747 0.45847902 -0.0633817 -0.28870425 -0.14325404 -0.9497521
-0.2931192 0.055403315 -0.20767169 0.67006373 0.117403276 -0.6636407 0.50538605 -0.3471329
0.11006079 -0.29325652 0.6917978 0.12540007 -0.7664181 0.8319174 0.2691125 -0.63141215
-0.4180614 -0.22144955 0.15979323 0.067026004 0.20860428 0.1409597 -0.19534592 0.2489056
0.41198862 0.3290506 -0.25547862 -0.47954836 -0.33623746 0.1264225 -0.5252535 0.0052602123
0.56809 0.2462907 -0.32376605 0.2775778 0.5259937 -0.46420348 0.5919412 -0.6461693
-0.31279248 -0.38585973 -0.60386413 0.0014839893 0.12407759 0.09514568 0.31160548 0.7097089
0.17830981 0.11674941 0.17544922 0.0016494509 0.67999333 -0.1766717 0.10071532 0.12075249
0.41857445 -0.22650851 -0.37812534 0.32124504 -0.4681272 -0.44166547 -0.32261783 0.07427506
-0.2822417 0.19883548 -0.063242644 -0.5400755 0.27536607 -0.058643404 0.18603526 -0.055693135
-0.14508237 -0.21375187 -0.5854996 -0.27563187 0.30655578 -0.094027646 -0.51231813 0.07613723
-0.49733195 -0.89295477 0.63446075 0.6092204 0.16127391 -0.8312495 0.027170556 -0.29668105
0.2378041 0.17758675 0.15034145 0.5221318 0.19042704 -0.59047693 0.24138981 0.652085
-0.26010844 -0.041924413 -0.20426922 -0.34595942 0.065757506 -0.20982915 0.24250558 -0.51184464
0.1798098 0.14093204 -1.0931717 -0.35777658 0.6826994 0.69904643 -0.44700554 0.1153798
00000000: 9a42 ac3e 7f02 3bbf 3faf 72be 3526 8bbe
00000010: 03a4 7f3d 5e0b d5bd 6166 e43e e31f 9a3d
00000020: f3a9 1f3f d1a6 80be f11f 4a3e c3bd ea3e
00000030: 44ce 81bd 0bd1 93be 30b1 12be f422 73bf
00000040: b813 96be 96ee 623d e3a7 54be 4c89 2b3f
00000050: 2171 f03d 5be4 29bf fb60 013f 67bb b1be
00000060: 8d67 e13d b825 96be a919 313f e068 003e
00000070: fa33 44bf 8af8 543f 1dc9 893e 3aa4 21bf
00000080: 250c d6be acc3 62be d6a0 233e ee44 893d
00000090: 5c9c 553e bd57 103e c308 48be 1ce1 7e3e
000000a0: 2cf0 d23e 5279 a83e 18ce 82be 5d87 f5be
000000b0: 5127 acbe e674 013e 0377 06bf dc5d ac3b
000000c0: 596e 113f a133 7c3e aac4 a5be ad1e 8e3e
000000d0: 86a7 063f 14ac edbe 7589 173f 5a6b 25bf
000000e0: 5626 a0be 688f c5be d796 1abf 6b82 c23a
000000f0: 641c fe3d bddb c23d c18a 9f3e 7caf 353f
00000100: d996 363e 511a ef3d f6a8 333e 6332 d83a
00000110: 0b14 2e3f 6de9 34be d543 ce3d 154d f73d
00000120: 644f d63e d9f1 67be a599 c1be 3b7a a43e
00000130: 5eae efbe fa21 e2be 2a2e a5be 861d 983d
00000140: fc81 90be 879b 4b3e 5c85 81bd 6342 0abf
00000150: c8fc 8c3e 1134 70bd 0780 3e3e 7c1e 64bd
00000160: 7990 14be c5e1 5abe 4de3 15bf 9f1f 8dbe
00000170: e1f4 9c3e 9191 c0bd 4827 03bf d6ed 9b3d
00000180: 4ba2 febe af98 64bf 056c 223f def5 1b3f
00000190: fd24 253e c4cc 54bf c994 de3c 94e6 97be
000001a0: eb82 733e 4dd9 353e 1cf3 193e 6eaa 053f
000001b0: 4eff 423e 7f29 17bf e42e 773e 0bef 263f
000001c0: ef2c 85be efb8 2bbd f32b 51be 9821 b1be
000001d0: dfab 863d 74dd 56be 6253 783e 4008 03bf
000001e0: 0f20 383e 7d50 103e 0ded 8bbf 7e2e b7be
000001f0: 63c5 2e3f b5f4 323f e9dd e4be 3f4c ec3d

fc4.bias f4 [2]
-0.07939809 0.08316223
00000000: 779b a2bd f650 aa3d
