checkpoints/Computer2-1-checkpoint-0.7222-actor.pth (torch, 193711 bytes, 8 tensors)

fc1.weight f4 [256, 24]
-0.045479745 -0.17302951 -0.06658937 0.09077077 0.17179427 -0.14542171 0.078833714 -0.0054906495
0.15935642 -0.31042966 -0.15253462 0.17444126 0.15615566 0.008527214 0.035057504 0.09407738
-0.16275854 0.009207267 -0.06320645 0.123086795 0.2711846 -0.120333046 -0.035033893 0.08561206
0.17279597 -0.30933538 0.0649457 0.13964503 0.03588834 -0.12729993 -0.13152759 -0.09940727
-0.06174655 -0.29227453 0.0382333 0.2867806 -0.115214735 -0.08052363 -0.15985274 -0.088204764
-0.08638526 -0.22179383 -0.15059963 0.0777984 0.047093194 -0.14365926 -0.14683464 0.22498088
-0.0668924 -0.16264687 -0.058036093 0.25877538 -0.26967794 0.07193535 0.16017756 -0.02490401
-0.17073815 -0.040563576 0.101544976 -0.069907695 -0.31722724 -0.040537506 -0.0058853906 0.17324175
-0.12380044 -0.035144687 0.0568554 -0.017009273 0.019682404 -0.17129156 -0.028832374 -0.07667717
0.05008687 0.14091194 -0.009244957 -0.053540517 -0.028958466 -0.14555138 0.110401526 0.047529597
0.094792135 -0.14891607 0.20009136 0.06673477 -0.31699225 0.12251171 -0.12942143 0.13675866
0.036385223 -0.16030665 0.17268696 0.118631296 -0.23297626 0.24145648 0.15167046 0.20539942
-0.032294013 -0.15507963 -0.07439965 0.27064353 0.14004809 0.21795203 0.05529918 0.2988893
-0.010782027 -0.2143961 0.21911092 0.007631441 -0.24933071 0.27271077 -0.13319461 0.10190559
-0.024152493 -0.27504593 0.034743585 0.16851646 -0.32483646 0.26347762 -0.0069472454 0.10518813
0.2924234 -0.12217631 0.08270467 -0.118241616 -0.11463733 0.080317065 -0.22770324 0.075208746
0.10702414 -0.22550574 -0.087217115 0.030218394 0.102528654 0.06726355 0.0046663764 -0.052806318
-0.066591896 -0.16421159 -0.079365715 -0.12017232 0.060392328 0.18673994 0.23290093 -0.054300092
-0.071796656 -0.11649579 0.07771946 0.20236126 0.1031348 0.26088476 -0.10600064 0.27755097
0.31836665 0.040008 -0.12757885 0.15908739 0.24157201 -0.026285347 0.11299079 0.17977464
0.07703432 -0.1094151 0.056292683 0.0066812923 0.2300009 0.28189915 -0.06797404 0.17166221
0.20755287 0.12309456 0.17906891 -0.12786439 -0.017156912 0.13476415 0.21049027 0.15752262
0.07283408 0.0128390705 -0.061601337 0.009796818 -0.27947876 0.28882223 0.060407657 0.0936998
0.1397654 -0.15359703 0.1647402 -0.026418557 -0.06738886 0.303552 -0.05203505 -0.05673529
-0.1446686 -0.06991617 0.120851085 -0.14135708 -0.12374316 0.17432821 0.008035981 -0.14018153
0.18836631 0.0853126 -0.13726954 0.09754851 -0.055135965 0.29952058 -0.010342735 0.079930454
-0.059624862 -0.19260722 0.06591547 -0.2136705 0.13892844 0.39121637 0.04110554 -0.23978072
0.089246936 -0.10335034 -0.08787577 0.2890755 0.09277323 0.12945054 0.070029676 0.31754136
0.23586357 0.19665241 0.2000637 -0.013384751 -0.086462244 0.208939 -0.024420075 0.21573752
-0.024224365 0.15226458 0.104686595 0.12595204 0.15694793 0.102696076 0.020448504 0.16690676
0.10351291 -0.29326612 -0.016688082 -0.1707666 0.1496544 -0.10899273 0.08164118 -0.05636529
0.33535865 0.14556198 0.118897974 0.27186087 -0.25883737 0.039637014 -0.110999584 0.1282631
00000000: f848 3abd a62e 31be 0260 88bd 07e6 b93d
00000010: d6ea 2f3e 6ee9 14be 9273 a13d e8ea b3bb
00000020: 542e 233e a3f0 9ebe 0932 1cbe bba0 323e
00000030: 45e7 1f3e bab5 0b3c 7598 0f3d a4ab c03d
00000040: 2daa 26be 14da 163c 6272 81bd ee14 fc3d
00000050: b5d8 8a3e 2c71 f6bd b37f 0fbd 6055 af3d
00000060: 6df1 303e 3561 9ebe 4002 853d 1bff 0e3e
00000070: a7ff 123d ea5a 02be 2baf 06be 0a96 cbbd
00000080: f3e9 7cbd 02a5 95be 859a 1c3d e8d4 923e
00000090: b4f5 ebbd 93e9 a4bd 70b0 23be b3a4 b4bd
000000a0: c1ea b0bd ec1d 63be ca36 1abe c454 9f3d
000000b0: cbe4 403d 6a1b 13be d25b 16be 6361 663e
000000c0: e2fe 88bd e78c 26be 41b7 6dbd 357e 843e
000000d0: 3a13 8abe d752 933d 9605 243e 7f03 ccbc
000000e0: fbd5 2ebe fe25 26bd d0f6 cf3d c42b 8fbd
000000f0: 9c6b a2be a80a 26bd 3cda c0bb 4966 313e
00000100: 168b fdbd e0f3 0fbd 35e1 683d 0857 8bbc
00000110: fe3c a13c 0e67 2fbe df31 ecbc ec08 9dbd
00000120: e427 4d3d 384b 103e 2978 17bc 4d4d 5bbd
00000130: 4e3a edbc 6c0b 15be 321a e23d 65ae 423d
00000140: 6122 c23d 747d 18be c0e4 4c3e 3dac 883d
00000150: cf4c a2be 6be7 fa3d 0d87 04be 760a 0c3e
00000160: ac08 153d 6d27 24be dad4 303e f7f4 f23d
00000170: 5491 6ebe 5e40 773e 804f 1b3e 3a54 523e
00000180: ba46 04bd 32cd 1ebe d85e 98bd ca91 8a3e
00000190: c468 0f3e d12e 5f3e 6581 623d 0508 993e
000001a0: 19a7 30bc a78a 5bbe 9d5e 603e 2b11 fa3b
000001b0: 8d50 7fbe bfa0 8b3e 2b64 08be e1b3 d03d
000001c0: 73db c5bc d2d2 8cbe 4a4f 0e3d 948f 2c3e
000001d0: f750 a6be 8ae6 863e b8a5 e3bb e06c d73d
000001e0: 85b8 953e 9337 fabd 1161 a93d a928 f2bd
000001f0: fac6 eabd 467d a43d 0a2b 69be 0b07 9a3d
00000200: 792f db3d faea 66be e39e b2bd 918c f73c
00000210: 8bfa d13d 79c1 893d 67e8 983b 704b 58bd
00000220: 5561 88bd 1527 28be 7e8a a2bd e81c f6bd
00000230: f25d 773d c138 3f3e 957d 6e3e c669 5ebd
00000240: 200a 93bd 5895 eebd 612b 9f3d ca37 4f3e
00000250: 5738 d33d b092 853e dd16 d9bd 291b 8e3e
00000260: f400 a33e 6edf 233d 08a4 02be cee7 223e
00000270: a75e 773e 5e54 d7bc b767 e73d d816 383e
00000280: 2bc4 9d3d 0615 e0bd 2893 663d beee da3b
00000290: 5b85 6b3e 1655 903e f935 8bbd 38c8 2f3e
000002a0: bd88 543e 0019 fc3d d75d 373e e2ee 02be
000002b0: a78c 8cbc 9dff 093e c38a 573e 9c4d 213e
000002c0: 092a 953d f75a 523c af51 7cbd d582 203c
000002d0: d717 8fbe 82e0 933e 056e 773d aee5 bf3d
000002e0: a91e 0f3e 8a48 1dbe a8b1 283e bb6b d8bc
000002f0: 2c03 8abd 2b6b 9b3e b422 55bd 4363 68bd
00000300: 0124 14be 3530 8fbd c680 f73d e9bf 10be
00000310: 0e6d fdbd 1883 323e 59a9 033c bf8b 0fbe
00000320: 19e3 403e 5fb8 ae3d 6390 0cbe 83c7 c73d
00000330: 40d6 61bd c35a 993e 9374 29bc 94b2 a33d
00000340: 3339 74bd d43a 45be b1fe 863d 71cc 5abe
00000350: 4243 0e3e 834d c83e 485e 283d 1489 75be
00000360: 19c7 b63d 58a9 d3bd 36f8 b3bd b401 943e
00000370: e4ff bd3d af8e 043e b86b 8f3d c894 a23e
00000380: 3886 713e 405f 493e 80dd 4c3e b74b 5bbc
00000390: 1e13 b1bd 1bf4 553e 9c0c c8bc 4cea 5c3e
000003a0: 2d72 c6bc 3feb 1b3e ed65 d63d 92f9 003e
000003b0: f5b6 203e 5252 d23d 9f83 a73c 9be9 2a3e
000003c0: 94fe d33d fa26 96be 72b5 88bc 71dd 2ebe
000003d0: 013f 193e 9537 dfbd 7e33 a73d 4adf 66bd
000003e0: 21b4 ab3e 330e 153e c880 f33d 5931 8b3e
000003f0: 5586 84be 6c5a 223d c053 e3bd 6757 033e

fc1.bias f4 [256]
0.12597841 -0.1303649 -0.23084453 -0.15211374 0.1845512 0.13731569 -0.26670521 0.043277394
0.08960416 0.1182787 -0.019803701 -0.09664994 -0.020779215 -0.058180045 -0.18106127 -0.07094008
-0.08387987 -0.07396634 -0.16397288 -0.09049452 0.027319383 0.026884636 0.03972976 0.043632813
0.016253728 -0.00870978 -0.21131407 0.15252008 -0.002449359 0.21477649 -0.17876184 -0.11531532
-0.057171457 -0.105397075 0.23307332 -0.1616096 -0.07855868 -0.067479216 -0.2707466 -0.047298435
0.13459326 -0.17114405 0.076601095 0.0813772 -0.056997295 -0.17927806 -0.1514759 -0.09969968
-0.23141195 0.123210505 -0.13248342 -0.12673743 -0.0816296 -0.09095197 0.15455279 0.035914354
0.23735288 -0.14924069 -0.22081241 -0.09528513 -0.055471577 -0.1814428 0.04012137 -0.07823094
-0.19282638 0.12263387 -0.14132284 0.08727329 0.06915368 -0.20748064 0.13483901 0.074939795
-0.004561815 0.028248012 -0.14185947 -0.12729728 0.012698536 0.114158206 -0.16666837 0.09597586
-0.038543105 -0.09175761 0.1227222 -0.24567428 -0.047852937 0.06184671 -0.06798601 -0.100267574
0.09581455 0.16364247 0.20254159 0.036042094 0.08112534 -0.23402724 -0.027684 0.07406966
0.16630393 -0.0022227252 -0.15670115 0.13645874 -0.2055392 -0.003353524 0.13477038 -0.056572676
0.20214239 0.013913934 -0.17838019 0.20766504 0.04281646 0.057863858 -0.22138679 -0.11293689
-0.16993573 -0.24240364 0.020476475 0.01739267 -0.15674043 0.021880075 0.018020855 -0.039587654
-0.10500981 0.065801114 -0.014900173 0.14686055 -0.20214447 -0.0035183604 0.08674423 -0.04064696
0.11721069 0.024281502 0.13401021 0.1008352 -0.16178048 -0.16214286 -0.025590528 0.1272831
0.16516979 -0.24401368 0.07677744 0.099157244 0.0419384 -0.077702925 -0.24999462 -0.039299857
0.00448805 -0.08909052 -0.195138 0.061479975 0.009113754 0.089978985 -0.21742319 -0.04536085
-0.14508292 -0.14239685 -0.24829206 -0.14960569 0.052968442 -0.11888761 -0.27952415 0.094901435
-0.26215577 -0.061286103 0.21569939 -0.23341621 0.09428377 -0.20576023 -0.09980732 -0.16801216
0.10937808 0.17426199 -0.038393606 0.0744267 0.18279353 -0.14347328 -0.019160215 0.10626031
0.111643896 0.18829452 0.013640997 -0.15135898 -0.06366399 -0.038956683 -0.023459148 -0.14575967
0.061802812 0.086469546 0.08549428 -0.025956228 -0.11847941 -0.04529789 0.080419555 0.07787911
0.06779447 0.07090296 0.15281996 -0.21581152 0.06714254 -0.1507475 0.22537303 0.116375566
-0.135841 -0.031345606 -0.17847404 0.10226151 0.13276826 0.05426653 0.05866539 -0.11891383
0.12913424 -0.103656985 -0.27897036 0.022861466 -0.086543344 -0.24601637 -0.27500713 -0.09511687
-0.011354395 -0.21951436 0.012957024 -0.06102016 0.09522159 0.1324234 0.08270051 -0.1604478
-0.06958617 -0.21831071 -0.0068208687 0.13615748 0.24522033 -0.016541874 -0.069202796 0.16038507
-0.08130191 0.017634613 0.08331904 0.044120375 0.18131131 -0.009771567 0.18133102 -0.122267745
-0.19813655 0.2368606 0.092899784 0.16681091 -0.18693224 -0.15620716 -0.12215344 0.19418685
-0.20324722 -0.055784147 0.120714314 -0.15417436 -0.0030076797 0.19624124 0.19080888 0.016821034
00000000: 7c00 013e 607e 05be 8262 6cbe b4c3 1bbe
00000010: fdfa 3c3e 7c9c 0c3e 968d 88be a343 313d
00000020: 6382 b73d 1a3c f23d 5f3b a2bc 67f0 c5bd
00000030: 2c39 aabc 334e 6ebd 2068 39be 0849 91bd
00000040: 36c9 abbd aa7b 97bd 82e8 27be 3155 b9bd
00000050: e6cc df3c 2b3d dc3c acbb 223d 52b8 323d
00000060: 8a26 853c 77b3 0ebc b762 58be 392e 1c3e
00000070: 6d85 20bb 5eee 5b3e 580d 37be 702a ecbd
00000080: 9e2c 6abd 6cda d7bd c6aa 6e3e fd7c 25be
00000090: 60e3 a0bd 8b32 8abd 4c9f 8abe 01bc 41bd
000000a0: d1d2 093e 6340 2fbe 09e1 9c3d 17a9 a63d
000000b0: ff75 69bd ab94 37be 801c 1bbe 592f ccbd
000000c0: 41f7 6cbe ca55 fc3d bca9 07be 75c7 01be
000000d0: 6b2d a7bd 0745 babd 1643 1e3e ee1a 133d
000000e0: a20c 733e 8dd2 18be a61c 62be da24 c3bd
000000f0: 2a36 63bd 24cc 39be 4e56 243d 8b37 a0bd
00000100: 4774 45be 7727 fb3d efb6 10be 57bc b23d
00000110: 72a0 8d3d ce75 54be 3d13 0a3e 097a 993d
00000120: 477b 95bb 6068 e73c 9c43 11be 385a 02be
00000130: 850d 503c c7cb e93d 1dab 2abe fe8e c43d
00000140: 60df 1dbd 6aeb bbbd c755 fb3d 0a92 7bbe
00000150: 7101 44bd fa52 7d3d 403c 8bbd 1659 cdbd
00000160: 6b3a c43d e491 273e 1067 4f3e e0a0 133d
00000170: 0b25 a63d d6a4 6fbe 8ec9 e2bc d5b1 973d
00000180: 944b 2a3e 24ab 11bb 4476 20be d7bb 0b3e
00000190: de78 52be ccc6 5bbb 3f01 0a3e c0b8 67bd
000001a0: 6afe 4e3e 45f7 633c 4ca9 36be 25a6 543e
000001b0: 5060 2f3d a702 6d3d 38b3 62be 754b e7bd
000001c0: a203 2ebe a938 78be 48be a73c 137b 8e3c
000001d0: 9080 20be d83d b33c 79a0 933c aa26 22bd
000001e0: 620f d7bd bcc2 863d db1f 74bc 9d62 163e
000001f0: f6fe 4ebe 4b94 66bb f5a6 b13d 6d7d 26bd
00000200: 290c f03d 00ea c63c f939 093e af82 ce3d
00000210: c8a9 25be c708 26be 3aa3 d1bc 8056 023e
00000220: 4522 293e b9de 79be 7e3d 9d3d f412 cb3d
00000230: 9ac7 2b3d b622 9fbd 97fe 7fbe e3f8 20bd
00000240: 7e10 933b 1775 b6bd 42d2 47be 6dd2 7b3d
00000250: db51 153c e746 b83d 2fa4 5ebe 4ccc 39bd
00000260: 9e90 14be 7bd0 11be 4640 7ebe 3c32 19be
00000270: 70f5 583d 597b f3bd ca1d 8fbe af5b c23d
00000280: 4839 86be 2307 7bbd 4de0 5c3e a904 6fbe
00000290: d917 c13d cfb2 52be c867 ccbd 610b 2cbe
000002a0: 9d01 e03d bc71 323e 9d42 1dbd 076d 983d
000002b0: 3a2e 3b3e a9ea 12be e2f5 9cbc 019f d93d
000002c0: 8ea5 e43d 47d0 403e 7d7e 5f3c d9fd 1abe
000002d0: 4462 82bd 0b91 1fbd 662d c0bc 0642 15be
000002e0: f224 7d3d f216 b13d a017 af3d 28a2 d4bc
000002f0: 55a5 f2bd 488a 39bd 02b3 a43d 157f 9f3d
00000300: d4d7 8a3d 9235 913d d67c 1c3e b2fd 5cbe
00000310: 0782 893d 8d5d 1abe 30c8 663e 5056 ee3d
00000320: e719 0bbe 4064 00bd e6c1 36be 7c6e d13d
00000330: 67f4 073e 9546 5e3d 1f4b 703d 1889 f3bd
00000340: c43b 043e 1d4a d4bd 34d5 8ebe f847 bb3c
00000350: a33d b1bd b7eb 7bbe bccd 8cbe a2cc c2bd
00000360: c907 3abc 5fc8 60be b349 543c 46f0 79bd
00000370: 8903 c33d 009a 073e e35e a93d 6e4c 24be
00000380: 3283 8ebd d88c 5fbe 9881 dfbb de6c 0b3e
00000390: 0a1b 7b3e d382 87bc 32ba 8dbd fc3b 243e
000003a0: 9e81 a6bd 7776 903c 2ca3 aa3d 91b7 343d
000003b0: aca9 393e ec18 20bc d7ae 393e 8367 fabd
000003c0: 4fe4 4abe 968b 723e 3e42 be3d 7bd0 2a3e
000003d0: 2a6b 3fbe c5f4 1fbe 952b fabd ebd8 463e
000003e0: 0a20 50be eb7d 64bd 1139 f73d e2df 1dbe
000003f0: 7e1c 45bb 77f3 483e 6763 433e 44cc 893c

fc2.weight f4 [128, 256]
-0.016524399 0.03208263 -0.039217427 -0.05168587 0.032866813 -0.1426338 0.047893096 -0.10357039
-0.011115577 -0.027977267 -0.03280301 -0.050560918 -0.018899012 -0.023458464 -0.061417274 -0.1383523
0.08792941 -0.027069163 0.018978914 -0.11842207 0.05645793 0.004996301 0.05919945 -0.21711434
-0.02248165 0.0981366 -0.012384742 0.043737892 0.019096758 -0.02265182 -0.06845517 0.031554412
-0.041522153 0.002670724 -0.06900814 0.016917074 0.034765128 -0.031949684 -0.047726087 0.15161283
0.05760132 -0.049551558 -0.008675358 0.06428036 -0.015019876 0.09541623 -0.0042175394 -0.040207792
0.06980127 0.027355598 0.017121146 -0.10734975 -0.06871216 -0.015516038 -0.10667207 -0.019563202
-0.023763476 0.0019509785 0.05852328 0.020670217 0.050241534 -0.14418158 -0.054119177 0.042748556
0.07627085 -0.25276023 -0.24203299 -0.10086596 -0.11273407 -0.0206758 0.037418105 0.014546455
-0.05453829 0.07942478 0.00035926644 -0.021394167 -0.061824184 -0.05112606 0.01603637 0.026054816
0.034540087 -0.19826187 0.051739566 0.04792425 -0.0036991101 0.04677289 -0.09426615 0.050735112
-0.02360184 0.018487822 0.0591144 0.05968639 -0.034354746 0.033421047 0.028036866 0.045891806
-0.10998594 -0.054578807 0.030771522 -0.07972952 0.08219091 0.06509063 0.1055398 -0.011530261
-0.15581557 0.012969516 -0.040038273 0.012907389 -0.00023845473 -0.12007447 -0.0009903657 -0.00083230995
-0.13009161 0.08957647 -0.14617729 0.0029199484 -0.015406703 -0.03289795 -0.020141315 -0.027030354
0.0077888905 -0.016966112 0.057395518 0.054907188 -0.016162995 -0.03372573 -0.09728081 0.010476609
-0.028954498 0.019701181 -0.114385255 -0.07711814 -0.25255597 0.02373662 -0.0070184995 0.027577836
-0.11653722 0.029537003 0.07672797 -0.012269939 -0.11894211 -0.070724316 -0.15009888 0.066622294
-0.013164356 0.109606355 0.08612722 0.021804638 -0.004941866 0.08185985 0.040417958 -0.20828892
-0.012960611 -0.016744703 0.07492713 0.06406 -0.07109138 0.047651842 0.019161936 -0.0334644
-0.06572887 -0.031994347 -0.0061314763 0.07087462 -0.021081032 -0.07616983 0.0034569215 0.00451742
0.06005032 -0.2140627 0.0862389 -0.04252303 0.081216455 -0.064099826 0.022243248 0.08459436
-0.2771545 -0.003178723 0.046169966 0.11188599 -0.05388143 -0.056711014 -0.043992262 -0.21738312
0.029365316 -0.08690924 -0.057266682 0.12016147 -0.028518328 -0.052742153 -0.12787378 0.008632031
0.014645192 -0.11851111 0.0036180783 0.047704834 -0.10892806 -0.0681254 -0.06463043 0.021051405
0.0077647255 0.16558124 -0.02897982 -0.041707702 -0.016578475 -0.022759346 -0.020673096 -0.13003722
-0.10797111 -0.07762462 0.012442866 -0.03204598 -0.12395097 0.022830782 -0.2680011 0.03348163
0.05290638 -0.15562302 0.0556664 -0.11162413 0.059810746 -0.053227905 0.014178123 -0.08245702
0.023156358 -0.01056767 0.028395724 0.3176852 -0.14011584 -0.012947438 -0.12839782 0.074850135
0.086577475 -0.0061717033 -0.074484654 -0.018293241 -0.013575189 -0.078008145 0.01564502 -0.02433259
0.026917422 0.105931215 0.00948446 -0.13905017 0.030054701 -0.10435459 -0.12933771 -0.011176319
-0.05232401 -0.06546678 -0.09590296 -0.0038719443 0.046140157 -0.009902822 -0.11617886 -0.0053444533
00000000: 2d5e 87bc 1369 033d 74a2 20bd 90b4 53bd
00000010: 5a9f 063d 980e 12be 8d2b 443d b61c d4bd
00000020: 1c1e 36bc 9530 e5bc 735c 06bd f718 4fbd
00000030: 1ad2 9abc f72b c0bc ae90 7bbd 3aac 0dbe
00000040: 5614 b43d 26c0 ddbc ab79 9b3c 4587 f2bd
00000050: 6e40 673d 03b8 a33b 1f7b 723d 3953 5ebe
00000060: 702b b8bc d7fb c83d 5fe9 4abc 8126 333d
00000070: ce70 9c3c 4f90 b9bc 3932 8cbd 333f 013d
00000080: 2213 2abd 5007 2f3b 2454 8dbd ad95 8a3c
00000090: e165 0e3d acdd 02bd 6e7c 43bd 6540 1b3e
000000a0: 5def 6b3d 93f6 4abd 1723 0ebc 6ca5 833d
000000b0: ed15 76bc 9669 c33d 4933 8abb edb0 24bd
000000c0: f8f3 8e3d d918 e03c a541 8c3c 30da dbbd
000000d0: f6b8 8cbd fb36 7ebc e376 dabd 0243 a0bc
000000e0: 9fab c2bc fab7 ff3a 1bb6 6f3d 9654 a93c
000000f0: 11ca 4d3d 56a4 13be 12ac 5dbd 1c19 2f3d
00000100: e433 9c3d ca69 81be 7fd7 77be d092 cebd
00000110: 1fe1 e6bd 4c60 a9bc ba43 193d 4154 6e3c
00000120: 8b63 5fbd 76a9 a23d ed5b bc39 d242 afbc
00000130: 5b3b 7dbd 8f69 51bd b55e 833c e970 d53c
00000140: e879 0d3d 2905 4bbe deec 533d 384c 443d
00000150: c56c 72bb ee94 3f3d 9c0e c1bd 9fcf 4f3d
00000160: a558 c1bc c673 973c f121 723d b779 743d
00000170: 90b7 0cbd 82e4 083d 92ad e53c 0cf9 3b3d
00000180: 4f40 e1bd 078e 5fbd 8f14 fc3c 3b49 a3bd
00000190: b553 a83d 3c4e 853d 4025 d83d 6be9 3cbc
000001a0: 1e8e 1fbe 187e 543c 2cff 23bd 8379 533c
000001b0: b409 7ab9 9be9 f5bd 29cf 81ba 602f 5aba
000001c0: bc36 05be de73 b73d 80af 15be 9b5c 3f3b
000001d0: 656c 7cbc 00c0 06bd 66ff a4bc c36e ddbc
000001e0: f339 ff3b 84fc 8abc 9017 6b3d 5ce6 603d
000001f0: 4268 84bc fe23 0abd 293b c7bd 15a6 2b3c
00000200: fc31 edbc 5f64 a13c d142 eabd 1ef0 9dbd
00000210: 044f 81be 4d73 c23c 71fb e5bb eaea e13c
00000220: 11ab eebd 96f7 f13c 8e23 9d3d db07 49bc
00000230: ec97 f3bd e9d7 90bd 85b3 19be 4571 883d
00000240: 50af 57bc 4c79 e03d 7863 b03d a49f b23c
00000250: 60ef a1bb 23a6 a73d 4d8d 253d b149 55be
00000260: be58 54bc 302c 89bc 6573 993d e431 833d
00000270: 5c98 91bd 942e 433d 7ef9 9c3c f711 09bd
00000280: dc9c 86bd 810c 03bd 8dea c8bb b626 913d
00000290: 21b2 acbc eefe 9bbd 858d 623b de06 943b
000002a0: 53f7 753d 4133 5bbe 059e b03d a12c 2ebd
000002b0: d054 a63d c546 83bd 7937 b63c cf3f ad3d
000002c0: 32e7 8dbe 1f52 50bb b81c 3d3d 7b24 e53d
000002d0: c6b2 5cbd cf49 68bd 3b31 34bd ae99 5ebe
000002e0: 888f f03c 79fd b1bd 7890 6abd 3717 f63d
000002f0: 459f e9bc 2808 58bd 58f1 02be 5d6d 0d3c
00000300: 63f2 6f3c f4b5 f2bd 481d 6d3b 2566 433d
00000310: ad15 dfbd 5485 8bbd f55c 84bd ff73 ac3c
00000320: 3d6f fe3b 218e 293e 1667 edbc b2d5 2abd
00000330: 95cf 87bc cf71 babc a05a a9bc 7a28 05be
00000340: f51f ddbd a8f9 9ebd 2add 4b3c a542 03bd
00000350: 02da fdbd 9f07 bb3c 7137 89be 0924 093d
00000360: 5cb4 583d a45b 1fbe 7302 643d 319b e4bd
00000370: 1dfc 743d 8105 5abd 5c4b 683c 3adf a8bd
00000380: 67b2 bd3c 0524 2dbc 269e e83c a2a7 a23e
00000390: 877a 0fbe 7e21 54bc b87a 03be 074b 993d
000003a0: 884f b13d 003c cabb 698b 98bd b5db 95bc
000003b0: 786a 5ebc bcc2 9fbd fc29 803c 2455 c7bc
000003c0: ed81 dc3c 77f2 d83d b564 1b3c 2b63 0ebe
000003d0: 4735 f63c dcb7 d5bd 1b71 04be e11c 37bc
000003e0: b351 56bd 7213 86bd c568 c4bd 72c0 7dbb
000003f0: 76fd 3c3d 723f 22bc 2fef edbd 8620 afbb

fc2.bias f4 [128]
-0.0062444303 0.0296527 0.017709933 -0.018224778 -0.024842164 -0.0060623577 -0.00014796987 -0.12140826
0.05773432 -0.025180362 -0.047742344 -0.040684797 0.04495814 -0.00092034665 -0.024492491 0.0344295
-0.025380014 -0.0056568757 -0.06741193 -0.010580863 0.008776368 0.02099261 -0.070083514 0.036011122
0.017001856 0.0057124654 -0.0746037 -0.026221078 -0.019812565 -0.0020890424 -0.04456513 -0.03847962
-0.016328765 -0.080992356 0.015344847 -0.025111899 0.020372514 0.029333955 -0.00996814 -0.066473454
-0.020982826 0.010912054 0.07520183 0.011431864 -0.0121934535 -0.04970649 -0.0029367683 0.0008359777
-0.021990553 0.023894088 0.031484406 -0.10513927 0.0777571 0.023479389 -0.029401325 0.0155395605
0.018333811 -0.011981913 0.07278333 -0.04198475 -0.07315319 0.047329765 0.025781492 -0.02451623
0.035969343 0.07896817 -0.056209 0.0744303 -0.026471892 0.056307375 -0.008382652 -0.060290948
-0.060948934 -0.0050063096 0.024106402 -0.060282394 0.06800407 -0.052342523 -0.0024848254 -0.019006448
0.0044065164 -0.039547607 0.084860586 0.08639885 0.0054172385 -0.009344965 0.044177126 0.024917439
0.00086354715 0.028023925 -0.033387326 0.03474971 0.033115897 -0.024601419 0.06139135 -0.047540992
-0.048945762 -0.045104377 -0.020377286 -0.009891984 -0.028541135 -0.07461127 0.023187349 0.05489497
0.0029634933 0.04930603 0.02618428 0.042579025 0.056182884 0.053182762 -0.015193715 0.0071784114
0.030201085 0.097638234 0.05054282 0.021915618 -0.028031874 0.02866376 -0.043559358 -0.036408473
0.007987014 -0.06537231 0.0023348632 0.012502512 0.03812029 -0.0030274119 0.024143443 -0.0374986
00000000: 149e ccbb 38ea f23c 6c14 913c 214c 95bc
00000010: cb81 cbbc bea6 c6bb 5c28 1bb9 e5a4 f8bd
00000020: d37a 6c3d 0c47 cebc 7a8d 43bd 1aa5 26bd
00000030: 0726 383d 6b43 71ba 7aa4 c8bc f305 0d3d
00000040: bfe9 cfbc 505d b9bb 440f 8abd 5b5b 2dbc
00000050: c1ca 0f3c b2f8 ab3c f287 8fbd 6680 133d
00000060: 7a47 8b3c a22f bb3b d3c9 98bd 96cd d6bc
00000070: f64d a2bc 51e8 08bb ed89 36bd ce9c 1dbd
00000080: e7c3 85bc 52df a5bd f468 7b3c 78b7 cdbc
00000090: 42e4 a63c c34d f03c 6951 23bc 3c23 88bd
000000a0: 2de4 abbc 79c8 323c 6b03 9a3d b74c 3b3c
000000b0: 0dc7 47bc 0899 4bbd cc76 40bb 8425 5b3a
000000c0: 8825 b4bc 89bd c33c cbf5 003d 4253 d7bd
000000d0: 1d3f 9f3d d957 c03c 0cdb f0bc a499 7e3c
000000e0: ca30 963c c94f 44bc 6d0f 953d 34f8 2bbd
000000f0: 57d1 95bd dbdc 413d b533 d33c 43d6 c8bc
00000100: 9754 133d 10ba a13d 693b 66bd ea6e 983d
00000110: 95db d8bc 90a2 663d 6457 09bc a4f3 76bd
00000120: 97a5 79bd f80b a4bb ca7a c53c acea 76bd
00000130: b845 8b3d 1d65 56bd 74d8 22bb 69b3 9bbc
00000140: 8a64 903b acfc 21bd 63cb ad3d e1f1 b03d
00000150: 1783 b13b a01b 19bc 13f3 343d a81f cc3c
00000160: ab5f 623a 6e92 e53c 26c1 08bd b655 0e3d
00000170: 89a4 073d ea88 c9bc 7f75 7b3d 58ba 42bd
00000180: 5a7b 48bd 5ebf 38bd 44ee a6bc fd11 22bc
00000190: 19cf e9bc cbcd 98bd 65f3 bd3c 8cd9 603d
000001a0: 2b37 423b 1ff5 493d 6a80 d63c 5867 2e3d
000001b0: 0620 663d 2bd6 593d 0fef 78bc e138 eb3b
000001c0: 4468 f73c 8ef6 c73d fd05 4f3d 6288 b33c
000001d0: 1aa3 e5bc 43d0 ea3c 4c6b 32bd 0d21 15bd
000001e0: f7db 023c ebe1 85bd 8104 193b 56d7 4c3c
000001f0: 0524 1c3d 8b67 46bb 78c8 c53c 2298 19bd

fc3.weight f4 [64, 128]
0.11286018 0.038906455 0.0062329345 0.1057992 -0.10550088 0.005241489 -0.015878627 -0.06923762
0.095434345 0.008299356 -0.10172529 -0.026460366 0.030798255 0.07719338 -0.040445276 0.11693588
-0.061199795 0.072437115 0.04616721 0.0901619 0.05696028 0.08512206 -0.043106865 -0.024800587
-0.023069113 0.028235177 0.31645635 0.054003432 0.03176385 -0.08786466 0.17778455 0.024154289
0.07745086 0.046669982 0.06016433 0.10982238 0.044564847 -0.071619034 0.11500635 -0.093424745
-0.06322643 0.07906618 -0.016711522 -0.099172674 0.028813923 -0.037922595 0.04117851 -0.060417924
0.028039867 0.029569058 0.08074552 -0.00014673194 0.09047931 -0.020288955 0.14313626 -0.009964011
-0.014757238 -0.08429775 -0.04460266 -0.1654867 -0.06682111 -0.017365376 0.008411028 -0.013689795
-0.14948116 0.010790914 -0.027148427 -0.07851779 -0.18130095 0.063974574 -0.07384761 -0.055615425
0.1128653 -0.003173906 0.026864955 0.061378587 -0.053067636 0.058747705 0.042012338 0.10019097
-0.08672539 0.071891144 0.033316445 -0.040671136 0.014591812 0.10237423 0.008911306 0.022847269
-0.012324182 0.081723474 -0.04436868 0.04527187 0.03908758 -0.056206197 0.04094747 0.037054684
0.1671767 -0.033992153 0.04010251 0.0489529 -0.13742502 -0.07573927 0.036498375 -0.11577173
-0.07889662 0.0650086 0.03843974 -0.048271835 0.114300415 0.042771526 -0.050391756 -0.04924379
-0.06549482 0.094460204 0.015025447 -0.11895934 0.23820831 -0.085489325 0.05374967 -0.07862814
0.023798848 0.07023403 0.18530709 -0.06270052 -0.004089686 -0.0009137237 0.04673961 0.10011595
0.037407976 -0.03944814 -0.08579798 0.0640822 -0.045118727 0.0026820549 0.08721219 -0.18326887
0.066870466 -0.024562811 -0.050447416 0.10883797 0.013593991 0.08167587 0.059303883 0.15189299
-0.06424038 0.07344942 0.056334488 0.038225908 0.076885946 0.033993796 -0.08997877 0.094157726
0.083517596 0.015851637 0.27481323 -0.07579303 -0.016047748 0.016669273 0.048001643 -0.035470936
-0.04482903 0.08709312 -0.005008383 0.07829039 -0.04866117 -0.08701862 0.065568425 -0.0047665983
0.0881332 0.03481385 -0.017671324 -0.06857402 0.05722588 0.057555903 0.080618806 0.005692495
-0.040005967 0.01005199 0.047542922 0.03519938 0.07269891 -0.013662059 -0.01514729 0.021943837
-0.05490813 0.013584249 0.049163055 0.03380577 0.056999683 -0.06912058 -0.04796166 -0.056141652
-0.1585261 0.059668675 0.049285013 -0.04759887 -0.0786786 0.04652506 0.011081831 0.049759984
0.053619448 0.041860178 -0.06993524 -0.026370175 -0.05711094 0.017583122 -0.051510606 -0.021293603
0.028872866 -0.07952926 0.105370425 0.12383711 -0.06155112 -0.021038825 0.035118137 0.019114811
0.11580122 0.019502888 -0.0033300307 0.1372162 0.047684267 0.02071696 0.083401605 0.033358086
0.09863659 0.026584258 -0.08927288 0.008140584 -0.027949886 0.015109308 -0.011402245 -0.028756265
0.0049092835 0.0798045 0.03700057 -0.018981447 -0.008091301 -0.05403133 -0.07958525 0.018574744
-0.011053025 0.08484129 0.033696555 0.057895605 0.110013336 0.06821194 0.10645015 -0.048831854
0.014246563 -0.12070716 0.045699004 -0.021943826 0.044949196 0.05204251 -0.06074421 -0.0034030564
00000000: 3d23 e73d 605c 1f3d a53d cc3b 40ad d83d
00000010: d810 d8bd ccc0 ab3b e513 82bc 74cc 8dbd
00000020: 1573 c33d 06fa 073c 5955 d0bd 69c3 d8bc
00000030: 9f4c fc3c 9017 9e3d f2a9 25bd 147c ef3d
00000040: a3ac 7abd e959 943d d419 3d3d cda6 b83d
00000050: 2f4f 693d 7954 ae3d d390 30bd 9a2a cbbc
00000060: 70fb bcbc 754d e73c 9106 a23e b432 5d3d
00000070: d01a 023d 63f2 b3bd 270d 363e 37df c53c
00000080: 8e9e 9e3d 0629 3f3d df6e 763d 8eea e03d
00000090: a189 363d 00ad 92bd 7388 eb3d 7955 bfbd
000000a0: dc7c 81bd 73ed a13d 9ae6 88bc 0b1b cbbd
000000b0: 2d0b ec3c b954 1bbd ccaa 283d c978 77bd
000000c0: ddb3 e53c cf3a f23c e85d a53d 0edc 19b9
000000d0: 374d b93d 0635 a6bc 5092 123e 1740 23bc
000000e0: 58c8 71bc 4ca4 acbd 47b1 36bd 5875 29be
000000f0: 82d9 88bd d541 8ebc 69ce 093c 294b 60bc
00000100: 9711 19be 60cc 303c 6166 debc efcd a0bd
00000110: f5a6 39be 1a05 833d 6a3d 97bd 00cd 63bd
00000120: ec25 e73d 4e01 50bb e513 dc3c 1d68 7b3d
00000130: 735d 59bd 6fa1 703d 2115 2c3d ec30 cd3d
00000140: 159d b1bd aa3b 933d d376 083d c796 26bd
00000150: 7f12 6f3c 95a9 d13d ba00 123c 322a bb3c
00000160: 5eeb 49bc a35e a73d efbb 35bd ff6e 393d
00000170: 4c1a 203d 7838 66bd 89b8 273d a7c6 173d
00000180: 5e30 2b3e 5b3b 0bbd 8842 243d d682 483d
00000190: 25b9 0cbe 311d 9bbd 527f 153d bb19 edbd
000001a0: 8d94 a1bd 3b23 853d fd72 1d3d b0b8 45bd
000001b0: 5616 ea3d 3231 2f3d 9667 4ebd dbb3 49bd
000001c0: 2622 86bd 5a74 c13d 4b2d 763c f4a0 f3bd
000001d0: e1ec 733e 0715 afbd 9d28 5c3d ca07 a1bd
000001e0: cdf5 c23c dcd6 8f3d 24c1 3d3e 2169 80bd
000001f0: c602 86bb f686 6fba 0972 3f3d 9709 cd3d
00000200: 1b39 193d 5f94 21bd dab6 afbd 873d 833d
00000210: 6ace 38bd 6ac5 2f3b 4e9c b23d d6aa 3bbe
00000220: 62f3 883d f337 c9bc f3a1 4ebd 71e6 de3d
00000230: 55b9 5e3c ae45 a73d a1e8 723d d689 1b3e
00000240: 7690 83bd a66c 963d febe 663d c592 1c3d
00000250: 6176 9d3d 143d 0b3d ca46 b8bd c4d5 c03d
00000260: 460b ab3d 4bdb 813c 52b4 8c3e 6039 9bbd
00000270: 9176 83bc 008e 883c 5f9d 443d f949 11bd
00000280: a59e 37bd e15d b23d 5d1d a4bb b656 a03d
00000290: ef50 47bd d136 b2bd bd48 863d 2031 9cbb
000002a0: 2e7f b43d f898 0e3d 74c3 90bc 8970 8cbd
000002b0: af65 6a3d bdbf 6b3d 791b a53d 1c88 ba3b
000002c0: 4cdd 23bd 1ab1 243c 5ebc 423d 3a2d 103d
000002d0: 2be3 943d d4d6 5fbc 572c 78bc 90c3 b33c
000002e0: 59e7 60bd 7890 5e3c 335f 493d eb77 0a3d
000002f0: 8078 693d 178f 8dbd 7273 44bd caf4 65bd
00000300: aa54 22be 2467 743d 15df 493d 08f7 42bd
00000310: 3f22 a1bd 1091 3e3d 9190 353c 20d1 4b3d
00000320: 11a0 5b3d 9475 2b3d 353a 8fbd 4406 d8bc
00000330: 29ed 69bd 7b0a 903c c9fc 52bd ec6f aebc
00000340: ca86 ec3c 3de0 a2bd 73cc d73d 509e fd3d
00000350: 071d 7cbd 9d59 acbc 09d8 0f3d aa96 9c3c
00000360: 3129 ed3d 85c4 9f3c a53c 5abb 6782 0c3e
00000370: 9450 433d 9db6 a93c 76ce aa3d 7da2 083d
00000380: fb01 ca3d 3bc7 d93c b3d4 b6bd 1660 053c
00000390: 29f7 e4bc 088d 773c 7bd0 3abc 4292 ebbc
000003a0: 0ede a03b 8b70 a33d e98d 173d fb7e 9bbc
000003b0: 6091 04bc f54f 5dbd 97fd a2bd 102a 983c
000003c0: bf17 35bc 45c1 ad3d 6605 0a3d f123 6d3d
000003d0: ac4e e13d b4b2 8b3d 8902 da3d e903 48bd
000003e0: 6b6a 693c 5135 f7bd e12e 3b3d 8ac3 b3bc
000003f0: a61c 383d 872a 553d ecce 78bd d005 5fbb

fc3.bias f4 [64]
-0.06277432 -0.01722014 0.061590165 0.053025253 0.09846874 -0.06781782 0.026079787 -0.031871274
-0.029638873 0.07087894 -0.043720763 -0.042538546 0.026144896 0.050808206 0.06308975 0.07598092
-0.05505487 -0.07179375 0.035748165 -0.056970928 0.0055864304 -0.063569844 -0.07565628 -0.02636295
-0.046397362 0.081277624 -0.03169628 -0.104238994 0.118363 0.004005615 -0.07856105 0.05204066
-0.016485387 0.06841747 0.043961614 0.056325603 -0.06084918 -0.051907495 -0.09746185 0.076272495
-0.038498167 -0.020903422 0.0484657 -0.0790487 -0.07948921 0.020074984 0.020017868 -0.0041436423
0.00086398824 0.02799656 0.039374243 -0.02191239 0.06919083 0.12217081 0.0040040724 0.025821937
0.04313539 0.02985714 0.0043706037 -0.00757856 -0.013332605 0.119457155 0.06597337 0.047005612
00000000: d38f 80bd 4011 8dbc f845 7c3d 0231 593d
00000010: fba9 c93d 12e4 8abd 47a5 d53c 748b 02bd
00000020: 39cd f2bc fa28 913d 8b14 33bd e63c 2ebd
00000030: d22d d63c 441c 503d 3335 813d e29b 9b3d
00000040: 3781 61bd 9a08 93bd ab6c 123d 595a 69bd
00000050: 600e b73b e830 82bd aef1 9abd 1df7 d7bc
00000060: 290b 3ebd e274 a63d f5d3 01bd 417b d5bd
00000070: 4d68 f23d 8941 833b 9ee4 a0bd 9628 553d
00000080: 5d0c 87bc 751e 8c3d 1811 343d adb5 663d
00000090: fd3c 79bd f49c 54bd 149a c7bd c134 9c3d
000000a0: 41b0 1dbd a73d abbc f883 463d 49e4 a1bd
000000b0: 3dcb a2bd 4b74 a43c 83fc a33c 64c7 87bb
000000c0: 457d 623a 0b59 e53c e346 213d 9d81 b3bc
000000d0: ecb3 8d3d b134 fa3d 9834 833b 8788 d33c
000000e0: bcae 303d f696 f43c 4837 8f3b 9255 f8bb
000000f0: 0071 5abc f4a5 f43d 0c1d 873d f588 403d

fc4.weight f4 [2, 64]
0.095338434 0.045404125 -0.15506837 -0.5319459 -0.009573566 0.10963992 0.13196062 0.13107306
-0.09824352 -0.04815485 0.112397954 0.07115987 0.15325247 -0.17025648 -0.2535985 -0.05376702
0.12277201 -0.32270664 -0.043917667 0.41789374 -0.19942614 -0.10601069 0.07809815 -0.104978204
0.36395168 -0.31524834 -0.16760978 -0.3801325 -0.07771729 -0.11213493 0.2995733 -0.0761716
0.17275712 0.17519832 -0.06800798 0.45430893 -0.09272285 0.20295177 0.07634165 -0.16625015
0.25785515 -0.07279828 -0.02586448 0.14726178 -0.6139383 -0.065439634 -0.11027207 0.06475545
-0.089106075 -0.27112895 0.085768245 -0.36931625 -0.041577436 0.18638171 0.14354669 -0.02562372
0.08238873 -0.10955205 -0.23058861 -0.46283203 0.13791679 -0.33718085 0.20812438 -0.19657467
-0.13165401 0.026650945 -0.028263845 0.0917373 -0.47843313 -0.28115782 -0.21036603 -0.3269366
0.24991031 -0.524601 0.33880764 0.23520908 -0.04479519 0.010443629 -0.051449843 0.3139138
-0.24198042 0.1467126 -0.45256054 0.070293464 0.07161669 -0.03612172 0.15169245 0.35762048
-0.3444646 -0.10491242 -0.1602208 0.09486493 0.37126774 0.49963593 -0.27784002 0.13606143
0.021828422 0.21380217 -0.0952145 -0.27119103 -0.057668984 0.0009265758 0.38322815 -0.12696959
-0.003810236 -0.2499452 0.3719558 0.31752735 -0.20662397 -0.08619386 0.28862935 0.3429578
0.054244883 -0.05499376 -0.2816653 0.03883943 -0.12490143 -0.13407797 -0.4643654 -0.32127407
0.18500572 0.037561096 0.32776666 0.37891993 -0.40189913 0.011094699 0.08153004 0.023139166
00000000: cc40 c33d adf9 393d 3eca 1ebe 9b2d 08bf
00000010: 72da 1cbc e58a e03d af20 073e 0438 063e
00000020: e633 c9bd 053e 45bd e630 e63d 44bc 913d
00000030: 37ee 1c3e b757 2ebe aad7 81be cf3a 5cbd
00000040: e46f fb3d ce39 a5be 03e3 33bd 2bf6 d53e
00000050: 5e36 4cbe 221c d9bd ecf1 9f3d d0fe d6bd
00000060: e057 ba3e 3b68 a1be e6a1 2bbe baa0 c2be
00000070: 3e2a 9fbd 00a7 e5bd ac61 993e dbff 9bbd
00000080: 3ee7 303e 3067 333e c547 8bbd 2e9b e83e
00000090: 7ae5 bdbd 97d2 4f3e 0359 9c3d 7b3d 2abe
000000a0: 9705 843e 4417 95bd bfe1 d3bc cbcb 163e
000000b0: 0f2b 1dbf 3705 86bd 53d6 e1bd 819e 843d
000000c0: 3f7d b6bd 6ad1 8abe 43a7 af3d 0517 bdbe
000000d0: 1a4d 2abd d9da 3e3e e7fd 123e d6e8 d1bc
000000e0: 6cbb a83d d35c e0bd 6c1f 6cbe 52f8 ecbe
000000f0: 0f3a 0d3e f8a2 acbe 8f1e 553e df4a 49be
00000100: 4fd0 06be 1553 da3c 9489 e7bc c4e0 bb3d
00000110: 30f5 f4be ebf3 8fbe 316a 57be 3c64 a7be
00000120: 7de8 7f3e 404c 06bf 3278 ad3e a6da 703e
00000130: 297b 37bd c11b 2b3c 12bd 52bd 4fb9 a03e
00000140: b7c9 77be d43b 163e 04b6 e7be 05f6 8f3d
00000150: c5ab 923d 5ef4 13bd 4455 1b3e 081a b73e
00000160: aa5d b0be 53dc d6bd ec10 24be 8b48 c23d
00000170: ce16 be3e 48d0 ff3e 0c41 8ebe b053 0b3e
00000180: 85d1 b23c f5ee 5a3e d2ff c2bd 8dd9 8abe
00000190: 5036 6cbd 73e5 723a 7b36 c43e 5104 02be
000001a0: 27b5 79bb a2f1 7fbe fe70 be3e f292 a23e
000001b0: 3c95 53be 6886 b0bd 3ac7 933e 2a98 af3e
000001c0: e22f 5e3d 2341 61bd 6f36 90be 1816 1f3d
000001d0: 52cc ffbd bc4b 09be 4dc1 edbe 097e a4be
000001e0: 2472 3d3e aad9 193d 08d1 a73e cb01 c23e
000001f0: b9c5 cdbe 8ac6 353c 39f9 a63d 598e bd3c

fc4.bias f4 [2]
-0.04087696 -0.039415706
00000000: 996e 27bd 5d72 21bd
