checkpoints/Computer1-1-checkpoint-1.0744-actor.pth (torch, 193711 bytes, 8 tensors)

fc1.weight f4 [256, 24]
000000 86 f6 29 bd 64 e4 4c 3e 92 a9 22 3e 4b db 35 3d
       -0.04149487 0.20008999 0.15884998 0.044398587
000010 8a 20 77 3e df 10 b7 3d 81 eb 43 bd 25 71 ef 3d
       0.24133506 0.08938765 -0.047832016 0.116915025
000020 f7 5a 41 3e 9b de 77 3e 46 b7 6b bd 88 3b 2d 3e
       0.18882357 0.24206011 -0.05754783 0.1691724
000030 86 ac 7f 3e 6a ab 6e be e8 28 f9 3d 08 64 30 3e
       0.24968156 -0.23307577 0.121660054 0.17225659
000040 97 9a 78 be 3c 7f 18 be f3 ac a5 3c c9 f6 3a 39
       -0.24277721 -0.14892286 0.02022407 0.00017830277
000050 4d d6 ab bd f0 fb 62 be 4f cf 3a 3e fc d1 4e 3e
       -0.08390484 -0.22166419 0.18243144 0.2019729
000060 e3 88 9e 3d 9f d3 a8 be 0b 43 07 3c fa 27 7a bd
       0.07740953 -0.32973954 0.00825573 -0.06107328
000070 27 34 b5 be 57 4c 4f be e1 aa ae bc 16 ba 60 bd
       -0.35391352 -0.20243965 -0.021321716 -0.054864965
000080 51 4f 12 3e 89 6b b8 be f5 42 8a 3d fe a9 10 3d
       0.1428807 -0.36019543 0.06751052 0.035318367
000090 24 2f 9e be 28 b9 f8 bd dd cd bc bc ac 3b 0a 3d
       -0.3089534 -0.12144691 -0.023047382 0.033748314
0000a0 f7 2e c1 3c 44 e5 ed bd ef 7e f0 bc 39 af c6 bd
       0.023581965 -0.116159946 -0.029357402 -0.0970139
0000b0 c9 3b 5b be 5e 5c 73 3e f8 c9 57 bd 75 4f 2c be
       -0.21409525 0.23765704 -0.052682847 -0.16827185
0000c0 68 f7 c4 bc f2 61 fc be 50 82 61 3c 22 92 6a be
       -0.024043754 -0.49293476 0.013763979 -0.22907308
0000d0 09 f5 91 bd c1 0d 98 3d 28 ba a5 3d be e2 cf 3d
       -0.07126815 0.07424498 0.08092147 0.101506695
0000e0 0b da 8e 3e 72 fe d9 be 6e e0 c1 3c b3 27 c6 bd
       0.2790073 -0.4257694 0.023666587 -0.09675541
0000f0 0e 0e 9a bd 3e 69 89 be 19 d0 b1 3d 1c c9 b2 3d
       -0.07522212 -0.26838106 0.086822696 0.08729765
000100 fc 74 b1 3e 99 e5 bd be 6b 5c 17 bd 89 dd b9 3c
       0.34659564 -0.37089232 -0.03695337 0.022688644
000110 be 7d 88 3e 52 0f 2b bf c3 3e 1b 3d b4 fc 36 bb
       0.26658434 -0.6682025 0.03790165 -0.002792162
000120 f7 a5 c3 3d cb d5 ad bd b5 4f 62 3d 95 72 1f be
       0.0955314 -0.084880434 0.055251796 -0.15571053
000130 9e 3d 89 bc 1f b4 31 be 97 d5 46 3a 65 cb 58 be
       -0.016753014 -0.17353867 0.0007584928 -0.21171339
000140 95 78 ec 3d eb 76 47 be ce 04 e7 3d 00 79 15 3e
       0.11546437 -0.19478957 0.11280213 0.14596939
000150 9d 2d 89 3e ec 69 58 be e6 e5 17 3e 0d da b4 3d
       0.26792613 -0.21134156 0.14833793 0.088306524
000160 42 d9 86 bd 2b 7e fb bd 80 f4 2e be 4b ad 9e 3c
       -0.065844074 -0.12279924 -0.17085457 0.019369742
000170 54 0e 16 3e 04 e8 11 bf 96 34 e6 3d fe 7c 49 bd
       0.14653903 -0.5699465 0.11240499 -0.049191467
000180 cb 34 89 3c 0c e1 5a bd 28 ae 03 3e 40 ff 5c be
       0.016748806 -0.053437278 0.12859404 -0.21581745
000190 b9 f5 b7 3d 2a 91 b0 be 39 93 26 3e e3 ec 1c bd
       0.08982415 -0.3448575 0.16267098 -0.03831185
0001a0 e1 97 44 3c ea 39 40 3e 3b cc 80 bd 52 ed 03 be
       0.011999101 0.18772092 -0.06288954 -0.128835
0001b0 56 ec 4f be 16 03 4a 3c 2f e3 2f 3e 3b 61 47 be
       -0.20304999 0.012329837 0.17176507 -0.19470684
0001c0 e0 20 df 3d 88 0a 32 bd de e9 b4 bd 3f 5c 5b be
       0.10894942 -0.043467075 -0.08833669 -0.21421908
0001d0 a1 58 9c be 9e 84 b5 3e dc 8b a0 3d 4d c2 b1 be
       -0.30536368 0.3545274 0.07839176 -0.34718552
0001e0 ae f2 39 3d 61 34 ce be 8e f5 c1 3d de 5c 55 be
       0.045397453 -0.40274337 0.09470664 -0.20836207
0001f0 d5 8b 77 bc 19 5d 91 be a2 e6 e2 3d f8 be 5a 3c
       -0.015109022 -0.2839134 0.11079146 0.013351195
000200 3e 55 fb bd 78 52 b8 be 41 88 7a bd af 15 45 be
       -0.12272118 -0.3600042 -0.061165098 -0.19246553
000210 be 3f 43 bd 93 19 57 be 35 bf 88 3d ad b0 46 be
       -0.04766821 -0.2100585 0.06677095 -0.19403334
000220 c7 52 3a be 81 67 d7 be 19 a9 b1 bd 38 b8 39 be
       -0.1819564 -0.42071155 -0.08674831 -0.1813668
000230 a2 31 13 3d d3 88 b6 be 30 7b f3 3d 33 3c bb be
       0.035936005 -0.35651264 0.118887305 -0.36569366
000240 4c 20 eb 3d 6b a0 a6 3d 35 7b 42 bc 89 7e 20 3e
       0.114807695 0.08136066 -0.011870195 0.1567327
000250 b1 6b 36 bd eb e0 51 3d 0d 5a 33 3e d7 8e 8f 3d
       -0.044536296 0.05123989 0.1751482 0.070096664
000260 7e 03 f7 bc c0 e5 cc 3e 4f 31 94 3d 9f 08 44 3b
       -0.030153032 0.40019035 0.07235967 0.0029912365
000270 1c 2e 5b bc 26 07 53 be cf 6d 1c bd d9 04 02 bd
       -0.013377693 -0.20608196 -0.03819066 -0.031742904
000280 e0 96 be 3d 6f 63 02 3e 8a 9a 14 bd c2 e7 36 be
       0.09306121 0.12733243 -0.036280192 -0.17861846
000290 dd 31 0d 3e d6 33 e2 be 96 d2 b6 bd 25 4b 27 be
       0.13788553 -0.44180173 -0.08926885 -0.16337259
0002a0 c4 84 9d 3d 9a 63 75 3e 5a 91 dd bd 54 d6 c4 3c
       0.07691339 0.23963776 -0.10818739 0.02402798
0002b0 30 9e cd bd 92 07 6b bc bb 5c e3 3d fa 1b 5c bd
       -0.100399375 -0.014345067 0.11101671 -0.053737618
0002c0 c7 c5 c6 3d e3 42 4a 3e 6b 09 53 bd 67 da df bd
       0.09705692 0.19752078 -0.051522654 -0.10930329
0002d0 d4 74 86 3e 46 45 2d 3e b7 4e 43 bc 0f dc 4a 3d
       0.26261008 0.16920957 -0.011920623 0.04952627
0002e0 d2 b1 95 be 5b 01 ac 3a aa 59 cb bc ba 39 b8 bc
       -0.2923723 0.0013122963 -0.024823029 -0.022488464
0002f0 d4 e2 c5 3e c9 e9 83 3d 04 ff e7 bd ee 29 ba bd
       0.3864962 0.06441075 -0.11327937 -0.09090029
000300 2b 6a 21 3d 91 05 ae 3e c9 db f9 3b f4 99 88 3d
       0.03940789 0.33988622 0.0076250774 0.06669989
000310 24 07 29 be ed 8d a4 3d fa 96 06 3e 8d ef 7f 3d
       -0.1650663 0.08034883 0.1314353 0.062484313
000320 5b ff bc bc bd e2 42 ba f8 c2 38 3e d3 94 50 be
       -0.023070982 -0.00074342993 0.18043125 -0.20369272
000330 e0 84 10 be 8c 19 99 bd fa 75 14 bd 63 23 e6 bd
       -0.14113188 -0.07475576 -0.036245324 -0.11237218
000340 ec ee 27 be a1 02 c0 3d c2 8c 72 3d 0a 37 45 be
       -0.16399735 0.093755014 0.05921627 -0.19259277
000350 23 a1 06 bd 3d 7f e3 bd 98 a2 b9 bd 97 9f 40 3d
       -0.032868516 -0.11108253 -0.090642154 0.047027197
000360 bb 34 97 3e af 80 90 be ae 4b 03 be 69 47 9c bd
       0.29532418 -0.28223178 -0.12821838 -0.07630808
000370 85 78 95 bd a7 b4 aa be 18 05 48 3e d2 19 35 be
       -0.07298378 -0.33340952 0.19533193 -0.17685631
000380 c2 90 3b 3e 91 ed b3 be 0e 64 01 3e f4 e8 8e be
       0.1831694 -0.35142186 0.12635824 -0.27912104
000390 f6 96 9d 3d 4d 21 56 3c 26 9e 2a 3e b3 e0 ba 3c
       0.07694809 0.013069463 0.16661891 0.022812223
0003a0 ad 5f 87 3e fb 1a d7 be 5e c8 e0 bd 74 29 e2 ba
       0.26440182 -0.42012772 -0.10975717 -0.0017254786
0003b0 d2 6c ec bd f2 77 ac bd b6 64 f7 3c 04 fc 69 3d
       -0.11544193 -0.08421315 0.03019939 0.057125106
0003c0 9d 21 3c be 59 e3 34 3e 17 01 26 be 0a 45 5b be
       -0.18372197 0.17664851 -0.16211353 -0.21413055
0003d0 74 76 2b be 5a e3 21 be 8e 0f 9b bd 49 22 4b be
       -0.16744405 -0.15809384 -0.07571326 -0.19837297
0003e0 28 94 0b be ea a8 9f 3e 3b 20 a9 bd 6e f0 1d 3c
       -0.13630736 0.3118356 -0.082581006 0.009639842
0003f0 3a cf 16 be cd da 81 bc 64 b8 0f be 30 d7 37 be
       -0.14727488 -0.015851403 -0.14035183 -0.17953181

fc1.bias f4 [256]
000000 1c 99 c9 3c 0f 56 9f 3d 5f e3 ef bb 6a 7b 21 be
       0.024609141 0.07780086 -0.007320806 -0.15769735
000010 0a ec f1 bd 02 39 1d 3c c3 05 dd 3d d0 b1 76 3e
       -0.11812599 0.009596111 0.107921146 0.24091268
000020 9c 9b 90 bd 42 61 0d 3e 23 b9 9e 3d 97 ad 2d bb
       -0.0706093 0.13806632 0.07750156 -0.0026501173
000030 d7 21 0d be c8 c2 d5 bd 8c 63 d7 bd 25 eb 03 bd
       -0.1378244 -0.10437542 -0.10517034 -0.032206673
000040 eb 3f 34 be 9d 20 ba 3d 18 40 1a 3e 2f 45 38 3e
       -0.17602508 0.09088252 0.15063512 0.17995141
000050 19 b7 46 bd 1c c2 eb bd 5a 9f 28 be ac de 2d 3e
       -0.04851446 -0.11511633 -0.16467038 0.16979474
000060 1e e6 1b 3e 2a 70 54 be 64 70 fd bc 21 e2 fb b9
       0.15224501 -0.20745912 -0.030937381 -0.0004804293
000070 ee 95 7e be b2 e2 3b be be d6 c2 3d d5 df 1d be
       -0.24861881 -0.18348196 0.09513615 -0.15417416
000080 46 28 be 3c ab 3a 51 be 55 e1 23 3e f5 05 8b 3c
       0.023212563 -0.20432536 0.16003926 0.016970614
000090 f3 c6 26 be c2 00 39 3c ac c6 be 3d 7f 0f 5a bd
       -0.1628683 0.011291685 0.093152374 -0.053237434
0000a0 77 2f 7e 3d 8e b3 1a 3e e1 2a 80 be 84 7b 6f 3c
       0.062056985 0.15107557 -0.25032714 0.014616851
0000b0 bc 07 78 bd e6 bc 85 3d 82 fa 1f be 7a 5d 37 3e
       -0.06055425 0.0653017 -0.15622905 0.17906752
0000c0 f1 97 10 be c8 ca 83 bd 74 b6 24 be 0e af 09 3e
       -0.14120461 -0.06435162 -0.16085225 0.13445684
0000d0 18 4e 6e be 94 9f c1 bd 6f 41 e4 bd 35 69 60 bd
       -0.23271978 -0.09454265 -0.11145293 -0.054787833
0000e0 11 d1 dc bd 15 5a 3b be c3 8d 42 be 47 46 21 3d
       -0.10782064 -0.18296082 -0.1899939 0.039373662
0000f0 cf 0e 99 be 88 82 39 3e e6 34 53 3d 4b 42 ff 3d
       -0.2989411 0.181162 0.05156412 0.12463816
000100 de 0c 1d be 3f 95 e1 3d a7 4c bb bd a1 88 fe 3c
       -0.1533694 0.110147946 -0.0914548 0.03107101
000110 25 f7 3b 3e d3 8b c5 3c 0a 48 3c be 4a 62 d5 3c
       0.18355997 0.024114525 -0.18386856 0.026047844
000120 97 82 44 bd ad 16 60 be fe 73 20 be f6 36 07 3e
       -0.047976103 -0.2188365 -0.15669248 0.1320456
000130 f0 0c 4a bd 5a 09 32 be d0 52 2c be 41 93 13 3e
       -0.049328744 -0.1738638 -0.16828465 0.14411642
000140 90 c5 34 be cd 35 09 3e 75 dd cb 3d 11 e6 02 3e
       -0.17653489 0.1339943 0.09954349 0.12783076
000150 e4 7c 39 3d b9 37 bf 3c 10 b3 01 be 4d 1d 60 be
       0.04528512 0.023342 -0.12665963 -0.21886177
000160 93 8d 82 be d4 5f a6 bd 11 55 55 be c0 13 28 be
       -0.25498638 -0.081237465 -0.20833232 -0.16413784
000170 80 45 7e 3d 5d 2e 51 be 67 93 e2 bd d2 43 20 3e
       0.062078 -0.20427842 -0.11063271 0.15650871
000180 fe 2c c2 3d 09 33 15 3e 11 91 5d 3d 0c 77 fc bd
       0.09481238 0.1457025 0.054093424 -0.12327394
000190 af d3 82 3d b3 e3 ec 3d 6f ea cf 3d 5a e9 b0 bd
       0.06388032 0.11566868 0.101521365 -0.08638258
0001a0 71 bb 63 bd d7 73 91 bd 7c 9f a7 bd 6c cd ad bc
       -0.05559868 -0.07102173 -0.08184716 -0.021216117
0001b0 af 41 5c 3e d6 0b 3a be 4f fe 87 be c5 11 cb bc
       0.21509431 -0.18168578 -0.2656121 -0.024788747
0001c0 ca f7 4b bc 60 ea 7a 3d 49 65 63 be af 0b 8a 3e
       -0.012449214 0.061258674 -0.22206606 0.2696204
0001d0 c6 0e 3d be e7 c9 0a be c4 97 80 3c b7 b2 b5 3a
       -0.18462667 -0.13553582 0.015697367 0.0013862465
0001e0 e9 c7 19 be ee dc 4a 3d 6b 10 26 bd 5f 20 33 be
       -0.15017666 0.0495271 -0.040543 -0.17492817
0001f0 c9 70 28 3e bd 6a f2 3d 14 a8 34 be d3 77 83 3e
       0.16449274 0.11836765 -0.17642242 0.25677356
000200 e9 d4 e2 3d 18 88 3b be 16 cf 34 be fe 35 84 3e
       0.11075766 -0.18313634 -0.17657122 0.25822443
000210 86 32 20 be 1d 75 5c be 83 63 3b 3e 54 d9 66 3e
       -0.15644273 -0.2152905 0.1829968 0.22543842
000220 c4 12 ed 3d 42 78 cf 3d ff 03 03 be 90 e7 1a be
       0.11575845 0.10130359 -0.12794493 -0.15127397
000230 78 d0 90 3e 4d 4d e2 bd 5b c6 44 bd a4 0d 11 3e
       0.2828405 -0.110499 -0.04804073 0.1416536
000240 db 5a 32 be 5c 38 a2 bd c2 bd 8d bd 11 c3 25 be
       -0.17417471 -0.07920906 -0.06920959 -0.16187693
000250 96 d6 85 be 77 6f 8e be 28 d0 16 be 8f a5 95 3d
       -0.2614028 -0.27819416 -0.14727843 0.073069684
000260 9f da ac bd d9 ba 24 3d 1b a6 7e be b8 3e 8b 3d
       -0.08440136 0.040217254 -0.24868052 0.06799072
000270 c3 7a 32 bd 4f 37 b5 bc e8 24 6f be e8 92 4a 3d
       -0.043574106 -0.0221211 -0.23353922 0.049456507
000280 a3 39 3c 3d 96 a3 4b 3c 81 de 3f be 7b 62 d1 3d
       0.045953404 0.012429139 -0.18737222 0.10223862
000290 6c 44 32 bc 34 cb 87 be df ac e8 3d 04 20 35 bd
       -0.010880571 -0.2652222 0.113610975 -0.044219986
0002a0 64 31 c1 bd c8 49 c6 bd f4 43 4a be ef 54 b5 3c
       -0.09433249 -0.096820414 -0.19752485 0.022135226
0002b0 74 a2 96 3e 02 81 45 be df 04 78 be d0 dd 52 be
       0.29420817 -0.19287494 -0.24220608 -0.20592427
0002c0 d7 f3 4f be 81 82 ce 3b 5c 63 5a 3d f2 3d cf 3d
       -0.20307861 0.0063021784 0.053317413 0.10119237
0002d0 da c1 12 bc 44 2a 35 3d d9 70 ab 3c 1d b8 d4 3b
       -0.008957351 0.04422976 0.020927833 0.0064916746
0002e0 ca 0e a3 3d 3a 12 44 3c c5 e2 ea bd 83 1b a3 be
       0.07961805 0.011967236 -0.11469034 -0.31856927
0002f0 1d 46 3e 3e a5 80 11 3e 66 da 1c be 37 15 64 bd
       0.18581434 0.1420923 -0.15317687 -0.055684295
000300 63 23 e7 bd bf 50 48 be b2 a4 f3 bd 68 fa f6 bd
       -0.11286046 -0.19562052 -0.118966475 -0.1205948
000310 40 29 33 3e a6 94 79 bd 2d 67 09 be 2d ea fa bd
       0.17496204 -0.060932778 -0.13418265 -0.12251697
000320 b4 56 89 bd 6b 12 95 bc 31 d5 06 3d d8 6e 8b be
       -0.067059904 -0.018197259 0.03291816 -0.27233005
000330 7c d4 c7 3b 94 84 a4 bd dc b4 43 3d 87 a8 ac 3b
       0.006098328 -0.080331 0.047779903 0.0052691135
000340 86 49 d3 bb ea 7b 5f be 3f a4 e3 3d 0a 6c ac bd
       -0.0064479737 -0.21824613 0.11115312 -0.08419044
000350 f5 fe ad 3c 2c 26 6e be af 06 1d be a6 fb 31 3e
       0.021239737 -0.23256749 -0.15334581 0.17381153
000360 5c 0a 3f 3e ac 22 89 bc b8 2a 5f 3e ed 26 23 be
       0.18656296 -0.016740166 0.2179364 -0.15932818
000370 11 6c 44 3e 79 e2 56 bd df 2b 85 be 44 74 5d be
       0.19181849 -0.052462075 -0.26010033 -0.21626383
000380 a7 f2 86 bc d8 95 5d bd 3a e7 33 bc 5f 10 3c 3e
       -0.016473128 -0.05409798 -0.010980422 0.1836562
000390 1d 6a 32 bd 9d 6a d4 3d 1f ed 8f 3d 8f 89 2f 3e
       -0.04355823 0.10371897 0.07027649 0.17142318
0003a0 99 96 f7 bd a2 b5 2b 3e 91 71 15 3d ff 13 09 be
       -0.12089271 0.16768506 0.03648526 -0.13386534
0003b0 06 54 39 3c 23 48 ef 3c 92 97 a8 3d 47 12 3c be
       0.011311537 0.029209202 0.08232035 -0.18366347
0003c0 56 93 24 be d1 72 6b be 96 97 16 be 8c a4 22 be
       -0.16071829 -0.22993018 -0.14706263 -0.15883082
0003d0 0e dd 7e be a8 fa 0a be b1 e8 01 be b5 2c 22 3e
       -0.24889013 -0.1357218 -0.12686421 0.15837367
0003e0 e4 8b c0 3c eb 41 82 be da 97 92 bd bb 34 30 3e
       0.023504205 -0.25440916 -0.0715787 0.17207615
0003f0 92 74 8c 3d a4 fc 9c bd 90 56 95 3d 0c de 55 3e
       0.068581715 -0.07665375 0.07291901 0.20885485

fc2.weight f4 [128, 256]
000000 2d b5 18 bd 37 60 07 bd 14 88 6f 3e 1a fd 3a bd
       -0.037282158 -0.033050742 0.23391753 -0.045651533
000010 84 f2 0a bd 0a ab 05 bd 22 a9 72 3d 84 ce 00 3e
       -0.033922687 -0.03263382 0.05924333 0.1257878
000020 54 40 8d bd b7 12 ac bd 86 4c 9c bd 04 7f 9f 3d
       -0.06897035 -0.08402007 -0.07631783 0.07787898
000030 f3 a2 b6 3d 3a 57 5c bd 7a 65 19 3d 42 aa 45 3d
       0.08917799 -0.053794123 0.03745029 0.048258074
000040 c8 30 22 3d 06 e3 20 bd ee 22 89 3c 2a 7a ae bc
       0.039597303 -0.039279006 0.016740289 -0.021298487
000050 aa 45 07 bd 2d d0 6f bd c7 ae 4c 3c 2a 1d fe 3c
       -0.03302542 -0.05854814 0.012492842 0.031019766
000060 bf f9 20 3d f4 7c fa bc ab 59 de bc 9e b1 0e bd
       0.039300676 -0.03057716 -0.027142366 -0.034837358
000070 ad 7c 8a 3d 2c ff 0e bc 1e 94 89 3c 85 b5 0f 3d
       0.06762061 -0.00872783 0.01679426 0.03508522
000080 29 08 1e bd 9b 8a 0a 3c 86 d1 c5 3d 47 69 33 3d
       -0.038582 0.008455898 0.09659104 0.043801572
000090 0d 63 a7 bc bd db 3c 3d ee ef 6f 3d e9 63 61 bd
       -0.020432973 0.046107996 0.058578424 -0.055026922
0000a0 e3 f5 4d bd e5 93 80 3d a4 a9 28 bd 38 eb 6e 3c
       -0.050283324 0.06278209 -0.041177407 0.014582448
0000b0 a4 3b fa 3d a6 75 17 bd 64 56 7f 3d 14 e9 02 3d
       0.12218407 -0.036977433 0.062338248 0.031960562
0000c0 b4 82 80 3d 51 35 90 bd de 18 fc bd 09 03 ae bc
       0.0627493 -0.07041419 -0.123094305 -0.021241682
0000d0 ad 73 5a bc 13 de a3 bd d5 c7 a2 3d 2c 06 1a 3e
       -0.013333243 -0.08001342 0.07948271 0.15041417
0000e0 37 d4 e7 bb 45 ef 3f 3d e9 6d a5 bd ca e2 36 bd
       -0.0070748585 0.046859045 -0.08077604 -0.044649877
0000f0 51 a2 85 3b 2e a6 23 bc 79 6d ff 3c 04 f5 42 bc
       0.0040781875 -0.009988351 0.03118013 -0.011899237
000100 dd 5f 43 bd 57 00 71 bd 63 e9 5d 3d ea 7a 7d 3d
       -0.047698844 -0.058838215 0.054177653 0.061884798
000110 10 bf 6f 3b 17 47 b3 3d 5d a9 96 bd bc f8 09 3d
       0.0036582388 0.08753794 -0.07356522 0.033684477
000120 5c ad 4a bd 0a f3 5f bc 15 c7 ad 3b f6 09 ba 3d
       -0.049481735 -0.013668785 0.0053032734 0.09083931
000130 7c 51 88 bd 6a db 0f 3d 13 49 19 bd 9f 27 04 bd
       -0.06656167 0.03512136 -0.037423205 -0.032264348
000140 80 a2 3a be 72 a8 a1 bd 73 58 ad 3d 45 30 ab bd
       -0.18226051 -0.078934565 0.08464136 -0.08358816
000150 00 59 91 bd c9 c1 b5 3d 77 f9 80 3d 19 f8 22 3c
       -0.070970535 0.08874852 0.06297582 0.009946846
000160 6b 77 88 3d 69 46 d2 3c 64 9e a1 bd 2d 94 31 bd
       0.06663402 0.02566834 -0.07891539 -0.043354202
000170 31 55 0e 3d ff 2b e7 3d ca 46 2c bc 0b fe 8d 3d
       0.034749214 0.112876885 -0.010514924 0.069332205
000180 0c 9d 4d bd 65 f1 ae 3d 18 6a 01 3c e7 12 27 bc
       -0.0501986 0.08542136 0.00789883 -0.010197378
000190 64 e3 17 bd b2 32 bc bc 07 13 be bb a7 3a 8c bd
       -0.03708209 -0.022973392 -0.005800608 -0.068471245
0001a0 1c 4d 12 bd f4 b2 5c bd 94 67 32 3e d7 c7 d8 bc
       -0.03571807 -0.0538816 0.17422324 -0.026462479
0001b0 a3 60 22 3c 4b 65 4e bd ed 02 75 bc 41 fd 13 3e
       0.009910735 -0.05038957 -0.014954311 0.14452077
0001c0 b4 6e 99 3b 9d f8 b8 be 81 a5 7e 3b 9b b7 73 bd
       0.0046823863 -0.36127177 0.0038855972 -0.05950127
0001d0 6d 14 0a 3d 2f a8 d7 bc de a6 bc bc 2e 8b ff bc
       0.033710886 -0.026325313 -0.023028787 -0.031194296
0001e0 aa b0 38 bc 27 18 18 be 14 c1 68 bd 73 17 87 3d
       -0.011272589 -0.14852963 -0.05682476 0.065962695
0001f0 81 60 ab 3d 81 10 5f 3d 43 1a 28 3d bd a4 9b 3d
       0.08368016 0.0544591 0.04104067 0.07599781
000200 6c 95 57 3d db 50 a2 ba 5c ce 6b 3c 28 48 11 3e
       0.052632734 -0.0012383716 0.014392462 0.14187682
000210 fc 55 89 3d ac a6 44 bc 6d 39 ed bd d1 09 e6 3d
       0.06705853 -0.012002628 -0.11583219 0.11232341
000220 06 57 bc 3b 87 e4 8b bd b0 d1 73 3d da 72 95 bd
       0.0057476787 -0.068306975 0.059526145 -0.07297297
000230 4a 88 0e be d3 94 4e 3c b9 f0 ae be a1 75 3b 3d
       -0.13919178 0.012608725 -0.34168032 0.045766477
000240 32 08 1b be cf 15 44 bd 38 e0 a1 bd 43 3b 5c 3d
       -0.15139845 -0.04787236 -0.079040945 0.053767454
000250 6b 14 93 3d 71 39 be 3c c1 5a 16 bc b3 9d 60 be
       0.07181629 0.02322075 -0.009176911 -0.21935157
000260 3c e5 8d 3d 9a 06 75 3d 4a 90 28 bd ac 22 5b 3d
       0.069284886 0.05982075 -0.04115323 0.053499863
000270 7a ab 88 bd 8d d5 69 3d 69 72 08 3c 8b ab b0 3b
       -0.066733316 0.057088424 0.008328059 0.0053915433
000280 b1 52 7f 3c 7c 05 31 3b 45 16 51 bd b2 f7 7d 3c
       0.01558368 0.0027011326 -0.05104663 0.01550095
000290 ae 3c ab bc 68 1a d9 bb e5 f6 d4 3c 8f 0d 99 3c
       -0.020902958 -0.0066254623 0.025996635 0.018683223
0002a0 06 ab 7f bd b7 54 31 39 02 fe a9 3d a1 c1 f7 bc
       -0.06241896 0.00016911594 0.08300401 -0.030243697
0002b0 bd 02 1b 3d 4c e0 05 bd af e3 eb bb 17 c5 70 bd
       0.03784441 -0.03268461 -0.007198773 -0.05878171
0002c0 0a 3b 00 bd cf 90 06 3e 68 e4 c7 3a 6f 6d 52 3d
       -0.031306304 0.13141178 0.0015250565 0.051373895
0002d0 e9 fc d0 3c 3c ac 6c 3d 73 cc 71 3c b8 e6 d0 bc
       0.025511222 0.057781443 0.014758217 -0.02550064
0002e0 ef e1 10 be 4c cf 1b 3c 80 13 0b bd 6a 8a 9c 3b
       -0.14148687 0.009509873 -0.033954144 0.0047772424
0002f0 41 d8 34 be da 73 96 3d 49 79 06 bd 8b 49 4d bd
       -0.1766062 0.07346316 -0.03283051 -0.050118964
000300 8d 6e 32 bd 1a 79 66 3c 27 af 85 3d 04 10 65 bd
       -0.04356246 0.014066959 0.06527548 -0.055923477
000310 bf b0 4c be 62 32 be 3c 2b fe 7b 3d 87 d1 a5 bd
       -0.19989298 0.023217384 0.06152169 -0.08096605
000320 0d e4 d8 bc 2a 0e ca 3d cd c2 ac 3d 9c c8 84 3c
       -0.02647593 0.09865983 0.08435593 0.01620894
000330 ca 11 ac bd 10 61 9c 3d d5 3a 04 be cc 67 9f 3d
       -0.084018305 0.07635701 -0.12913068 0.077834696
000340 4e a5 46 bd 2c e6 4c bd 09 49 f3 bc e1 03 98 bc
       -0.04849749 -0.050024197 -0.029697912 -0.018556537
000350 cf 99 ff bd 5a b7 ab 3a 3e 8f 81 3d a3 ab ab 3c
       -0.124805085 0.0013100908 0.063261494 0.020955866
000360 52 ff 61 bd cf 23 30 be a5 2f f5 3c 67 d0 33 bd
       -0.055175133 -0.1720116 0.029929945 -0.04389992
000370 26 e4 ab 3d b5 5e d4 bd 6f 5f f1 3c 17 5a ba 3d
       0.08393125 -0.103696264 0.029464452 0.090992145
000380 c5 15 83 bd 5b 9f a8 bd 5b c1 5a bc 9a 94 3c be
       -0.064006366 -0.0823352 -0.013351764 -0.18416062
000390 96 8a 44 3d 2f 9b 3d bd 4e 4a 97 3d 1f 61 0c bd
       0.04798373 -0.046290573 0.07387219 -0.03427231
0003a0 62 4c 12 bd 0f 07 dc bd 8b 03 0d 3e b2 8a 97 bd
       -0.035717376 -0.10743534 0.13770883 -0.07399501
0003b0 12 c5 cc bb b8 02 80 bd e8 9d 64 3d 24 01 93 3d
       -0.0062490785 -0.062505186 0.055814654 0.07177952
0003c0 7c 51 81 bd cf d8 b5 bd b7 90 63 bd fc 04 d3 3a
       -0.0631437 -0.088792436 -0.055557933 0.0016099508
0003d0 0f eb af 3c 7b bd 15 bd 8e 96 09 3e 52 5f 11 bc
       0.02147439 -0.036557656 0.13436338 -0.008872824
0003e0 c0 24 54 3d bd 91 87 bd cc aa 1f 3b 63 92 d3 bc
       0.05179286 -0.06619594 0.0024363277 -0.025826639
0003f0 d3 33 73 3d 17 30 34 bd de d6 78 3c a5 de fe bd
       0.059375595 -0.043991175 0.015187947 -0.1244481

fc2.bias f4 [128]
000000 06 ea 9b bc 5d 92 a3 bd 3b ee 3e bd 11 02 aa 3c
       -0.01903249 -0.07986901 -0.046613913 0.020752938
000010 4a c7 1f bd c6 fb 81 bd 00 c6 c1 ba 4b 64 1f bd
       -0.039008416 -0.0634685 -0.001478374 -0.038914006
000020 92 b1 0e bd b6 0b 8a 3b a4 c2 ed 3c 7f 3c 27 bd
       -0.034837313 0.004212822 0.029023476 -0.040829178
000030 c1 e1 00 bc a3 75 01 bd ed c5 d0 bc 02 d9 c8 bc
       -0.007866324 -0.031606328 -0.025485003 -0.02451754
000040 cc df 65 3d ff fc 24 bd 02 11 39 bd 5c b5 2e bc
       0.056121632 -0.04028034 -0.045182236 -0.010663357
000050 ae c5 0d 3d a5 27 f5 37 9e 8c cd 3b c5 a3 39 bd
       0.03461235 2.9224737e-05 0.0062728664 -0.0453222
000060 69 d3 c9 bb 6b c7 44 bc 48 de 9d bc 0f 81 72 3c
       -0.0061592353 -0.012010436 -0.019271031 0.014801278
000070 ac d0 3c 3c 24 26 82 bd f2 4f 90 3d 27 6c a5 bc
       0.011524361 -0.06354931 0.07046498 -0.020193173
000080 7f 29 a3 bd 45 a1 62 3b 80 41 39 3d a2 ce c8 bc
       -0.07966899 0.0034580987 0.04522848 -0.024512593
000090 69 f4 85 3c de 2d 99 3d 39 51 88 3c f1 55 a4 bd
       0.016351895 0.074794516 0.016640292 -0.080242045
0000a0 d8 f6 9e 3c c5 48 5c 3c 8f 58 63 bc 31 4a 46 bd
       0.019404814 0.013445084 -0.0138760945 -0.0484106
0000b0 30 25 d1 3d ab 6e 8f bd a8 1e 68 bd b4 25 7f 3c
       0.10212171 -0.0700353 -0.05666986 0.015572954
0000c0 48 c3 ea 3c 7e 8a 3a 3d 42 54 43 3c ff 24 00 bd
       0.02865757 0.045542233 0.011921944 -0.031285282
0000d0 79 fc 29 3d 52 03 97 3d 07 17 9b bc 73 77 5b 3c
       0.041500542 0.0737368 -0.018931879 0.013395178
0000e0 0d 82 81 3c 41 5f 4b 3d b3 2d 11 3d eb 36 05 bd
       0.015809083 0.049651388 0.035443973 -0.032523077
0000f0 bc 3f 69 3d fd 1c d9 bd f6 f3 4c bd 9f b6 8b bc
       0.056945547 -0.10601232 -0.050037347 -0.017054854
000100 c3 d2 55 bc 6e 1c 7d bd db 09 a9 bd 8d fb 8c bd
       -0.013050738 -0.06179469 -0.08253833 -0.06883917
000110 77 35 60 3d 3d 3f 98 bd 8e 83 89 bb b1 6e d4 3d
       0.054738488 -0.07433937 -0.0041965907 0.10372675
000120 57 f7 c2 bd ca 15 11 bc 73 9b 0a bd e4 f0 d0 3a
       -0.095198326 -0.008855293 -0.033839654 0.0015940932
000130 75 9e c4 3c c3 19 d2 bc 00 79 2a bd 06 03 ca 3d
       0.02400134 -0.02564705 -0.0416193 0.09863858
000140 4a ba 73 3d 16 64 a9 3c c2 07 e2 bd 10 69 ab 3d
       0.05950383 0.020677608 -0.11036636 0.083696485
000150 5c b4 ac 3c ed 65 e0 3c 3c 5d 70 3c 36 e8 d7 3c
       0.021082096 0.027392352 0.014670666 0.026355844
000160 e1 d4 4c 3c 35 53 75 bd c2 78 a5 3c 70 e2 dd 3d
       0.012501926 -0.059893806 0.020199183 0.10834205
000170 f8 e8 1a bc 92 23 c7 bd d6 84 44 bd f5 30 8f bc
       -0.009454958 -0.097235814 -0.047978245 -0.0174794
000180 ec 61 72 3d bf 17 09 3d a2 d0 6c bd 00 6b 8c bd
       0.059175417 0.03346991 -0.057816155 -0.06856346
000190 fa 68 10 bd cc 4d ec bb 8a 03 90 bd 1c 45 8c bd
       -0.035256363 -0.0072114225 -0.07031925 -0.06849119
0001a0 13 01 e8 3c c6 e1 b2 3a be 70 95 3c 0f 95 1f bd
       0.028320825 0.0013647608 0.018242236 -0.038960513
0001b0 a5 c8 12 3c b7 38 7a bc e0 40 5a bd f1 17 e7 bc
       0.00895897 -0.015272311 -0.053284526 -0.028209658
0001c0 f2 29 8d 3d 85 7a 85 ba 79 e6 00 be 90 1c 90 bd
       0.06892766 -0.0010183608 -0.12587918 -0.07036698
0001d0 a6 57 54 bd 73 ec 4c 3d 7e d4 23 3d 30 9a 87 bc
       -0.0518414 0.050030183 0.03999757 -0.016553015
0001e0 04 4d 32 3d 7d dd e8 bc f3 0d ae bd 1b 03 a8 3d
       0.04353048 -0.028425926 -0.08498754 0.08203717
0001f0 55 eb d5 bc c8 f9 86 bd 77 fb f4 bc 33 b6 a3 3b
       -0.026113192 -0.06590611 -0.029905064 0.004996085

fc3.weight f4 [64, 128]
000000 4f 90 b5 3d f7 e1 19 3e 19 66 c5 3d 47 f7 84 3e
       0.08865415 0.15027605 0.09638614 0.25969908
000010 79 5b b2 bd fc 1e f6 bb d8 5d 85 be e3 ef 2f 3d
       -0.08708853 -0.007511018 -0.2604816 0.042953383
000020 74 9a 15 3c 73 78 46 be 4d dd 61 3d f3 67 57 3d
       0.009131063 -0.19381885 0.05514269 0.052589368
000030 71 00 c7 3d 04 b5 93 bd 55 1d 02 3e 89 ca b5 bd
       0.09716881 -0.0721226 0.12706502 -0.08876521
000040 8c d8 a3 bd 5a bd 5e 3d 69 2c 0a 3e 5e 41 b4 3d
       -0.080002874 0.0543798 0.13493504 0.0880153
000050 0a e6 6c 3d 1f de 3f be 88 08 10 3e 6b 8c 05 be
       0.05783657 -0.18737076 0.14065754 -0.13041846
000060 08 89 20 be d6 84 4d bd 43 ba f6 3d 05 18 35 be
       -0.15677273 -0.05017551 0.12047245 -0.17684944
000070 0f b3 82 bd c5 17 f9 ba 1d 26 c0 3c 93 7c b8 bc
       -0.06381809 -0.0019004276 0.023455674 -0.02252034
000080 67 bc 3d 3e 96 33 e0 be 31 09 2f 3d 2b 32 ff 3b
       0.18528901 -0.43789357 0.042733375 0.007787963
000090 68 e4 26 3e ef e6 df bd 1c 65 10 3e da c6 87 3d
       0.16298068 -0.10932719 0.1410107 0.06629725
0000a0 be f7 4d 3d 3f 19 76 be a4 85 68 3d 18 78 b5 3d
       0.050285093 -0.24033068 0.056768075 0.08860797
0000b0 7d 87 fe bd d1 8c 37 3d 79 72 d3 bc 5a 46 eb 3a
       -0.12428186 0.044812027 -0.02581142 0.0017950044
0000c0 4a 09 9f 3d 3b 76 ae bd f4 bf 25 bd 9c 64 3e 3d
       0.077654436 -0.085186444 -0.040466264 0.046482667
0000d0 0b 03 8d 3c 92 d2 91 3d 18 d0 f5 bd e4 95 1a bb
       0.017213365 0.07120241 -0.12002581 -0.0023587877
0000e0 35 e2 b0 bb 7e d7 ed 3b 96 c7 b9 be be c4 4a be
       -0.0053980597 0.0072583547 -0.36285084 -0.19801614
0000f0 8e 11 b7 bd 9f 44 95 3d 5d 1d 4f bd 99 35 21 be
       -0.08938895 0.07288479 -0.050565112 -0.15743102
000100 87 bc 63 be fc 64 3d bc 9a 90 11 3e 69 e5 12 3e
       -0.22239886 -0.011559721 0.14215317 0.14345326
000110 ff c6 be bd 96 b5 58 3e 9e 71 05 3d 7d c4 0b be
       -0.09315299 0.2116302 0.032579057 -0.13649173
000120 2a 1f 90 3e 95 cd 84 bc 30 99 0b be d8 d8 46 bd
       0.28148776 -0.01621131 -0.13632655 -0.048546642
000130 6e 0e 47 bd 9b 43 00 bb 8e 12 af 3d 35 dd c4 be
       -0.048597746 -0.0019571546 0.08548461 -0.38450018
000140 f8 73 a7 bd a6 54 b9 3d 2e 2d bb 3d e5 fa e6 bd
       -0.08176416 0.090493485 0.09139477 -0.11278323
000150 d6 52 47 bd 67 8e 10 3e 1f c3 db 3d 8e f6 24 be
       -0.048662983 0.14116822 0.10730576 -0.16109678
000160 87 75 65 be ed 35 37 3c 1f 44 9b bd 6f a8 85 bd
       -0.22408114 0.0111822905 -0.075813524 -0.06526267
000170 8e 84 62 3d af c1 e6 3d fd 0d d8 bb 01 43 97 3d
       0.055302195 0.11267411 -0.0065934644 0.07385827
000180 83 64 6e 3c 67 7c 15 be 1a c7 1a 3e cc 47 a0 3d
       0.014550331 -0.14598237 0.15115014 0.07826194
000190 53 c0 3b be 0a 5e 85 bb 10 97 18 3e 18 a4 8a 3e
       -0.18335085 -0.004070048 0.14901376 0.2707832
0001a0 cc d6 13 bd 14 5d e9 3a ba 02 24 3e 7e 2d 78 bd
       -0.03609352 0.0017804229 0.16016665 -0.06059026
0001b0 30 fe ca 3c 0d 6c 26 be 0d 0a fe 3d 6a ed 3a be
       0.02477941 -0.16252156 0.12404261 -0.18254629
0001c0 b1 21 82 3d 4e 90 b2 3c 8d 46 96 bd 36 72 3f 3c
       0.063540824 0.021797325 -0.07337675 0.011684945
0001d0 28 8c 99 3d 2d d6 59 3d 91 6a a6 3d d8 4d 0b 3d
       0.07497436 0.05318277 0.08125795 0.034009784
0001e0 92 b1 85 bd 8c 5a f6 3d 43 e6 44 bc fb c6 04 bd
       -0.065280095 0.12028989 -0.012017789 -0.032416325
0001f0 6c 9c 0a 3e cf 09 b0 3d a9 75 53 3c cd 02 e6 bb
       0.13536233 0.08595621 0.01290647 -0.007019377
000200 3a 57 c7 3d 42 b9 b3 3d d6 9d 0c 3d e7 4c a8 3d
       0.09733434 0.087755695 0.03433021 0.08217793
000210 da e1 2c 3d c1 53 3d bd 92 38 18 be c6 bf 8b 3c
       0.042207576 -0.046222452 -0.1486533 0.017059218
000220 8b 43 d9 3d 3c d3 8b bd e9 8d e9 3d 7d 4d 9c 3d
       0.10608586 -0.06827399 0.1140402 0.07631967
000230 61 bf 6a bb 8e f0 7d bd 0f 80 fb 3d 13 04 d6 3d
       -0.0035819637 -0.06199699 0.122802846 0.10449996
000240 a0 0c bc bd 2e 5b 12 3d b8 83 4f 3d 6a 5f 82 3b
       -0.091820955 0.035731487 0.050662726 0.0039786594
000250 00 9a b9 bd 11 b6 a0 be ee 26 06 3e c2 90 40 3c
       -0.09062576 -0.31388906 0.13100788 0.011753263
000260 db e8 7b bc 19 d8 6f bd 5d 87 fb 3d 1a ae fb bc
       -0.015375341 -0.058555696 0.12281678 -0.030722667
000270 f1 62 dc 3d 67 03 7c bc d9 43 2c bd 9c 47 51 bd
       0.10761059 -0.015381671 -0.042056892 -0.051093683
000280 bb 28 bc 3d ac 33 d5 be 19 2a c4 3d c6 c4 a3 bd
       0.09187456 -0.41640985 0.09578342 -0.07996516
000290 97 27 b7 3d 41 9c 19 be 2d ff 3d 3e f0 38 8f 3d
       0.08943098 -0.15001012 0.18554373 0.06993282
0002a0 4a 0b 04 be 50 a6 28 bf 41 f6 bf bd ed e7 f0 3c
       -0.12894931 -0.6587877 -0.09373141 0.029407466
0002b0 e3 79 97 3d a3 49 28 3e 19 04 d2 3d f3 87 ab 3d
       0.07396295 0.1643434 0.10254688 0.0837554
0002c0 66 a2 a3 3d 18 cd 26 3e 53 a5 4d bc 19 c3 8c be
       0.079899594 0.16289175 -0.012551623 -0.27492598
0002d0 8d 51 a3 3c fd d6 5b be 49 82 b8 bd 74 56 5c bc
       0.019936347 -0.2146873 -0.09009225 -0.013448346
0002e0 19 f8 9d 3c 8e db 67 bd ff 23 9f be 25 32 20 be
       0.019283341 -0.056605868 -0.3108215 -0.15644129
0002f0 04 72 a2 bc 16 ec 9e 39 ff 51 fa bb 43 90 0e bd
       -0.019829758 0.00030312006 -0.007639169 -0.034805547
000300 78 83 0d bd 45 48 a8 bd 72 12 f5 3d a7 09 d9 3c
       -0.034549206 -0.08216909 0.11966409 0.02649386
000310 5a 26 d8 bd 25 39 56 3d 09 76 28 bd 39 37 11 be
       -0.1055419 0.05230059 -0.041128192 -0.14181222
000320 9a f0 d2 3c d5 23 83 bd 14 00 ad bc d8 ae 77 bc
       0.025749493 -0.06403319 -0.021118201 -0.01511737
000330 f2 fe 27 be 0a 04 b3 bd a5 40 2e 3e 17 20 fe bc
       -0.16405848 -0.08741005 0.17016847 -0.031021161
000340 a7 f1 db ba dc 2f 03 3e 00 3d 43 3e 66 91 58 bd
       -0.0016780392 0.12811226 0.19066238 -0.052873038
000350 61 2b 91 bc 9b 69 51 3d 16 da b1 3d 96 e7 db be
       -0.01772088 0.051126104 0.08684175 -0.42950124
000360 77 35 c6 bd f4 f8 fd 3d d3 c9 ea bd 29 41 0e 3e
       -0.09678166 0.12401 -0.11464276 0.13892044
000370 02 55 1c 3e 59 ca 00 3e 6d 19 7e bd fa 77 8e 3d
       0.15266803 0.1257719 -0.062035967 0.069564775
000380 bb a9 be 3c 1a 08 d1 bd 8b 49 1c bd 0d 83 93 3d
       0.023274293 -0.102066234 -0.038156074 0.0720273
000390 ac a1 6a be d1 c4 f8 3d e5 4e 8c bd 71 f0 7c 3e
       -0.22913235 0.12146915 -0.068509854 0.24701096
0003a0 b2 89 0d bd 11 47 b3 bc f8 de dd 3d da ae 4a be
       -0.034555145 -0.021884473 0.108335435 -0.19793263
0003b0 80 34 20 3e 4b 97 06 be 73 e1 5f 3d c2 00 49 3d
       0.15645027 -0.13143651 0.054658365 0.04907299
0003c0 8e 5b 0b bd 11 b0 f9 3c 1a 9a cb bd 6d 6f d9 bc
       -0.03402286 0.030479463 -0.09941502 -0.02654239
0003d0 bb 38 4b 3d c8 6e 9f 3d 18 12 23 bc b0 94 09 3d
       0.04961465 0.07784802 -0.009953044 0.033589065
0003e0 cf 02 50 be 51 3c d0 3d 0a 15 9a 3e cb 5d 8b bd
       -0.20313571 0.101677544 0.30094177 -0.06804999
0003f0 fb 99 99 3c 6f 90 c4 bc 45 c8 9d bd 61 4d 8b 3c
       0.018750181 -0.023994653 -0.07704214 0.01700467

fc3.bias f4 [64]
000000 8f f3 b8 bd 27 12 9c bd 06 2b 4d 3c dd 53 36 bc
       -0.0903083 -0.0762065 0.012522465 -0.011128393
000010 d2 e6 a3 bd e1 7b 22 3d 3e 35 af bd fa c0 b6 3c
       -0.0800301 0.03966892 -0.08555077 0.022308815
000020 80 52 c3 bd cd 55 24 bd a8 c0 32 3d 91 29 2c bd
       -0.0953722 -0.04012089 0.043640763 -0.04203183
000030 ec 3e 01 3d 47 54 85 bd 1d 9f 28 bd 31 f3 a1 bd
       0.031554148 -0.06510215 -0.041167367 -0.07907713
000040 9c 87 6f bd 0a 90 4d 3c 83 23 ef 3d ba 5d 0c bb
       -0.058478937 0.012546549 0.11676695 -0.002141817
000050 e3 db ec bd 85 f9 45 bc 3b 7c 36 bc 43 ba 46 bd
       -0.115653776 -0.012083416 -0.011138017 -0.048517477
000060 5a 81 b8 3c 68 5c ed 3c d4 6e 19 3c bf 8b a7 bd
       0.022522617 0.028974727 0.009364802 -0.08180951
000070 62 d9 03 3d b6 c2 80 bd 64 a1 22 3d 82 b0 79 bd
       0.032189734 -0.06287138 0.039704695 -0.060959347
000080 e1 d1 ad bb f5 5c 02 be 2f e8 be bd fd 6e 8e 3d
       -0.0053045605 -0.12730773 -0.09321629 0.06954763
000090 57 b9 8b 3c dd bc 6f 3d a9 c4 94 bc 6b aa e7 bb
       0.01705615 0.058529723 -0.018160181 -0.007069876
0000a0 ef f1 84 bd d1 e5 c0 bd 0c 85 4f 3d d0 60 41 3d
       -0.06491458 -0.09418834 0.050663993 0.04721147
0000b0 11 23 bd 3c 74 44 21 3d ba 7f da bd 52 32 a3 bc
       0.02308801 0.039371923 -0.10668893 -0.019921456
0000c0 60 fc b5 3d e9 48 0d bc 04 16 9b 3c 32 a5 a7 3d
       0.08886027 -0.00862334 0.018931396 0.081858054
0000d0 b5 d5 27 3d e6 77 cf 3c 6b 3f 05 bd 7a a9 32 bd
       0.04097529 0.025325727 -0.032531183 -0.043618657
0000e0 12 9e bd 3d 6f cb e8 3b a1 18 e4 bd 68 96 30 3c
       0.09258665 0.0071043293 -0.1113751 0.010778047
0000f0 67 2c d0 bc f1 9d d3 3c 23 52 14 3d d7 8f c1 bd
       -0.025411798 0.025832148 0.036211144 -0.094512634

fc4.weight f4 [2, 64]
000000 d8 5a 7c be 10 cd c7 bd a0 03 b2 3e 38 19 9b 3e
       -0.24644029 -0.097559094 0.3476839 0.30292678
000010 6a 1c 1d 3c f4 c0 a9 be 37 5e a6 3e 11 68 88 3e
       0.009589294 -0.33155024 0.32493755 0.26641896
000020 47 e3 0c bf e4 61 fe bd 26 73 ab be 4b 8b ea bd
       -0.550343 -0.12421015 -0.3348629 -0.11452349
000030 dd 24 b4 3e a7 93 62 be 7b 22 d7 3e 58 1c 13 3e
       0.35184374 -0.22126637 0.42018494 0.14366281
000040 09 ac cf be 78 d8 73 3c e0 8f 5b 3e c0 59 5a be
       -0.4056094 0.014883153 0.21441603 -0.213233
000050 b4 01 11 3e 56 05 df 3d 4c 39 89 3d 3f 48 b5 3e
       0.14160806 0.108896896 0.06700382 0.35406682
000060 33 2a 1a bd 37 a5 09 bd 96 71 fc 3e a0 84 b0 bd
       -0.0376379 -0.033604827 0.4930541 -0.08619046
000070 b8 4b e6 3b 47 8f 92 3e 8f 34 da bc 91 37 b4 3c
       0.0070280693 0.28624937 -0.02663639 0.021999152
000080 c9 b0 9a 3e 73 08 90 be 2d 61 db be 5b a2 d8 3d
       0.30213 -0.28131446 -0.42847577 0.10577842
000090 eb 23 05 3f 64 59 0b 3e 54 37 c9 bd 3d 7b fe 3d
       0.5200793 0.13608319 -0.09825006 0.124258496
0000a0 ff ee e9 be f4 ea 5a be dc a9 87 bb 4f 88 18 be
       -0.45690152 -0.2137869 -0.004140122 -0.14895748
0000b0 db 65 8f 3e 9a f2 84 3d 53 bf b8 be 01 de 98 bd
       0.28007397 0.06491585 -0.3608347 -0.07464219
0000c0 4d 1e 87 bd 0c 4a 34 bf 38 58 fe be 0c 04 6f 3e
       -0.06597576 -0.70425487 -0.4967668 0.23341388
0000d0 00 bf 56 3f 5d 56 b0 be 67 61 1d 3e bd 6d 7c 3e
       0.8388519 -0.3444089 0.15369187 0.24651237
0000e0 4c 43 da 3d fa b5 9d be 7c a7 1a bd 0c b8 66 bd
       0.10657367 -0.308029 -0.03775738 -0.056327865
0000f0 7d 03 a7 be 74 4e 4c 3e 5e 0c 2a bf f9 f1 67 be
       -0.3261985 0.19951802 -0.6642512 -0.22650899
000100 e8 68 b6 3e 1d 66 92 3e a3 71 77 be 2b e5 a3 3d
       0.35626912 0.2859353 -0.24164443 0.08002695
000110 3f 45 7d 3e 59 0e 7c be f9 e1 75 be 55 83 19 bf
       0.24733447 -0.24614848 -0.24011983 -0.5996602
000120 29 99 9b 3e e6 26 00 3e 74 29 f6 be 76 2f cc 3d
       0.3039029 0.12514839 -0.480785 0.0996999
000130 cf a2 cd bd 29 ab 85 bc 52 2c df be b1 e4 5b bd
       -0.10040819 -0.016316967 -0.435885 -0.053684894
000140 90 50 f7 be 20 01 d2 3e f4 af 13 be 39 60 ba be
       -0.48303652 0.41016483 -0.1442259 -0.36401537
000150 b9 e2 fb 3e c3 66 d9 3e 63 9a 06 bf 2d bd a3 bc
       0.49196413 0.42461213 -0.52579325 -0.019987667
000160 34 90 84 3e 48 1a 12 bf 4b 20 1f 3e 0d 9e 73 3c
       0.25891268 -0.5707135 0.15539663 0.014869225
000170 11 a3 12 3f 53 7e 52 bd 1a a8 3b 3f 5a e4 05 3d
       0.5728007 -0.051390003 0.7330338 0.032688476
000180 71 f6 a4 be 63 e7 c6 bb 5c e8 99 bd 52 69 f3 3d
       -0.3221927 -0.006070064 -0.07515022 0.11885323
000190 f8 7f 0f 3f 68 b7 30 bf ef 75 89 3e db 62 f5 3c
       0.5605464 -0.69029856 0.2684779 0.029954365
0001a0 79 dd 02 be b7 3b a1 be 02 e0 5c 3d 47 14 45 3e
       -0.12779798 -0.3149087 0.053924568 0.19246016
0001b0 ea 0d e0 3e 7f c4 44 bf 5d 8c bd be c5 78 b1 3d
       0.43760616 -0.7686233 -0.3702115 0.08665613
0001c0 7e 94 d0 be 8a bb c3 3e 1c 51 50 bc f9 f6 ce bd
       -0.4073829 0.38229018 -0.0127146505 -0.101057
0001d0 e2 21 3e be f8 ba 2a be b3 f7 c9 3d 2d a8 7d bd
       -0.18567613 -0.16672885 0.09861698 -0.061927963
0001e0 7b 0f 23 3e fb de f6 be 35 ff 2f 3e 87 b3 83 3e
       0.15923874 -0.48216996 0.17187198 0.25722906
0001f0 5c fa 43 be bb a7 72 bd 0e 82 8d bd 8c e0 41 be
       -0.19138473 -0.05924199 -0.069095716 -0.18933314

fc4.bias f4 [2]
000000 56 df 06 bc a4 06 1c be
       -0.008231958 -0.15236908
