checkpoints/Computer1-0-checkpoint-1.2275-actor.pth (torch, 193711 bytes, 8 tensors)

fc1.weight f4 [256, 24]
-0.09112729 0.2372576 0.029498046 -0.058022004 0.049085595 -0.32951573 0.15397936 0.23628435
0.0393336 -0.16156076 -0.08233184 -0.15994456 0.026772834 -0.14164522 0.07643717 -0.22308475
-0.080076315 -0.035852846 -0.17756775 -0.11218199 -0.1015675 -0.040430535 -0.011080382 -0.042022236
0.052422002 0.25221777 0.05217711 0.058643084 -0.12556447 0.191432 0.11853026 -0.17730986
-0.057157163 -0.05714862 -0.05936393 0.03786979 -0.044521067 0.09708354 0.062369548 0.019044328
0.12377559 0.14217898 -0.1636236 0.027540421 0.21342863 -0.085132964 -0.12166324 -0.25417832
0.21793053 -0.042669926 -0.17367351 -0.008448062 -0.12364484 0.023367133 -0.048604723 -0.020818401
-0.13382351 -0.21375196 0.034609143 -0.09378159 0.1235673 -0.12979159 -0.07201289 -0.23723719
0.04044103 -0.1180205 -0.049852848 0.20351167 0.38371018 -0.19079147 0.09599634 0.23196545
0.10375751 -0.23250581 -0.08113224 0.31649068 0.07185725 -0.19709596 -0.15325671 0.278793
0.14193448 -0.45310202 -0.05773308 0.18936521 0.040461414 -0.12146938 -0.13384987 -0.034413397
0.06981856 -0.37464586 -0.12825023 -0.13533458 -0.03720957 -0.32912788 -0.13500515 0.053519484
-0.02639595 -0.15656137 -0.10390154 -0.0057276697 -0.33751678 -0.1484721 -0.03541421 -0.1672013
0.061288632 -0.051785074 -0.14535952 0.28927416 -0.26775888 -0.13044067 -0.09601031 0.31094265
-0.021699732 -0.046902683 -0.14785585 0.2568961 -0.10910401 0.15392756 -0.013612693 0.015205711
-0.16440612 -0.1036526 -0.146112 -0.012550974 -0.12960196 0.23591891 0.011193544 0.08710137
-0.06880401 0.11748538 0.12998077 0.16680573 0.029861422 0.30716354 -0.15692477 -0.03520979
0.23970202 0.0975576 -0.078829005 0.16681884 0.24982461 0.24978955 0.035667833 -0.11168469
-0.18038571 0.20831576 -0.06220118 0.012497796 0.2635844 -0.19240937 0.052541368 0.24475625
0.004122984 0.15969533 -0.06549679 0.021691715 0.13183491 0.0057355543 0.014430984 -0.13851348
-0.07047545 0.32076576 -0.107386835 -0.25270885 -0.23498137 -0.25229093 0.14723618 -0.2886102
0.05997099 0.096861474 -0.10444042 0.08877386 0.17678218 0.2464654 0.10149432 0.1692662
-0.12868735 -0.16617271 -0.02067351 -0.03236803 -0.0907558 0.17401142 0.10420108 0.053557035
-0.00049973093 0.07061987 -0.017662687 -0.16203707 -0.3790149 0.15690216 0.06442575 -0.14209244
-0.19163443 0.09728689 0.053633284 0.29451853 -0.11716453 -0.16856769 -0.057291552 0.25271434
0.024182355 -0.072142035 -0.14472516 0.13507779 0.18477768 -0.06083826 -0.13873447 -0.16454227
-0.12641887 0.21532252 -0.236415 -0.2500627 0.072755106 -0.3966774 -0.11575844 -0.26855868
0.09948437 -0.25799882 -0.09359063 -0.11402436 0.25436434 0.07890819 0.06839778 -0.19599856
-0.0863921 0.05649804 0.033057567 0.026209315 0.2215176 0.009638413 -0.054447133 -0.10293542
-0.046830315 -0.14257298 -0.16716798 0.021812566 -0.066336535 0.25516385 -0.1372912 -0.00010587998
0.15681434 0.00037472948 -0.042102814 -0.16480266 -0.13409458 -0.009677541 -0.15397327 -0.17071456
-0.008573538 -0.11883376 -0.025435625 -0.107367665 0.13485828 0.23617595 -0.0021581727 0.09698122
00000000: f2a0 babd a8f3 723e e3a5 f13c 7ba8 6dbd
00000010: fa0d 493d 49b6 a8be c4ac 1d3e 86f4 713e
00000020: 451c 213d 2f70 25be 999d a8bd 82c8 23be
00000030: b452 db3c 720b 11be 178b 9c3d 5470 64be
00000040: 0dff a3bd 6fda 12bd 52d4 35be acbf e5bd
00000050: 9f02 d0bd 7d9a 25bd 7e8a 35bc 821f 2cbd
00000060: 74b8 563d b022 813e aab7 553d bb33 703d
00000070: f993 00be c006 443e febf f23d b790 35be
00000080: a11d 6abd ac14 6abd 9827 73bd 5a1d 1b3d
00000090: b95b 36bd bcd3 c63d 3677 7f3d da02 9c3c
000000a0: 0e7e fd3d 5e97 113e f28c 27be 739c e13c
000000b0: 098d 5a3e 315a aebd 942a f9bd a923 82be
000000c0: 2e29 5f3e a9c6 2ebd 78d7 31be be69 0abc
000000d0: 8239 fdbd 6e6c bf3c bf15 47bd 5a8b aabc
000000e0: 0809 09be cbe1 5abe 51c2 0d3d 9010 c0bd
000000f0: da10 fd3d 16e8 04be 7e7b 93bd 4eee 72be
00000100: 7ea5 253d bbb4 f1bd 8032 4cbd 5d65 503e
00000110: a975 c43e d75e 43be bb99 c43d 5a88 6d3e
00000120: d17e d43d 0116 6ebe a928 a6bd 110b a23e
00000130: e529 933d 86d3 49be 54ef 1cbe f5bd 8e3e
00000140: 4657 113e fdfc e7be 8679 6cbd f4e8 413e
00000150: deba 253d f0c4 f8bd f10f 09be 10f5 0cbd
00000160: 08fd 8e3d 95d1 bfbe 0754 03be 2695 0abe
00000170: 1069 18bd 7383 a8be ca3e 0abe 3f37 5b3d
00000180: 523c d8bc a051 20be 55ca d4bd 2daf bbbb
00000190: 00cf acbe 1209 18be 7e0e 11bd d136 2bbe
000001a0: ca09 7b3d 961c 54bd 20d9 14be be1b 943e
000001b0: b117 89be 3d92 05be 0ea1 c4bd e033 9f3e
000001c0: a3c3 b1bc 071d 40bd 8667 17be e387 833e
000001d0: ec71 dfbd 309f 1d3e c607 5fbc 6021 793c
000001e0: 145a 28be d047 d4bd 629e 15be 9aa2 4dbc
000001f0: 60b6 04be ba94 713e 2065 373c 3462 b23d
00000200: 1ee9 8cbd 2d9c f03d ae19 053e 1fcf 2a3e
00000210: f19f f43c 8a44 9d3e e3b0 20be 2438 10bd
00000220: 7274 753e 47cc c73d 1a71 a1bd 8fd2 2a3e
00000230: 06d2 7f3e d5c8 7f3e 6f18 123d f1ba e4bd
00000240: 08b7 38be ba50 553e aac6 7ebd 8ec3 4c3c
00000250: 89f4 863e f606 45be 9e35 573d 62a1 7a3e
00000260: 191a 873b 2c87 233e 2e23 86bd d3b2 b13c
00000270: bbff 063e 51f1 bb3b ef6f 6c3c 7ad6 0dbe
00000280: 6f55 90bd 693b a43e a1ed dbbd 0e63 81be
00000290: f59e 70be 472c 81be 15c5 163e b7c4 93be
000002a0: 24a4 753d 4f5f c63d dce4 d5bd 12cf b53d
000002b0: 6306 353e 6d61 7c3e 41dc cf3d 1e54 2d3e
000002c0: 9ec6 03be 2e29 2abe 7e5b a9bc 5794 04bd
000002d0: 2dde b9bd 0d30 323e 6067 d53d 9f5e 5b3d
000002e0: 6000 03ba 27a1 903d 57b1 90bc 0ced 25be
000002f0: 3e0e c2be f6aa 203e a6f1 833d ae80 11be
00000300: d13b 44be 593e c73d 93ae 5b3d 22cb 963e
00000310: f5f3 efbd 029d 2cbe 8caa 6abd c663 813e
00000320: 131a c63c 34bf 93bd d532 14be d551 0a3e
00000330: 5c36 3d3e 8a31 79bd 6910 0ebe c57d 28be
00000340: f373 01be 827d 5c3e c616 72be 3808 80be
00000350: a100 953d 4d19 cbbe c312 edbd 8680 89be
00000360: 76be cb3d 6c18 84be 72ac bfbd 9b85 e9bd
00000370: 0b3c 823e 9e9a a13d 2314 8c3d d9b3 48be
00000380: 57ee b0bd 7d6a 673d 5f67 073d ebb4 d63c
00000390: 82d5 623e 6fea 1d3c f503 5fbd cecf d2bd
000003a0: 25d1 3fbd a7fe 11be 152e 2bbe 44b0 b23c
000003b0: 73db 87bd d6a4 823e 1096 0cbe e20b deb8
000003c0: f093 203e 5777 c439 0074 2cbd 07c2 28be
000003d0: 1750 09be 8d8e 1ebc 2bab 1dbe cccf 2ebe
000003e0: 0678 0cbc 1d5f f3bd 5f5e d0bc 94e3 dbbd
000003f0: 4a18 0a3e 1cd8 713e 2170 0dbb 179e c63d

fc1.bias f4 [256]
-0.16066831 0.09362763 -0.24191602 -0.020321311 -0.19392186 0.03445072 0.22326542 0.013839576
0.12477692 0.05756171 0.05984499 0.0021548793 -0.22877456 -0.12372001 0.16733664 -0.10386627
0.20692772 -0.040893137 -0.069502085 -0.077281095 0.088592455 0.11950111 -0.08745823 0.14044169
0.011407851 -0.056979086 0.05428036 -0.2939494 0.111207336 -0.0627091 0.041736234 -0.112838194
0.0101506645 0.04096031 -0.15463959 -0.08176095 -0.11935499 -0.020770984 0.22681585 -0.03151826
-0.24683586 0.0829276 -0.0027711405 -0.1957009 -0.28163406 0.10096453 0.12659377 -0.063762866
-0.08718873 -0.120719194 0.036292978 -0.072927944 -0.033053607 -0.11368023 -0.042841256 0.056645673
0.1532816 -0.08848111 -0.009343953 0.06316793 -0.004121701 0.20936148 0.028970813 0.12988625
-0.006182157 0.10808328 0.025820915 0.0065223966 -0.15271765 -0.20970497 -0.26640487 0.09409703
0.059962608 -0.18468378 0.011690046 0.18173024 -0.086243086 -0.10578841 -0.042765163 -0.16488095
-0.1894699 0.19156991 0.079961024 -0.16752872 -0.236027 0.048114587 0.0973208 0.127244
-0.025849583 -0.000107081854 -0.03556128 0.022868546 0.08606715 0.12660797 -0.04570759 0.054579366
0.15714568 0.17794491 -0.07696205 -0.0012138905 0.10534727 0.07746441 -0.017495489 -0.124426775
-0.058913626 0.21029717 -0.14550741 -0.057730973 -0.15355991 -0.19767907 -0.24554567 -0.12968563
0.14949423 -0.038682885 -0.098800845 0.019236295 0.09008831 0.027488323 0.04126464 -0.2361345
-0.06520648 -0.016502844 0.011895168 -0.1853233 -0.055440333 0.21724138 -0.28588477 -0.1526845
-0.047303207 -0.023372233 0.14409523 0.1927582 0.042235337 -0.14648764 0.16565315 0.035882484
0.11490217 0.17330414 -0.004414276 -0.21048808 0.09849912 -0.18849367 0.14459899 0.17965116
-0.12590574 0.18879345 -0.14696294 -0.1559231 0.015585088 -0.081916064 0.13311797 0.10625105
-0.15901837 -0.077206954 0.14563102 -0.10707616 -0.01191329 0.033064734 -0.14837845 0.10699135
0.10211362 0.0011335624 0.03117056 -0.09087463 -0.062364746 0.22975399 -0.08948979 -0.047591217
-0.22216351 -0.20140247 -0.0002705655 -0.1990368 -0.0017644663 -0.120320536 -0.09804764 -0.0011733827
-0.10593582 -0.2588751 -0.0046682274 0.09350135 -0.18606932 -0.0840157 -0.025138374 0.08929017
-0.10155499 0.14428666 -0.09889234 0.029041044 -0.016769215 0.10095635 -0.0019770567 -0.20163284
9.1002665e-05 0.10904431 -0.062129486 -0.201534 -0.1593494 -0.17751119 -0.1448712 -0.0033275515
-0.0925686 -0.092965275 -0.110005386 0.10549881 -0.07676601 0.099655434 -0.15766752 -0.02089087
-0.1955743 -0.29135844 0.074830264 0.07299589 0.05610922 -0.020757772 0.14799958 -0.18279657
-0.1450718 -0.033558697 0.13658397 -0.20620085 0.10688006 0.21491544 0.22299103 -0.20766376
0.17793703 0.062300038 0.08644271 -0.048365287 -0.0069516916 0.012935382 -0.25630048 -0.07179499
0.22522184 0.2196158 0.126901 -0.24989203 -0.046162665 0.23627701 0.08123951 -0.2730238
-0.038912352 0.12849592 0.061814833 0.12955782 -0.08619548 -0.18460202 -0.094098225 0.12200296
0.05535671 -0.11897239 0.026851496 -0.11012229 0.04167092 -0.026561746 0.12375511 -0.03875548
00000000: 3c86 24be d8bf bf3d d5b8 77be e178 a6bc
00000010: 7493 46be 331c 0d3d b19f 643e 64bf 623c
00000020: 0b8b ff3d d4c5 6b3d 0520 753d e038 0d3b
00000030: e143 6abe eb60 fdbd 4c5a 2b3e d7b7 d4bd
00000040: dce4 533e 907f 27bd 1c57 8ebd 8d45 9ebd
00000050: f66f b53d ffbc f43d 4d1d b3bd f2cf 0f3e
00000060: ffe7 3a3c e762 69bd 1555 5e3d 8980 96be
00000070: acc0 e33d a16d 80bd 9df3 2a3d b617 e7bd
00000080: f94e 263c ffc5 273d d759 1ebe 4972 a7bd
00000090: 6470 f4bd e927 aabc 6a42 683e 4a19 01bd
000000a0: 8ac2 7cbe f2d5 a93d 069c 35bb d165 48be
000000b0: 5732 90be 7ec6 ce3d cca1 013e 1b96 82bd
000000c0: 0190 b2bd a03b f7bd f2a7 143d 3f5b 95bd
000000d0: 3863 07bd 2ed1 e8bd 507a 2fbd 4b05 683d
000000e0: daf5 1c3e 9635 b5bd 6117 19bc 305e 813d
000000f0: 550f 87bb db62 563e 3354 ed3c e700 053e
00000100: b193 cabb c45a dd3d 6286 d33c d4b9 d53b
00000110: 0462 1cbe e6bc 56be 3866 88be f2b5 c03d
00000120: 5a9b 753d bf1d 3dbe 9b87 3f3c 7e17 3a3e
00000130: 37a0 b0bd 98a7 d8bd 862a 2fbd 8dd6 28be
00000140: 6604 42be e72a 443e 9bc2 a33d a68c 2bbe
00000150: 10b1 71be cd13 453d 2150 c73d 404c 023e
00000160: 81c2 d3bc 2291 e0b8 b4a8 11bd d156 bb3c
00000170: f943 b03d 85a5 013e e237 3bbd 9d8e 5f3d
00000180: ccea 203e 3137 363e 479e 9dbd 681b 9fba
00000190: 4fc0 d73d a9a5 9e3d b352 8fbc 77d3 febd
000001a0: 6a4f 71bd 2458 573e e5ff 14be 5077 6cbd
000001b0: cf3e 1dbe 626c 4abe 5370 7bbe 4fcc 04be
000001c0: 0415 193e f271 1ebd 1958 cabd 6f95 9d3c
000001d0: 3880 b83d 312f e13c 1c05 293d 3ecd 71be
000001e0: fa8a 85bd f930 87bc f3e3 423c 64c5 3dbe
000001f0: 6715 63bd 8674 5e3e 7d5f 92be 5359 1cbe
00000200: 02c1 41bd 2077 bfbc b38d 133e 6862 453e
00000210: f6fe 2c3d db00 16be fba0 293e 83f9 123d
00000220: d451 eb3d a476 313e a2a5 90bb 308a 57be
00000230: e8b9 c93d 7c04 41be c211 143e 79f6 373e
00000240: 6fed 00be 1253 413e 747d 16be 4eaa 1fbe
00000250: 9958 7f3c 9cc3 a7bd 1450 083e 279a d93d
00000260: b6d5 22be ae1e 9ebd 4c20 153e bf4a dbbd
00000270: f62f 43bc e36e 073d 85f0 17be 481e db3d
00000280: f220 d13d 0b94 943a 6759 ff3c 7a1c babd
00000290: 2d72 7fbd a144 6b3e 6c46 b7bd 02ef 42bd
000002a0: d57e 63be 733c 4ebe b0da 8db9 4ed0 4bbe
000002b0: aa45 e7ba 9d6a f6bd 33cd c8bd 31cc 99ba
000002c0: e1f4 d8bd 478b 84be eef7 98bb a37d bf3d
000002d0: f588 3ebe 6c10 acbd feee cdbc c4dd b63d
000002e0: 10fc cfbd e2bf 133e 1188 cabd 7ce7 ed3c
000002f0: 985f 89bc 34c2 ce3d 8291 01bb d778 4ebe
00000300: afd8 be38 a052 df3d 7d7b 7ebd ee5e 4ebe
00000310: 7d2c 23be 7ec5 35be 1e59 14be 0d13 5abb
00000320: 9b94 bdbd 9464 bebd 814a e1bd c30f d83d
00000330: 7f37 9dbd 2618 cc3d 9873 21be 5423 abbc
00000340: a144 48be ef2c 95be 9c40 993d df7e 953d
00000350: c8d2 653d 340c aabc 348d 173e 062f 3bbe
00000360: b48d 14be d874 09bd abdc 0b3e 5126 53be
00000370: efe3 da3d cb12 5c3e c357 643e cfa5 54be
00000380: 2035 363e 532e 7f3d e008 b13d ae1a 46bd
00000390: 04cb e3bb edee 533c d139 83be 4009 93bd
000003a0: 8ea0 663e f7e2 603e 56f2 013e b2e3 7fbe
000003b0: 1015 3dbd 9af2 713e e660 a63d c7c9 8bbe
000003c0: 8f62 1fbd 6f94 033e 8d31 7d3d ceaa 043e
000003d0: 4187 b0bd 5008 3dbe 92b6 c0bd b0dc f93d
000003e0: b8bd 623d cca7 f3bd abf7 db3c cc87 e1bd
000003f0: 20af 2a3d 0598 d9bc 5273 fd3d 11be 1ebd

fc2.weight f4 [128, 256]
-0.0008375049 0.024083823 0.09902451 -0.1199956 -0.21603738 -0.032371752 0.10565928 0.014478342
-0.03989003 0.077414304 0.06561556 0.01289257 -3.6391773e-06 0.12309605 0.04423429 -0.1349917
0.03703422 -0.012362804 0.09257147 -0.010329473 -0.055580743 0.10226166 -0.07604681 0.102833204
-0.044623014 -0.1954057 -0.09096273 -0.029262539 -0.11595641 0.0605043 -0.060260348 0.020389989
-0.2569071 -0.058118097 -0.025235731 0.06971183 -0.014391939 0.029200744 0.107822485 -0.14491771
-0.0075314245 0.060827963 -0.005578085 -0.14049095 0.11143015 -0.10121038 0.09372252 0.10386429
-0.23454146 -0.11566895 0.06915154 0.045197997 -0.19514605 0.011830707 0.08613383 -0.04399033
0.0047099306 0.103186056 0.09546621 0.1180125 0.11367727 -0.027399018 -0.03748365 0.013227372
-0.010331618 -0.01946898 0.122618526 -0.10755531 0.011777088 -0.090287134 -0.030784579 -0.061966754
-0.070278354 0.0686706 -0.13740194 -0.16242617 0.014905385 0.080139145 0.058063127 -0.0046603256
-0.07058526 0.091288246 0.06417382 0.02043774 0.064171694 -0.08861203 -0.13414846 -0.09218858
0.03355752 -0.011358143 0.07339316 0.026388334 -0.018424425 0.09421 -0.08065423 -5.3013588e-05
0.13952737 -0.017616337 -0.03317993 0.093576476 -0.13344814 -0.04476006 -0.020009192 0.0054280087
-0.0344303 0.08375392 -0.022417754 -0.07943391 0.14568 0.003836951 0.083755344 -0.087662555
-0.016205495 0.0055122855 0.037235342 0.06273894 0.21554534 -0.039079566 0.052408222 -0.05432484
0.087011024 0.0061562643 0.09431827 -0.053213164 0.07226405 0.043437816 0.03342856 0.019249214
-0.11978272 -0.15055872 0.07790085 -0.021266963 -0.022486527 -0.027746625 0.08622374 0.056189246
0.011840547 0.16972733 -0.064657666 -0.045120783 0.056326423 0.10665739 -0.09530351 -0.013378978
0.036413237 -0.020580888 0.07615928 -0.11942488 0.03927038 0.01359144 -0.4439211 0.04004203
0.052992 0.062607 0.026396254 0.14099249 0.09117945 0.17748661 -0.16547072 0.061329395
-0.22184952 -0.22081245 0.08141715 0.01982599 0.0999316 0.043576583 -0.07490683 0.040326383
-0.019077882 -0.089762636 -0.30484325 0.12125367 -0.04729555 0.124043524 0.03863003 0.08358792
0.017644493 -0.20346034 -0.12980378 0.06741085 -0.060074992 0.114228435 0.07810526 0.013447215
0.14746629 -0.039921235 0.050888043 -0.006379195 0.007976321 0.058614556 -0.025428422 -0.09329874
0.015767971 0.117270194 -0.10409334 -0.1967827 -0.05122804 -0.057577252 -0.039112814 0.060520485
0.03276079 -0.034915157 0.065852575 -0.0042148153 -0.12212519 0.0044669635 -0.04055879 -0.2715084
-0.08184387 -0.096993454 0.0653151 0.029039817 0.012786782 -0.0051057437 0.009363368 0.027145308
-0.015070383 -0.10819372 0.078198604 -0.024664478 -0.0371876 0.11422201 0.029715918 0.045370746
0.043942068 -0.049880676 0.004495073 0.016204735 -0.12223548 -0.14273098 -0.078233056 -0.06675388
-0.10403988 0.030323308 -0.06075352 -0.0039905948 -0.04600968 0.054287497 0.052508473 -0.04225359
0.035718463 0.039493687 -0.0146167055 -0.027960049 0.16298707 0.023408055 0.13284151 0.104351304
-0.071158834 0.034797665 0.2106217 -0.013905978 0.03187903 -0.08319828 0.00011589868 0.053129204
00000000: 018c 5bba 704b c53c 5dcd ca3d 41c0 f5bd
00000010: e738 5dbe 3e98 04bd e563 d83d 9136 6d3c
00000020: ba63 23bd 648b 9e3d 7361 863d 5c3b 533c
00000030: 9738 74b6 c819 fc3d 042f 353d 443b 0abe
00000040: 32b1 173d 5c8d 4abc 1c96 bd3d f33c 29bc
00000050: a2a8 63bd 906e d13d 6ebe 9bbd 379a d23d
00000060: 9fc6 36bd 6f18 48be ab4a babd feb7 efbc
00000070: 8e7a edbd 5bd3 773d 8ed3 76bd e808 a73c
00000080: 5489 83be 3e0d 6ebd 2abb cebc 13c5 8e3d
00000090: 2bcc 6bbc 6636 ef3c 09d2 dc3d 4f65 14be
000000a0: 2bca f6bb be26 793d 5ec8 b6bb dcdc 0fbe
000000b0: 7e35 e43d 6347 cfbd 98f1 bf3d cdb6 d43d
000000c0: a32b 70be d8e3 ecbd 539f 8d3d 8921 393d
000000d0: 5ed4 47be 95d5 413c ef66 b03d 342f 34bd
000000e0: c355 9a3b 3653 d33d ca83 c33d 8ab0 f13d
000000f0: a1cf e83d e873 e0bc 7588 19bd 9fb7 583c
00000100: f245 29bc 697d 9fbc 6c1f fb3d f545 dcbd
00000110: b0f4 403c 76e8 b8bd f12f fcbc dad0 7dbd
00000120: 19ee 8fbd 2ca3 8c3d 18b3 0cbe 0c53 26be
00000130: b735 743c fe1f a43d 9ad3 6d3d a5b5 98bb
00000140: 018f 90bd 55f5 ba3d 906d 833d 0c6d a73c
00000150: 736c 833d 397a b5bd 375e 09be 5ecd bcbd
00000160: 9c73 093d 8117 3abc 274f 963d 592c d83c
00000170: d2ee 96bc 2cf1 c03d 0c2e a5bd e85a 5eb8
00000180: 43e0 0e3e 2350 90bc aee7 07bd 06a5 bf3d
00000190: a1a6 08be 5356 37bd 51ea a3bc 70dd b13b
000001a0: c906 0dbd 2d87 ab3d 70a5 b7bc 3fae a2bd
000001b0: 232d 153e 5b75 7b3b ec87 ab3d 6d88 b3bd
000001c0: 63c1 84bc 67a0 b43b 1684 183d 467d 803d
000001d0: ebb7 5c3e e511 20bd 01aa 563d b983 5ebd
000001e0: d632 b23d 7dba c93b f029 c13d 0cf6 59bd
000001f0: 2dff 933d daeb 313d 63ec 083d 87b0 9d3c
00000200: a550 f5bd 112c 1abe 7b8a 9f3d 0e38 aebc
00000210: aa35 b8bc e44c e3bc 1296 b03d b226 663d
00000220: dbfe 413c 00cd 2d3e 3d6b 84bd 92d0 38bd
00000230: 89b6 663d 316f da3d 7d2e c3bd 8033 5bbc
00000240: 0c26 153d 4099 a8bc 66f9 9b3d 0895 f4bd
00000250: fad9 203d a2ae 5e3c a049 e3be 1d03 243d
00000260: 240e 593d 1938 803d f53c d83c 5660 103e
00000270: 4bbc ba3d 0dbf 353e 2871 29be 8834 7b3d
00000280: 852c 63be a91c 62be 09be a63d 1d6a a23c
00000290: f0a8 cc3d 5c7d 323d c168 99bd 472d 253d
000002a0: 3849 9cbc 79d5 b7bd 6a14 9cbe d853 f83d
000002b0: fbb8 41bd 880a fe3d 863a 1e3d 2530 ab3d
000002c0: 2f8b 903c e857 50be 48eb 04be b30e 8a3d
000002d0: 3211 76bd 99f0 e93d a7f5 9f3d b551 5c3c
000002e0: 6701 173e 7384 23bd fb6f 503d 9108 d1bb
000002f0: 1daf 023c d115 703d 444f d0bc 6913 bfbd
00000300: d52b 813c 5b2b f03d e42e d5bd 6781 49be
00000310: 7ed4 51bd 20d6 6bbd c234 20bd 54e4 773d
00000320: 2e30 063d 3203 0fbd b7dd 863d 6f1c 8abb
00000330: c61c fabd 9b5f 923b f920 26bd 2603 8bbe
00000340: c29d a7bd 81a4 c6bd ecc3 853d e9e4 ed3c
00000350: a77f 513c 154e a7bb d068 193c d65f de3c
00000360: c5e9 76bc ab94 ddbd 9726 a03d 290d cabc
00000370: 0652 18bd 3bed e93d cc6e f33c add6 393d
00000380: 99fc 333d ae4f 4cbd 684b 933b cbbf 843c
00000390: 9856 fabd 1228 12be a738 a0bd 42b6 88bd
000003a0: dc12 d5bd 9668 f83c afd8 78bd 89c3 82bb
000003b0: a574 3cbd 915c 5e3d 2013 573d 1a12 2dbd
000003c0: 864d 123d 22c4 213d e87a 6fbc 790c e5bc
000003d0: 15e6 263e 40c2 bf3c 9b07 083e 23b6 d53d
000003e0: b9bb 91bd ff87 0e3d 37ad 573e e6d5 63bc
000003f0: 9693 023d dc63 aabd a10e f338 029e 593d

fc2.bias f4 [128]
0.07655831 0.015397927 -0.035059944 0.06444271 -0.004214664 0.050585717 -0.030026613 0.0009465802
0.030666446 -0.08607938 0.009806949 -0.05434461 -0.06506883 0.076477215 -0.036778446 -0.007630242
0.06325444 -0.027449595 -0.015124701 0.09386491 0.03345441 0.030253602 -0.07270552 -0.030391572
0.017101446 -0.04074245 -0.028312929 -0.027890293 -0.0011224614 0.022884488 -0.01986937 0.010214859
0.042524327 -0.088819906 -0.04627952 0.036702026 -0.011234925 -0.049659476 -0.022686573 0.0058641983
-0.057711072 0.0446655 0.024927061 0.034710363 -0.09603359 -0.014916601 0.064698264 0.016445415
0.013344548 0.00040254512 -0.042623196 0.03553078 -0.08805193 0.009873805 0.011571515 -0.122876376
-0.033507098 -0.020670071 0.02878211 -0.034295846 0.05490284 0.004765583 -0.030236527 0.05352801
-0.0075243325 -0.058870144 -0.017897516 -0.032815754 0.13053691 -0.016503777 0.031858105 -0.036208145
-0.058195062 0.0028206734 -0.04282751 -0.059946913 0.058275666 -0.035120726 -0.0652871 0.06666443
0.035800785 -0.04092187 -0.037313115 0.016795987 -0.0109750265 -0.051371537 0.012758355 -0.045275785
-0.023764165 0.06748138 0.027570982 -0.08747099 0.030045135 0.02051665 -0.014264429 0.053742208
-0.023774588 -0.048712846 -0.044024598 0.079921655 -0.07123557 -0.057370808 0.013196899 0.015607759
-0.07526862 -0.044271447 0.049261488 -0.07683223 0.0439178 0.031229908 0.059638374 0.005579316
-0.075592324 0.06549171 0.03088016 0.03230917 0.009407242 -0.032490417 -0.03674438 -0.032689404
-0.07617466 -0.011722456 -0.023967799 0.027505556 0.052476384 -0.019575035 0.019637732 0.057418045
00000000: 9aca 9c3d 9647 7c3c 049b 0fbd 8afa 833d
00000010: 2a1b 8abb f832 4f3d 5ffa f5bc ec23 783a
00000020: 3338 fb3c 634a b0bd 53ad 203c 7498 5ebd
00000030: cf42 85bd 16a0 9c3d ffa4 16bd 1c07 fabb
00000040: 8b8b 813d f9dd e0bc 98cd 77bc 3f3c c03d
00000050: 7e07 093d 67d6 f73c a2e6 94bd bff7 f8bc
00000060: 5518 8c3c 8ee1 26bd 84f0 e7bc 2f7a e4bc
00000070: 8e1f 93ba 4078 bb3c 17c5 a2bc 395c 273c
00000080: fd2d 2e3d 36e7 b5bd 988f 3dbd dd54 163d
00000090: b112 38bc bc67 4bbd 31d9 b9bc 7628 c03b
000000a0: 7262 6cbd 2cf3 363d d633 cc3c 742c 0e3d
000000b0: 42ad c4bd c264 74bc 8680 843d 89b8 863c
000000c0: 17a3 5a3c b10c d339 a995 2ebd b988 113d
000000d0: 9254 b4bd bdc5 213c 7496 3d3c 9ca6 fbbd
000000e0: bd3e 09bd 4854 a9bc 76c8 eb3c cd79 0cbd
000000f0: cde1 603d 9c28 9c3b 98b2 f7bc 3040 5b3d
00000100: ad8e f6bb d221 71bd d09d 92bc d069 06bd
00000110: 78ab 053e ee32 87bc a57d 023d fe4e 14bd
00000120: f25d 6ebd 0cdb 383b e66b 2fbd e58a 75bd
00000130: 77b2 6e3d c0da 0fbd 3eb5 85bd 5c87 883d
00000140: d8a3 123d b19d 27bd a3d5 18bd bd97 893c
00000150: 99d0 33bc f66a 52bd 6b08 513c 1a73 39bd
00000160: 11ad c2bc ae33 8a3d 8adc e13c fe23 b3bd
00000170: 3721 f63c 8912 a83c 5ab5 69bc ca20 5c3d
00000180: edc2 c2bc 1f87 47bd 2353 34bd f7ad a33d
00000190: f4e3 91bd a7fd 6abd ce37 583c b0b7 7f3c
000001a0: 6f26 9abd fa55 35bd 6ac6 493d 375a 9dbd
000001b0: 27e3 333d ddd5 ff3c 5e47 743d b2d2 b63b
000001c0: 26d0 9abd 8520 863d 64f8 fc3c 9f56 043d
000001d0: d520 1a3c ac14 05bd 4681 16bd 53e5 05bd
000001e0: 7601 9cbd 8b0f 40bc 1e58 c4bc 5553 e13c
000001f0: 7af1 563d d35b a0bc 4fdf a03c 2f2f 6b3d

fc3.weight f4 [64, 128]
0.045637693 0.068489276 0.14114039 -0.47623238 -0.13820332 0.06473406 0.15969647 -0.13226344
-0.109614946 -0.24971893 0.03351484 0.047495145 0.0968245 -0.035053812 -0.07391952 0.16344605
-0.04764053 0.060755003 0.015234351 -0.08257394 -0.41417512 -0.087736554 0.05885368 -0.046184797
0.11056129 0.021105604 -0.088590056 -0.2880994 0.06979061 -0.18120429 0.03807825 -0.15239005
0.0138808815 -0.010766033 0.06714277 -0.40183535 -0.02461835 -0.035048094 -0.0013500345 0.07952069
-0.071509935 0.14690202 -0.12501563 0.11969485 -0.38675728 0.15446417 -0.09606338 -0.20574485
-0.20717108 0.16677964 -0.0071091666 -0.30762607 -0.0631493 0.031582758 0.05445899 0.19478308
-0.021039443 0.07040628 0.23281194 0.113520145 -0.09793802 -0.0882048 -0.085369 -0.4761807
0.10380969 0.36922064 -0.2767158 -0.05917496 -0.19267833 0.08734363 -0.1311889 0.10938553
-0.124055855 0.06020601 -0.22345866 -0.018901953 -0.51497895 -0.056552593 -0.032417994 -0.104947016
-0.19585429 0.009222358 0.20476899 -0.12760566 -0.32610083 -0.036063813 -0.012859835 0.07420524
0.0945868 0.049667865 -0.013800157 0.1513659 -0.09189112 0.14869764 -0.065429 -0.06735853
0.024066765 0.10898673 -0.02462649 -0.023965864 0.10829787 0.025475621 0.03481452 -0.16033053
0.14308314 -0.21198119 -0.06717536 -0.04636708 0.08217261 0.04682482 0.038744144 0.11256047
-0.10013244 0.027577844 -0.009623655 -0.037777025 0.1365807 -0.113930054 0.20004816 -0.12235437
-0.06306352 0.07003734 0.02142557 -0.12845387 0.109032094 0.1245851 -0.13347912 -0.16730805
0.04535059 -0.016140958 0.080177926 0.21302032 0.038467158 -0.007491143 -0.25155938 0.051315583
1.1138992 -0.04151696 -1.1512667 -0.009623063 0.076588154 0.029839057 0.14230566 -0.11623903
-0.029766403 0.05634714 -0.08208833 -0.1032437 -0.24869874 0.12588368 0.007793948 -0.38336745
-0.5065654 -0.07239656 -0.006641191 0.0025018652 -0.030806856 -0.08120291 0.14515355 -0.041318268
-0.2206451 0.1225051 0.021270568 0.2524885 0.14576241 0.082656465 0.1511819 0.008439733
-0.119930595 -0.077340685 -0.14071956 0.10610218 0.08659075 -0.20594145 -0.036308378 0.06654589
0.14600089 0.067491606 -0.52103585 0.05403009 0.02597586 0.11293283 0.07640675 -0.10294649
-0.079296 -0.028033623 -0.07346917 0.22764775 0.037650034 -0.053359464 0.15138468 -0.007944232
-0.07692265 0.13330238 0.017435549 -0.15135397 0.048569538 0.06299455 0.008057077 0.17749639
0.02717806 -0.00079559284 0.093294725 0.14689325 0.021192443 -0.037058312 0.0037384895 0.07852272
0.006823298 -0.26828042 -0.05917531 -0.22399697 -0.011120015 -0.2840022 0.09687463 0.08959103
-0.27282652 -0.09317102 -0.43547127 -0.43843648 -0.084440835 0.047158305 -0.28281283 -0.010880397
-0.199687 0.052265566 -0.0784258 -0.0925015 0.0670474 0.13209872 -0.191127 0.2516413
-0.08209947 0.08548499 -0.2295697 -0.017007321 0.17516038 -0.432223 0.08441744 -0.024868054
-0.14570259 -0.17027828 -0.07791457 0.10235066 -0.031115804 0.10843283 0.04018432 0.21188858
0.15757823 0.04321322 0.16332652 0.07021741 -0.39048657 -0.08132273 -0.12017137 0.05970028
00000000: 97ee 3a3d 1b44 8c3d 1b87 103e bbd4 f3be
00000010: 2c85 0dbe 4a93 843d 7987 233e 1170 07be
00000020: cd7d e0bd 52b6 7fbe db46 093d 458a 423d
00000030: ec4b c63d 9694 0fbd 1e63 97bd 675e 273e
00000040: b722 43bd 3dda 783d 8099 793c 871c a9bd
00000050: c30e d4be 39af b3bd 8e10 713d 452c 3dbd
00000060: f56d e23d a9e5 ac3c b46e b5bd c481 93be
00000070: 61ee 8e3d 9e8d 39be f0f7 1b3d 230c 1cbe
00000080: a36c 633c 0464 30bc 2682 893d 5dbd cdbe
00000090: 6cac c9bc 978e 0fbd a4f3 b0ba bedb a23d
000000a0: cd73 92bd 7c6d 163e 1904 00be 9322 f53d
000000b0: 0d05 c6be db2b 1e3e e1bc c4bd c7ae 52be
000000c0: a824 54be 48c8 2a3e 03f4 e8bb 2a81 9dbe
000000d0: 6c54 81bd ec5c 013d 6410 5f3d 3775 473e
000000e0: e95a acbc 2b31 903d 4166 6e3e 407d e83d
000000f0: bb93 c8bd b8a4 b4bd f1d5 aebd f5cd f3be
00000100: 2d9a d43d 7d0a bd3e b1ad 8dbe 7161 72bd
00000110: 784d 45be 38e1 b23d 6256 06be 8505 e03d
00000120: ff10 febd 949a 763d 59d2 64be 45d8 9abc
00000130: a9d5 03bf b1a3 67bd bbc8 04bd 76ee d6bd
00000140: 078e 48be 6019 173c f6ae 513e 0fab 02be
00000150: b0f6 a6be a6b7 13bd 0fb2 52bc ebf8 973d
00000160: b9b6 c13d 8870 4b3d 0e1a 62bc aaff 1a3e
00000170: 6931 bcbd 3244 183e a4ff 85bd 45f3 89bd
00000180: aa27 c53c 6f34 df3d 7ebd c9bc 0f54 c4bc
00000190: 46cb dd3d 40b2 d03c ac99 0e3d b02d 24be
000001a0: 6384 123e 9911 59be 3c93 89bd 68eb 3dbd
000001b0: 1d4a a83d 62cb 3f3d 2eb2 1e3d 1b86 e63d
000001c0: 3d12 cdbd eeea e13c 89ac 1dbc 15bc 1abd
000001d0: d0db 0b3e 2954 e9bd 6dd9 4c3e ee94 fabd
000001e0: 7227 81bd bd6f 8f3d ad84 af3c 6989 03be
000001f0: 384c df3d 7926 ff3d c0ae 08be cd52 2bbe
00000200: 8ac1 393d 0b3a 84bc 5334 a43d 0022 5a3e
00000210: bd8f 1d3d 4378 f5bb 64cc 80be 4a30 523d
00000220: 4094 8e3f b00d 2abd b55c 93bf 0daa 1dbc
00000230: 40da 9c3d 0a71 f43c 93b8 113e bb0e eebd
00000240: acd8 f3bc 42cc 663d ed1d a8bd 6f71 d3bd
00000250: e2aa 7ebe a7e7 003e 6064 ff3b bd48 c4be
00000260: 45ae 01bf a644 94bd 599e d9bb 55f6 233b
00000270: a95e fcbc b64d a6bd 22a3 143e 583d 29bd
00000280: caf0 61be f4e3 fa3d 9d3f ae3c 2c46 813e
00000290: be42 153e cb47 a93d 6ecf 1a3e ce46 0a3c
000002a0: 2c9e f5bd cb64 9ebd ca18 10be 1a4c d93d
000002b0: 7e56 b13d 51e2 52be 18b8 14bd 3649 883d
000002c0: 4281 153e 0a39 8a3d 9b62 05bf a84e 5d3d
000002d0: 54cb d43c 5449 e73d 247b 9c3d 9cd5 d2bd
000002e0: f165 a2bd c5a6 e5bc 0177 96bd 7e1c 693e
000002f0: ec36 1a3d 748f 5abd 9604 1b3e 8628 02bc
00000300: 9f89 9dbd 6b80 083e ffd4 8e3c 89fc 1abe
00000310: daf0 463d 4903 813d d501 043c 9dc1 353e
00000320: 86a4 de3c 558f 50ba 4e11 bf3d 2f6b 163e
00000330: c69b ad3c 75ca 17bd 7201 753b 85d0 a03d
00000340: f995 df3b 0d5c 89be cf61 72bd 765f 65be
00000350: b930 36bc bd68 91be 3566 c63d 807b b73d
00000360: ebaf 8bbe 73d0 bebd 17f6 debe bf7a e0be
00000370: 51ef acbd 1129 413d d8cc 90be b143 32bc
00000380: c07a 4cbe 6b14 563d b59d a0bd 6d71 bdbd
00000390: 2650 893d e344 073e ccb6 43be 21d7 803e
000003a0: c423 a8bd c112 af3d 5214 6bbe f052 8bbc
000003b0: 3e5d 333e 554c ddbe 0de3 ac3d 17b8 cbbc
000003c0: 0f33 15be 6e5d 2ebe ad91 9fbd 399d d13d
000003d0: 92e6 febc 0812 de3d 5098 243d 52f9 583e
000003e0: 305c 213e 5800 313d 113f 273e 25ce 8f3d
000003f0: dbed c7be 888c a6bd 681c f6bd 4888 743d

fc3.bias f4 [64]
0.062397495 0.018487416 0.13833764 0.001454524 -0.0061373007 0.043562785 0.037124023 0.014454699
-0.0121889785 -0.06145353 -0.06630677 0.06950447 0.019288363 0.041709974 0.083609425 -0.06698269
-0.029919462 -0.091305755 -0.05328081 0.047155663 0.02044669 -0.06754646 0.054840725 0.08785237
-0.02236737 -0.099588156 -0.0069311797 0.08475299 -0.052182786 0.061999947 0.052527223 -0.012187284
-0.037843842 0.1086135 -0.027718293 0.023494374 0.03746069 -0.0656929 0.06243968 0.06373022
-0.070511915 -0.020003332 0.027179763 0.07041636 0.027802397 -0.09357347 0.04116263 -0.043620728
-0.03732098 4.2899486e-05 0.07219918 -0.05124487 0.03402012 0.09714359 0.074761495 0.003970001
-0.005326602 0.010768036 0.025097793 0.029695489 0.070790574 -0.057311743 -0.026309503 0.08198948
00000000: 8494 7f3d ec72 973c 62a8 0d3e baa5 be3a
00000010: 691b c9bb e46e 323d 5c0f 183d 67d3 6c3c
00000020: 48b4 47bc b2b6 7bbd d8cb 87bd 5c58 8e3d
00000030: a102 9e3c 14d8 2a3d 6b3b ab3d 382e 89bd
00000040: a919 f5bc 83fe babd fb3c 5abd 4c26 413d
00000050: d17f a73c cc55 8abd aba0 603d f2eb b33d
00000060: c63b b7bc e0f4 cbbd f31e e3bb fa92 ad3d
00000070: 9ebd 55bd a8f3 7d3d c926 573d 2dad 47bc
00000080: 2502 1bbd c170 de3d 7911 e3bc 4677 c03c
00000090: 6170 193d 008a 86bd c0c0 7f3d fd84 823d
000000a0: 8d68 90bd 07de a3bc 18a8 de3c 7436 903d
000000b0: dac1 e33c 73a3 bfbd 259a 283d a6ab 32bd
000000c0: e2dd 18bd f9ee 3338 2add 933d 24e6 51bd
000000d0: ae58 0b3d 38f3 c63d 8e1c 993d c816 823b
000000e0: c78a aebb 6b6c 303c e399 cd3c f443 f33c
000000f0: a6fa 903d b8bf 6abd 0787 d7bc 1aea a73d

fc4.weight f4 [2, 64]
0.57794124 -0.55304706 0.19909857 0.10535769 0.59689283 -0.155189 -0.038358074 0.19393854
0.034384076 -0.13217889 -0.07120611 0.003862333 -0.5463008 -0.011616605 -0.25089297 0.031748436
0.23257165 -0.29766992 0.49312145 -0.0023301113 0.085963875 -0.038417157 -0.009600336 -0.0120979
0.23971139 -0.1319434 -0.24569859 0.059654415 0.1487774 -0.067662716 -0.42852464 0.59364766
-0.09453873 0.22372644 -0.43976888 0.09883935 0.82925785 -0.28227428 -0.2187059 0.43158478
0.015026069 0.05399818 -0.13428456 -0.041240484 -0.1584539 -0.2882236 -0.14167035 -0.12529111
0.020712942 0.28754172 -0.11133575 0.15170638 0.007479896 0.029455509 0.076052204 -0.42159113
0.66684985 0.3114034 0.12032289 0.05064622 -0.061693396 -0.2559598 0.4725091 0.08871971
-0.10520056 -0.37581694 -0.13946503 0.14339529 0.53120655 0.0318668 0.8345193 -0.059269123
0.2424251 -0.30271056 0.32262376 0.5133182 -0.22543329 -0.12510389 -0.11374517 0.93061996
0.2066578 -0.13980336 -0.14842243 1.296672 0.24877188 -0.40350187 0.67552215 -0.4139721
-0.36067066 0.27213305 -0.04245705 0.9936882 -0.23521546 0.20640163 0.36554736 0.35057852
-0.28892136 -0.2684373 -0.27128047 0.4461045 0.125695 0.359401 -0.16277137 -0.16125269
0.42526054 -0.31488535 0.1973108 -0.47612378 -0.40644982 0.062299278 -0.170304 -0.96732837
0.17908598 0.31250504 0.13668951 0.8088572 -0.54792285 0.3766839 -0.5197663 -0.43870762
-0.04377223 0.20860595 -0.08359689 -0.25206375 0.45583668 -0.3503406 0.25842658 0.7068767
00000000: f5f3 133f 7e94 0dbf 7fe0 4b3e c6c5 d73d
00000010: f8cd 183f dde9 1ebe 5b1d 1dbd d397 463e
00000020: 51d6 0c3d e759 07be 82d4 91bd 321f 7d3b
00000030: 5fda 0bbf 9353 3ebc 0b75 80be a60a 023d
00000040: 4327 6e3e 3168 98be 6a7a fc3e c8b4 18bb
00000050: d40d b03d 4f5b 1dbd ba4a 1dbc 4536 46bc
00000060: e776 753e 2c1c 07be 6998 7bbe 3058 743d
00000070: 1a59 183e c092 8abd 9567 dbbe 4bf9 173f
00000080: 869d c1bd 8b18 653e 6329 e1be 496c ca3d
00000090: 3e4a 543f 4186 90be 70f4 5fbe aef8 dc3e
000000a0: e72f 763c 322d 5d3d e481 09be c8eb 28bd
000000b0: bd41 22be 0b92 93be 0812 11be 504c 00be
000000c0: 30ae a93c ab38 933e ff03 e4bd eb58 1b3e
000000d0: ea19 f53b ae4c f13c 42c1 9b3d cbda d7be
000000e0: acb6 2a3f 4470 9f3e d96b f63d 6972 4f3d
000000f0: 37b2 7cbd 2a0d 83be b6ec f13e aeb2 b53d
00000100: 6473 d7bd 146b c0be eccf 0ebe 37d6 123e
00000110: 27fd 073f c386 023d 0fa3 553f 2ec4 72bd
00000120: 493e 783e e1fc 9abe f12e a53e d268 033f
00000130: fcd7 66be 3c1b 00be 3af3 e8bd 1c3d 6e3f
00000140: 1a9e 533e 9d28 0fbe 0dfc 17be 59f9 a53f
00000150: 0ebe 7e3e cc97 cebe 05ef 2c3f 27f4 d3be
00000160: d3a9 b8be 0655 8b3e 72e7 2dbd 5a62 7e3f
00000170: 52dc 70be f35a 533e 0629 bb3e 077f b33e
00000180: 80ed 93be 9d70 89be 46e5 8abe cf67 e43e
00000190: 31b6 003e 6803 b83e 8aad 26be 6d1f 25be
000001a0: c0bb d93e a738 a1be d80b 4a3e 7fc6 f3be
000001b0: 311a d0be 872d 7f3d 2c64 2ebe d5a2 77bf
000001c0: 5162 373e a900 a03e 56f8 0b3e 4411 4f3f
000001d0: ac44 0cbf b6dc c03e 670f 05bf 499e e0be
000001e0: 834a 33bd cc9c 553e d934 abbd 800e 81be
000001f0: 6d63 e93e d85f b3be 7d50 843e dff5 343f

fc4.bias f4 [2]
0.060460355 -0.06833393
00000000: 47a5 773d a9f2 8bbd
