checkpoints/Computer2-0-checkpoint-0.6523-actor.pth (torch, 193711 bytes, 8 tensors)

fc1.weight f4 [256, 24]
0	0x3b498e79	0.0030755086
1	0xbe59870e	-0.21242926
2	0xbe0c2309	-0.1368524
3	0xbd645206	-0.055742286
4	0x3e9c5e77	0.3054082
5	0x3d2e77ad	0.0425946
6	0x3e037a78	0.12839687
7	0xbe72a128	-0.23694289
8	0x3d9995dd	0.07499287
9	0x3dc8e857	0.0980994
10	0x3e302772	0.17202547
11	0x3d7600c7	0.060059335
12	0x3c980bd0	0.01856032
13	0x3e82e39c	0.25564277
14	0xbe0ce950	-0.13760877
15	0xbdcae5eb	-0.099071346
16	0x3d92d04d	0.071686365
17	0x3da86926	0.082231805
18	0xbda2aba2	-0.079428926
19	0x3d46b99d	0.04851686
20	0x3c1446fa	0.009050125
21	0x3e7dcf99	0.24786223
22	0xbc13c358	-0.009018742
23	0x3cdff277	0.027337296
24	0x3e7b5425	0.24543817
25	0x3d37e0bf	0.04489207
26	0x3de24afa	0.11049457
27	0xbd8662d2	-0.06561817
28	0x3d64d860	0.055870414
29	0xbeb00b1b	-0.34383473
30	0x3e290dec	0.16509217
31	0xbeadfae4	-0.33980477
32	0xbc82cfec	-0.015968286
33	0x3d093e41	0.033506636
34	0x3c84ac9a	0.016195584
35	0x3e2f5d3b	0.17125408
36	0xbc14a7df	-0.009073227
37	0xbea228d4	-0.31671774
38	0xbdc64368	-0.096808255
39	0xbe11caed	-0.14237566
40	0x3db388fa	0.087663606
41	0x3d1d9b98	0.038478464
42	0x3e2e4a0b	0.17020433
43	0x3e083324	0.13300759
44	0x3ea39e18	0.31956553
45	0xbf03b1b1	-0.5144301
46	0xbdcb9195	-0.09939877
47	0xbd053528	-0.032521397
48	0xbd659e9d	-0.05605947
49	0xbddbbbed	-0.107292034
50	0xbd93ea3f	-0.07222413
51	0xbe11f47e	-0.14253423
52	0xbdc8d1e4	-0.098056585
53	0x3c27ee56	0.010249695
54	0x3da701ba	0.08154626
55	0xbe9206ea	-0.285209
56	0x3d336d06	0.043805145
57	0xbe550919	-0.20804252
58	0x3df59b94	0.11992565
59	0xbe5a690e	-0.21329138
60	0xbdc29353	-0.09500756
61	0x3eb52956	0.353831
62	0xbe16e308	-0.14735043
63	0xbdd2f24e	-0.10300122
64	0x3de1793a	0.1100945
65	0xbe28d65c	-0.16488022
66	0x3dbf1d70	0.09331787
67	0xbe3edcef	-0.18638967
68	0x3c7d92ee	0.015476925
69	0x3eaad1ec	0.33363283
70	0xbd71d1ff	-0.05903816
71	0xbec71daf	-0.38889834
72	0x3e232222	0.1593099
73	0xbdda9b8a	-0.10674198
74	0xbd8b8471	-0.068123706
75	0x3e560ee0	0.20904112
76	0x3da3a50f	0.07990467
77	0x3e2bd00c	0.16778582
78	0xba5e1267	-0.000847137
79	0xbd564e41	-0.052320722
80	0x3e423f35	0.18969424
81	0x3db8a4ff	0.090158455
82	0x3e5044b3	0.20338707
83	0x3e962ddd	0.29331866
84	0xbe12093a	-0.14261332
85	0x3def3ddf	0.11681723
86	0x3d1ce83a	0.038307406
87	0x3e4434ae	0.1916072
88	0x3d49876a	0.049201407
89	0x3c8b43a5	0.017000029
90	0xbd6faf2d	-0.05851667
91	0xbc86e187	-0.016464962
92	0x3e655ed0	0.2239945
93	0x3c8d440b	0.01724436
94	0xbe31b3b3	-0.17353706
95	0x3b7ce034	0.0038585784
96	0x3c7d2809	0.01545144
97	0x3c9e05c1	0.019289853
98	0x3d8f1bac	0.069877
99	0x3e1f6d30	0.15568995
100	0xbed09f79	-0.40746668
101	0x3e3474ff	0.17622755
102	0xbb949750	-0.0045346394
103	0xbe1c8526	-0.15285167
104	0x3e196236	0.14978871
105	0xbdfaf44e	-0.12253629
106	0x3d7a3bc0	0.06109214
107	0xbe6b2400	-0.22962952
108	0xbd28d603	-0.041219722
109	0x3e633502	0.2218819
110	0xbd8016dd	-0.06254361
111	0xbe7b764d	-0.24556847
112	0x3e42cfd8	0.19024599
113	0xbe52dac1	-0.2059126
114	0xbe55b7ff	-0.2087097
115	0xbd89e1cf	-0.06732523
116	0xbea1bd50	-0.31589746
117	0xbc4e4690	-0.012590066
118	0x3dd43517	0.103616886
119	0xbe52f3df	-0.20600842
120	0x3e104c13	0.1409152
121	0xbe19cf3b	-0.15020458
122	0x3d0ceb90	0.034404337
123	0xbe7a48ba	-0.24441805
124	0x3e865520	0.2623682
125	0xbe0c2179	-0.13684644
126	0x3dea383f	0.11436509
127	0xbd11d95e	-0.035607688
128	0xbdf97038	-0.12179607
129	0xbdddb273	-0.10825052
130	0x3e2ea262	0.17054132
131	0x3c42a8db	0.011881079
132	0x3e85774b	0.26067576
133	0xbe4bff4b	-0.19921605
134	0xbe4ea6cc	-0.20180815
135	0xbd906ee7	-0.07052403
136	0xbcd9bdcb	-0.026579758
137	0xbc8e9694	-0.017405786
138	0xbda77ac2	-0.08177711
139	0xbd4edf75	-0.050506074
140	0x3e8ee9b4	0.27912676
141	0x3d4cf89f	0.05004179
142	0x3da9aa82	0.08284475
143	0xbda11b25	-0.078665055
144	0xbd9fb097	-0.07797354
145	0xbdeb6cc9	-0.114953585
146	0xbe0e894f	-0.13919567
147	0xbc97f598	-0.018549725
148	0xbe5ca5a8	-0.21547568
149	0xbe1e03e9	-0.15431179
150	0x3c0855d3	0.008321243
151	0x3d0853a4	0.03328289
152	0x3cd07556	0.025446575
153	0xbe14c928	-0.1452986
154	0x3d6f2164	0.058381453
155	0xbe6159b3	-0.22006874
156	0x3d35b5e5	0.04436292
157	0x3d63997f	0.055566307
158	0x3de928b2	0.11384715
159	0xbd44a052	-0.048004456
160	0xbe4e5fed	-0.2015378
161	0x3e1d5398	0.1536392
162	0x3d866b2c	0.0656341
163	0x3e507ce4	0.20360142
164	0xbb6b4f3c	-0.0035905382
165	0xbedaa6f8	-0.42705512
166	0xbd834982	-0.06410505
167	0x3d24b46e	0.040211134
168	0x3e7a20e4	0.2442661
169	0xbe309733	-0.17245178
170	0x3df42c10	0.11922467
171	0xbcf34e8d	-0.029700542
172	0x3e5b2aae	0.21403
173	0x3daffc67	0.08593064
174	0x3d06b2dc	0.032885417
175	0xbe02ba0e	-0.12766287
176	0xbe3c6e65	-0.18401487
177	0xbe447f8b	-0.19189279
178	0xbde63511	-0.1124059
179	0xbe67e084	-0.2264424
180	0xbb829611	-0.0039851745
181	0xbe4d6ff1	-0.20062234
182	0x3bc00209	0.0058596176
183	0xbe6c68fa	-0.2308692
184	0xbe624581	-0.22096826
185	0xbde9057a	-0.11377998
186	0xbe29fa82	-0.16599467
187	0xbe5b1879	-0.21396054
188	0xbdeac15d	-0.11462662
189	0x3bd6b30e	0.0065521067
190	0x3e22dc70	0.15904403
191	0xbe885474	-0.26626933
192	0xbcff7d94	-0.03118781
193	0xbe0ea868	-0.1393143
194	0xbd8c4d0a	-0.068506315
195	0x3e05eca0	0.13078547
196	0x3cb10e3b	0.02161323
197	0xbe1b7030	-0.15179515
198	0x3dd0c11f	0.10193085
199	0x3e22c131	0.15894009
200	0x3d7a6858	0.061134666
201	0x3e41b18a	0.18915382
202	0x3d60e985	0.0549102
203	0x3e74ab85	0.23893555
204	0x3d88ecd1	0.06685794
205	0x3e2bf4f9	0.16792668
206	0x3e217323	0.15766577
207	0x3e88a1ab	0.26685843
208	0x3cf67eee	0.030089822
209	0xbe34b4cb	-0.17647092
210	0xbe2b5cec	-0.16734666
211	0x3e213c94	0.15745765
212	0xbdbcf1a8	-0.0922578
213	0x3e5c0388	0.21485722
214	0xbe075267	-0.13215028
215	0xbce96f68	-0.028495505
216	0x3e2fcc6b	0.17167823
217	0x3c0e6cb3	0.008692908
218	0x3db5817d	0.088625886
219	0xbe947ae1	-0.29
220	0x3d1b2c88	0.037884265
221	0x3e906354	0.2820078
222	0xbe2163a2	-0.15760663
223	0x3d676058	0.056488365
224	0x3e494baa	0.1965777
225	0xbda53839	-0.08067364
226	0xbd3dbbd6	-0.046321712
227	0xbe90dd58	-0.28293872
228	0x3e05eb01	0.13077928
229	0xbddd9c1f	-0.10820793
230	0xbda7ba85	-0.08189873
231	0xbdabea64	-0.08394316
232	0x3e0cddda	0.13756505
233	0xbdcd0f8a	-0.100127295
234	0x3db6fd2e	0.08935009
235	0x3c68908f	0.014194622
236	0xbd97c234	-0.07410088
237	0xbd847f33	-0.06469574
238	0x3e187a68	0.14890444
239	0x3d62d370	0.055377424
240	0x3da8f0b3	0.08249035
241	0x3dbdde3a	0.09270902
242	0x3d5f1c85	0.054470558
243	0xbd63e1a7	-0.05563512
244	0xbe89d94c	-0.26923597
245	0xbb151745	-0.0022749465
246	0x3db6cc21	0.08925653
247	0x3e6d0f90	0.23150468
248	0x3cf12514	0.029436626
249	0x3b9d071c	0.0047921073
250	0x3d5d1e67	0.053984072
251	0x3db3fd35	0.0878853
252	0xbdbe1fb1	-0.092833884
253	0xbd527c4a	-0.051388063
254	0xbd205891	-0.039146964
255	0x3bc3b6ce	0.0059727198

fc1.bias f4 [256]
0	0x3d75b3da	0.059985973
1	0xbd11f394	-0.035632685
2	0x3d918aa5	0.071065225
3	0x3d098796	0.03357657
4	0x3e1d93aa	0.1538836
5	0x3c3fb7d5	0.011701544
6	0xbddeac04	-0.10872653
7	0x3e5810b0	0.21100116
8	0x3d4965de	0.049169414
9	0xbd2c4c5b	-0.042065006
10	0xbd38967a	-0.04506538
11	0xbc6e9571	-0.014561997
12	0xbe217012	-0.15765408
13	0xbbbc24e8	-0.0057417043
14	0xbe7efe7a	-0.24901763
15	0xbd9bbf27	-0.07604819
16	0xbe527f69	-0.20556416
17	0xbc118d9f	-0.008883863
18	0xb915d17a	-0.00014287783
19	0x3e48c273	0.19605426
20	0xbd4d3aa9	-0.05010477
21	0x3ca43f77	0.020049794
22	0xbd18670e	-0.037207656
23	0xbe05c0c9	-0.13061823
24	0x3de43dbc	0.111445874
25	0xbe32d6ad	-0.17464705
26	0xbd0ab45a	-0.033863403
27	0x3d94039b	0.0722725
28	0xbe019a45	-0.12656505
29	0x3ded8ab7	0.115987234
30	0xbe598b14	-0.2124446
31	0x3e455786	0.19271669
32	0xbc949abf	-0.018140195
33	0x3a8c5f61	0.0010709577
34	0x3db4aecf	0.088224046
35	0xbd9483d2	-0.07251705
36	0xbcd9ef59	-0.026603388
37	0xbd4f2058	-0.050567955
38	0xbd943ba7	-0.0723794
39	0xbe3da223	-0.18518881
40	0x3e3e537c	0.18586534
41	0xbdadda60	-0.08488917
42	0x3d9cda27	0.07658797
43	0xbbd51a71	-0.006503396
44	0xbdb6ef55	-0.08932368
45	0xbd1ec854	-0.038765267
46	0x3d9d6e35	0.07687036
47	0x3dff9082	0.124787346
48	0xbd9e574d	-0.07731495
49	0xbcc399c0	-0.023877025
50	0x3de99b48	0.11406571
51	0xbe301fbd	-0.17199607
52	0x3e5b8889	0.21438803
53	0xbb46e1f0	-0.0030347072
54	0xbe4fe2a8	-0.20301306
55	0xbdc27c02	-0.09496309
56	0xbde4a46c	-0.111641735
57	0xbe10bdd9	-0.14134921
58	0x3e15bcda	0.14622822
59	0xbd95c7c8	-0.07313496
60	0xbde515cc	-0.11185798
61	0x3d6f8861	0.05847967
62	0xbc9b9d80	-0.018996
63	0xbe419f53	-0.18908434
64	0xbe10ed61	-0.14153053
65	0xbda4fd14	-0.08056083
66	0x3e47852e	0.19484398
67	0xbdb4b6f2	-0.088239565
68	0xbd1ee0ff	-0.03878879
69	0xbe273069	-0.16327061
70	0xbe39fde7	-0.18163262
71	0x3e3730a1	0.17889644
72	0x3c8eee77	0.017447693
73	0x3e550ae7	0.2080494
74	0x3d79596b	0.06087629
75	0x3d194230	0.037416637
76	0xbce10dfe	-0.027472492
77	0x3c371846	0.011175221
78	0x3de19bda	0.110160545
79	0x3d1bc19b	0.038026433
80	0x3ddc97dd	0.10771153
81	0x3da9c5c3	0.08289673
82	0xbdb8255c	-0.08991501
83	0xbcedec1f	-0.029043255
84	0xbe2de29f	-0.1698098
85	0xbd198a4d	-0.03748541
86	0xbb0de817	-0.002165323
87	0x3dd4c401	0.10388947
88	0xbd6d2e88	-0.057905704
89	0x3d9ec217	0.077518634
90	0xbd5cd8c8	-0.053917676
91	0x3e4be690	0.19912171
92	0x3e5738f8	0.21017826
93	0x3e0e4cc8	0.13896477
94	0xbe07ebda	-0.13273564
95	0x3dc8bb4c	0.09801349
96	0xbd1f4131	-0.03888053
97	0x3da8c7c8	0.0824123
98	0x3dad8373	0.084723376
99	0xbd2f75ae	-0.042836837
100	0x3d896393	0.067084454
101	0xbe17f3ef	-0.14839147
102	0x3d288880	0.0411458
103	0xbddfa68f	-0.109204404
104	0xbd307f81	-0.043090347
105	0xbd45a50c	-0.048253104
106	0xbd1dd6a6	-0.038534783
107	0xbe019383	-0.12653928
108	0xbe345268	-0.1760956
109	0xbe57bb99	-0.21067657
110	0xbcd0fb71	-0.025510522
111	0xbe0f0ae6	-0.13969001
112	0x3e11ddd5	0.14244778
113	0xbdb16944	-0.08662656
114	0xbe767b5a	-0.24070492
115	0xbe565c1d	-0.20933576
116	0xbe0ddc86	-0.13853654
117	0x3e29a61d	0.16567273
118	0x3ce3d751	0.027812632
119	0x3dab3e2c	0.08361468
120	0x3e0c4947	0.13699828
121	0xbe2d80f4	-0.16943723
122	0x3d3d231e	0.04617607
123	0xbe3f0f3e	-0.18658158
124	0x3c71a452	0.01474865
125	0xbd341a03	-0.04397012
126	0x3ccb9e93	0.024855888
127	0xbd38fb87	-0.04516175
128	0xbd0120c7	-0.0315254
129	0x3df3f829	0.11912567
130	0xbe052808	-0.13003552
131	0x3d859c8d	0.06524
132	0xbd0e9d5c	-0.03481804
133	0xbe1a36d9	-0.15059985
134	0x3d1c1f0e	0.038115554
135	0xbd7d0036	-0.06176778
136	0xbe54c123	-0.20776801
137	0x3d9a333b	0.07529303
138	0xbe1bd71c	-0.15218776
139	0xbd00e9a0	-0.031472802
140	0xbddefaae	-0.10887657
141	0xbdc9161f	-0.098186724
142	0xbd3cdc40	-0.046108484
143	0x3da04fbf	0.0782771
144	0xbdc23cf0	-0.09484279
145	0xbd9ec441	-0.07752276
146	0x3e7932ee	0.24335834
147	0xbc090056	-0.0083618965
148	0x3d3aa3c9	0.045566354
149	0xbe7f319b	-0.24921267
150	0xbdc270eb	-0.09494194
151	0x3bb541ac	0.0055315103
152	0x3e18f928	0.14938796
153	0x3cfd1694	0.030894555
154	0xbe205deb	-0.15660827
155	0x3e1d9901	0.15390398
156	0xbc05580a	-0.008138666
157	0xbd9ee74d	-0.07758961
158	0x3e0a3245	0.13495739
159	0xbe5b215a	-0.21399441
160	0x3e1189a0	0.14212656
161	0x3e0ab76c	0.13546532
162	0x3d934abd	0.071919896
163	0x3b8ee91b	0.0043612844
164	0x3d3d5f3d	0.046233404
165	0x3df0d8e6	0.1176012
166	0xbba0c164	-0.0049058665
167	0x3c5a55e2	0.01332614
168	0xbe116e3c	-0.14202207
169	0xbd965c01	-0.07341767
170	0xbda138da	-0.07872172
171	0x3dd6ea45	0.10493902
172	0x3c22c7da	0.009935344
173	0x3e192ee5	0.14959295
174	0xbe18f53f	-0.14937304
175	0xbb7c20d3	-0.0038471713
176	0x3d7ddefe	0.06198024
177	0x3d4ba768	0.049720198
178	0x3dcc9801	0.0998993
179	0xbd91a8aa	-0.07112248
180	0x3e1157de	0.14193675
181	0xbe4a814f	-0.1977589
182	0x3d92eff8	0.07174677
183	0xbd185d45	-0.037198324
184	0x3d4559ab	0.048181217
185	0x3c6f534e	0.014607264
186	0x3c1e31be	0.009655414
187	0xbb31217a	-0.002702801
188	0x3e416ca8	0.18889105
189	0x3da02e58	0.07821339
190	0x3d21cfd8	0.039504856
191	0xbe20bd6b	-0.15697257
192	0xbd69dbbf	-0.05709433
193	0x3ddd2eae	0.10799919
194	0x3ddfe904	0.10933116
195	0xbd83bb27	-0.06432181
196	0xbd16e218	-0.036836714
197	0x3dbe4309	0.0929013
198	0x3db3efc0	0.08785963
199	0xbdb29bfc	-0.08721158
200	0xbdcf24e6	-0.1011446
201	0xbd840305	-0.064458884
202	0xbd1c968b	-0.038229506
203	0x3e29166e	0.16512462
204	0x3e1fcbd2	0.15605095
205	0xbce7b7b1	-0.028285833
206	0x3cb63fac	0.022247158
207	0x3e177480	0.14790535
208	0x3d824297	0.06360357
209	0x3e1e801f	0.15478562
210	0xbe83a662	-0.25712878
211	0xbe6ff7bb	-0.23434345
212	0x3dc5c851	0.09657348
213	0x3da1df92	0.07903971
214	0xbe0691a6	-0.13141498
215	0xbbab4165	-0.0052263015
216	0xbe3ca3b2	-0.1842182
217	0xbdd0a746	-0.10188155
218	0x3d9a33ec	0.075294346
219	0x3db387f1	0.08766163
220	0xbdc7463b	-0.09730192
221	0xbe20da18	-0.15708196
222	0xbe507069	-0.20355381
223	0xbd944850	-0.07240355
224	0xbe2fae29	-0.1715628
225	0x3e323f1e	0.1740689
226	0xbc9893ea	-0.018625218
227	0x3da67040	0.08126879
228	0x3c59d828	0.013296165
229	0x3e134edf	0.14385556
230	0x3e6fcdb0	0.23418307
231	0xbe09e287	-0.1346532
232	0xbdcb6d28	-0.09932929
233	0x3dfa6bea	0.12227614
234	0xbcd84c84	-0.026403673
235	0xbdee20ed	-0.11627374
236	0x3dd7cc7b	0.105370484
237	0xbdd4b058	-0.103851974
238	0x3d641a5e	0.05568921
239	0xbda369c6	-0.07979159
240	0x3db4547d	0.08805177
241	0x3dc408bb	0.09571978
242	0xbe0535fc	-0.13008875
243	0xbd8037da	-0.06260653
244	0xbd10c597	-0.035344686
245	0xbdff5016	-0.12466447
246	0xbe45038a	-0.19239631
247	0x3db60173	0.08886995
248	0x3e38a669	0.1803223
249	0xbbe11818	-0.0068693273
250	0x3e4c2fb5	0.19940074
251	0x3cf6ea14	0.030140914
252	0xbe67eefc	-0.22649759
253	0xbb8da669	-0.004322816
254	0x3db8e9b4	0.0902895
255	0x3ca0216b	0.019547185

fc2.weight f4 [128, 256]
0	0x3ca27ae9	0.019833999
1	0x3bc2ef75	0.0059489557
2	0x3c1e68c7	0.009668536
3	0x3ba7429b	0.0051043755
4	0xbe0f89f3	-0.14017467
5	0x3dc578ed	0.096422054
6	0xbda979eb	-0.08275207
7	0xbd27a40e	-0.04092794
8	0xbcb6e353	-0.022325194
9	0xbe298090	-0.16552949
10	0x3da3a7db	0.07991
11	0xbd6c5ed7	-0.057707634
12	0xbc4aeed7	-0.012386045
13	0xbe6a5b06	-0.22886285
14	0x3c950db5	0.018195013
15	0x3cfddf01	0.030990126
16	0x3dc5c057	0.096558265
17	0xbdca4875	-0.09877101
18	0x3d150c10	0.036388457
19	0xbe03b1c0	-0.12860775
20	0xbc9eb3bd	-0.019372815
21	0xbda34eae	-0.07973991
22	0xbbd03366	-0.0063537834
23	0xbcc8a6bb	-0.024493566
24	0xbe35c279	-0.17749967
25	0xbb01cacf	-0.0019804721
26	0xbdb40bdc	-0.087913245
27	0xbd45e8b1	-0.048317615
28	0xbd838376	-0.064215586
29	0x3c9b2b4a	0.01894154
30	0x3d9ccc49	0.07656152
31	0xbbb8e2f1	-0.005642288
32	0xbcd18c41	-0.025579574
33	0x3cdfdcd8	0.027326986
34	0xbbbd1e96	-0.0057714684
35	0xba73b043	-0.00092959794
36	0x3d9373bc	0.07199809
37	0x3cbf2f61	0.023338022
38	0xbe0885c2	-0.13332275
39	0xbd4c1222	-0.04982198
40	0xbd1dcbc2	-0.038524397
41	0x3d87d1fc	0.06631848
42	0x3d18dbef	0.03731912
43	0xbd3b06db	-0.045660835
44	0xbc5cb9bd	-0.013472018
45	0xbcb78b06	-0.022405159
46	0x3cfa9a64	0.030591197
47	0xbd5ce189	-0.053926025
48	0x3d31df0b	0.0434256
49	0xbdcff392	-0.10153879
50	0x3db4a755	0.088209786
51	0xbd30c347	-0.04315498
52	0xbd9badf4	-0.07601538
53	0xbe271ebd	-0.1632032
54	0xbc85c347	-0.016328467
55	0xbd902e14	-0.07040039
56	0xbddf6264	-0.109074384
57	0xbb8be2cd	-0.00426898
58	0xbd9815c1	-0.07426024
59	0xbdb36f75	-0.08761493
60	0xbd2d85e4	-0.042364016
61	0xbd42b729	-0.047537956
62	0x3dc73752	0.097273484
63	0xbe0d476c	-0.13796777
64	0x3c7eb06d	0.015544993
65	0x3d6d5504	0.057942405
66	0xbbfbb251	-0.007681169
67	0x3ce336f8	0.027736172
68	0xbd8f952b	-0.070108734
69	0x3cd33593	0.025782382
70	0xbd4e7ba8	-0.050410897
71	0xbd0b8401	-0.034061436
72	0xbe04156f	-0.12898801
73	0x3da892b1	0.08231104
74	0x3b866294	0.004101107
75	0xbe366276	-0.17810997
76	0xbc01e9f5	-0.007929315
77	0xbd85d635	-0.065349974
78	0x3d30ee56	0.043196045
79	0x3d0d5ff9	0.034515355
80	0xbe0bbd48	-0.13646424
81	0xbb4a30e7	-0.0030851902
82	0x3cabf619	0.020991372
83	0x3daae242	0.083439365
84	0xbd043ae5	-0.03228273
85	0x3c6809cd	0.014162493
86	0x3dbfc354	0.09363428
87	0xbe33e2b2	-0.17566946
88	0xbc53741a	-0.012906099
89	0x3cce4b7c	0.025182478
90	0x3c24bfd6	0.010055503
91	0xbd2b3c2c	-0.04180543
92	0x3d0231ba	0.031785704
93	0xbca3ec7e	-0.02001023
94	0xbe1a7854	-0.15084964
95	0xbccf4adc	-0.02530425
96	0xbdac658c	-0.08417806
97	0xbd873324	-0.06601551
98	0x3d3f8b3a	0.046763636
99	0x3d6ab041	0.057296995
100	0x3b56b9a2	0.0032764454
101	0x3c261ae4	0.010138247
102	0xbd4d655a	-0.050145485
103	0xbd615d69	-0.055020723
104	0x3c9cdd53	0.019148504
105	0x3cd694e8	0.02619405
106	0xbcde05b4	-0.027102329
107	0xbdc74c39	-0.09731335
108	0xbd085d27	-0.033291962
109	0xbcdaa83b	-0.026691547
110	0x3d86531c	0.065588206
111	0xbcc4fa80	-0.024045229
112	0xbd554864	-0.05207099
113	0xbe149878	-0.14511287
114	0x3b6391fb	0.0034724462
115	0x3d64c652	0.055853195
116	0xbe2cfb9e	-0.1689286
117	0xbcc308de	-0.02380794
118	0xbcf6f590	-0.03014639
119	0x3d79567d	0.060873497
120	0xbc54c95d	-0.012987462
121	0xbe2b192d	-0.16708823
122	0x3d86ab5b	0.06575652
123	0x3d4926ce	0.049109273
124	0x3cd36904	0.025806911
125	0x3cc97d28	0.024595812
126	0xbd02f347	-0.03197029
127	0xbd67c6aa	-0.056585945
128	0x3d442731	0.04788894
129	0x3c33fc2c	0.010985415
130	0xbdd41e15	-0.103573
131	0xbc870575	-0.016482094
132	0xbddc0bb6	-0.10744421
133	0x3c8f74fc	0.017511837
134	0xbd2795ce	-0.04091435
135	0xbe3f4958	-0.18680322
136	0x3d7d19c7	0.06179216
137	0x3d0e86d5	0.034796555
138	0xbe3a9e8d	-0.18224545
139	0xbda01931	-0.07817305
140	0xbca095ac	-0.01960262
141	0x3aabd258	0.0013108952
142	0xbce9b140	-0.028526902
143	0xbb80c53e	-0.003929763
144	0x3db21405	0.08695225
145	0x3cf794b0	0.030222267
146	0xbdf7ad06	-0.120935485
147	0xbc65c613	-0.014024275
148	0xbbbb31aa	-0.0057127075
149	0x3d4fb8d0	0.05071336
150	0xbc931aec	-0.017957173
151	0xbd20f5c5	-0.039296884
152	0xbcb83268	-0.022484973
153	0xbd868675	-0.065686144
154	0xbde918e4	-0.11381701
155	0x3aef38e8	0.0018251212
156	0x3cd2badb	0.025723865
157	0xbd1650f1	-0.036698285
158	0xbe14578f	-0.14486526
159	0xbc8f6148	-0.017502442
160	0xbd58dbe7	-0.05294409
161	0x3d948713	0.07252326
162	0x3d3fabb0	0.046794593
163	0xbdf85c58	-0.12126988
164	0xbe2497c3	-0.16073518
165	0x3cc68395	0.024232665
166	0xbd17a5b2	-0.037023254
167	0x3c24c773	0.010057318
168	0x3d12f568	0.03587857
169	0xbd251489	-0.040302787
170	0xbe046d94	-0.12932426
171	0xbd068afc	-0.03284739
172	0xbdae6a6b	-0.08516391
173	0x3d0d8469	0.034550104
174	0x3d07c8b2	0.033150382
175	0xbbce0dd3	-0.006288269
176	0xbc337e36	-0.010955384
177	0xbd5b738e	-0.053577
178	0xbc3b269e	-0.011422781
179	0xbc288700	-0.010286093
180	0x3c2cec14	0.010554332
181	0xbdb03e5b	-0.08605643
182	0xbd9057cb	-0.07047995
183	0x3d6525e1	0.055944327
184	0xbe083807	-0.13302623
185	0x3c2ca05b	0.010536279
186	0x3a41291f	0.0007368493
187	0xbcaebaff	-0.021329401
188	0xbd9f7b9e	-0.0778725
189	0xbdde5a2f	-0.10857045
190	0xbd91333b	-0.070898496
191	0xbdd8a620	-0.10578561
192	0x3d91a2f1	0.07111157
193	0xbd4e6d75	-0.050397355
194	0xbe1910e0	-0.14947844
195	0x3cf54709	0.029941099
196	0x3cd6a3b0	0.0262011
197	0xbdaeb7c7	-0.085311465
198	0x3b519d03	0.0031984455
199	0xbc283ee8	-0.010268904
200	0xbd4249a4	-0.04743351
201	0xbcda867b	-0.026675453
202	0x3bbbbc55	0.005729238
203	0x3ce7bb99	0.028287696
204	0xb924e343	-0.0001572492
205	0xbce87791	-0.028377326
206	0xbd1c1004	-0.03810121
207	0xbd1fa5c4	-0.038976446
208	0x3dbaec13	0.09127059
209	0xbd329ac5	-0.04360463
210	0x3b453fea	0.003009791
211	0x3d3a7cc8	0.045529157
212	0x3d3b2011	0.045684878
213	0xbc60cb8f	-0.013720407
214	0x3d927579	0.071513124
215	0x3cb14d80	0.0216434
216	0x3e0f25d7	0.13979279
217	0xbe3758d2	-0.17904976
218	0xbca29ef8	-0.019851193
219	0x3d4bed58	0.049786896
220	0x3c875310	0.0165191
221	0x3cee24dd	0.029070312
222	0x3d832af8	0.0640468
223	0xbe5a20ba	-0.21301547
224	0xbcb29414	-0.021799125
225	0x3d8aed3c	0.0678353
226	0xbd3e6df6	-0.046491586
227	0x3dc8ddf8	0.09807962
228	0x3d10ee4e	0.035383515
229	0xbda18789	-0.078871794
230	0xbd50036f	-0.050784525
231	0xbd6195bf	-0.05507445
232	0xbdb0094d	-0.08595524
233	0x3d869934	0.0657219
234	0x3cab9065	0.020942876
235	0x3cbad92c	0.022808634
236	0x3d993ccc	0.07482299
237	0xbd896f93	-0.06710734
238	0x3dc357a1	0.09538198
239	0x3aaec398	0.0013333438
240	0x3ce164e8	0.027513936
241	0xbd13370c	-0.03594117
242	0x3cdb83b6	0.026796203
243	0xbd264143	-0.040589582
244	0xbbd5a53f	-0.006519943
245	0x3b4a62d2	0.0030881655
246	0x3d1bf6f5	0.038077313
247	0x3d6a7855	0.057243664
248	0x3d561689	0.052267585
249	0xbcd87ba3	-0.026426142
250	0xbdced141	-0.10098506
251	0x3d88d598	0.06681365
252	0x3cc7ab27	0.024373604
253	0x3d52f493	0.051502775
254	0xbcadf6dc	-0.021235876
255	0x3d3cd03c	0.046097025

fc2.bias f4 [128]
0	0xbd83a0ba	-0.064271405
1	0x3d994aac	0.07484946
2	0x3c89b95f	0.016812025
3	0xbc0655b7	-0.008199147
4	0xbc9428b5	-0.018085817
5	0x3d4f0a4a	0.05054692
6	0xbb9cd920	-0.0047866255
7	0x3cb9a318	0.022660777
8	0xbb5cc609	-0.0033687374
9	0xbd64cbe9	-0.055858526
10	0xbd4e08ad	-0.050301243
11	0x3c9e64c9	0.019335167
12	0xba22f946	-0.0006216954
13	0x3cd93e54	0.026518978
14	0xbc980a26	-0.018559527
15	0xbc1fa5f1	-0.009744153
16	0x3dd64fed	0.104644634
17	0xbda34876	-0.07972805
18	0x3cf4dc50	0.02989021
19	0xbcc1aaba	-0.02364098
20	0xbcf1fa38	-0.029538259
21	0x3dadaf0f	0.084806554
22	0x3cb44c31	0.022008987
23	0x3d8174a5	0.06321076
24	0xbd7e0b7c	-0.06202267
25	0xbddff52a	-0.10935433
26	0x3d744e1f	0.059644815
27	0xbcb3fe9f	-0.021971999
28	0xbc2d49cd	-0.0105766775
29	0xbd83e390	-0.064398885
30	0xbcad71e6	-0.021172475
31	0x3d722f2f	0.05912703
32	0xbda1ee29	-0.079067536
33	0x3d571339	0.052508567
34	0x3d6fbab2	0.058527656
35	0x3cff7ec7	0.031188382
36	0x3b0d91eb	0.0021601866
37	0x3d92e6fb	0.07172962
38	0x3d7ddbf3	0.061977338
39	0x3d1625f1	0.036657277
40	0xbbaa84be	-0.0052038124
41	0x3d464f51	0.048415486
42	0x3d568dc2	0.052381285
43	0x3d4ea0bd	0.05044626
44	0x3d733138	0.05937311
45	0xbbbf061f	-0.005829587
46	0xbd80bca1	-0.06285978
47	0x3d0b65df	0.0340327
48	0x3d6312e2	0.05543793
49	0xbd73d0e5	-0.05952539
50	0x3d618bc2	0.055064924
51	0x3d057730	0.03258437
52	0x3b28f1a6	0.00257788
53	0xbd5290d8	-0.051407665
54	0xbcd0a761	-0.025470437
55	0xba97efd7	-0.0011591864
56	0xbcaafe83	-0.020873314
57	0xbd8a6d77	-0.0675916
58	0xbd2d10a6	-0.042252205
59	0x3d17bc14	0.0370446
60	0x3d31cb34	0.04340668
61	0x3d0846d7	0.033270683
62	0x3d4c7984	0.049920574
63	0xbd50b69d	-0.050955404
64	0xbcbdd3c8	-0.023172274
65	0xbc1a052f	-0.00940065
66	0x39affef7	0.00033568565
67	0xbce14f32	-0.027503584
68	0xbd208721	-0.03919137
69	0xbb98fc5b	-0.004668755
70	0xbd548f5a	-0.051894523
71	0x3c4043c6	0.011734908
72	0x3c8e7c0a	0.01739313
73	0xbd7e1b57	-0.062037792
74	0x3c92d47d	0.017923588
75	0xbd5192b7	-0.05116531
76	0xbd16b837	-0.036796775
77	0x3c78b728	0.015180387
78	0xbd165891	-0.036705557
79	0x3d87236e	0.065985546
80	0x3c029dd0	0.007972196
81	0xbcb3b79d	-0.02193814
82	0x3cb24090	0.021759301
83	0xbd302cdf	-0.043011542
84	0x3d25926d	0.040422846
85	0xbbdf6718	-0.0068177097
86	0xbdae27e8	-0.08503705
87	0x3c6bd9fa	0.014395231
88	0x3b5dff4c	0.0033874093
89	0xbca45175	-0.020058373
90	0x3d588812	0.05286414
91	0xbcee3598	-0.02907829
92	0x3a70df13	0.0009188514
93	0xbca446cc	-0.02005329
94	0x3d1e314a	0.038621224
95	0xbd6417af	-0.05568665
96	0xbcd80fa8	-0.026374653
97	0xbd23f570	-0.04002899
98	0x3daa3430	0.08310735
99	0x3d0cc779	0.03436992
100	0xbc5d693e	-0.013513861
101	0x3c9b52db	0.018960407
102	0x3d2493ec	0.04018013
103	0xbcfbcdbd	-0.030737752
104	0x3d1a2dcb	0.037641328
105	0x3d88c6b0	0.06678522
106	0xbd477045	-0.048691053
107	0x3c9801d4	0.01855556
108	0xbd4e6e37	-0.050398078
109	0x3cb13ffe	0.02163696
110	0xbc8a9a81	-0.016919376
111	0x3cd0fc0a	0.025510807
112	0x3ce4705d	0.02788561
113	0x3c1d8af2	0.009615647
114	0xbd16e60e	-0.03684049
115	0x3cecb3c5	0.028894315
116	0xbcc83889	-0.02444102
117	0xbc9121e6	-0.01771636
118	0x3be6a301	0.0070384745
119	0x3ce709e4	0.028202958
120	0xbc2f312f	-0.010692879
121	0x3dc4728c	0.095921606
122	0x3d147ca7	0.03625169
123	0x3d16546a	0.036701597
124	0xbc015cab	-0.007895629
125	0x3d97f7b5	0.07420293
126	0xbca7ac23	-0.020467823
127	0x3cdb01b5	0.026734212

fc3.weight f4 [64, 128]
0	0x3d708811	0.058723513
1	0xbcd03dc1	-0.025420072
2	0x3e2aa602	0.1666489
3	0x3e369b1f	0.17832612
4	0xbd9545b5	-0.07288686
5	0x3d9ae40e	0.07563029
6	0xbcb773ec	-0.022394143
7	0x3a2116b6	0.0006145047
8	0x3e1ac25c	0.15113205
9	0x3dc8f286	0.09811883
10	0xbe0edb3c	-0.13950819
11	0x3df70d27	0.120630555
12	0xbdfa269d	-0.12214396
13	0xbcdb12dc	-0.026742391
14	0x3dcfe117	0.10150354
15	0x3de3f35b	0.11130401
16	0xbdd2f2af	-0.103001945
17	0x3d57f800	0.052726746
18	0x3d845227	0.06460982
19	0x3ce70ca7	0.028204275
20	0xbe3633db	-0.17793219
21	0x3cfe0c28	0.031011656
22	0x3dec5c70	0.115410686
23	0xbdb4a153	-0.08819833
24	0x3df35585	0.11881546
25	0x3d8e0568	0.06934625
26	0xbd14c350	-0.036319077
27	0x3d332db6	0.043744765
28	0x3c7f72a8	0.015591301
29	0x3e8f5b39	0.27999285
30	0x3d8316c7	0.06400829
31	0xbbfba2a2	-0.0076792995
32	0xbdc95913	-0.09831443
33	0x3dd7c2bb	0.10535189
34	0xbd0074e7	-0.031361487
35	0x3dd75b82	0.105155006
36	0x3d24c2dc	0.040224895
37	0x3d75ca15	0.060007174
38	0x3d7f8e29	0.062391434
39	0x3e4df23e	0.2011194
40	0xbd4cb5e0	-0.049978137
41	0x3d1396a2	0.036032327
42	0x3db65743	0.089033626
43	0x3e32c994	0.17459708
44	0xbb123461	-0.0022309052
45	0x3cce00ee	0.025146928
46	0xbc01d979	-0.007925385
47	0x3d945b6f	0.07244002
48	0xbe0974ee	-0.13423511
49	0x3da8e2f1	0.08246411
50	0xbd9ea6b8	-0.07746643
51	0xbc8cda00	-0.017193794
52	0x3deb0b79	0.114767976
53	0x3cabb9b5	0.020962575
54	0x3e4a89e8	0.1977917
55	0x3e1fb27d	0.15595432
56	0xbdfe3076	-0.12411587
57	0xbdb421f9	-0.08795542
58	0xbcb83d59	-0.02249019
59	0x3d06bd82	0.032895572
60	0x3d6b4eb2	0.057448097
61	0xbd1d3e2d	-0.038389374
62	0xbc274ba3	-0.010210904
63	0xbe297496	-0.1654838
64	0x3d28e939	0.041238043
65	0xbd8d098a	-0.06886585
66	0xbddb6917	-0.10713404
67	0xbe0852ea	-0.13312879
68	0x3d977bcd	0.0739666
69	0x3e30c30e	0.17261907
70	0x3d336e94	0.043806627
71	0x3d139818	0.03603372
72	0xbc215be8	-0.009848572
73	0x3e29d92e	0.16586754
74	0xbe4e0bee	-0.20121738
75	0x3d236e5b	0.039900165
76	0x3db0ae4e	0.08626996
77	0xbc6b09cf	-0.0143456
78	0x3d617e65	0.05505218
79	0xbddf879f	-0.109145395
80	0xbd2e6535	-0.042576987
81	0xbd8ad56e	-0.0677899
82	0x3d7e871b	0.062140565
83	0x3e02cb86	0.1277295
84	0x3d405953	0.046960186
85	0xbda193aa	-0.07889493
86	0xbd0456c9	-0.032309327
87	0xbd92e28f	-0.07172119
88	0x3b82afda	0.0039882483
89	0x3da1c8c8	0.07899624
90	0xbd9be5da	-0.076122
91	0xbd89fa15	-0.067371525
92	0x3d253c7e	0.040340893
93	0x3df03971	0.11729706
94	0xbc0b2f16	-0.008495113
95	0x3d15018e	0.036378436
96	0x3e1b9a7a	0.15195647
97	0x3e0386d9	0.12844409
98	0xbdb42500	-0.0879612
99	0x3e142bb7	0.14469801
100	0x3c1b3387	0.009472734
101	0xbca23148	-0.01979889
102	0x3df3659f	0.11884617
103	0x3d2667b0	0.040626228
104	0x3dec09c1	0.11525298
105	0xbbb29062	-0.0054493407
106	0x3cda09cc	0.026616
107	0x3c6e3e8e	0.014541281
108	0xbe15afc8	-0.14617836
109	0x3e161d31	0.14659573
110	0xbdfb1a27	-0.122608475
111	0x3d87d7cd	0.066329576
112	0xbde3e694	-0.11127964
113	0xbc002533	-0.007821369
114	0x3de47471	0.11155022
115	0x3d10c58d	0.03534465
116	0x3d63eb25	0.055644173
117	0x3de9d4ee	0.11417566
118	0x3e1fc6d5	0.15603192
119	0x3b869505	0.00410712
120	0x3e00b7f5	0.12570174
121	0xbd7d58b6	-0.06185218
122	0xbdd006f7	-0.101575784
123	0xbc090401	-0.008362771
124	0xbb2060bc	-0.002447172
125	0x3e0b6b42	0.13615134
126	0x3e5f8f06	0.21831903
127	0x3dcd58df	0.100267164
128	0xbdc6b6f2	-0.09702863
129	0xbdd1b1af	-0.102389686
130	0x3dface95	0.12246434
131	0x3c851439	0.016244994
132	0x3e61078f	0.2197554
133	0x3d6f8a8f	0.05848175
134	0x3da1df45	0.079039134
135	0x3c809bdc	0.01569932
136	0xbe4da4dc	-0.2008242
137	0xbe6bd1ac	-0.23029202
138	0x3c910db7	0.017706735
139	0xbd3f65dd	-0.046728004
140	0xbd27560e	-0.040853553
141	0x3d0562ce	0.03256493
142	0x3d8f92c9	0.07010419
143	0xbcbb1107	-0.022835268
144	0xbc506ec1	-0.012721718
145	0xbd0c0ce4	-0.03419198
146	0xbbb7e188	-0.005611602
147	0x3d2135a0	0.03935778
148	0x3d2804a6	0.041020058
149	0x3d43f27a	0.047838666
150	0xbd248250	-0.04016334
151	0x3d834d30	0.06411207
152	0x3cde6aaf	0.02715048
153	0xbd0dc2f8	-0.034609765
154	0x3cf6e620	0.030139029
155	0xbe17756e	-0.1479089
156	0x3d593487	0.05302861
157	0xbdc8e52e	-0.098093376
158	0xbccacc8f	-0.024755744
159	0x3ba3268e	0.0049789613
160	0xbda5dd9a	-0.08098908
161	0x3d8063c1	0.062690265
162	0xbcc846c5	-0.024447808
163	0x3ca729c0	0.02040565
164	0x3d383102	0.044968612
165	0xbd4855a7	-0.04890981
166	0xbdc76909	-0.09736831
167	0xbe057dac	-0.13036221
168	0x3d6973e1	0.056995276
169	0x3da51e5e	0.08062433
170	0xbd85f4e1	-0.065408476
171	0xbe0afb24	-0.13572365
172	0xbdde76d1	-0.10862506
173	0x3cb03a7c	0.021512263
174	0xbc9a8cfc	-0.018866055
175	0xbd5fe65f	-0.05466306
176	0xbd9160b9	-0.070985265
177	0xbde86a03	-0.11348345
178	0x3d8203bb	0.06348368
179	0x3d80c489	0.06287486
180	0x3d874c21	0.06606317
181	0xbc63df21	-0.013908179
182	0xbcd55744	-0.026042588
183	0xbe6dea1d	-0.23233838
184	0x3ca9008e	0.020630147
185	0x3e2aea3c	0.16690916
186	0x3ae822ae	0.0017710531
187	0xbd828d80	-0.06374645
188	0x3c5f679f	0.013635545
189	0xbde58779	-0.1120748
190	0xbd4c827a	-0.04992912
191	0x3e6cb74c	0.23116797
192	0xbc9d3573	-0.019190526
193	0xbd1640bb	-0.036682826
194	0x3abc4574	0.001436396
195	0xbd9b99c9	-0.075976916
196	0xbdcb4cf7	-0.09926789
197	0x3cddebab	0.027089914
198	0x3c6cd783	0.014455679
199	0xbaf3222a	-0.001854961
200	0xbe42d1b3	-0.19025306
201	0xbca3560e	-0.019938495
202	0x3d9a3654	0.075298935
203	0x3a826ba1	0.0009950289
204	0xbd2db4e3	-0.042408835
205	0xbe014d4b	-0.12627141
206	0x3b2e1d1a	0.002656764
207	0x3d8119a9	0.063037224
208	0xbd9109a2	-0.070819154
209	0xbca0788d	-0.019588733
210	0xbca06c98	-0.019583032
211	0xbcac9bd0	-0.021070391
212	0x3cfe586c	0.031048022
213	0xbd94ff21	-0.072752245
214	0xba975bcf	-0.0011547747
215	0xbcf5d5c1	-0.030009152
216	0x3dc2f554	0.09519449
217	0x3d94869d	0.07252238
218	0x3d8c5524	0.06852177
219	0x3d146b16	0.036234938
220	0x3d93ae37	0.07210963
221	0x3c854dc8	0.01627244
222	0x3cdc2c9b	0.026876738
223	0x3d800b73	0.06252184
224	0x3ce8c323	0.028413361
225	0x3bc7e24f	0.006099976
226	0x3db6e759	0.08930845
227	0xbdc0f34a	-0.09421404
228	0x3d5dcadd	0.054148544
229	0x3d228cda	0.039685108
230	0xbe5bd5aa	-0.21468225
231	0x3dffa0bb	0.12481829
232	0xbdfd1687	-0.123578124
233	0x3ca5063c	0.020144574
234	0xbd370c75	-0.044689614
235	0x3cb0fbc7	0.021604432
236	0xbb3266ba	-0.0027221874
237	0x3db82c2e	0.089928016
238	0x3d2eb910	0.042656958
239	0xbd1a6ad5	-0.03769954
240	0x3b2a89aa	0.0026021996
241	0x3d437873	0.04772229
242	0xbe018bb8	-0.12650955
243	0xbe174397	-0.14771877
244	0xbd0ee3d0	-0.034885228
245	0x3c40544f	0.011738851
246	0xbd1f67fa	-0.03891752
247	0xbc855f3d	-0.016280765
248	0xbd773da0	-0.060361505
249	0xbdaff76b	-0.08592113
250	0x3d5065fd	0.050878514
251	0x3d8d5233	0.06900444
252	0x3d4a7e4f	0.049436864
253	0xbdbfe098	-0.0936901
254	0xbcd5f5b6	-0.02611814
255	0xbd14c7ed	-0.036323477

fc3.bias f4 [64]
0	0xbb402e17	-0.0029324347
1	0xbd77ecad	-0.060528446
2	0xbd5bc8d2	-0.053658314
3	0xbcae4373	-0.021272397
4	0x3c676b2f	0.014124676
5	0x3dae661b	0.08515569
6	0x3c8191ef	0.015816657
7	0xbd723a74	-0.059137776
8	0x3d1bcad0	0.038035214
9	0x3d87e68b	0.066357695
10	0x3d0edafe	0.034876816
11	0x3ccdf35a	0.025140453
12	0xbc0a0435	-0.008423855
13	0x3d85cb7e	0.06532954
14	0x3d232717	0.0398322
15	0x3d8f9bc5	0.070121326
16	0x3d03d385	0.032184143
17	0xbd51d6f5	-0.05123039
18	0x3d087edb	0.033324104
19	0x3d89561e	0.06705879
20	0xbcdaeb3c	-0.026723497
21	0x3caffd4c	0.021483086
22	0xbcb4b26b	-0.022057733
23	0xbd264a0a	-0.040597953
24	0x3df888b3	0.12135448
25	0xbb17f309	-0.0023185632
26	0x3de3820f	0.11108791
27	0xbbb854ed	-0.0056253583
28	0x3c8e11a1	0.01734239
29	0xbd6dfd0b	-0.05810265
30	0x3da56892	0.08076586
31	0xbd2d405a	-0.0422977
32	0x3da0107c	0.07815644
33	0xbcd2badc	-0.025723867
34	0xbcb34739	-0.021884548
35	0xbd088f4a	-0.033339776
36	0xbcfaba86	-0.03060652
37	0xbda72178	-0.081606805
38	0xbd9c7615	-0.0763971
39	0x3de0c09f	0.109742396
40	0xbcaebc14	-0.021329917
41	0xbca507f1	-0.020145388
42	0x3c7e2cf3	0.015513646
43	0x3cc59ff5	0.024124125
44	0x3bc9273c	0.0061387103
45	0x3d5a4f01	0.053298
46	0x3d15dda1	0.036588315
47	0xbdae9b3c	-0.08525702
48	0xbc1bc78e	-0.009508027
49	0x3dc70ce2	0.09719254
50	0x3dde32a1	0.108495004
51	0x3d639553	0.05556233
52	0xbd4c7fcc	-0.049926564
53	0x3d693dde	0.056943767
54	0x3d4ef49f	0.050526258
55	0x3d98be86	0.074582145
56	0x3cca778e	0.024715211
57	0xbc8e70cb	-0.017387768
58	0x3d465b8b	0.048427146
59	0xbc45938f	-0.0120591065
60	0x3c4f306e	0.012645824
61	0x3c20722f	0.0097928485
62	0xbd9a9532	-0.07547988
63	0xbcd52515	-0.026018659

fc4.weight f4 [2, 64]
0	0x3eba93e3	0.36440954
1	0xbeaf1de3	-0.3420249
2	0xbe161d78	-0.14659679
3	0xbe6b4353	-0.22974901
4	0xbc1046bc	-0.008805927
5	0xbdcc5fa4	-0.099791795
6	0x3e8bf660	0.27336407
7	0x3d618072	0.055054136
8	0x3eb45bc7	0.3522627
9	0xbe52a7c4	-0.2057181
10	0x3dc094b0	0.0940336
11	0x3ea3fd9a	0.3202942
12	0xbcb3a1ce	-0.02192774
13	0xbdf93cf3	-0.12169828
14	0xbdd8dae0	-0.10588622
15	0xbee35ca9	-0.44406632
16	0xbe5a0469	-0.21290745
17	0x3e09d9b4	0.13461953
18	0xbe495b8b	-0.19663827
19	0x3ea96cad	0.33090726
20	0x3e0f94ae	0.1402156
21	0xbea36dad	-0.31919613
22	0x3e9b5f7f	0.30346295
23	0xbe91e88f	-0.2849774
24	0x3dda70a1	0.106660135
25	0xbe64b17f	-0.22333334
26	0x3e944c37	0.28964397
27	0x3d72ec6f	0.059307512
28	0xbe98bae5	-0.2983009
29	0x3f102293	0.56302756
30	0x3dd81875	0.1055154
31	0xbe9e99a3	-0.3097659
32	0xbe17c952	-0.14822891
33	0xbd4b71b1	-0.04966897
34	0x3e08af15	0.13348038
35	0x3ce31506	0.027719986
36	0x3e125bc7	0.14292823
37	0x3d8ac8bc	0.06776568
38	0xbe0d5514	-0.13801986
39	0x3e3da62f	0.18520425
40	0x3e2e333d	0.17011733
41	0x3e2cef79	0.16888227
42	0xbe343625	-0.1759878
43	0xbe5ce389	-0.21571173
44	0xbe6c1402	-0.23054507
45	0x3af0d4eb	0.0018374001
46	0xbe61e1bd	-0.22058769
47	0x3d99b2f5	0.075048365
48	0x3eac7fd5	0.33691278
49	0x3dd8ec18	0.10591906
50	0xbe5d64c1	-0.21620466
51	0x3e25b9b7	0.16184126
52	0x3e8e521f	0.27797028
53	0xbe814e43	-0.2525502
54	0x3e842698	0.25810695
55	0xbe853c6c	-0.2602266
56	0xbe800f66	-0.25011748
57	0xbe8a520e	-0.27015728
58	0xbe93827f	-0.28810498
59	0xba0b29f4	-0.00053086807
60	0x3da5d37f	0.0809698
61	0x3dbfd337	0.09366458
62	0x3defe907	0.11714368
63	0x3edff287	0.4373972
64	0x3ddd5f00	0.108091354
65	0x3df1b1a3	0.1180146
66	0x3e635ce8	0.2220341
67	0x3d6165ab	0.0550286
68	0x3e2ed359	0.1707281
69	0xbe273fca	-0.16332927
70	0xbd83dbf3	-0.06438436
71	0x3e185a5b	0.14878218
72	0x3ed27f1c	0.41112602
73	0xbe31210a	-0.1729776
74	0xbe5947c7	-0.21218787
75	0x3e1094b8	0.14119232
76	0xbe7f4297	-0.24927746
77	0xbe46caa5	-0.1941324
78	0xbe92c4d1	-0.28665784
79	0x3ba6caea	0.005090107
80	0xbdce0a6e	-0.10060583
81	0x3cc9290b	0.024555704
82	0xbc01a6b3	-0.007913279
83	0xbe848e40	-0.25889778
84	0x3dcedc4b	0.10100611
85	0xbdd099e1	-0.101856
86	0x3e3fcefa	0.18731299
87	0xbcc55b38	-0.024091348
88	0xbe4bf7b3	-0.19918709
89	0xbdad2422	-0.084541574
90	0xbeec7957	-0.46186325
91	0xbe9152a0	-0.2838335
92	0x3d803c11	0.06261457
93	0xbd8adff6	-0.067809984
94	0xbe9f4fb8	-0.31115508
95	0x3c873afc	0.016507618
96	0xbe98e95d	-0.29865542
97	0xbeabdbb1	-0.3356605
98	0x3e983337	0.29726574
99	0x3d0078e8	0.031365305
100	0xbd89ce6d	-0.06728826
101	0xbdbfb83b	-0.09361311
102	0x3dc7f870	0.097641826
103	0xbea295dd	-0.31754962
104	0xbe347316	-0.17622027
105	0x3d8040b1	0.06262339
106	0x3e3c18f9	0.18368901
107	0x3e9e423e	0.30909914
108	0x3e7c12d4	0.24616557
109	0xbdfbddb8	-0.12298149
110	0x3e6e0688	0.23244679
111	0x3ea3944d	0.31949082
112	0xbe355a7d	-0.177103
113	0xbe23b22a	-0.15985933
114	0xbd85bf96	-0.06530683
115	0xbecb03a0	-0.39651203
116	0x3dad4604	0.0846062
117	0xbe2c5832	-0.16830519
118	0xbdeddbb3	-0.1161417
119	0xbe8a5344	-0.27016652
120	0x3e57e699	0.2108406
121	0x3e3cced1	0.18438269
122	0xbe4c824a	-0.19971576
123	0xbe734c17	-0.23759495
124	0x3e9b367e	0.30315012
125	0x3eb17ad3	0.3466402
126	0xbddd6658	-0.10810536
127	0x3d7d7b43	0.06188513

fc4.bias f4 [2]
0	0x3be65928	0.007029671
1	0x3d638135	0.055543143
