checkpoints/Computer1-1-checkpoint-0.6086-actor.pth (torch, 193711 bytes, 8 tensors)

fc1.weight f4 [256, 24]
-0.042357616 0.23138174 0.1667827 0.06046454 0.21869214 0.06556753 -0.039898742 0.13298078
0.18894666 0.2701147 -0.054581955 0.14596397 0.23749617 -0.2288228 0.12462519 0.14904815
-0.23447928 -0.11673879 0.019654518 -0.00957653 -0.08295201 -0.18514253 0.18186279 0.19221903
0.07867356 -0.17819834 0.0067975773 -0.08365756 -0.35423547 -0.17305012 -0.022779815 -0.07744914
0.14409415 -0.20618498 0.07401686 0.0032436037 -0.31301677 -0.121520914 -0.016540928 0.0016734577
0.01827825 0.017545767 -0.025497457 -0.13076523 -0.22200178 0.19959533 -0.048822977 -0.20202285
-0.010884421 -0.42383844 0.007413942 -0.23083301 -0.0786961 0.11084878 0.07457121 0.0997475
0.30099872 -0.36176294 0.044664208 -0.10045373 -0.08171905 -0.22216271 0.107820444 0.08359933
0.35354984 -0.29949492 -0.037899718 0.06508486 0.26305908 -0.61696047 0.036955126 0.039604153
0.08072225 -0.13532384 0.07162069 -0.14401135 -0.013693353 -0.18488449 0.017127816 -0.2000142
0.09378974 -0.23683478 0.121425785 0.1763958 0.26619968 -0.19834858 0.15695858 0.11873332
-0.08236227 -0.164917 -0.17133117 0.009434965 0.13659285 -0.49405372 0.11192792 -0.059126124
-0.0064847795 -0.038664393 0.114312455 -0.23249704 0.062232655 -0.30564585 0.14838916 -0.05499217
-0.00029817183 0.2200915 -0.057016164 -0.108347885 -0.21738178 0.0072947466 0.17763713 -0.17421879
0.085874826 0.008401553 -0.09861986 -0.16537142 -0.30794486 0.27918473 0.06810859 -0.29833856
0.0492786 -0.4002799 0.090841606 -0.20371747 -0.050264634 -0.288909 0.10692643 0.017995924
-0.12001665 -0.35613337 -0.083358645 -0.16934557 -0.08201978 -0.19573809 0.0445776 -0.17091338
-0.1742509 -0.41492322 -0.09352683 -0.17474061 0.0026240589 -0.3252756 0.11210873 -0.3590678
0.10913933 0.06440651 -0.00689077 0.1423164 0.0014068579 0.044713438 0.18012916 0.055681556
-0.027948689 0.3618609 0.09666091 -0.027586903 0.01192452 -0.15448691 -0.013889284 -0.062320977
0.09621866 0.079802 -0.043225367 -0.20227502 0.14231077 -0.31917796 -0.096214555 -0.18702915
0.08653455 0.23060007 -0.12063173 0.02074087 -0.09142331 -0.046946287 0.09857237 -0.057024565
0.10883005 0.18548244 -0.047809653 -0.15307534 0.2471149 0.14059274 -0.00820784 0.0057535376
-0.27474317 -0.012442393 -0.021816708 -0.06655541 0.352575 0.028708627 -0.110273294 -0.13496637
0.030917797 0.36174232 0.009462209 0.070044555 -0.1766826 0.0919339 0.13327149 0.065829374
-0.036120802 0.021283312 0.15936881 -0.18803813 -0.15669349 -0.06622269 -0.057308443 -0.0967182
-0.17948346 0.122980244 0.051621784 -0.17419799 -0.053150475 -0.10427744 -0.0982374 0.06542165
0.30122966 -0.23865676 -0.110692486 -0.07741295 -0.10435207 -0.3245757 0.21285897 -0.177961
0.18882278 -0.29093078 0.109819084 -0.22999336 0.05614594 0.021543436 0.15007956 0.07193978
0.25651768 -0.32824376 -0.12073744 0.015288482 -0.11869911 -0.07143199 0.019219935 0.07413885
-0.18419798 0.1280946 -0.16723889 -0.241167 -0.17126189 -0.18449353 -0.08083919 -0.22540942
-0.1291872 0.25906256 -0.08061884 0.014730805 -0.15319762 -0.01462354 -0.13839042 -0.17443994
00000000: 2e7f 2dbd 56ef 6c3e 16c9 2a3e aaa9 773d
00000010: d5f0 5f3e 4548 863d dd6c 23bd 1d2c 083e
00000020: 3c7b 413e 794c 8a3e 5491 5fbd 9477 153e
00000030: 3232 733e 8650 6abe 7e3b ff3d 14a0 183e
00000040: 561b 70be bf14 efbd 8302 a13c e1e6 1cbc
00000050: bee2 a9bd 0196 3dbe 3d3a 3a3e 11d5 443e
00000060: 9a1f a13d a079 36be 36be de3b a854 abbd
00000070: 5a5e b5be 0d34 31be bc9c babc a89d 9ebd
00000080: 6b8d 133e 2822 53be 2796 973d a492 543b
00000090: bc43 a0be f5df f8bd d780 87bc ec57 db3a
000000a0: 45bc 953c 24bc 8f3c 0be0 d0bc 52e7 05be
000000b0: 6f54 63be b862 4c3e 9afa 47bd 14df 4ebe
000000c0: 9254 32bc 5a01 d9be a7f0 f23b 7d5f 6cbe
000000d0: 6c2b a1bd af04 e33d cab8 983d 6b48 cc3d
000000e0: 811c 9a3e fe38 b9be d1f1 363d afba cdbd
000000f0: 515c a7bd 9f7e 63be f7d0 dc3d 2036 ab3d
00000100: 7c04 b53e 6657 99be bc3c 1bbd 364b 853d
00000110: aeaf 863e 1ff1 1dbf 425e 173d f737 223d
00000120: b551 a53d 5592 0abe dead 923d b677 13be
00000130: 165a 60bc 5c52 3dbe a24f 8c3c 86d0 4cbe
00000140: d614 c03d d184 72be 15ae f83d 1aa1 343e
00000150: 534b 883e e41b 4bbe c0b9 203e 742a f33d
00000160: 8dad a8bd 01e0 28be 7071 2fbe 1d95 1a3c
00000170: ffde 0b3e 9cf4 fcbe 773a e53d 3c2e 72bd
00000180: 467e d4bb 8e5e 1ebd a61c ea3d b413 6ebe
00000190: abe7 7e3d 9d7d 9cbe 54f3 173e 783f 61bd
000001a0: f253 9cb9 ab5f 613e c889 69bd 7fe5 ddbd
000001b0: 5499 5ebe c508 ef3b 82e6 353e 6966 32be
000001c0: 24df af3d aba6 093c 36f9 c9bd 2057 29be
000001d0: f3aa 9dbe 4df1 8e3e 847c 8b3d d5bf 98be
000001e0: 5bd8 493d 7df1 ccbe 2a0b ba3d 509b 50be
000001f0: 4ae2 4dbd e1eb 93be 3efc da3d 306c 933c
00000200: 4acb f5bd 1d57 b6be f0b7 aabd ed68 2dbe
00000210: fdf9 a7bd 916f 48be 0097 363d eb03 2fbe
00000220: d46e 32be d170 d4be ff8a bfbd 34ef 32be
00000230: 67f8 2b3b 868a a6be 4399 e53d bcd7 b7be
00000240: 7184 df3d 8fe7 833d f8cb e1bb 64bb 113e
00000250: 5166 b83a 7025 373d c773 383e 5812 643d
00000260: a6f4 e4bc d545 b93e 28f6 c53d eefd e1bc
00000270: 105f 433c d131 1ebe e18f 63bc 4844 7fbd
00000280: 4a0e c53d 3b6f a33d 150d 31bd 2f21 4fbe
00000290: eab9 113e 4b6b a3be 230c c5bd 9284 3fbe
000002a0: 0739 b13d 6d22 6c3e c50d f7bd c2e8 a93c
000002b0: 253c bbbd c04a 40bd 50e0 c93d 9792 69bd
000002c0: 4ae2 de3d 1cef 3d3e 0ed4 43bd c8bf 1cbe
000002d0: b00b 7d3e 8bf7 0f3e 2d7a 06bc 2c88 bc3b
000002e0: 23ab 8cbe 2edb 4bbc f4b8 b2bc 344e 88bd
000002f0: b684 b43e 5b2e eb3c f7d6 e1bd a034 0abe
00000300: 5247 fd3c 4a36 b93e 6207 1b3c 8573 8f3d
00000310: 49ec 34be d747 bc3d 5278 083e 8dd1 863d
00000320: 68f3 13bd 575a ae3c 9431 233e 118d 40be
00000330: 4274 20be c39f 87bd 42bc 6abd 3114 c6bd
00000340: 83ca 37be 11dd fb3d 5d71 533d f560 32be
00000350: 50b4 59bd 698f d5bd b130 c9bd c9fb 853d
00000360: c63a 9a3e 7062 74be beb2 e2bd ae8a 9ebd
00000370: 8ab6 d5bd c92e a6be b4f7 593e 693b 36be
00000380: c25a 413e e1f4 94be d4e8 e03d 6183 6bbe
00000390: 49f9 653d dc7b b03c 75ae 193e 2a55 933d
000003a0: 4956 833e 910f a8be 3145 f7bd 8b7c 7a3c
000003b0: 8518 f3bd ef4a 92bd 2073 9d3c 1cd6 973d
000003c0: 659e 3cbe 3b2b 033e ac40 2bbe 7bf4 76be
000003d0: 475f 2fbe dfeb 3cbe 048f a5bd bad1 66be
000003e0: a649 04be d9a3 843e 7e1b a5bd 7959 713c
000003f0: d6df 1cbe 9397 6fbc 38b6 0dbe 62a0 32be

fc1.bias f4 [256]
0.015363797 0.098092005 0.008288283 -0.14636251 -0.096778475 0.00039063755 0.105287075 0.22553726
-0.060885713 0.12378891 0.05029426 -0.0122439 -0.12019256 -0.12712865 -0.07280662 -0.0820772
-0.16692732 0.08316731 0.14520101 0.1505223 -0.04283562 -0.12731689 -0.15230814 0.14613798
0.16421705 -0.23292953 -0.01509775 0.0061286455 -0.22014408 -0.18084286 0.10066031 -0.1237372
0.030960878 -0.19917737 0.13383514 0.04074227 -0.12438935 0.022363644 0.056198984 -0.031795982
0.09177043 0.15257591 -0.24351382 0.03224407 -0.057772428 0.093922384 -0.11427804 0.18510927
-0.13762936 -0.08606599 -0.2039275 0.13557638 -0.16799524 -0.08984784 -0.13619056 -0.06330809
-0.055845782 -0.15787777 -0.18052313 0.035397954 -0.25144872 0.16719806 0.034495194 0.10723967
-0.14782532 0.11766335 -0.056481123 0.017858524 0.16870326 0.040313516 -0.17991115 0.046493758
-0.028977688 -0.21697664 -0.117810905 0.16029608 -0.05700435 -0.16507107 -0.17073224 0.14756678
-0.15652996 0.15661627 0.1071923 0.12371514 0.051598623 0.019919954 -0.09172396 -0.20277372
-0.25939092 -0.089795426 -0.22416393 -0.17763634 0.05817307 -0.22359815 -0.08239862 0.16411632
0.106346875 0.15078637 0.08598433 -0.12951875 0.06199292 0.08854966 0.0938555 -0.07306286
-0.043567456 -0.11399211 -0.092150405 -0.011532863 0.22372265 -0.1590557 -0.25728408 0.0017404617
0.0006211322 0.033109874 -0.20376168 0.25617254 -0.18804932 -0.111451425 0.04315522 0.029039593
-0.13837421 0.05045998 -0.03238401 -0.17542118 0.14916554 0.09862666 -0.17961095 0.2704682
0.1516532 -0.20002031 -0.13548571 0.2564967 -0.13753428 -0.21316613 0.16431455 0.22087371
0.13772984 0.10067408 -0.11908309 -0.099374324 0.2542478 -0.12534024 -0.043904543 0.18240324
-0.17092505 -0.06740809 -0.088499494 -0.15074334 -0.25942296 -0.27104136 -0.16713947 0.0995805
-0.071483694 0.056972746 -0.2622242 0.06787267 -0.04302596 -0.02221355 -0.22957166 0.0268093
0.039604273 0.019205306 -0.18677364 0.10081738 -0.016305793 -0.25920147 0.1048798 -0.043276913
-0.08348078 -0.102365844 -0.19349885 0.029321177 0.25254235 -0.1939454 -0.202191 -0.17628899
-0.20752124 0.0053410954 0.049029265 0.10374128 0.0010258664 0.062843904 0.031799056 0.00014997837
0.069069766 0.048965886 -0.09027196 -0.27939 0.22282286 0.15343408 -0.12826551 -0.08175945
-0.11537153 -0.16960621 -0.1042613 -0.10381792 0.15868144 -0.051472235 -0.12768656 -0.14518777
-0.062948495 -0.016654782 0.05281818 -0.26431718 -0.007249489 -0.070270985 0.07221806 0.02345614
-0.017458364 -0.17957555 0.12282967 -0.08084344 0.014997944 -0.23480907 -0.11383527 0.1513254
0.17696154 -0.023451611 0.21077652 -0.17354344 0.185649 -0.05889208 -0.2327826 -0.21232687
-0.01090405 -0.0690362 -0.016147956 0.15417029 -0.03772819 0.08470533 0.099870175 0.17787132
-0.11706858 0.1535553 0.034208834 -0.13702214 0.03563657 0.055484507 0.09436319 -0.15355846
-0.15634099 -0.21504474 -0.113870315 -0.16052693 -0.2368929 -0.12859413 -0.10942632 0.12773293
0.023242986 -0.20758116 -0.04738046 0.15955043 0.07531526 -0.05882913 0.06506353 0.19493411
00000000: 6fb8 7b3c 76e4 c83d 94cb 073c 0ee0 15be
00000010: cb33 c6bd 7cce cc39 c0a0 d73d 3df3 663e
00000020: 4c63 79bd 0a85 fd3d 5b01 4e3d a49a 48bc
00000030: 8427 f6bd 032e 02be a31b 95bd 1718 a8bd
00000040: ffee 2abe 9f53 aa3d 93af 143e 8522 1a3e
00000050: 6774 2fbd 5c5f 02be aaf6 1bbe 32a5 153e
00000060: 8428 283e 1485 6ebe 8e5c 77bc ced2 c83b
00000070: 736d 61be df2e 39be fe26 ce3d ee69 fdbd
00000080: aba1 fd3c 27f5 4bbe 140c 093e 5ee1 263d
00000090: d8bf febd f633 b73c e830 663d 813c 02bd
000000a0: 23f2 bb3d dc3c 1c3e b05b 79be 5c12 043d
000000b0: c8a2 6cbd 615a c03d 9b0a eabd 498d 3d3e
000000c0: b6ee 0cbe 5e43 b0bd 5fd2 50be 89d4 0a3e
000000d0: f206 2cbe 2502 b8bd 8a75 0bbe aca7 81bd
000000e0: 8cbe 64bd b6aa 21be 0edb 38be 72fd 103d
000000f0: e3bd 80be f835 2b3e d54a 0d3d 79a0 db3d
00000100: 855f 17be 7cf9 f03d c058 67bd 0a4c 923c
00000110: 8cc0 2c3e c91f 253d a13a 38be 3d70 3e3d
00000120: 9e62 edbc 202f 5ebe d846 f1bd a824 243e
00000130: 657d 69bd 6408 29be 6fd4 2ebe bf1b 173e
00000140: 6449 20be 0460 203e a387 db3d 5d5e fd3d
00000150: 1459 533d 2c2f a33c c6d9 bbbd eaa3 4fbe
00000160: e3ce 84be aae6 b7bd 3b8b 65be 4de6 35be
00000170: e346 6e3d eaf6 64be 9cc0 a8bd 1c0e 283e
00000180: 64cc d93d be67 1a3e 8d18 b03d 90a0 04be
00000190: 4aec 7d3d 8659 b53d 5037 c03d fba1 95bd
000001a0: ca73 32bd b274 e9bd 5ab9 bcbd 55f4 3cbc
000001b0: 8d17 653e 7fdf 22be bdba 83be 3420 e43a
000001c0: 7ad3 223a 389e 073d e7a6 50be 0c29 833e
000001d0: 0090 40be a540 e4bd 87c3 303d 71e4 ed3c
000001e0: f8b1 0dbe 20af 4e3d 18a5 04bd 9ca1 33be
000001f0: dabe 183e c6fc c93d efeb 37be cf7a 8a3e
00000200: fa4a 1b3e 20d2 4cbe c4bc 0abe 8953 833e
00000210: c9d5 0cbe 3948 5abe 1342 283e b82c 623e
00000220: 0d09 0d3e 362e ce3d d6e1 f3bd c484 cbbd
00000230: c52c 823e 3159 00be 40d5 33bd eac7 3a3e
00000240: fa06 2fbe 410d 8abd 393f b5bd 765c 1abe
00000250: 16d3 84be efc5 8abe 9c26 2bbe dcf0 cb3d
00000260: 0b66 92bd 415c 693d 4042 86be d400 8b3d
00000270: fd3b 30bd 31f9 b5bc d514 6bbe 2d9f db3c
00000280: 1738 223d 7254 9d3c 9741 3fbe 5879 ce3d
00000290: ba93 85bc 0eb6 84be 38cb d63d 2243 31bd
000002a0: f9f7 aabd 2fa5 d1bd 9024 46be f732 f03c
000002b0: 3b4d 813e 9f99 46be 280b 4fbe 1a85 34be
000002c0: 7380 54be 5b04 af3b e9d2 483d 4f76 d43d
000002d0: 5d76 863a 4eb4 803d ba3f 023d 8343 1d39
000002e0: 7374 8d3d 7490 483d 81e0 b8bd 350c 8fbe
000002f0: ad2b 643e d31d 1d3e 0958 03be 8071 a7bd
00000300: e947 ecbd 40ad 2dbe f386 d5bd 7d9e d4bd
00000310: 637d 223e 8dd4 52bd 44c0 02be 1aac 14be
00000320: 24eb 80bd 9c6f 88bc e057 583d 9554 87be
00000330: 1f8d edbb 3cea 8fbd 10e7 933d 1727 c03c
00000340: d804 8fbc a7e2 37be 1f8e fb3d 3f91 a5bd
00000350: f0b9 753c ca71 70be 7722 e9bd 0cf5 1a3e
00000360: 6835 353e 981d c0bc cdd5 573e 5fb5 31be
00000370: c51a 3e3e d238 71bd 905e 6ebe 376c 59be
00000380: e7a6 32bc da62 8dbd b848 84bc d1de 1d3e
00000390: e088 1abd fd79 ad3d bc88 cc3d e623 363e
000003a0: a7c1 efbd 9a3d 1d3e 901e 0c3d 884f 0cbe
000003b0: a7f7 113d b943 633d 7d41 c13d 6e3e 1dbe
000003c0: da17 20be b034 5cbe d734 e9bd 2c61 24be
000003d0: 0d94 72be 2eae 03be e81a e0bd 6ccc 023e
000003e0: 1368 be3c 2890 54be 0312 42bd 3061 233e
000003f0: e33e 9a3d d0f6 70bd 0740 853d cf9c 473e

fc2.weight f4 [128, 256]
-0.03024583 -0.07302078 0.2385346 -0.052945945 -0.0041264137 0.008747752 0.03982703 0.1199789
-0.07120873 -0.10132818 -0.088486016 0.09015202 0.06274453 -0.0414973 0.03247821 0.055729687
0.031501275 -0.020127235 0.015537666 -0.0220937 -0.04661551 -0.03666519 0.0031801683 0.02717271
0.03157883 -0.00314611 -0.030422945 -0.041367467 0.07109987 0.008404512 0.034007993 0.03521661
-0.042913843 0.014497975 0.08740774 0.037000783 -0.029660594 0.027104288 0.07688368 -0.06275701
-0.03512637 0.04781874 -0.0392109 0.005429634 0.1024715 -0.037682008 0.05952426 0.05146227
0.060753506 -0.046331905 -0.12833038 -0.047548044 -0.0018038892 -0.10904319 0.098197736 0.16550115
-0.018803462 0.044891853 -0.07210231 -0.04272595 -0.016310474 -0.007535053 0.02081503 -0.01816081
-0.048466675 -0.06316805 0.046972815 0.060169674 0.01707034 0.05335814 -0.023615276 0.03665759
-0.07064981 -0.016788505 0.0032958458 0.09383229 -0.05526507 0.06799894 -0.059512995 -0.032431234
-0.1770903 -0.029288003 0.08749861 -0.07710576 -0.055758137 0.088792324 0.05937796 0.027109921
0.052190863 0.014729493 -0.060561795 -0.010229168 0.03229953 0.12348276 -0.015520773 0.07420222
-0.05495709 0.06602304 -0.024844173 -0.010157835 -0.044903792 0.0060257977 -0.024500381 -0.05882579
-0.04475329 -0.037196986 0.1690134 -0.037070148 0.025193984 -0.029387893 0.016867047 0.14517012
0.00048267044 -0.24177553 0.019895174 -0.015160418 0.035177227 -0.01167404 -0.012388963 -0.067486376
0.0029540716 -0.16040677 -0.015434832 0.05385132 0.07837913 0.05459688 0.046816904 0.073796354
0.047556035 -0.006056697 0.018296301 0.11194636 0.07427504 -0.019396184 -0.102061756 0.103961624
0.008758463 -0.061892517 0.006101037 -0.040849004 -0.1471772 -0.012834933 -0.2732722 0.046537474
-0.117433935 -0.038934566 -0.06420643 0.046235114 0.07107526 0.017908618 0.0002468613 -0.24145876
0.050105315 0.052035745 -0.03637066 0.055050824 -0.027471328 0.06318524 0.014138445 -0.0064605507
0.009169266 -0.017132865 -0.06301658 0.045165706 -0.008684951 0.024334202 0.029609362 0.02506661
-0.053005986 -0.00056624 0.07592093 -0.038701404 0.0015037298 -0.023593644 -0.014692543 -0.049023952
-0.02893976 0.14238973 -0.0021325678 0.05138102 0.022875 0.052304156 0.020095527 -0.023782194
-0.123046726 0.008474487 -0.0057917573 0.0035990772 -0.14529368 0.06939051 -0.0038510135 -0.04565297
-0.019006139 0.0088407155 0.04035363 -0.056886874 -0.13249516 0.020249594 0.05612343 -0.05841349
-0.020219224 0.09213598 0.094756424 0.029784746 -0.11268815 0.07706324 -0.15663117 0.06760987
-0.034491353 -0.06281916 -0.034512505 -0.013713583 -0.19374311 0.005856628 0.061388437 0.013859212
-0.03552188 -0.12033479 0.032912195 -0.0390807 0.08532642 -0.07941255 0.033267893 0.09632484
-0.067584954 -0.08138455 0.0017624367 -0.18637127 0.02917415 -0.035031594 0.06801667 -0.020573659
-0.017818924 -0.049830038 0.12200614 -0.06624067 0.017463254 -0.048539445 0.060303133 0.065412045
-0.040841386 -0.08970727 -0.047961984 -0.004851256 0.010506777 -0.041217875 0.15143405 -0.0018536724
0.046873935 -0.04997577 -0.026232071 -0.0136068715 0.053732086 -0.059189986 0.02928698 -0.10340089
00000000: 1ac6 f7bc eb8b 95bd 6a42 743e d9dd 58bd
00000010: de36 87bb bb52 0f3c ab21 233d 7fb7 f53d
00000020: e2d5 91bd 2685 cfbd 2838 b5bd 9fa1 b83d
00000030: 3480 803d 13f9 29bd df07 053d d044 643d
00000040: 7b07 013d dfe1 a4bc b291 7e3c d9fd b4bc
00000050: e8ef 3ebd 3d2e 16bd 5f6a 503b 4e99 de3c
00000060: ce58 013d f82e 4ebb 8a39 f9bc ef70 29bd
00000070: cf9c 913d 14b3 093c f74b 0b3d 4b3f 103d
00000080: 6dc6 2fbd ea88 6d3c d402 b33d 228e 173d
00000090: c6fa f2bc d009 de3c 3175 9d3d bf86 80bd
000000a0: abe0 0fbd 95dd 433d 9c9b 20bd 12eb b13b
000000b0: 94dc d13d 7358 1abd b6cf 733d 1aca 523d
000000c0: abd8 783d 86c6 3dbd 0a69 03be bdc1 42bd
000000d0: 7a70 ecba 0952 dfbd e51b c93d 2279 293e
000000e0: b809 9abc 85e0 373d 60aa 93bd 6801 2fbd
000000f0: 8b9d 85bc 9be8 f6bb 4884 aa3c fbc5 94bc
00000100: fe84 46bd 405e 81bd 9166 403d 7a74 763d
00000110: 19d7 8b3c 118e 5a3d d374 c1bc 4526 163d
00000120: d9b0 90bd 0c88 89bc 1eff 573b 252b c03d
00000130: a05d 62bd 0743 8b3d e6c3 73bd 9dd6 04bd
00000140: 2957 35be 65ed efbc 7932 b33d a0e9 9dbd
00000150: a562 64bd c0d8 b53d 4e36 733d a015 de3c
00000160: 16c6 553d f953 713c a50f 78bd 3e98 27bc
00000170: 834c 043d 87e4 fc3d d74a 7ebc 55f7 973d
00000180: b01a 61bd 1637 873d 0286 cbbc 0c6d 26bc
00000190: 0aed 37bd 0e74 c53b 06b5 c8bc 50f3 70bd
000001a0: 3a4f 37bd de5b 18bd d911 2d3e ded6 17bd
000001b0: 9d63 ce3c e1be f0bc c32c 8a3c 7aa7 143e
000001c0: ee0e fd39 0194 77be 34fb a23c 6763 78bc
000001d0: ff15 103d 7944 3fbc 14fb 4abc 4c36 8abd
000001e0: 1999 413b ac41 24be 61e2 7cbc 3493 5c3d
000001f0: 3d85 a03d faa0 5f3d 15c3 3f3d 8b22 973d
00000200: 1eca 423d 4277 c6bb 20e2 953c 2244 e53d
00000210: 831d 983d bfe4 9ebc c105 d1bd d5e9 d43d
00000220: a87f 0f3c 0283 7dbd 35eb c73b 4951 27bd
00000230: 9fb5 16be 9c49 52bc 55ea 8bbe 149e 3e3d
00000240: 3481 f0bd da79 1fbd a97e 83bd 0861 3d3d
00000250: e88f 913d 18b5 923c 2a6d 8139 f740 77be
00000260: 3b3b 4d3d 6f23 553d 67f9 14bd f97c 613d
00000270: 8d0b e1bc 4367 813d f0a4 673c 07b3 d3bb
00000280: b03a 163c 395a 8cbc d60e 81bd adff 383d
00000290: 534b 0ebc 8558 c73c 558f f23c 7e58 cd3c
000002a0: ce1c 59bd b96f 14ba 6f7c 9b3d 5d85 1ebd
000002b0: cd18 c53a 7547 c1bc feb8 70bc 57cd 48bd
000002c0: 1313 edbc 9dce 113e 8dc2 0bbb e874 523d
000002d0: 5a64 bb3c e23c 563d 609f a43c e0d2 c2bc
000002e0: ecff fbbd 93d8 0a3c c8c8 bdbb 7fde 6b3b
000002f0: dec7 14be 9d1c 8e3d 4961 7cbb 9cfe 3abd
00000300: c3b2 9bbc a6d8 103c d949 253d 3602 69bd
00000310: d0ac 07be 7ae2 a53c afe1 653d fc42 6fbd
00000320: c9a2 a5bc cab1 bc3d a80f c23d 24ff f33c
00000330: 0bc9 e6bd 55d3 9d3d ec63 20be 0b77 8a3d
00000340: ce46 0dbd 55a7 80bd fc5c 0dbd f0ae 60bc
00000350: 9864 46be f5e8 bf3b 7172 7b3d c011 633c
00000360: 647f 11bd 1672 f6bd f0ce 063d 1613 20bd
00000370: 9ebf ae3d 0ca3 a2bd ea43 083d f545 c53d
00000380: fb69 8abd f1ac a6bd 9001 e73a 1cd8 3ebe
00000390: a1fe ee3c 4a7d 0fbd 534c 8b3d 178a a8bc
000003a0: fef8 91bc 951a 4cbd 5bde f93d 30a9 87bd
000003b0: 190f 8f3c 4cd1 46bd 6b00 773d c0f6 853d
000003c0: 4c49 27bd 72b8 b7bd c973 44bd 49f7 9ebb
000003d0: 9e24 2c3c 13d4 28bd 8711 1b3e edf6 f2ba
000003e0: e2fe 3f3d 65b3 4cbd a4e4 d6bc 5bef 5ebc
000003f0: 2d16 5c3d 3371 72bd 40eb ef3c d9c3 d3bd

fc2.bias f4 [128]
-0.013457675 -0.07343353 -0.049518444 0.02287348 -0.03961372 -0.050450712 0.0069483276 -0.044322234
-0.02900487 0.0058973106 0.03758066 -0.03635742 -0.016396418 -0.025805872 -0.023343053 -0.019294286
0.048707493 -0.039151505 -0.03807429 -0.0023072592 0.046580162 -0.009812014 0.0019096379 -0.04109667
-0.0095230555 -0.0060383985 -0.034358144 0.021068031 -0.0070067425 -0.060959734 0.053558793 -0.015322431
-0.061383784 0.002238316 0.054351274 -0.004078923 0.025454678 0.083117336 0.0052167308 -0.08223889
0.026729442 0.024735732 -0.02197207 -0.061345797 0.08244783 -0.057951715 -0.055168547 0.020008901
0.027475921 0.044214655 0.021202128 -0.023904366 0.049417216 0.06958375 -0.02510571 0.018684378
0.009370439 0.054690868 0.049135398 -0.04866496 0.054868773 -0.103437126 -0.040692754 -0.03236657
0.0067864466 -0.056288317 -0.071394116 -0.05365435 0.06812436 -0.0600792 -0.0041965907 0.094048426
-0.09064537 -0.016028866 -0.030667761 0.004522447 0.025528507 -0.024112811 -0.02941265 0.09133323
0.05912774 0.020530546 -0.10370789 0.067136414 0.026415339 0.023541803 0.019402744 0.045887902
-0.0012048875 -0.061013244 0.017509643 0.10430539 -0.0097461995 -0.097032435 -0.05278704 -0.016079484
0.054941054 0.020338101 -0.05298082 -0.0648237 -0.038286433 3.323884e-05 -0.07665355 -0.06606314
0.025438849 0.0070124203 0.016797584 -0.047359068 0.003314205 -0.015272311 -0.05336845 -0.022131927
0.0659125 -0.005922777 -0.11751819 -0.061998602 -0.055506676 0.055784777 0.036338825 -0.0113090025
0.041651737 -0.024903707 -0.074326836 0.06449063 -0.025106346 -0.06507101 -0.020741908 0.00040200612
00000000: 957d 5cbc 5264 96bd dad3 4abd 2a61 bb3c
00000010: ff41 22bd 68a5 4ebd ccae e33b 3b8b 35bd
00000020: 9f9b edbc 3a3e c13b 2eee 193d 85eb 14bd
00000030: c851 86bc d666 d3bc ee39 bfbc 0d0f 9ebc
00000040: 8281 473d 545d 20bd c9f3 1bbd 6335 17bb
00000050: d7ca 3e3d 92c2 20bc d14c fa3a fb54 28bd
00000060: 9706 1cbc c2dd c5bb 20bb 0cbd dd96 ac3c
00000070: d198 e5bb eab0 79bd 7760 5b3d ef0a 7bbc
00000080: 906d 7bbd b6b0 123b 719f 5e3d 7ca8 85bb
00000090: 5486 d03c 6c39 aa3d 1cf1 aa3b dd6c a8bd
000000a0: b4f7 da3c 97a2 ca3c c5fe b3bc bb45 7bbd
000000b0: 68da a83d c75e 6dbd 6af8 61bd b5e9 a33c
000000c0: 2f15 e13c 6d1a 353d 16b0 ad3c 17d3 c3bc
000000d0: b569 4a3d ed81 8e3d 7daa cdbc fb0f 993c
000000e0: 7886 193c 8803 603d 3342 493d e954 47bd
000000f0: 14be 603d d8d6 d3bd 72ad 26bd cf92 04bd
00000100: d760 de3b 948e 66bd 1437 92bd aac4 5bbd
00000110: c984 8b3d 9b15 76bd 8e83 89bb 769c c03d
00000120: 48a4 b9bd f84e 83bc f53a fbbc 0931 943b
00000130: 2921 d13c 3b88 c5bc ccf2 f0bc eb0c bb3d
00000140: ee2f 723d ad2f a83c cd64 d4bd d17e 893d
00000150: fb64 d83c bdda c03c 81f2 9e3c f4f4 3b3d
00000160: 51ed 9dba 06e9 79bd 6270 8f3c 109e d53d
00000170: 86ae 1fbc f1b8 c6bd 3937 58bd 1fb9 83bc
00000180: df09 613d 179c a63c 6b02 59bd 4ac2 84bd
00000190: 3cd2 1cbd ef69 0b38 89fc 9cbd 1d4c 87bd
000001a0: 2265 d03c 72c8 e53b 169b 893c 95fb 41bd
000001b0: 2233 593b b738 7abc e098 5abd 044e b5bc
000001c0: 22fd 863d db13 c2bb 60ad f0bd 3ff2 7dbd
000001d0: f85a 63bd 947e 643d 05d8 143d 6549 39bc
000001e0: 039b 2a3d dc02 ccbc ab38 98bd aa13 843d
000001f0: d3ab cdbc f343 85bd efea a9bc 59c4 d239

fc3.weight f4 [64, 128]
0.09053446 0.138612 0.023309128 0.21999636 -0.11299969 -0.008322956 -0.31213674 0.04188238
0.01600221 -0.19380209 -0.021384863 0.077423744 0.09381812 -0.056886356 0.13886343 -0.1089463
-0.07202197 0.04152233 0.11207647 0.09347917 0.02597374 -0.14880069 0.15361312 -0.12148036
-0.10432044 -0.05845742 0.112845674 -0.1537085 -0.040402375 0.0138887325 0.028954545 -0.0030132334
0.16239357 -0.44002894 0.056450546 0.028233115 0.14547555 -0.10877156 0.13548376 0.08758846
-0.026636926 -0.2653883 0.038477525 0.06495807 -0.06521137 0.027158909 -0.0062609073 0.042133406
0.05490844 -0.050586194 -0.029086735 0.02455783 0.040830575 0.10183216 -0.11963435 -0.0005759559
0.0024023145 -0.004633354 -0.2845599 -0.17264433 -0.08427242 0.11659327 -0.0053665303 -0.12546235
-0.2493641 -0.026676044 0.13992485 0.074156865 -0.082274124 0.21196796 0.032579057 -0.12601379
0.2043803 -0.031296715 -0.083516344 -0.015291926 -0.041632343 0.0065461034 0.09568282 -0.3355174
-0.051239315 0.041248143 0.11872089 -0.04411309 -0.041028477 0.037990067 0.09034781 -0.08947763
-0.19451836 0.052696284 -0.06548167 -0.044836417 0.14211088 0.14681196 0.06318573 0.05816913
0.010027227 -0.06779809 0.13688605 0.07367498 -0.13209274 0.058747854 0.15397373 0.20652448
-0.036467664 0.007982415 0.16245912 -0.05492222 0.010972874 -0.16252156 0.08939037 -0.11190886
0.0293172 0.05754085 0.018662512 -0.06166457 0.062063508 0.014028189 0.09133601 0.009728754
-0.025305307 0.1104899 -0.026341632 -0.048631214 0.14401574 0.08611907 0.033448756 -0.007424437
0.10791701 0.061843347 0.06017116 0.095619075 0.027018933 -0.016906496 -0.14031221 0.027958402
0.104531765 -0.08835185 0.07678385 0.06842848 -0.0073373658 -0.041491218 0.14524993 0.08425883
-0.08626563 0.052368388 0.03156364 -0.009819059 -0.07631145 -0.2705533 0.14241706 0.019793823
-0.0061916434 -0.06849123 0.07759864 -0.033167604 0.12128473 -0.018388934 -0.031614136 -0.028497046
0.042511642 -0.36036617 0.108219184 0.016248321 0.092868686 -0.108630896 0.13937198 0.06289144
-0.10073175 -0.55777997 -0.07741579 0.04060134 0.062897205 0.15414795 0.12723799 0.10080675
0.04855589 0.119314924 0.011524595 -0.24689543 0.010301181 -0.13753937 -0.086583614 0.034415368
0.012885694 -0.037545297 -0.22705485 -0.16784735 -0.018840311 0.029298337 -0.0014565893 -0.015335388
-0.00040267728 -0.067668065 0.13230082 -0.0021277135 -0.10709736 0.070481196 -0.041128192 -0.13344216
0.02720216 -0.07436974 -0.05125651 0.023982001 -0.13750792 -0.06084117 0.13944155 -0.048605632
-0.03551133 0.12995225 0.15170442 -0.025709197 -0.03257553 0.0605388 0.108087465 -0.36474398
-0.10540032 0.10053871 -0.11572282 0.107308246 0.19894922 0.15913205 0.0011685549 0.068049416
0.026145132 -0.08973452 -0.011264467 0.078752734 -0.1942081 0.112463504 -0.062483944 0.18233249
-0.017997587 -7.12433e-05 0.1156185 -0.15577589 0.12729637 -0.13143651 0.040805034 0.07873793
-0.0942187 0.019490397 -0.075940974 -0.028303463 0.08758933 0.0774177 0.014961392 0.04219049
-0.19419135 0.082485095 0.25766593 -0.060341492 0.036504596 -0.023856187 -0.07553316 0.03044276
00000000: 226a b93d 4ef0 0d3e c9f2 be3c ba46 613e
00000010: 626c e7bd 025d 08bc 63d0 9fbe dc8c 2b3d
00000020: 1117 833c 0e74 46be 4f2f afbc 5790 9e3d
00000030: b723 c03d ab01 69bd 3732 0e3e 3d1f dfbd
00000040: 4180 93bd 5213 2a3d 5988 e53d 0272 bf3d
00000050: e1c6 d43c 355f 18be c24c 1d3e b2ca f8bd
00000060: f4a5 d5bd 0c71 6fbd a21b e73d c365 1dbe
00000070: f67c 25bd 918d 633c 1532 ed3c ab79 45bb
00000080: 804a 263e 794b e1be b038 673d 2249 e73c
00000090: 8bf7 143e a0c3 debd 41bc 0a3e 9461 b33d
000000a0: af35 dabc fae0 87be 9c9a 1d3d bd08 853d
000000b0: 8a8d 85bd 5c7c de3c 4c28 cdbb 1494 2c3d
000000c0: ace7 603d 7833 4fbd 4e47 eebc 812d c93c
000000d0: f63d 273d 618d d03d db02 f5bd bffb 16ba
000000e0: 2670 1d3b 64d3 97bb d6b1 91be adc9 30be
000000f0: 0597 acbd 74c8 ee3d b8d9 afbb 3479 00be
00000100: 4d59 7fbe b887 dabc 7648 0f3e 8edf 973d
00000110: 567f a8bd 210e 593e 9e71 053d c209 01be
00000120: 1249 513e fc30 00bd 9e0a abbd fd8a 7abc
00000130: ad86 2abd b280 d63b 5bf5 c33d f0c8 abbe
00000140: 51e0 51bd d0f3 283d f023 f33d edaf 34bd
00000150: 7a0d 28bd 799b 1b3d 4608 b93d 0c40 b7bd
00000160: d22f 47be 0fd8 573d 411b 86bd 64a6 37bd
00000170: 8485 113e e055 163e 8567 813d c142 6e3d
00000180: 3d49 243c bad9 8abd db2b 0c3e e8e2 963d
00000190: 5243 07be 97a1 703d 4aab 1d3e 277b 533e
000001a0: 1e5f 15bd adc8 023c af5b 263e 1ff6 60bd
000001b0: 92c7 333c 0d6c 26be 4c12 b73d 7930 e5bd
000001c0: a02a f03c f4af 6b3d 20e2 983c fd93 7cbd
000001d0: 4e36 7e3d 7dd6 653c 600e bb3d 5a65 1f3c
000001e0: 134d cfbc 8748 e23d 68ca d7bc 8631 47bd
000001f0: dd78 133e 325f b03d 9001 093d b148 f3bb
00000200: 9803 dd3d 734f 7d3d 0976 763d efd3 c33d
00000210: cf56 dd3c 7e7f 8abc 01ae 0fbe 0509 e53c
00000220: c014 d63d d1f1 b4bd da40 9d3d 3b24 8c3d
00000230: 496e f0bb b2f2 29bd 66bc 143e e58f ac3d
00000240: 09ac b0bd 3c80 563d e048 013d 1ee0 20bc
00000250: 2d49 9cbd f685 8abe c7d5 113e a826 a23c
00000260: 45e3 cabb 2145 8cbd 09ec 9e3d c1da 07bd
00000270: 2164 f83d 64a4 96bc d37d 01bd a372 e9bc
00000280: b020 2e3d ea81 b8be 05a2 dd3d 331b 853c
00000290: f031 be3d e079 debd 87b7 0e3e 3acd 803d
000002a0: 734c cebd abca 0ebf 2b8c 9ebd 974d 263d
000002b0: 40d0 803d f6d8 1d3e ad4a 023e c573 ce3d
000002c0: 8ae2 463d 625b f43d a8d1 3c3c 28d2 7cbe
000002d0: 49c6 283c 1fd7 0cbe c052 b1bd 21f7 0c3d
000002e0: 851e 533c 19c9 19bd 1181 68be 2de0 2bbe
000002f0: ff56 9abc 1103 f03c 07eb beba 4741 7bbc
00000300: 6e1e d3b9 8e95 8abd de79 073e 1c71 0bbb
00000310: dc55 dbbd 7258 903d 0976 28bd 10a5 08be
00000320: 10d7 de3c 2a4f 98bd 59f2 51bd e775 c43c
00000330: e0ce 0cbe 9734 79bd c4c9 0e3e b316 47bd
00000340: 5474 11bd 3412 053e 6758 1b3e 189c d2bc
00000350: eb6d 05bd 88f7 773d f65c dd3d b9bf babe
00000360: 1fdc d7bd 3de7 cd3d 1600 edbd 6dc4 db3d
00000370: 58b9 4b3e 83f3 223e 322a 993a 7e5d 8b3d
00000380: 512e d63c bbc6 b7bd 998e 38bc 1d49 a13d
00000390: 7dde 46be 4453 e63d 2aef 7fbd 5eb5 3a3e
000003a0: ad6f 93bc 7568 95b8 64c9 ec3d b783 1fbe
000003b0: fb59 023e 4b97 06be 2e23 273d 5a41 a13d
000003c0: bcf5 c0bd 53aa 9f3c f186 9bbd aadc e7bc
000003d0: 0962 b33d 2c8d 9e3d a020 753c efcf 2c3d
000003e0: 19da 46be f2ed a83d caec 833e a428 77bd
000003f0: d885 153d 0d6e c3bc 21b1 9abd 1863 f93c

fc3.bias f4 [64]
-0.073808916 -0.080439635 0.020117665 0.0020385813 -0.08107003 0.036183476 -0.0822824 0.016166119
-0.08552327 -0.04071577 0.04893622 -0.04013933 0.032805603 -0.05077419 -0.037802853 -0.0749151
-0.041593254 0.007658844 0.103567876 0.0048062624 -0.12502396 -0.0152560035 -0.009989676 -0.044352885
0.02301569 0.0335019 0.0007373757 -0.074180625 0.024326108 -0.057863604 0.019412797 -0.047735684
-0.0058306875 -0.095947474 -0.081042215 0.07696787 0.029402452 0.061617266 -0.012148637 -0.00985137
-0.054076333 -0.09728581 0.056221146 0.057749275 0.01981948 0.051048353 -0.09160623 -0.013671347
0.085797355 0.0012967302 0.024657832 0.07613179 0.022281058 0.03916381 -0.030629497 -0.03809222
0.10243334 0.004799464 -0.106611244 0.0132151125 0.00044419323 0.024557892 0.052657757 -0.099100105
00000000: 2129 97bd 89bd a4bd cdcd a43c b899 053b
00000010: 0b08 a6bd 2035 143d ad83 a8bd cf6e 843c
00000020: d326 afbd 94c5 26bd 5971 483d 2369 24bd
00000030: 2b5f 063d 99f8 4fbd 2ad7 1abd 176d 99bd
00000040: b05d 2abd 0af7 fa3b 651b d43d da7d 9d3b
00000050: 4806 00be 51f4 79bc bdab 23bc 5fab 35bd
00000060: 668b bc3c 4a39 093d 724c 413a 03ec 97bd
00000070: 8c47 c73c 6302 6dbd 9607 9f3c 7e86 43bd
00000080: 5a0f bfbb 1c80 c4bd 76f9 a5bd 55a1 9d3d
00000090: 69dd f03c 6362 7c3d 140b 47bc a467 21bc
000000a0: 257f 5dbd c83d c7bd 2548 663d 818a 6c3d
000000b0: 765c a23c 1418 513d 0c9c bbbd c9fd 5fbc
000000c0: 86b6 af3d 0cf7 a93a 39ff c93c fcea 9b3d
000000d0: c486 b63c 3b6a 203d b6ea fabc 9606 1cbd
000000e0: 92c8 d13d d244 9d3b ff56 dabd 3384 583c
000000f0: 9be2 e839 a22d c93c a9af 573d fff4 cabd

fc4.weight f4 [2, 64]
-0.21644798 -0.09999026 0.32864982 0.2799711 0.030459646 -0.28734916 0.26969787 0.27882308
-0.5694175 -0.12232471 -0.26918086 -0.020137984 0.29677743 -0.27104908 0.42640534 0.087158635
-0.38094458 -0.0016952886 0.18880506 -0.21698639 0.15942651 0.13092166 0.08997101 0.34329417
-0.0547693 -0.02711049 0.44272333 -0.12750272 0.0088506155 0.23670639 -0.034490667 0.046176072
0.2714853 -0.23157659 -0.37188256 0.14628027 0.4341752 0.14865306 -0.1231249 0.16382381
-0.39986157 -0.26872298 0.046255775 -0.158666 0.27077493 0.046357453 -0.37286663 -0.10388892
-0.032889403 -0.52510726 -0.53247523 0.27964842 0.56746286 -0.35306183 0.23637758 0.19938065
0.09772885 -0.25357628 -0.08485648 -0.07993902 -0.27983555 0.21532625 -0.6113041 -0.25041476
0.2485912 0.25259936 -0.16292891 0.120586865 0.23600186 -0.23631543 -0.19449541 -0.65798306
0.36499408 0.09996418 -0.3273745 0.09729342 -0.036132794 -0.0051583303 -0.3496171 -0.020068036
-0.47581536 0.33642095 -0.13990714 -0.35897627 0.49721745 0.36623412 -0.4717555 -0.034960605
0.23140734 -0.5453482 0.16772932 0.0014327642 0.5568645 -0.03545692 0.5378285 0.0066979076
-0.30357113 -0.027308827 -0.06508469 0.11859577 0.48759264 -0.6312473 0.25087836 0.035506148
-0.13077989 -0.25713724 0.024109416 0.1676779 0.40749127 -0.7010953 -0.35225713 0.07083573
-0.38797396 0.35181418 0.022430172 -0.09723505 -0.22178772 -0.16746534 0.105038546 -0.04857215
0.17565615 -0.39501327 0.14302994 0.18566726 -0.1722808 -0.030618137 -0.07707499 -0.17282368
00000000: 8aa4 5dbe b2c7 ccbd ca44 a83e 5f58 8f3e
00000010: 8286 f93c 6e1f 93be d715 8a3e e6c1 8e3e
00000020: 58c5 11bf 6185 fabd 13d2 89be 6af8 a4bc
00000030: 36f3 973e f2c6 8abe cd51 da3e 3a80 b23d
00000040: 2b0b c3be 7234 deba 1d56 413e ae31 5ebe
00000050: b440 233e 5410 063e b942 b83d 41c4 af3e
00000060: c655 60bd d116 debc a2ac e23e 1390 02be
00000070: 2c02 113c 2963 723e 1646 0dbd 1f23 3d3d
00000080: 1f00 8b3e 6a22 6dbe 6467 bebe 7fca 153e
00000090: 364c de3e 8238 183e e828 fcbd 6ec1 273e
000000a0: a8ba ccbe 0f96 89be b276 3d3d 5779 22be
000000b0: 03a3 8a3e 50e1 3d3d 60e8 bebe b7c3 d4bd
000000c0: 0ab7 06bd 6e6d 06bf 4c50 08bf 142e 8f3e
000000d0: 3f45 113f 85c4 b4be f70c 723e 712a 4c3e
000000e0: 1026 c83d c0d4 81be 3cc9 adbd 12b7 a3bd
000000f0: 9b46 8fbe 7c7e 5c3e 6d7e 1cbf 5d36 80be
00000100: b18e 7e3e b454 813e d6d6 26be 3ff6 f63d
00000110: 79aa 713e acfc 71be ce29 47be 9471 28bf
00000120: 81e0 ba3e 05ba cc3d a19d a7be c641 c73d
00000130: fbff 13bd 3607 a9bb 0301 b3be b965 a4bc
00000140: 129e f3be 5e3f ac3e d143 0fbe bdcb b7be
00000150: 4993 fe3e 0a83 bb3e f089 f1be da32 0fbd
00000160: 0cf6 6c3e f19b 0bbf 3cc1 2b3e 97cb bb3a
00000170: ac8e 0e3f 463b 11bd 21af 093f 1f7a db3b
00000180: ad6d 9bbe c3b6 dfbc 1f4b 85bd 57e2 f23d
00000190: bea5 f93e 6c99 21bf 2173 803e e56e 113d
000001a0: 2aeb 05be 7ea7 83be 1c81 c53c c1b3 2b3e
000001b0: b2a2 d03e fb7a 33bf 0c5b b4be 5312 913d
000001c0: 86a4 c6be fd20 b43e 7bbf b73c 2b23 c7bd
000001d0: 521c 63be 097c 2bbe 731e d73d 97f3 46bd
000001e0: 35df 333e 2e3f cabe 7176 123e 8f1f 3e3e
000001f0: 616a 30be e3d2 fabc 7ed9 9dbd b1f8 30be

fc4.bias f4 [2]
-0.0055377274 -0.15778022
00000000: d375 b5bb 2391 21be
