checkpoints/Computer1-1-checkpoint-0.5958-actor.pth (torch, 193711 bytes, 8 tensors)

fc1.weight f4 [256, 24]
0	0xbd2d7e90	-0.042357028
1	0x3e6b5cd9	0.22984637
2	0x3e2acd22	0.16679814
3	0x3d74c755	0.05976041
4	0x3e618f1a	0.22027245
5	0x3d85a85c	0.065262526
6	0xbd235ca6	-0.03988328
7	0x3e07738b	0.1322767
8	0x3e418f24	0.1890226
9	0x3e894cb5	0.26816335
10	0xbd5f08cc	-0.05445175
11	0x3e14c2a2	0.14527372
12	0x3e74f59c	0.23921818
13	0xbe6966ef	-0.22793172
14	0x3dff7fc3	0.124755405
15	0x3e17eb22	0.1483579
16	0xbe701660	-0.23446035
17	0xbdf2b7e2	-0.11851479
18	0x3c9ce7c7	0.019153489
19	0xbc1f2801	-0.0097141275
20	0xbda61526	-0.081095025
21	0xbe3b347b	-0.18281738
22	0x3e39b6e6	0.18136176
23	0x3e44b103	0.1920815
24	0x3da273bf	0.07932233
25	0xbe32eca3	-0.17473082
26	0x3bb18186	0.0054170517
27	0xbdaa0596	-0.08301847
28	0xbeb51826	-0.35369986
29	0xbe319a35	-0.17343982
30	0xbcc5ebef	-0.024160353
31	0xbd9d4e96	-0.07681005
32	0x3e140f6f	0.14459012
33	0xbe4f3b40	-0.20237446
34	0x3d95f62f	0.073223464
35	0x3b6e01ee	0.0036317068
36	0xbea04250	-0.31300592
37	0xbdfa82c4	-0.12231973
38	0xbc8e00c9	-0.017334359
39	0x3b071b41	0.002061561
40	0x3c989804	0.018627174
41	0x3cacc69b	0.021090796
42	0xbcd0dfb4	-0.025497295
43	0xbe059b56	-0.13047537
44	0xbe63ccef	-0.22246145
45	0x3e4b39d9	0.19846286
46	0xbd47fa6d	-0.04882281
47	0xbe4e9318	-0.201733
48	0xbc38b9db	-0.01127478
49	0xbed7e01d	-0.42163172
50	0x3bfb1dd1	0.0076634665
51	0xbe6e1338	-0.23249519
52	0xbda08595	-0.07837979
53	0x3de6f3a9	0.11276943
54	0x3d993b9f	0.07482075
55	0x3dc8e0e4	0.098085195
56	0x3e99ed4d	0.3006386
57	0xbeb83582	-0.35978323
58	0x3d39cd6c	0.04536192
59	0xbdcf6df4	-0.10128394
60	0xbda6c273	-0.08142557
61	0xbe61e0cb	-0.22058408
62	0x3dde3ed8	0.1085183
63	0x3da982db	0.08276912
64	0x3eb4ef94	0.35339034
65	0xbe98b4ed	-0.29825535
66	0xbd1d06f6	-0.038336717
67	0x3d7b13f5	0.06129833
68	0x3e86ce9d	0.26329508
69	0xbf1d9a7b	-0.61563843
70	0x3d159408	0.036518127
71	0x3d12b57e	0.035817616
72	0x3da62557	0.08112591
73	0xbe0c3552	-0.13692215
74	0x3d92e40f	0.07172405
75	0xbe12084f	-0.14260982
76	0xbc766db5	-0.015040805
77	0xbe3e6f60	-0.18597174
78	0x3c8d2870	0.017231196
79	0xbe4b611f	-0.19861268
80	0x3dc11939	0.09428639
81	0xbe744655	-0.23854955
82	0x3df7db36	0.12102358
83	0x3e34b524	0.17647225
84	0x3e879581	0.2648125
85	0xbe4c002c	-0.1992194
86	0x3e20504c	0.15655631
87	0x3df35292	0.118809834
88	0xbda78466	-0.0817955
89	0xbe2a8964	-0.16653973
90	0xbe2ebd5f	-0.17064427
91	0x3c1d375d	0.009595719
92	0x3e0a7750	0.13522077
93	0xbefd4c78	-0.49472404
94	0x3de6a2b6	0.112615034
95	0xbd7185a7	-0.05896535
96	0xbbe8bcaf	-0.007102571
97	0xbd216656	-0.039404236
98	0x3decb279	0.115574785
99	0xbe6e3ff6	-0.23266587
100	0x3d7fd9d4	0.062463596
101	0xbe9bacbe	-0.3040523
102	0x3e193e39	0.14965142
103	0xbd61f06e	-0.055160932
104	0xba8a8c42	-0.0010570365
105	0x3e612139	0.2198533
106	0xbd6cc53f	-0.057805296
107	0xbdde5fa8	-0.10858089
108	0xbe5e75dd	-0.21724649
109	0x3c05818a	0.00814856
110	0x3e3517a8	0.17684805
111	0xbe32a387	-0.17445193
112	0x3dada19d	0.08478091
113	0x3c060085	0.008178835
114	0xbdca7bbc	-0.09886882
115	0xbe298897	-0.16556011
116	0xbe9d9cb6	-0.30783623
117	0x3e8f0f42	0.27941328
118	0x3d8af9fe	0.067859635
119	0xbe98d88e	-0.29852718
120	0x3d4b27e3	0.049598586
121	0xbecd1e32	-0.400621
122	0x3db95877	0.090500765
123	0xbe52b3da	-0.2057642
124	0xbd4843ee	-0.048892908
125	0xbe942c85	-0.28940216
126	0x3dda498b	0.106585585
127	0x3c82a7d8	0.015949175
128	0xbdf5322b	-0.119724594
129	0xbeb6a1ad	-0.35670224
130	0xbdacf756	-0.08445613
131	0xbe2df364	-0.16987377
132	0xbda63365	-0.081152715
133	0xbe481d9c	-0.19542545
134	0x3d321820	0.04348004
135	0xbe2f8e62	-0.17144158
136	0xbe320b67	-0.17387162
137	0xbed4ac76	-0.41537827
138	0xbdbe2241	-0.09283877
139	0xbe32408a	-0.17407432
140	0x3b475c51	0.0030420015
141	0xbea5fde6	-0.32420272
142	0x3de70201	0.11279679
143	0xbeb78074	-0.3584019
144	0x3ddca789	0.10774142
145	0x3d7e2541	0.062047247
146	0xbbbd87ab	-0.005783995
147	0x3e0d1dbe	0.13780877
148	0x3aa339a4	0.0012453091
149	0x3d3eadc9	0.046552453
150	0x3e3995e7	0.1812359
151	0x3d519bc7	0.05117395
152	0xbceec118	-0.029144809
153	0x3eb6eb86	0.35726565
154	0x3dc7abe7	0.09749585
155	0xbcf97838	-0.030452833
156	0x3c3a649a	0.011376524
157	0xbe1aad12	-0.15105084
158	0xbc55e200	-0.013054371
159	0xbd8580c1	-0.065186985
160	0x3dc2fa99	0.09520454
161	0x3d9773b6	0.07395117
162	0xbd33fa45	-0.043939847
163	0xbe4fcac8	-0.20292199
164	0x3e10aff0	0.14129615
165	0xbea12e64	-0.31480706
166	0xbdc682bd	-0.09692905
167	0xbe402e2b	-0.18767612
168	0x3db01807	0.08598333
169	0x3e68a72e	0.22720024
170	0xbdf4af95	-0.11947552
171	0x3c8e8f5e	0.017402347
172	0xbdb918f5	-0.09037963
173	0xbd3eb26a	-0.046556868
174	0x3dcc3e80	0.099728584
175	0xbd773f42	-0.06036306
176	0x3ddd3138	0.10800403
177	0x3e39f33b	0.18159191
178	0xbd47645c	-0.048679695
179	0xbe1fa118	-0.15588796
180	0x3e7df4bf	0.24800394
181	0x3e109a56	0.14121374
182	0xbc14bb90	-0.0090779215
183	0x3b40be4f	0.0029410308
184	0xbe8cdfc7	-0.2751448
185	0xbc87cca8	-0.01657708
186	0xbc991948	-0.018688813
187	0xbd8ab4d7	-0.06772774
188	0x3eb4c492	0.3530622
189	0x3cf2840e	0.029603984
190	0xbddb6f13	-0.10714545
191	0xbe0b67f8	-0.1361388
192	0x3cfb6dba	0.03069197
193	0x3ebab91f	0.3646936
194	0x3c00877d	0.007844803
195	0x3d96dfc7	0.07366901
196	0xbe36e508	-0.17860806
197	0x3dbc8c99	0.092065044
198	0x3e06d053	0.13165407
199	0x3d8e3dcf	0.06945383
200	0xbd150728	-0.036383778
201	0x3ccc4b8f	0.024938373
202	0x3e22d741	0.15902425
203	0xbe3db0e1	-0.18524505
204	0xbe224f2e	-0.15850517
205	0xbd8766eb	-0.06611427
206	0xbd6c2580	-0.05765295
207	0xbdc05be1	-0.093925245
208	0xbe3817b1	-0.17977788
209	0x3e023c18	0.12718236
210	0x3d4ee7fc	0.050514206
211	0xbe314635	-0.17311938
212	0xbd60a3d5	-0.054843742
213	0xbdd52df8	-0.104091585
214	0xbdcb756b	-0.09934505
215	0x3d883131	0.066500075
216	0x3e99736d	0.29970875
217	0xbe7432dd	-0.23847528
218	0xbde28d1e	-0.11062072
219	0xbd9a3308	-0.07529265
220	0xbdd73fe0	-0.1051023
221	0xbea57037	-0.32312176
222	0x3e5a0a76	0.21293053
223	0xbe340f9c	-0.1758408
224	0x3e3fb9c2	0.18723205
225	0xbe93c5b7	-0.28861782
226	0x3de1e61c	0.11030218
227	0xbe679fe0	-0.22619581
228	0x3d609d7a	0.05483768
229	0x3cc081c2	0.023499373
230	0x3e1a2d1d	0.15056272
231	0x3d9b1c3a	0.07573743
232	0x3e8265bf	0.2546825
233	0xbea64b00	-0.32479095
234	0xbdfb469d	-0.12269328
235	0x3c7272fc	0.014797922
236	0xbdf69540	-0.12040186
237	0xbd8d7015	-0.069061436
238	0x3c8d6d96	0.017264169
239	0x3d96d4ea	0.07364829
240	0xbe3c339c	-0.18379062
241	0x3e0169c2	0.12638
242	0xbe29d76f	-0.16586088
243	0xbe77f494	-0.24214393
244	0xbe2ec22f	-0.17066263
245	0xbe3e0b5c	-0.18559021
246	0xbda2bca7	-0.07946139
247	0xbe67d1d3	-0.22638635
248	0xbe03f87c	-0.12887758
249	0x3e83db2c	0.25753152
250	0xbda65b5c	-0.08122894
251	0x3c82431d	0.015901143
252	0xbe1bd4d6	-0.15217909
253	0xbc773acf	-0.015089705
254	0xbe0e5621	-0.13900043
255	0xbe316d95	-0.17326958

fc1.bias f4 [256]
0	0x3c79e1f6	0.015251627
1	0x3dc6b21f	0.09701943
2	0x3c0f420c	0.008743774
3	0xbe16a87a	-0.14712706
4	0xbdc21c07	-0.09478002
5	0x3938ad3a	0.0001761214
6	0x3dd8e467	0.10590439
7	0x3e6747a1	0.22585918
8	0xbd787cf4	-0.06066604
9	0x3dff8605	0.12476734
10	0x3d48f97c	0.04906605
11	0xbc398e95	-0.011325498
12	0xbdf41466	-0.11917953
13	0xbe039588	-0.1285001
14	0xbd93b33d	-0.07211921
15	0xbda60985	-0.081072845
16	0xbe2c612b	-0.16833942
17	0x3daa056c	0.083018154
18	0x3e13e821	0.14444019
19	0x3e1915ba	0.14949694
20	0xbd322984	-0.043496624
21	0xbdffae19	-0.12484378
22	0xbe1cac80	-0.15300179
23	0x3e173bf1	0.1476896
24	0x3e27b349	0.16376986
25	0xbe70d002	-0.23516849
26	0xbc75282b	-0.01496319
27	0x3bdd1a80	0.006747544
28	0xbe605d70	-0.21910644
29	0xbe3ae2a5	-0.1825052
30	0x3dce8f6c	0.10085949
31	0xbdfd1dac	-0.12359175
32	0x3d00a6be	0.031409018
33	0xbe4bf7a1	-0.19918682
34	0x3e07c14a	0.13257328
35	0x3d2a251c	0.041539297
36	0xbdfc31d0	-0.123141885
37	0x3cc2ace9	0.02376409
38	0x3d64f169	0.05589429
39	0xbd00cb52	-0.0314439
40	0x3dc02afe	0.093832
41	0x3e1c7bd1	0.15281607
42	0xbe79d37d	-0.24397083
43	0x3d033095	0.032028753
44	0xbd667475	-0.056263406
45	0x3dc09235	0.09402887
46	0xbdeb1ba2	-0.1147988
47	0x3e41a110	0.18909097
48	0xbe0c6a19	-0.13712348
49	0xbdb07dc7	-0.0861774
50	0xbe4e481f	-0.201447
51	0x3e0b4db9	0.13603868
52	0xbe2a8f1e	-0.16656157
53	0xbdb65ec0	-0.08904791
54	0xbe0bf5f6	-0.13668045
55	0xbd811271	-0.063023455
56	0xbd61f0ac	-0.055161163
57	0xbe20fce1	-0.15721466
58	0xbe3921ed	-0.18079348
59	0x3d0e45b2	0.034734435
60	0xbe8196e8	-0.25310445
61	0x3e2ba1c2	0.16760924
62	0x3d09d421	0.033649568
63	0x3dd94bb9	0.10610146
64	0xbe17d873	-0.14828663
65	0x3df216a0	0.118207216
66	0xbd64c6cb	-0.055853646
67	0x3c9f2d5f	0.019430814
68	0x3e2ac3dc	0.16676277
69	0x3d265f4b	0.040618222
70	0xbe3841fd	-0.17993923
71	0x3d3e720b	0.04649548
72	0xbcead84c	-0.028667592
73	0xbe5e7697	-0.21724926
74	0xbdeeed8a	-0.11666401
75	0x3e2376aa	0.15963235
76	0xbd68b29e	-0.056810968
77	0xbe285f0d	-0.16442509
78	0xbe2f5da3	-0.17125563
79	0x3e15ac9c	0.14616627
80	0xbe1f2f80	-0.15545464
81	0x3e1ff56e	0.15620968
82	0x3dda9ccc	0.10674438
83	0x3dfa7f55	0.12231318
84	0x3d5303e1	0.05151737
85	0x3c9eed43	0.019400245
86	0xbdb93a14	-0.09044281
87	0xbe4f76e1	-0.20260192
88	0xbe857fa5	-0.26073948
89	0xbdbca400	-0.09210968
90	0xbe66b125	-0.22528513
91	0xbe368bdb	-0.17826788
92	0x3d7718d3	0.06032641
93	0xbe663d6e	-0.22484371
94	0xbda9081b	-0.08253499
95	0x3e27d56a	0.16390005
96	0x3dd99cbc	0.10625598
97	0x3e1ae0a5	0.15124758
98	0x3dac8d92	0.0842544
99	0xbe02ee49	-0.12786211
100	0x3d807f0e	0.06274234
101	0x3db4dd63	0.08831289
102	0x3dbb57e2	0.09147622
103	0xbd9414fa	-0.072305635
104	0xbd2f8f51	-0.042861287
105	0xbde7800f	-0.11303722
106	0xbdb75095	-0.08950917
107	0xbc30768e	-0.010770453
108	0x3e65b01e	0.22430465
109	0xbe24bc35	-0.1608742
110	0xbe836e9e	-0.25670332
111	0xb98f9ef4	-0.00027393515
112	0x3a427187	0.00074174296
113	0x3d033ace	0.032038502
114	0xbe52aa4c	-0.20572776
115	0x3e8234ba	0.25430852
116	0xbe41f57d	-0.18941303
117	0xbde2f8a3	-0.1108258
118	0x3d298fa8	0.041396767
119	0x3ce5dbf7	0.028058989
120	0xbe0c022e	-0.13672706
121	0x3d51a59f	0.05118334
122	0xbd0aabe0	-0.03385532
123	0xbe335442	-0.1751261
124	0x3e17da16	0.14829287
125	0x3dc9107c	0.09817597
126	0xbe3a2a41	-0.18180181
127	0x3e8a1103	0.26966104
128	0x3e1b9edc	0.15197319
129	0xbe4d5190	-0.20050645
130	0xbe083fa7	-0.13305531
131	0x3e837765	0.25677028
132	0xbe0c05a3	-0.13674025
133	0xbe59fd3c	-0.21288007
134	0x3e28b7a1	0.16476299
135	0x3e61f9e5	0.22067983
136	0x3e0d99eb	0.13828246
137	0x3dce44c2	0.10071708
138	0xbdf5ea72	-0.120076075
139	0xbdc92a64	-0.098225385
140	0x3e83153d	0.2560214
141	0xbe00798a	-0.12546363
142	0xbd2da17e	-0.04239034
143	0x3e3a7562	0.1820884
144	0xbe2d2d7d	-0.16911884
145	0xbd8b8952	-0.06813301
146	0xbdb63029	-0.088959046
147	0xbe1accb2	-0.15117148
148	0xbe848b16	-0.25887364
149	0xbe8b4c57	-0.2720668
150	0xbe2afc4d	-0.16697808
151	0x3dcb6e80	0.099331856
152	0xbd970365	-0.07373694
153	0x3d6038c6	0.054741643
154	0xbe8637cb	-0.26214442
155	0x3d8a7810	0.06761181
156	0xbd2bf27f	-0.04197931
157	0xbcc0023c	-0.023438565
158	0xbe6b6499	-0.22987594
159	0x3ccbcd68	0.024878219
160	0x3d1d98ad	0.03847568
161	0x3c9ad5e5	0.018900821
162	0xbe406ab2	-0.18790701
163	0x3dcc7cdb	0.09984752
164	0xbc86d1d5	-0.016457478
165	0xbe844a06	-0.25837725
166	0x3dd444f2	0.10364713
167	0xbd2b3321	-0.041796807
168	0xbdaa11da	-0.08304186
169	0xbdd5f6cc	-0.104474634
170	0xbe480ee2	-0.19536927
171	0x3cf657b1	0.030071111
172	0x3e8008fc	0.25006855
173	0xbe473fc5	-0.1945792
174	0xbe4edb97	-0.20200954
175	0xbe34d706	-0.1766015
176	0xbe550bb6	-0.20805249
177	0x3bb893ee	0.005632869
178	0x3d4771bf	0.04869246
179	0x3dd0ecb4	0.102013975
180	0x3aa7ef21	0.0012812355
181	0x3d804cd2	0.06264652
182	0x3d09879a	0.033576585
183	0x39efb120	0.000457176
184	0x3d901455	0.07035128
185	0x3d4bfd76	0.049802266
186	0xbdb763e2	-0.08954598
187	0xbe8e4172	-0.27784306
188	0x3e64ced4	0.22344524
189	0x3e1b2fde	0.15154979
190	0xbe057b50	-0.13035321
191	0xbdae789a	-0.08519097
192	0xbded537f	-0.11588191
193	0xbe2d75c5	-0.16939457
194	0xbdd4119e	-0.10354923
195	0xbdd31d16	-0.10308282
196	0x3e21995a	0.15781155
197	0xbd53fa77	-0.051752534
198	0xbe01f8c6	-0.12692556
199	0xbe14ccda	-0.1453127
200	0xbd810f6d	-0.0630177
201	0xbc88cbd1	-0.01669875
202	0x3d5c1030	0.053726375
203	0xbe86dbfd	-0.26339713
204	0xbbf59888	-0.00749499
205	0xbd8c66ec	-0.06855568
206	0x3d91166f	0.07084357
207	0x3cc31274	0.02381251
208	0xbc91e805	-0.01781083
209	0xbe385ca6	-0.18004093
210	0x3dfba89b	0.12288018
211	0xbda64020	-0.081176996
212	0x3c52ad4f	0.012858703
213	0xbe6fbe50	-0.23412442
214	0xbde62ef8	-0.11239427
215	0x3e1cd821	0.15316822
216	0x3e36b5f3	0.17842846
217	0xbcc56fcc	-0.02410116
218	0x3e56782a	0.20944276
219	0xbe322f71	-0.1740091
220	0x3e3dc717	0.18532978
221	0xbd7abdfb	-0.061216336
222	0xbe6cd70d	-0.2312891
223	0xbe56d3b5	-0.20979197
224	0xbc35a641	-0.011087001
225	0xbd897191	-0.06711114
226	0xbc845569	-0.016154008
227	0x3e1c003f	0.15234469
228	0xbd16d565	-0.036824603
229	0x3dac737c	0.084204644
230	0x3dcad814	0.09904495
231	0x3e36326f	0.17792676
232	0xbdf299da	-0.11845751
233	0x3e1d4e5f	0.15361927
234	0x3d0bba2a	0.034113087
235	0xbe0bdb22	-0.13657811
236	0x3d13b6ee	0.036063127
237	0x3d613a8e	0.054987483
238	0x3dc4f81c	0.096176356
239	0xbe1e1894	-0.15439063
240	0xbe1e75e8	-0.15474665
241	0xbe5d0521	-0.21583988
242	0xbded4896	-0.1158611
243	0xbe253751	-0.16134383
244	0xbe74112e	-0.23834679
245	0xbe0465f0	-0.12929511
246	0xbdd7625f	-0.1051681
247	0x3e00fb31	0.12595822
248	0x3cbdfe22	0.023192469
249	0xbe53b235	-0.2067345
250	0xbd418a39	-0.04725096
251	0x3e249cbb	0.16075413
252	0x3d9eb8a2	0.0775006
253	0xbd71577d	-0.058921326
254	0x3d85f9a8	0.06541759
255	0x3e45eb71	0.19328095

fc2.weight f4 [128, 256]
0	0xbd008eea	-0.031386293
1	0xbd915a82	-0.07097341
2	0x3e744eb5	0.2385815
3	0xbd523a3f	-0.05132508
4	0xbb520df3	-0.0032051771
5	0x3c3486e8	0.011018492
6	0x3d224706	0.039618514
7	0x3df4460e	0.11927424
8	0xbd92b120	-0.0716269
9	0xbdca55ca	-0.09879644
10	0xbdb0298b	-0.08601674
11	0x3db82c64	0.08992842
12	0x3d880a47	0.06642585
13	0xbd2bf144	-0.041978136
14	0x3d03fd68	0.03222409
15	0x3d600baf	0.054698642
16	0x3d01e15f	0.03170907
17	0xbca3d30d	-0.019998098
18	0x3c81cf3d	0.01584589
19	0xbcb5e998	-0.022206113
20	0xbd3e38a0	-0.04644072
21	0xbd15534f	-0.036456402
22	0x3b3ca59e	0.002878524
23	0x3ce1a3d0	0.027543932
24	0x3d017069	0.031601343
25	0xbb5370cc	-0.0032263277
26	0xbcf05c6a	-0.029340941
27	0xbd1f1964	-0.038842574
28	0x3d924714	0.07142463
29	0x3c101b1f	0.008795529
30	0x3d0dae82	0.03459025
31	0x3d0c1267	0.034197237
32	0xbd2799af	-0.04091805
33	0x3c81ffc4	0.015869029
34	0x3db12006	0.08648686
35	0x3d1a5892	0.037682123
36	0xbcf08306	-0.029359352
37	0x3ce578a1	0.028011622
38	0x3d9dd0fa	0.07705875
39	0xbd809b27	-0.06279593
40	0xbd093438	-0.033497065
41	0x3d48ad7a	0.048993565
42	0xbd1eba4f	-0.038751896
43	0x3babe84d	0.0052461983
44	0x3dd34086	0.10315041
45	0xbd15db7f	-0.03658628
46	0x3d764d9d	0.06013261
47	0x3d5a1dc4	0.053251043
48	0x3d797b9a	0.06090889
49	0xbd3d6457	-0.04623827
50	0xbe011c3f	-0.12608431
51	0xbd3e286e	-0.046425276
52	0xbaec343c	-0.0018020938
53	0xbddeb31a	-0.10874005
54	0x3dca93cb	0.098914705
55	0x3e2af7ac	0.16696042
56	0xbc89e82e	-0.016834345
57	0x3d384738	0.044989794
58	0xbd93344d	-0.0718771
59	0xbd213ad9	-0.039362762
60	0xbc7858a5	-0.015157853
61	0xbbf7a2e0	-0.007557258
62	0x3cb2ec66	0.02184124
63	0xbc940d99	-0.01807289
64	0xbd478229	-0.048708115
65	0xbd7d9178	-0.061906308
66	0x3d3fb0d3	0.046799492
67	0x3d827c1b	0.063713275
68	0x3c866910	0.01640752
69	0x3d5e2269	0.054232035
70	0xbcb528f1	-0.022114249
71	0x3d14b5f1	0.036306325
72	0xbd918223	-0.071049
73	0xbc8cd370	-0.017190665
74	0x3b55ee2e	0.0032643187
75	0x3dc1e3ad	0.09467254
76	0xbd601c5f	-0.054714557
77	0x3d8cd059	0.06875677
78	0xbd738443	-0.059452306
79	0xbd086e18	-0.03330812
80	0xbe355306	-0.17707452
81	0xbcd68938	-0.026188478
82	0x3db350b4	0.08755627
83	0xbd9cc3cc	-0.07654533
84	0xbd60c26f	-0.054872926
85	0x3db68797	0.089125805
86	0x3d74f760	0.059806228
87	0x3ce5c822	0.028049532
88	0x3d59fc8f	0.053219374
89	0x3c6951e3	0.014240715
90	0xbd6dedfc	-0.058088288
91	0xbbe1bef9	-0.006889221
92	0x3d01d02b	0.031692665
93	0x3dfc8c94	0.12331501
94	0xbc6f7d3f	-0.014617263
95	0x3d993690	0.0748111
96	0xbd5f9797	-0.054587927
97	0x3d8a9793	0.06767192
98	0xbcb80c4e	-0.022466805
99	0xbc2555c6	-0.010091251
100	0xbd35ce6d	-0.044386316
101	0x3bc02776	0.005864079
102	0xbcc0633a	-0.023484815
103	0xbd706f31	-0.05869979
104	0xbd368e9d	-0.0445696
105	0xbd183234	-0.037157252
106	0x3e2d16d3	0.16903238
107	0xbd178a79	-0.036997292
108	0x3cda10b7	0.026619298
109	0xbcf8dbc5	-0.030378232
110	0x3c8807f7	0.01660536
111	0x3e16114d	0.14655037
112	0x38ee937a	0.00011376194
113	0xbe756961	-0.2396598
114	0x3ca71db2	0.020399902
115	0xbc66e133	-0.014091778
116	0x3d0e4432	0.034733005
117	0xbc3c2164	-0.01148257
118	0xbc505c3c	-0.012717303
119	0xbd8632ac	-0.06552634
120	0x3b9f4e9d	0.0048616664
121	0xbe231fda	-0.15930119
122	0xbc44a804	-0.012002949
123	0x3d5f060e	0.054449134
124	0x3d9f649e	0.07782863
125	0x3d61c602	0.055120476
126	0x3d42926f	0.04750293
127	0x3d983153	0.07431283
128	0x3d461b32	0.04836578
129	0xbbaeceb8	-0.0053347014
130	0x3ca0e242	0.019639138
131	0x3de64a37	0.11244624
132	0x3d97b813	0.07408156
133	0xbc9ee8ce	-0.01939812
134	0xbdce122b	-0.10062059
135	0x3dd52f92	0.10409464
136	0x3c1eb531	0.009686754
137	0xbd7a5526	-0.06111636
138	0x3c2a9db2	0.010413574
139	0xbd26dc6a	-0.040737547
140	0xbe15f62e	-0.14644691
141	0xbc2bd588	-0.010487922
142	0xbe8a7f35	-0.27050176
143	0x3d3ffc65	0.04687156
144	0xbdeb1687	-0.11478906
145	0xbd187fed	-0.037231375
146	0xbd81668b	-0.06318387
147	0x3d3e3d77	0.046445336
148	0x3d91196b	0.07084926
149	0x3c921e55	0.017836729
150	0x39d01050	0.00039685005
151	0xbe762de1	-0.24040939
152	0x3d50722e	0.05089014
153	0x3d51b185	0.051194686
154	0xbd0ff042	-0.035141237
155	0x3d64895c	0.05579506
156	0xbcdfedd5	-0.027335087
157	0x3d7f826e	0.062380247
158	0x3c6b3424	0.014355693
159	0xbbd58e9f	-0.006517246
160	0x3c2a0e8a	0.010379443
161	0xbc93b70b	-0.018031618
162	0xbd8060ac	-0.06268439
163	0x3d432420	0.047641873
164	0xbc070f66	-0.008243417
165	0x3cd48474	0.025942065
166	0x3cfc39d0	0.030789286
167	0x3cd3cd9f	0.025854884
168	0xbd5d4305	-0.054018993
169	0xb78fdae6	-1.7148861e-05
170	0x3d9ca1ec	0.07648072
171	0xbd18ddf3	-0.037321042
172	0x39e267a8	0.0004318331
173	0xbcc7b820	-0.02437979
174	0xbc7127c6	-0.014718955
175	0xbd441031	-0.047867004
176	0xbce21438	-0.027597532
177	0x3e13b911	0.14426066
178	0xbb035729	-0.0020040965
179	0x3d59bb8e	0.05315738
180	0x3cbf2dce	0.023337271
181	0x3d57d103	0.052689563
182	0x3ca62598	0.020281598
183	0xbcbeb328	-0.023278788
184	0xbdfa2544	-0.12214139
185	0x3c0ee7f5	0.008722295
186	0xbbc13c2e	-0.0058970666
187	0x3b934c50	0.004495181
188	0xbe14eb50	-0.1454289
189	0x3d8e5f82	0.069518104
190	0xbb82a1bb	-0.003986565
191	0xbd2fd2d7	-0.042925682
192	0xbc996912	-0.01872686
193	0x3c190dd2	0.009341674
194	0x3d268187	0.04065087
195	0xbd692a2a	-0.056924976
196	0xbe069915	-0.13144334
197	0x3ca8e751	0.020618113
198	0x3d6626d9	0.05618939
199	0xbd67e3b7	-0.05661365
200	0xbc97ec8f	-0.018545417
201	0x3dbbf76b	0.091780506
202	0x3dc40865	0.09571914
203	0x3d051334	0.032489017
204	0xbde356bc	-0.11100528
205	0x3d9d87d1	0.076919205
206	0xbe1c6034	-0.15271074
207	0x3d8c83b4	0.06861058
208	0xbd09734e	-0.03355723
209	0xbd809fb6	-0.062804624
210	0xbd0ab323	-0.033862244
211	0xbc514936	-0.0127738025
212	0xbe3fd90c	-0.1873514
213	0x3bd4a000	0.0064888
214	0x3d7cd091	0.061722342
215	0x3c742b60	0.0149029195
216	0xbd0efc08	-0.034908324
217	0xbdf537b1	-0.11973513
218	0x3d061054	0.032730415
219	0xbd18f836	-0.037346087
220	0x3dade492	0.08490862
221	0xbda28494	-0.079354435
222	0x3d07c04d	0.033142377
223	0x3dccb275	0.099949755
224	0xbd89235c	-0.066961974
225	0xbda380b0	-0.079835296
226	0x3b723b7a	0.003696172
227	0xbe3d4111	-0.18481852
228	0x3cee5275	0.029092053
229	0xbd0b98bf	-0.034081217
230	0x3d8b82d6	0.06812064
231	0xbcac06d3	-0.020999348
232	0xbc8c80fb	-0.017151346
233	0xbd44c5cc	-0.048040196
234	0x3dfed872	0.124436274
235	0xbd87672a	-0.06611474
236	0x3c83d05b	0.016090563
237	0xbd49dfdb	-0.04928575
238	0x3d7a015d	0.061036456
239	0x3d849ae6	0.06474857
240	0xbd1ee47b	-0.038792115
241	0xbdb51225	-0.088413514
242	0xbd43716f	-0.0477156
243	0xbba5fa67	-0.0050652507
244	0x3c396168	0.011314727
245	0xbd234dbb	-0.03986905
246	0x3e213ec8	0.15746605
247	0xbb299ee5	-0.0025882062
248	0x3d416389	0.047214065
249	0xbd51af73	-0.051192712
250	0xbcc49160	-0.023995101
251	0xbc5e10cf	-0.013553812
252	0x3d5cdb51	0.053920094
253	0xbd6b1747	-0.057395246
254	0x3cf0c6ef	0.029391734
255	0xbdd3bce6	-0.10338764

fc2.bias f4 [128]
0	0xbc4fe6de	-0.01268932
1	0xbd95849d	-0.073006846
2	0xbd48b109	-0.04899696
3	0x3cca05ed	0.024661029
4	0xbd249912	-0.04018504
5	0xbd4f4f8b	-0.050612967
6	0x3b983f9b	0.0046462542
7	0xbd330d01	-0.043713573
8	0xbce4938c	-0.027902387
9	0x3ba312ed	0.0049766214
10	0x3d1a60f6	0.037690125
11	0xbd121744	-0.03566672
12	0xbc98c2e1	-0.018647613
13	0xbcd8fc21	-0.026487412
14	0xbcc05514	-0.023478068
15	0xbc9a864c	-0.018862866
16	0x3d438150	0.047730744
17	0xbd1ae479	-0.037815545
18	0xbd1dd405	-0.038532276
19	0xbb23fc29	-0.0025022125
20	0x3d3d9692	0.046286173
21	0xbc3adc39	-0.011405044
22	0x3b4cd2c8	0.0031253565
23	0xbd252cbb	-0.04032586
24	0xbc1eba4e	-0.009687973
25	0xbbc6aedd	-0.006063326
26	0xbd078565	-0.0330862
27	0x3ca9c12b	0.020721992
28	0xbbf0db09	-0.00735033
29	0xbd78b064	-0.060715094
30	0x3d55e5f2	0.052221246
31	0xbc7df2d2	-0.015499787
32	0xbd7af252	-0.06126625
33	0x3b0a203a	0.0021076337
34	0x3d603ce3	0.054745566
35	0xbb8b45cf	-0.004250265
36	0x3ccca8c8	0.024982825
37	0x3da95766	0.08268623
38	0x3be202d3	0.0068973093
39	0xbdaba4dd	-0.083810546
40	0x3ce3725a	0.027764488
41	0x3cd656dc	0.026164465
42	0xbcaec8e5	-0.021336028
43	0xbd7ba9f6	-0.061441384
44	0x3da8b026	0.08236723
45	0xbd710056	-0.05883821
46	0xbd65519d	-0.055986036
47	0x3ca02a94	0.019551553
48	0x3ce7fc0b	0.028318426
49	0x3d31f09a	0.043442346
50	0x3cabb001	0.020957949
51	0xbcc59edd	-0.024123603
52	0x3d4bde88	0.04977277
53	0x3d8a0d19	0.067407794
54	0xbcd63c8d	-0.02615192
55	0x3c9b8d38	0.018988237
56	0x3c25ffcc	0.0101317875
57	0x3d58ad28	0.05289951
58	0x3d4a74d3	0.04942782
59	0xbd494edf	-0.049147483
60	0x3d5fe5bf	0.054662462
61	0xbdd047ec	-0.10169968
62	0xbd2a926b	-0.04164354
63	0xbd076a82	-0.03306056
64	0x3c04cc34	0.008105326
65	0xbd64887b	-0.05579422
66	0xbd928ff1	-0.07156361
67	0xbd531cdf	-0.051541205
68	0x3d8c2e27	0.0684474
69	0xbd73ae32	-0.059492297
70	0xbb89838e	-0.0041965907
71	0x3dbf5884	0.09343055
72	0xbdb6a8dd	-0.08918927
73	0xbc89ca95	-0.016820231
74	0xbcf3b228	-0.029748037
75	0x3bb91acc	0.0056489464
76	0x3cda4d85	0.026648292
77	0xbcbb3f26	-0.02285726
78	0xbcf6f2db	-0.0301451
79	0x3dbb4448	0.09143883
80	0x3d6eaec0	0.058272123
81	0x3cab66a3	0.020922964
82	0xbdd41ddb	-0.10357257
83	0x3d88088b	0.066422544
84	0x3cd551d0	0.026039988
85	0x3cc47a4a	0.023984093
86	0x3ca3a8b6	0.019977909
87	0x3d408232	0.046999164
88	0xbad43556	-0.0016190212
89	0xbd75495b	-0.05988441
90	0x3c9dfe11	0.019286187
91	0x3dd4183f	0.10356187
92	0xbc21fdbf	-0.009887158
93	0xbdc980e5	-0.09839038
94	0xbd58c1f1	-0.052919332
95	0xbc847449	-0.01616873
96	0x3d634243	0.055483114
97	0x3caf3922	0.021389548
98	0xbd545818	-0.051841825
99	0xbd851890	-0.064988256
100	0xbd1ac178	-0.037782162
101	0x39b37431	0.0003422811
102	0xbd9d65e9	-0.076854534
103	0xbd862fbe	-0.06552075
104	0x3cc70d59	0.024298357
105	0x3c051e97	0.008124969
106	0x3c9044a0	0.017610848
107	0xbd48239f	-0.048862096
108	0x3ba04cb2	0.0048919553
109	0xbc7a38b7	-0.015272311
110	0xbd55e4fc	-0.05222033
111	0xbcb134eb	-0.021631679
112	0x3d859973	0.06523409
113	0xbbbbcd50	-0.0057312623
114	0xbdedff62	-0.11620976
115	0xbd7b72d2	-0.061388798
116	0xbd648d9c	-0.05579911
117	0x3d60467d	0.054754723
118	0x3d196d5f	0.03745782
119	0xbc3d9c19	-0.011572861
120	0x3d2cb40b	0.04216389
121	0xbccd254e	-0.025042202
122	0xbd985a15	-0.07439057
123	0x3d808a77	0.0627641
124	0xbcc4515e	-0.02396458
125	0xbd8543f3	-0.06507101
126	0xbcb39afa	-0.021924485
127	0x3a676f31	0.00088285195

fc3.weight f4 [64, 128]
0	0x3db87c7b	0.09008118
1	0x3e0ee5bb	0.13954823
2	0x3ce9396b	0.028469762
3	0x3e613008	0.21990979
4	0xbde6922f	-0.11258351
5	0xbc0acdb2	-0.008471893
6	0xbe9fd0ba	-0.31213933
7	0x3d2e8bbc	0.04261373
8	0x3c84a32a	0.016191084
9	0xbe445a36	-0.19175038
10	0xbcc82e20	-0.024436057
11	0x3d9d3052	0.07675232
12	0x3dbe41cd	0.09289894
13	0xbd62dd0f	-0.0553866
14	0x3e0e0516	0.13869128
15	0xbde0020d	-0.10937891
16	0xbd91634f	-0.0709902
17	0x3d269424	0.04066862
18	0x3de304ad	0.11084876
19	0x3dbc5fed	0.09197984
20	0x3cc993e6	0.024606656
21	0xbe1660e4	-0.14685398
22	0x3e1d0fea	0.15338102
23	0xbdf98e91	-0.121853955
24	0xbdd3e785	-0.10346893
25	0xbd723fb1	-0.059142772
26	0x3de476d8	0.1115548
27	0xbe1d3f43	-0.15356164
28	0xbd26f030	-0.040756404
29	0x3c6a1af8	0.014288656
30	0x3cf51d34	0.029921152
31	0xbb480593	-0.00305209
32	0x3e24788a	0.16061607
33	0xbee14b79	-0.44002894
34	0x3d677e59	0.05651698
35	0x3cfdd1ce	0.030983832
36	0x3e17330d	0.14765568
37	0xbdde527f	-0.10855579
38	0x3e0aeed2	0.13567665
39	0x3db1bef1	0.08678997
40	0xbcd5cc20	-0.026098311
41	0xbe86bf3a	-0.2631777
42	0x3d241404	0.04005815
43	0x3d88b7d4	0.066756874
44	0xbd846914	-0.064653546
45	0x3cd4c53f	0.02597296
46	0xbbb35ce3	-0.0054737194
47	0x3d26d290	0.04072815
48	0x3d75fe0a	0.060056724
49	0xbd45cc3c	-0.048290476
50	0xbcf1870e	-0.029483344
51	0x3cb228b4	0.021747924
52	0x3d2cd828	0.04219833
53	0x3dd03428	0.10166198
54	0xbdf5b3ca	-0.11997183
55	0xba1b696f	-0.00059284916
56	0xbb03fe6a	-0.0020140656
57	0xbbc9ffd6	-0.006164531
58	0xbe8e50f0	-0.27796125
59	0xbe2f4391	-0.17115618
60	0xbdacdd06	-0.084405944
61	0x3def07e5	0.11671428
62	0xbbfa75fe	-0.0076434603
63	0xbe00b319	-0.1256832
64	0xbe809cb4	-0.25119555
65	0xbcd0cbc5	-0.02548779
66	0x3e10bec4	0.14135271
67	0x3d92c674	0.07166758
68	0xbda9a2dd	-0.08283017
69	0x3e5b5782	0.214201
70	0x3d05719e	0.032579057
71	0xbe0157cd	-0.1263115
72	0x3e4ef6f9	0.202114
73	0xbd01fcbd	-0.03173517
74	0xbda9fb47	-0.082998805
75	0xbc488ea3	-0.0122410385
76	0xbd348ac1	-0.04407764
77	0x3c35cb0b	0.0110957725
78	0x3dc4a175	0.09601108
79	0xbeab53f0	-0.33462477
80	0xbd545299	-0.051836584
81	0x3d26d149	0.040726934
82	0x3df168d9	0.11787576
83	0xbd2e2a7f	-0.042520996
84	0xbd34b9d1	-0.04412252
85	0x3d23cc2d	0.03998964
86	0x3db536d7	0.088483505
87	0xbdaf1602	-0.085491195
88	0xbe45b8e6	-0.19308814
89	0x3d60498b	0.054757636
90	0xbd866f9e	-0.06564258
91	0xbd38098c	-0.04493098
92	0x3e1212ed	0.14265032
93	0x3e14f263	0.14545588
94	0x3d846da8	0.06466228
95	0x3d7f76ea	0.062369265
96	0x3c2387af	0.00998108
97	0xbd90ca91	-0.070698865
98	0x3e104cca	0.14091793
99	0x3d95bfb9	0.07311959
100	0xbe07863b	-0.13234799
101	0x3d6b6015	0.057464678
102	0x3e1cfb7b	0.15330307
103	0x3e53f0fd	0.20697398
104	0xbd144e79	-0.03620765
105	0x3c1f755c	0.0097325705
106	0x3e267201	0.16254427
107	0xbd5c5224	-0.053789273
108	0x3c177e07	0.009246356
109	0xbe266c0d	-0.16252156
110	0x3db9d932	0.0907463
111	0xbde448d6	-0.11146705
112	0x3d09685d	0.033546794
113	0x3d6d9e9c	0.05801259
114	0x3ca9edd9	0.020743297
115	0xbd7560f5	-0.05990692
116	0x3d818a0d	0.06325159
117	0x3c6bd29c	0.014393475
118	0x3dbf4770	0.093397975
119	0x3c3c7d6c	0.011504512
120	0xbcdbddca	-0.026839156
121	0x3ddc0d04	0.1074467
122	0xbc92ff45	-0.017943988
123	0xbd4af6d0	-0.049551785
124	0x3e127dde	0.14305827
125	0x3db05f32	0.08611907
126	0x3d0b779f	0.034049626
127	0xbbecad2f	-0.0072227935
128	0x3ddcadcf	0.10775339
129	0x3d80f1ad	0.06296096
130	0x3d76ef34	0.060286716
131	0x3dc32a1d	0.09529517
132	0x3cdc83ab	0.026918253
133	0xbc93d4fd	-0.018045897
134	0xbe0fa5de	-0.14028117
135	0x3cea7e8c	0.028624795
136	0x3dd541e4	0.10412958
137	0xbdb5dd61	-0.08880115
138	0x3d9ebf43	0.07751324
139	0x3d8b2bf7	0.06795495
140	0xbc077f93	-0.008270162
141	0xbd2302b5	-0.039797504
142	0x3e14e017	0.14538608
143	0x3daaf382	0.08347227
144	0xbdafa989	-0.08577258
145	0x3d55250e	0.05203729
146	0x3d021187	0.031754997
147	0xbc1af79c	-0.009458449
148	0xbd9b7fec	-0.075927585
149	0xbe8a356f	-0.26993892
150	0x3e11ece7	0.14250527
151	0x3c9eeec1	0.019400956
152	0xbbc115ce	-0.005892492
153	0xbd8ca20a	-0.06866844
154	0x3d9bcdc0	0.07607603
155	0xbd07e87d	-0.033180702
156	0x3df85159	0.12124891
157	0xbc936c7c	-0.017996065
158	0xbcfc7e6c	-0.030822001
159	0xbce6c94b	-0.028172156
160	0x3d337ca3	0.043820035
161	0xbeb6cbb5	-0.3570229
162	0x3ddc8ea2	0.107693925
163	0x3c8d1922	0.017223898
164	0x3dbe5ea7	0.09295397
165	0xbde153b6	-0.11002295
166	0x3e0dbc07	0.13841258
167	0x3d7e27b1	0.06204957
168	0xbdcf7b2c	-0.10130915
169	0xbf0e8107	-0.5566563
170	0xbd9fc1c9	-0.078006335
171	0x3d2244ee	0.039616518
172	0x3d7bea97	0.06150302
173	0x3e1e854f	0.1548054
174	0x3e00efa8	0.12591422
175	0x3dcc3942	0.099718586
176	0x3d4801da	0.04882989
177	0x3df0f772	0.117659464
178	0x3c46c303	0.012131455
179	0xbe7b4c4c	-0.24540824
180	0x3c1256a8	0.008931793
181	0xbe0d8cb2	-0.13823202
182	0xbdb2eb18	-0.08736247
183	0x3d0dcbe7	0.034618285
184	0x3c54996c	0.012976032
185	0xbd18338e	-0.03715854
186	0xbe65265c	-0.22377914
187	0xbe2ccf96	-0.16876063
188	0xbc978904	-0.018497951
189	0x3ce24323	0.027619904
190	0xbaf8f041	-0.00189925
191	0xbc75c597	-0.015000722
192	0x39f6c72a	0.00047069165
193	0xbd8beb31	-0.068319686
194	0x3e0861b9	0.13318528
195	0xbb78c5b8	-0.0037959646
196	0xbddc9cbe	-0.10772084
197	0x3d910efa	0.07082935
198	0xbd287609	-0.041128192
199	0xbe089717	-0.13338886
200	0x3ce0a394	0.02742175
201	0xbd97a51f	-0.07404541
202	0xbd550912	-0.052010603
203	0x3cca0400	0.02466011
204	0xbe0d67c0	-0.13809109
205	0xbd7ab712	-0.061209746
206	0x3e0ddb12	0.138531
207	0xbd48815e	-0.0489515
208	0xbd187e08	-0.037229568
209	0x3e0538c8	0.13009942
210	0x3e18607c	0.14880556
211	0xbccc5fc9	-0.024948018
212	0xbd091887	-0.033470657
213	0x3d7be56f	0.0614981
214	0x3ddc9453	0.10770478
215	0xbeb9c2ad	-0.36281338
216	0xbdd754b5	-0.105142035
217	0x3dc851da	0.09781237
218	0xbded5768	-0.11588937
219	0x3ddb16c8	0.106977046
220	0x3e4933d5	0.19648679
221	0x3e221ea1	0.15831997
222	0x399c277d	0.0002978406
223	0x3d899d73	0.06719484
224	0x3cd37db3	0.025816774
225	0xbdba070c	-0.09083375
226	0xbc2ce6e8	-0.010553099
227	0x3da104b6	0.07862227
228	0xbe4636a7	-0.19356786
229	0x3de43086	0.111420676
230	0xbd811cea	-0.06304343
231	0x3e36aa74	0.1783846
232	0xbc911d53	-0.017714178
233	0xba1389d2	-0.0005628142
234	0x3ded0474	0.11573115
235	0xbe201141	-0.15631582
236	0x3e0189de	0.12650248
237	0xbe06974b	-0.13143651
238	0x3d2afbd1	0.041744057
239	0x3da143ed	0.07874284
240	0xbdc3e67d	-0.095654465
241	0x3c9c842f	0.019105999
242	0xbd984c5b	-0.07436439
243	0xbcf130c7	-0.029442204
244	0x3db3e0e2	0.08783127
245	0x3d9f6339	0.07782597
246	0x3c810aa2	0.01575214
247	0x3d2cd0a5	0.042191166
248	0xbe4914f1	-0.19636895
249	0x3da669bc	0.08125636
250	0x3e8435b5	0.25822225
251	0xbd748ca0	-0.059704423
252	0x3d13eeae	0.036116295
253	0xbcc36e0d	-0.023856187
254	0xbd9b1e8d	-0.075741865
255	0x3cf7c7b1	0.030246587

fc3.bias f4 [64]
0	0xbd96ff76	-0.07372944
1	0xbda55096	-0.08072011
2	0x3ca3d107	0.019997133
3	0x3b067f12	0.0020522517
4	0xbda75904	-0.08171275
5	0x3d166a70	0.0367226
6	0xbda9d583	-0.08292677
7	0x3c8c08f0	0.017094105
8	0xbdaab810	-0.083358884
9	0xbd254f67	-0.040358927
10	0x3d469614	0.04848297
11	0xbd275d53	-0.040860485
12	0x3d046abd	0.032328356
13	0xbd4eebbb	-0.05051778
14	0xbd18b78d	-0.037284423
15	0xbd9b0b17	-0.075704746
16	0xbd2a37d7	-0.04155716
17	0x3bfb00b3	0.0076599955
18	0x3dd14470	0.102181315
19	0x3bb35176	0.0054723574
20	0xbe00d3de	-0.12580821
21	0xbc81f89d	-0.015865618
22	0xbc1ce532	-0.009576129
23	0xbd348b72	-0.044078298
24	0x3cbb4a80	0.022862673
25	0x3d0be8e6	0.034157656
26	0x3b05844d	0.0020373047
27	0xbd97fb92	-0.0742103
28	0x3cc5b6d6	0.024135035
29	0xbd6f30b9	-0.058396075
30	0x3caf0e5d	0.021369154
31	0xbd42768a	-0.04747633
32	0xbbdb45c7	-0.0066916677
33	0xbdc31b02	-0.09526636
34	0xbda44423	-0.080208085
35	0x3d9d5355	0.0768191
36	0x3cf7dc3e	0.030256387
37	0x3d7fd060	0.06245458
38	0xbc466f4f	-0.012111499
39	0xbc34b422	-0.011029275
40	0xbd5c34f0	-0.053761423
41	0xbdc73ad2	-0.09728016
42	0x3d66c8f2	0.05634398
43	0x3d6c23df	0.057651397
44	0x3ca0e594	0.019640721
45	0x3d513b6c	0.05108206
46	0xbdba5998	-0.0909912
47	0xbc5fa482	-0.013650062
48	0x3db19678	0.08671278
49	0x3b29b70f	0.0025896465
50	0x3cd8c1dd	0.026459629
51	0x3d9c1e93	0.07623019
52	0x3cb7fd7d	0.02245974
53	0x3d224c47	0.039623525
54	0xbcf98063	-0.030456727
55	0xbd1f06b2	-0.038824745
56	0x3dd156bf	0.10221624
57	0x3b21c94f	0.002468664
58	0xbddad44a	-0.10685022
59	0x3c553ccb	0.013014982
60	0x3b069167	0.0020533444
61	0x3cc8aa0e	0.02449515
62	0x3d5c4f66	0.053786658
63	0xbdc78ad7	-0.097432785

fc4.weight f4 [2, 64]
0	0xbe5cd95d	-0.21567293
1	0xbdcc6004	-0.09979251
2	0x3ea811db	0.32826123
3	0x3e8f5c77	0.28000233
4	0x3cfc92cd	0.030831719
5	0xbe922569	-0.28544167
6	0x3e8880be	0.26660722
7	0x3e8ef005	0.27917495
8	0xbf11f912	-0.57020676
9	0xbdf9e8cd	-0.12202606
10	0xbe89a1b0	-0.2688117
11	0xbc97e712	-0.0185428
12	0x3e97e6ab	0.29668173
13	0xbe8b43f1	-0.27200273
14	0x3ed92454	0.4241053
15	0x3dae4b38	0.085104406
16	0xbec156ee	-0.37761635
17	0xbb1ed2af	-0.0024234464
18	0x3e409794	0.18807822
19	0xbe5c90e5	-0.21539648
20	0x3e23160f	0.15926383
21	0x3e066092	0.13122776
22	0x3dbb1103	0.09134104
23	0x3eafe528	0.3435452
24	0xbd6127b3	-0.0549695
25	0xbcd07ba8	-0.025449589
26	0x3ee1eaf7	0.44124576
27	0xbe023da9	-0.12718834
28	0x3c0e4b20	0.008684903
29	0x3e71e404	0.23622137
30	0xbd0e0102	-0.03466893
31	0x3d3f7028	0.04673782
32	0x3e8a3e77	0.27000782
33	0xbe6d940b	-0.23201005
34	0xbebe0b41	-0.3711796
35	0x3e15d280	0.1463108
36	0x3edc0e2a	0.42979556
37	0x3e17ca24	0.14823204
38	0xbdfcc266	-0.12341766
39	0x3e268ce0	0.16264677
40	0xbecbd656	-0.39811963
41	0xbe8a125f	-0.2696714
42	0x3d41a7a0	0.047279
43	0xbe226b25	-0.15861185
44	0x3e8a45c6	0.27006358
45	0x3d3612a6	0.04445138
46	0xbebea4aa	-0.37235004
47	0xbdd4890a	-0.103777006
48	0xbcfa2c59	-0.030538725
49	0xbf06282a	-0.52405035
50	0xbf08ab4a	-0.53386366
51	0x3e8faf9d	0.2806367
52	0x3f110d5f	0.5666103
53	0xbeb474f5	-0.3524548
54	0x3e72cebf	0.2371168
55	0x3e4a79d5	0.19773038
56	0x3dc73737	0.09727328
57	0xbe80eaeb	-0.25179228
58	0xbdae4630	-0.08509481
59	0xbda4b038	-0.080414236
60	0xbe8e7681	-0.27824786
61	0x3e5ccdfa	0.21562949
62	0xbf1c7519	-0.61116177
63	0xbe808771	-0.25103334
64	0x3e7d3568	0.24727404
65	0x3e80d597	0.25162956
66	0xbe26d8a0	-0.16293573
67	0x3df782a7	0.12085467
68	0x3e710f6e	0.23541042
69	0xbe72c2a6	-0.23707065
70	0xbe47b7f4	-0.19503766
71	0xbf27e494	-0.6558316
72	0x3ebadac2	0.36495024
73	0x3dce0ab8	0.10060638
74	0xbea5d31d	-0.3238763
75	0x3dc6cd5d	0.09707139
76	0xbd1a171f	-0.037619706
77	0xbba045c7	-0.0048911306
78	0xbeb2e9ab	-0.349439
79	0xbca8652d	-0.020556057
80	0xbef162b7	-0.47145626
81	0x3eabf480	0.33584976
82	0xbe0fc7c6	-0.14041051
83	0xbeb7ea7c	-0.35921085
84	0x3efeb830	0.497499
85	0x3ebb3cad	0.3656973
86	0xbef1a919	-0.47199324
87	0xbd13c244	-0.036073938
88	0x3e6c8214	0.23096496
89	0xbf0b73aa	-0.54473364
90	0x3e2bda1e	0.16782424
91	0x3a7cf372	0.0009649313
92	0x3f0e6be5	0.55633384
93	0xbd0e933f	-0.034808394
94	0x3f096976	0.53676546
95	0x3bbe30cb	0.0058041564
96	0xbe9b6f8d	-0.30358544
97	0xbce46375	-0.027879456
98	0xbd849ded	-0.064754345
99	0x3df1a2b3	0.117986105
100	0x3ef945ec	0.4868616
101	0xbf2164d0	-0.6304445
102	0x3e805e2f	0.25071856
103	0x3d10c442	0.035343416
104	0xbe062357	-0.13099419
105	0xbe835912	-0.25653893
106	0x3cb6120a	0.022225399
107	0x3e2a8604	0.16652685
108	0x3ed02d93	0.4065977
109	0xbf3335d7	-0.7000403
110	0xbeb42c1c	-0.35189903
111	0x3d90eb30	0.070761085
112	0xbec69968	-0.38788915
113	0x3eb43a3b	0.35200676
114	0x3cbcff98	0.023071095
115	0xbdc7d30e	-0.09757052
116	0xbe644ce3	-0.22294955
117	0xbe2ab77f	-0.1667156
118	0x3dd676f7	0.104719095
119	0xbd4a9d3d	-0.04946636
120	0x3e335c9c	0.17515796
121	0xbec83bcf	-0.3910813
122	0x3e12760c	0.14302844
123	0x3e3dad05	0.18523033
124	0xbe3062b8	-0.17225158
125	0xbd0f3fe8	-0.034973055
126	0xbd9dbfcd	-0.07702599
127	0xbe307b7b	-0.17234604

fc4.bias f4 [2]
0	0xbbb6befe	-0.0055769673
1	0xbe2238aa	-0.15841928
