checkpoints/Computer1-0-checkpoint-1.3992-actor.pth (torch, 193711 bytes, 8 tensors)

fc1.weight f4 [256, 24]
00000000: e37c b5bd dd10 803e 147a b23c a71a 56bd
00000010: 277a 3b3d 759a a9be 53c7 153e 06d8 773e
00000020: 746a 303d 01b8 11be 286d a1bd 723e 1cbe
00000030: 40f6 a73c 1a13 14be 88bb a33d 44e6 5cbe
00000040: fad5 9cbd 3ec1 bcbc 247e 34be 44f9 f5bd
00000050: 38d6 ddbd 2e3b 40bd c526 20bc 8792 4cbd
00000060: 3264 833d e8d9 703e 828b 413d 786c 563d
00000070: c589 06be d743 373e d8a9 e83d 7602 3cbe
00000080: 4a40 39bd e82f 9abd a7b4 65bd 6760 083d
00000090: 59f6 48bd 957d a73d 1875 863d 9812 6d3c
000000a0: c989 0b3e 4014 043e 4c50 1dbe df06 de3c
000000b0: 3c78 573e 3443 cfbd 06b1 e4bd f25c 82be
000000c0: 44ed 5f3e c863 47bd 5e5e 32be e955 1ebc
000000d0: d6c1 f0bd 4eba bd3c 6c31 49bd 8481 b4bc
000000e0: 9374 04be fbdf 5abe 9c0a 1f3d 6332 c6bd
000000f0: b405 033e 274b 05be 6ad7 8abd 50ff 75be
00000100: a0f1 313d fd7f ebbd 749d 3ebd df8f 463e
00000110: f5e8 c63e 2401 46be 1a64 cb3d dcb2 633e
00000120: 592e d03d a7c0 75be eee3 9ebd 6e12 a63e
00000130: 678e 7b3d ec31 4bbe dd4c 19be 52c5 923e
00000140: d5ce 093e 25f3 ebbe 9e39 88bd 266c 443e
00000150: 5850 d83c 6262 ecbd 450e 12be f2e7 02bd
00000160: d378 833d 8221 c0be ac33 03be d161 fabd
00000170: 4c54 61bd 4178 a2be 591e 0abe d863 883d
00000180: 0edf cabc aab7 20be 34dc d1bd 6af5 d6bb
00000190: 97d0 abbe f516 1abe 6f32 0bbd d110 2cbe
000001a0: 9cf0 813d f3a7 51bd 7a53 15be 439d 943e
000001b0: a8a3 89be d546 08be f495 c5bd 65b5 9f3e
000001c0: 07d2 9bbc c441 39bd fe19 14be 521f 833e
000001d0: 3937 e6bd bd28 1a3e 9d30 2abc 760c 6c3c
000001e0: 8c9c 23be 01ec d7bd 4a19 1dbe 9d39 77bc
000001f0: 1867 08be eb66 703e 8bd4 7e3b 762f ad3d
00000200: 5c2b 85bd f8eb ed3d 5397 0a3e 3d82 273e
00000210: 8399 f13c bf15 9e3e 3e33 1bbe 8f6b 1dbd
00000220: c2aa 7b3e 425b c43d 57e4 90bd 1384 2c3e
00000230: d9cd 803e 3d13 813e 7a31 333d f957 e1bd
00000240: 60fd 36be 8139 4e3e bdfa 86bd f3fe 5c3c
00000250: 81fa 863e 2a3d 47be 0007 483d 1ea5 7b3e
00000260: fe7c cc3b b754 1e3e e278 91bd e5eb b23c
00000270: d601 083e 5989 8f3a 8fc1 113c 48af 0dbe
00000280: 9009 8cbd a75f a13e 0ed3 d9bd 5a0a 81be
00000290: 4ade 6ebe 6527 85be 64d2 173e fe6b 93be
000002a0: e700 7a3d e4f2 d13d 7edc d0bd 387b b63d
000002b0: 4f65 3c3e c831 7a3e 9fe4 d43d 42aa 2d3e
000002c0: 382d 02be dc54 20be 9e3f cabc 4c67 b9bc
000002d0: 491b b4bd 5a74 383e 412e cd3d 799f 813d
000002e0: cbc9 8e3a c8f4 a43d 22fc b7bc 930a 20be
000002f0: 1230 c2be e7a2 313e 113e 743d 359e 0bbe
00000300: 6930 42be 4e93 b13d 457f 693d bd52 963e
00000310: 6672 f4bd 97fa 25be dad9 5cbd 61eb 803e
00000320: 228b d03c 3a88 aabd ad22 0fbe 66c7 0a3e
00000330: 4e2f 3c3e 6932 73bd 4100 09be 3408 28be
00000340: 88d8 ffbd 3db9 543e d48b 6bbe 90ac 81be
00000350: 0fb4 943d f5a9 cdbe fafc dfbd d824 8bbe
00000360: 7c2d c93d 780a 89be fc85 cdbd d6aa cabd
00000370: 523d 873e fc85 a03d 2775 7c3d 8a46 39be
00000380: 4683 b1bd 3c66 6d3d dc06 f63c e502 1e3d
00000390: bb87 673e 8f26 103c e067 6bbd 947b b9bd
000003a0: 386c 3fbd 4192 0cbe de73 23be 5f70 b93c
000003b0: f1e7 85bd cf2b 833e d9db 04be 1b46 3c3a
000003c0: c2f4 233e 8b62 95bb 8c66 1dbd ac69 2dbe
000003d0: bf4a 07be 21d5 4cbc c7e7 19be 7177 33be
000003e0: 7f1a eebb 99f3 00be 7d79 28bd 2d41 d7bd
000003f0: b1a8 0f3e a07c 6f3e 9242 92bc 7e40 cb3d
-0.08861711 0.25012866 0.021786727 -0.05227151 0.04577079 -0.33125654 0.14626817 0.242035
0.04307027 -0.14230348 -0.07882148 -0.15258196 0.020503163 -0.14460412 0.07994753 -0.21572214
-0.07658 -0.023041364 -0.17626244 -0.12010434 -0.108318746 -0.04693144 -0.009774868 -0.049944427
0.06415595 0.23520625 0.047252186 0.052349538 -0.13138492 0.17896973 0.1136052 -0.18360314
-0.045227326 -0.07528669 -0.056080487 0.03329506 -0.04906306 0.0817825 0.065653026 0.014469765
0.1362678 0.1289835 -0.15362662 0.027102886 0.2104196 -0.1012024 -0.11166577 -0.25461537
0.21867853 -0.048679143 -0.1741881 -0.009664037 -0.11755721 0.023160126 -0.049119398 -0.022034414
-0.12935095 -0.21374504 0.038828477 -0.09677579 0.12795144 -0.1301695 -0.06779368 -0.24023175
0.043443322 -0.11499021 -0.046536878 0.1939082 0.38849607 -0.19336373 0.09931202 0.22236198
0.1016509 -0.23999272 -0.07758318 0.32435936 0.061415102 -0.19843262 -0.14970727 0.28666168
0.13457806 -0.46083942 -0.066516146 0.1918188 0.026405498 -0.115422025 -0.14263256 -0.03195948
0.0641953 -0.37525564 -0.1281268 -0.12225688 -0.055012032 -0.3173237 -0.13488139 0.06659669
-0.024764564 -0.15695062 -0.102470785 -0.0065600174 -0.3355758 -0.1504782 -0.033983644 -0.1680329
0.06344721 -0.05118556 -0.14582625 0.2902623 -0.26882672 -0.1330827 -0.09647742 0.3119308
-0.019021047 -0.045228735 -0.1446304 0.25609833 -0.11241002 0.15054603 -0.010387567 0.014407268
-0.15977687 -0.10543061 -0.15341678 -0.01508942 -0.13320577 0.2347676 0.003888401 0.08456318
-0.06502411 0.11617273 0.13534288 0.16358276 0.029492145 0.30875966 -0.15156266 -0.038432654
0.24576858 0.095877185 -0.07074802 0.16847257 0.2515705 0.2520999 0.043748356 -0.110031076
-0.17870092 0.20139123 -0.06590793 0.013488519 0.26362994 -0.19456926 0.0488348 0.24574706
0.006240486 0.15462004 -0.07103135 0.021840999 0.1328195 0.0010950967 0.008896246 -0.13836396
-0.068377614 0.3151829 -0.106359586 -0.2520321 -0.23326984 -0.26006618 0.14826351 -0.2879333
0.061036017 0.10251406 -0.101983055 0.08910221 0.18398021 0.24433053 0.103951685 0.1695948
-0.12712562 -0.15657371 -0.024688538 -0.022632264 -0.08794267 0.18013135 0.10018588 0.06329245
0.0010893879 0.08054501 -0.022459093 -0.15629034 -0.379273 0.17347299 0.059629504 -0.1363457
-0.1896378 0.08670674 0.05700614 0.2936 -0.11935882 -0.16208874 -0.053918697 0.2517958
0.025456969 -0.083267644 -0.13978072 0.13552627 0.1837742 -0.059374247 -0.13379003 -0.16409379
-0.12492472 0.20773788 -0.23002559 -0.25326967 0.07260906 -0.4016873 -0.10936923 -0.27176547
0.098231286 -0.267658 -0.10035321 -0.098958656 0.2641397 0.078380555 0.061635163 -0.18093315
-0.086676165 0.057958826 0.030032568 0.03857698 0.22610371 0.008798256 -0.05747211 -0.09056774
-0.046734065 -0.13727666 -0.15962169 0.02263659 -0.0653838 0.2561936 -0.1297449 0.00071820774
0.16011336 -0.0045588664 -0.038427874 -0.16934842 -0.13212107 -0.012501986 -0.15029822 -0.17526032
-0.007266342 -0.12592925 -0.041131485 -0.10510478 0.14029194 0.23387384 -0.017854009 0.0992441

fc1.bias f4 [256]
00000000: 05d7 27be 16ec a73d 8f90 79be b25e 6dbc
00000010: 7ddb 48be 0923 f33c d0cd 613e 7ef2 4f3c
00000020: b906 fd3d b282 673d 3479 6f3d b9be b3bb
00000030: e03f 72be c96d 02be dc6e 383e b963 c5bd
00000040: 1806 543e 5cff 35bd 8ade 90bd 41d5 9cbd
00000050: 1a95 af3d 2e1e f33d f749 bebd 361b 123e
00000060: 77c1 1e3c 41d8 6abd 03f3 3a3d 71dd 92be
00000070: 3654 dc3d 2598 7ebd b6e4 2f3d 818b f4bd
00000080: 405c 9d3b 0dc5 123d 3702 1abe 24e8 a9bd
00000090: e6c5 02be 37a5 abbc d7fe 653e a107 2bbd
000000a0: f589 75be f0b4 993d 4161 19bc bacf 43be
000000b0: 304b 93be 66f2 d33d 8f9e ff3d 1b73 84bd
000000c0: b42c c5bd 989b f5bd 64f2 033d 7b6e 98bd
000000d0: 79ce 14bd 6a08 ffbd 160b 39bd 052f 733d
000000e0: c4ce 243e 21c9 b2bd c344 40bc 2a2d 803d
000000f0: 83b9 f4bb 12dc 533e 7c00 cb3c b00b 033e
00000100: d684 f0bb 79ca db3d 0c0a d73c 5924 2c3c
00000110: bb97 17be 14fa 54be 71fd 87be 8087 b53d
00000120: 4f32 793d c91a 45be 4d44 5e3c 2a9d 3a3e
00000130: c7dc aabd 4abc d7bd 9eb8 4bbd f7d1 28be
00000140: e9f6 42be 5ed0 403e 2396 b53d d38a 28be
00000150: d9a6 6dbe 8448 383d 27d2 bb3d a376 033e
00000160: 3b6f d1bc b160 933a da0a 16bd 505e ee3c
00000170: fba8 b13d 870c 023e c520 46bd 09a9 5e3d
00000180: e003 273e cc0b 343e 6925 a1bd 93a0 08bb
00000190: 2a20 d23d 9f41 a33d 1f31 9fbc e8b3 00be
000001a0: a890 88bd 76a4 4f3e 6275 12be e2c7 76bd
000001b0: ee51 1dbe 9474 4dbe deba 70be 4350 0abe
000001c0: c72b 1a3e fcaf 14bd 0565 c9bd 0cba 7e3c
000001d0: 81f5 b63d 8afd f13c 1990 263d 7c5b 6ebe
000001e0: 3316 81bd e671 81bc 0178 cb3b 6358 45be
000001f0: a643 68bd 2c03 5f3e ab89 92be 6688 1fbe
00000200: 9658 40bd 89dd d6bc 3bfa 153e 0086 463e
00000210: 90da 313d 6628 14be a050 293e f1a9 373d
00000220: 31a5 f33d 2add 273e d68a 55bb d746 5abe
00000230: 070e ca3d baef 46be c7a8 143e 7983 3a3e
00000240: 14b9 0ebe fdf6 463e 087b 1dbe 8d07 29be
00000250: 036b 173c 4cee 9fbd 8378 093e 9c9d cb3d
00000260: 8763 21be 4957 a5bd 006f 153e da52 dcbd
00000270: 2051 2fbc 5330 1d3d 8ea4 10be 60c0 d43d
00000280: 82da d73d 1ae6 1a3a c691 e63c 4deb b7bd
00000290: e675 80bd 8e1d 6e3e 90f3 b8bd 5674 45bd
000002a0: 70fa 68be 3e65 49be ad0d 16bc 3846 49be
000002b0: 1f13 bbbb 0bae d9bd 485d cabd 5779 15bb
000002c0: 906f e1bd d8ad 83be 067a e2bb 39c2 c43d
000002d0: 4435 42be 3972 a8bd 0832 bdbc 4603 b73d
000002e0: b835 cabd b767 103e 367e dcbd 59c4 063d
000002f0: ac53 8cbc c201 d43d 7e58 fcbb b6aa 4ebe
00000300: 0db9 233a 1f9d d93d ee3d 69bd 72b9 51be
00000310: 47e6 2cbe b9f4 37be baf8 17be 770d ccba
00000320: b175 c7bd 76e8 c7bd 8fda ebbd f3b8 e63d
00000330: 5833 a6bd 67a7 cf3d 5367 25be df8e 95bc
00000340: 5c62 4abe 9df4 94be 3a9a 933d 7b19 973d
00000350: a80b 523d 33d8 00bd b365 163e 4bed 40be
00000360: 2234 1bbe 5dae 1ebd ab87 083e 247b 4fbe
00000370: 31af e03d ca57 5c3e 2367 643e 0e1b 56be
00000380: 4fd7 363e 9891 813d ea75 b33d bc9c 41bd
00000390: 386c 96bb 614b 4e3c c779 84be 4c65 a3bd
000003a0: f5df 633e 2b77 593e 1a35 043e c576 82be
000003b0: 3fb2 4ebd 1323 703e a612 b63d 3432 8abe
000003c0: cdff 30bd f00a f93d cd31 903d cbde 043e
000003d0: e72a a1bd f22c 3ebe c89e bdbd 814c fa3d
000003e0: e3bd 673d 58ce fabd 73ea cc3c 12d5 e6bd
000003f0: 9b14 203d 8947 d4bc 9478 023e 0457 33bd
-0.16390617 0.08199327 -0.24371551 -0.014487909 -0.19614978 0.029679792 0.22051167 0.012692092
0.12354798 0.056521125 0.058465198 -0.0054853824 -0.23657179 -0.12737192 0.1801104 -0.09638161
0.2070545 -0.044432983 -0.07073696 -0.076578625 0.08573361 0.11870991 -0.092914514 0.14268193
0.00968968 -0.057335142 0.04564191 -0.2868457 0.107582495 -0.062156815 0.042942725 -0.11940671
0.004802257 0.035832454 -0.15039907 -0.082962304 -0.12770805 -0.020952804 0.22460495 -0.041755322
-0.23978408 0.07505214 -0.009361566 -0.1912221 -0.287683 0.10348968 0.124814145 -0.06467267
-0.09627667 -0.11992568 0.032213584 -0.074429475 -0.03632972 -0.12452777 -0.045176588 0.059371013
0.160945 -0.087297685 -0.011735144 0.06258614 -0.007468404 0.20689419 0.024780504 0.12797427
-0.007340054 0.10731978 0.026249908 0.010506713 -0.14803974 -0.20798522 -0.26560548 0.08863735
0.060838994 -0.19248499 0.013566089 0.18224016 -0.08342891 -0.1053396 -0.04973661 -0.16486345
-0.19039501 0.18829486 0.08866527 -0.16459207 -0.23208179 0.04499103 0.09170943 0.12838225
-0.025565734 0.0011244026 -0.036631443 0.029097706 0.086748086 0.12700091 -0.048371095 0.054360423
0.16310072 0.17582625 -0.078684635 -0.0020847663 0.10260041 0.079715006 -0.019432602 -0.12568629
-0.06668216 0.2027758 -0.1430259 -0.060249217 -0.15363285 -0.20064002 -0.23508784 -0.1350718
0.15055762 -0.036300644 -0.09833721 0.015547287 0.08933545 0.029539842 0.040664766 -0.23277086
-0.06303062 -0.015801381 0.006209374 -0.19271998 -0.05670514 0.21778554 -0.28620657 -0.15579376
-0.046959482 -0.026228683 0.14646237 0.19387054 0.043421328 -0.14468536 0.16534662 0.044839803
0.11896742 0.16392961 -0.0032583973 -0.21316086 0.09865957 -0.19427386 0.14517508 0.18214215
-0.13937789 0.19430156 -0.15378964 -0.16506787 0.009241822 -0.078091234 0.13424878 0.09942171
-0.15760623 -0.08073289 0.14593124 -0.1075799 -0.010700494 0.038376164 -0.14125273 0.10388255
0.10539724 0.00059089216 0.028145682 -0.08980427 -0.06272487 0.23253462 -0.09030831 -0.04820665
-0.22751784 -0.19667527 -0.009158534 -0.19655693 -0.0057090665 -0.10628899 -0.09881073 -0.002280792
-0.11007607 -0.2571857 -0.006911519 0.096073575 -0.18965632 -0.08224911 -0.023095146 0.08936171
-0.09873527 0.14102064 -0.1076626 0.032902095 -0.017129742 0.10351898 -0.007700979 -0.20182309
0.0006245531 0.106256716 -0.056943826 -0.20480898 -0.16884719 -0.17964448 -0.14840975 -0.0015567978
-0.09739245 -0.09761135 -0.11516296 0.11265745 -0.08115262 0.10139351 -0.16152696 -0.018256603
-0.19764084 -0.29092875 0.07207151 0.07377907 0.051280648 -0.031456184 0.14687233 -0.1884052
-0.15156606 -0.038740505 0.13333003 -0.20261818 0.10970915 0.21517864 0.22304969 -0.20908758
0.17855571 0.06326598 0.08762725 -0.047268614 -0.0045905374 0.012591214 -0.2587416 -0.07978305
0.22253402 0.21236865 0.12910882 -0.2548124 -0.050462957 0.2345088 0.08890276 -0.26991427
-0.0432127 0.12160289 0.07040749 0.12975614 -0.07869511 -0.18571833 -0.09258801 0.12221623
0.056577574 -0.12246388 0.025014138 -0.11271109 0.03908215 -0.025913017 0.1274131 -0.043784156

fc2.weight f4 [128, 256]
00000000: 50bd 403b 88a4 893c d1d5 ba3d dd0a 10be
00000010: 5612 5cbe 1b28 fdbc b0bd d93d e9fa 2a3c
00000020: 57c4 edbc 2922 a43d cc49 883d 0918 913c
00000030: c932 7b3b dfa0 053e 4a38 4b3d a53a 02be
00000040: 11bd 223d 6615 79bc ca86 b73d 2208 92bc
00000050: 7550 53bd 67fc d53d 082a 98bd 6ebf cc3d
00000060: c78f 25bd b589 47be 7789 bebd a4f7 ebbc
00000070: 0deb f3bd 4b05 833d 53d7 87bd 1ca2 cd3c
00000080: 7280 8dbe bd2d 6dbd f135 b3bc 4448 8e3d
00000090: 3e85 6cbc 5f70 f13c 5c4d d63d 0c98 11be
000000a0: 0655 f5ba 2f9c 693d b7ed d0bb ebcd 0dbe
000000b0: 9954 d93d c880 cabd c466 c83d da15 ee3d
000000c0: c723 76be 8dc1 dbbd c81d 873d 8553 403d
000000d0: 7003 47be 0cb9 473c aa3c ac3d 3935 42bd
000000e0: bf82 7f3c 672a d13d 6459 c83d d58e ea3d
000000f0: bf5c e93d 6b04 d6bc 2a09 28bd 9cc7 2c3c
00000100: 0cc4 f1bb 316d 8fbc 2c18 fe3d 5d13 ebbd
00000110: 932e 593c 2218 adbd 3f21 eabc ae9b 79bd
00000120: f340 88bd 9f3e 8f3d 9b35 13be ed2d 2fbe
00000130: b498 083c c94e a93d c1a3 713d e88d 4bba
00000140: f3bf 79bd 79bb c23d b842 623d 1433 0a3c
00000150: 4105 843d aee3 a9bd e7b4 07be 120e bcbd
00000160: 754a 093d 54e2 96bb c582 8f3d faae c43c
00000170: bcea aabc 1582 ac3d 503c a5bd bba1 4b3c
00000180: 5db1 173e bfbc 92bc 93e1 d6bc d99e c23d
00000190: 8f5c 04be 593c 47bd c7f3 cbbc 81ee 813b
000001a0: c219 0ebd d643 b73d af5e ebbc a8f9 98bd
000001b0: 56b7 193e 816b a6bb b8d8 bd3d 8b04 c0bd
000001c0: 432f b5bc 2eda 013c e65b 253d 3a07 833d
000001d0: 45e9 5e3e 8af9 0bbd 93f9 653d a447 63bd
000001e0: b27e 993d 7cb5 033c 56f5 bf3d 3eb7 6cbd
000001f0: f099 873d 918a 273d a98f 093d 37a3 8b3c
00000200: f526 fdbd c9fa 1bbe ebc8 9e3d 64da a5bc
00000210: 1447 f2bc fec2 d9bc 5deb a63d c8bb 6a3d
00000220: bcbe 773c e828 333e 3c11 73bd 1f08 32bd
00000230: 23ce 5b3d 4d91 d43d 9189 cfbd 899b 9abc
00000240: d017 303d ba92 6bbc 17e2 a13d 9730 01be
00000250: 147f eb3c dfe1 813c df92 debe 6a5b 0f3d
00000260: 5c92 5b3d 2356 813d aa97 403d 7e94 0c3e
00000270: de19 a33d b12e 3d3e dccc 1cbe c2fa 6d3d
00000280: 06b4 5abe e7ff 60be c3da a23d dce5 b63c
00000290: 15ff ca3d be81 3d3d 5f7c a9bd 0395 293d
000002a0: 5316 e1bc 6386 b9bd 9862 9ebe 86ca ee3d
000002b0: 36e1 5dbd a623 243e 6804 1e3d cd85 a13d
000002c0: 370e 803c 383d 5fbe 8ae6 05be fcef 813d
000002d0: 853d 7ebd 0ecf ea3d dd3b a83d 750b 333c
000002e0: a141 243e 5793 1abd 675a 4e3d 39f8 97bb
000002f0: 844e b33b d0f7 873d a65f c5bc cd86 c1bd
00000300: 0aac 223c 9fe2 f13d 987f c8bd 9259 45be
00000310: fc38 4ebd 2ffb 7ebd 16ee 22bd 478f 4f3d
00000320: 9232 133d 193c 98bc 19d6 783d aa41 1abb
00000330: 8290 03be e7ec 7d3b 9044 2bbd fb51 85be
00000340: 94b0 acbd 589c c5bd f7bc 6d3d 5f50 1c3d
00000350: 5236 363c 279c f9bb 64f0 033c c21b 013d
00000360: 2508 a0bc 8506 dfbd e25d 983d f8c6 58bc
00000370: c7ed 0ebd f7b3 e13d 2deb f63c 5820 3a3d
00000380: 821e 113d 4133 4bbd c35f e83b fb41 133c
00000390: 7283 f1bd 5317 11be 20e1 abbd 0e89 5bbd
000003a0: 6b9b c0bd 16d3 053d 5dc7 79bd 993a 593a
000003b0: 5931 37bd cf6b 643d 6ee0 7b3d f6d2 22bd
000003c0: 06f3 043d da53 343d b52d 58bc 4be5 0cbd
000003d0: 40b5 273e b8c6 c03c 06e2 023e e13c e23d
000003e0: de93 93bd 46c3 113d 11b0 5f3e 37c7 c1bc
000003f0: 81a9 0c3d 72bb 47bd 8cfc 013b f594 483d
0.0029409714 0.016802087 0.091228135 -0.14066644 -0.2149137 -0.030902913 0.10631883 0.010435798
-0.029024286 0.08014328 0.06654701 0.017711656 0.003832983 0.13049649 0.04961423 -0.12717684
0.03973109 -0.015202856 0.08961256 -0.017826144 -0.0515904 0.104485326 -0.07429892 0.0999745
-0.04042032 -0.19486125 -0.09303563 -0.028804608 -0.11910067 0.06397494 -0.06632867 0.025101714
-0.27637058 -0.057904948 -0.021876307 0.06947377 -0.014436064 0.029472528 0.10463974 -0.14218158
-0.0018717356 0.057033714 -0.006375994 -0.13848083 0.10611839 -0.09887844 0.09785226 0.116252616
-0.24037085 -0.10730276 0.06597477 0.04695465 -0.19434905 0.012190115 0.08410008 -0.04741404
0.015595137 0.10213166 0.09782675 0.11453024 0.11394643 -0.026125154 -0.041024365 0.010545637
-0.007378107 -0.017508121 0.12406954 -0.11478303 0.013255733 -0.084518686 -0.028580306 -0.060939483
-0.06653013 0.06994366 -0.14375918 -0.17107363 0.0083371885 0.0826698 0.05899406 -0.0007764981
-0.060974073 0.09508414 0.05523941 0.00843503 0.064463146 -0.082953796 -0.13252603 -0.09182371
0.033518273 -0.004604617 0.07007364 0.024009217 -0.020863883 0.08423249 -0.08068144 0.012428696
0.14813752 -0.017912267 -0.026230609 0.09502954 -0.12925933 -0.048641536 -0.024896516 0.0039651995
-0.034692533 0.089484856 -0.028731672 -0.07469493 0.15011343 -0.0050787334 0.092698514 -0.093758665
-0.022117263 0.007925553 0.040370844 0.06397863 0.21768673 -0.034173526 0.056146216 -0.055488244
0.07494868 0.008038875 0.09372966 -0.05779194 0.06621158 0.04090363 0.03358427 0.0170456
-0.12360946 -0.15232386 0.07753166 -0.020245738 -0.029574908 -0.026582237 0.08150361 0.05730799
0.015121158 0.17496073 -0.059342608 -0.043464776 0.053663384 0.103792764 -0.101336606 -0.018872993
0.04299146 -0.014378244 0.07904451 -0.12616192 0.028747119 0.015854774 -0.4347143 0.03499929
0.053606376 0.063152574 0.047019638 0.1372852 0.07963918 0.18474843 -0.15312523 0.05810047
-0.21357736 -0.21972619 0.07951882 0.022326402 0.09911934 0.04626631 -0.08275675 0.041401874
-0.027476465 -0.09058835 -0.30934596 0.11659722 -0.054169856 0.16029224 0.03857842 0.078868486
0.015631778 -0.21800697 -0.13076225 0.063446015 -0.06207039 0.11465274 0.08214543 0.010928025
0.1604066 -0.03773817 0.050379183 -0.0046377447 0.0054720063 0.06639063 -0.02409346 -0.09449539
0.009928713 0.11810803 -0.097899616 -0.1927245 -0.050347313 -0.062251266 -0.039777838 0.05067375
0.0359369 -0.018583344 0.060751054 -0.0023537674 -0.12848094 0.003874594 -0.041813433 -0.2603911
-0.08432117 -0.09648961 0.05804154 0.038162585 0.011121349 -0.0076174918 0.008052919 0.031520613
-0.019535134 -0.108899154 0.07439782 -0.013231032 -0.03489473 0.11020654 0.030141437 0.045441
0.035429485 -0.049609426 0.007091494 0.008987899 -0.11792649 -0.14169054 -0.083925486 -0.053597502
-0.094046436 0.03267201 -0.060981143 0.0008286625 -0.044724796 0.055766877 0.06149333 -0.03975197
0.032458328 0.04402528 -0.013194491 -0.03439836 0.16377735 0.023532256 0.12781534 0.11046768
-0.07205938 0.035586618 0.21844508 -0.023654563 0.03434134 -0.048762746 0.0019834368 0.04897018

fc2.bias f4 [128]
00000000: 5d4f 9b3d be1e 893c b557 26bd cba1 803d
00000010: e2d9 b6bb 196d 733d 3ec7 06bd 483c b93b
00000020: 48f4 f23c cd0e adbd a93c 023c b0db 51bd
00000030: d305 7cbd 9a9b 9e3d a8d8 11bd 658c 27bc
00000040: 5e44 803d 421f e9bc c182 9abc 2602 c33d
00000050: 1048 0d3d 1c4d ed3c 8915 92bd 9317 05bd
00000060: 6eae a73c fd6b 2cbd e56d dabc 1aaf f9bc
00000070: 8e1f 93ba 2ef6 ca3c 5138 9abc 75d8 2e3c
00000080: 9de2 233d fcf9 aebd 9cdc 4ebd bb5b 1a3d
00000090: d0f2 27bc 3049 4dbd bed3 d1bc 3f10 2cbb
000000a0: 1d14 63bd 232e 3b3d 2c30 ba3c 16e5 163d
000000b0: 0a90 c7bd 19e7 6fbc a698 7f3d e16b 663c
000000c0: 22e6 3e3c 3f5c 403a cc5a 36bd c7be 0c3d
000000d0: 4254 bbbd 77ce 583c c006 463c 12f5 f7bd
000000e0: 421d 0abd e232 73bc d0e6 e33c 8d48 12bd
000000f0: 6d11 513d 4928 bd3b cc37 f4bc c5a8 653d
00000100: 0aee 04bc 0b54 63bd 9191 9bbc 1ad4 1cbd
00000110: 2795 093e 43d4 f7bb 7a46 de3c 2df1 10bd
00000120: d976 70bd 9350 273b 238e 27bd a134 6ebd
00000130: df75 833d a697 20bd 663c 89bd a006 843d
00000140: f175 0b3d ab2d 1fbd 0d76 1dbd c22a d93c
00000150: 5d28 7fbc a9f8 4fbd 371f 3b3c 1f08 48bd
00000160: 0829 d1bc 4060 863d 65e2 d93c 602e babd
00000170: 8ee9 e13c b4b4 b93c 84f8 b6bc bb1b 633d
00000180: d357 adbc 7a2d 42bd f8d5 28bd e039 943d
00000190: a8e0 91bd 2aed 51bd 3070 943c 1515 713c
000001a0: 5c42 8ebd 89bb 37bd 1636 3e3d 1e17 95bd
000001b0: c01e 123d 485c fa3c 81ba 6c3d 6b42 023c
000001c0: 79ac 9dbd 83b8 893d f1dc 093d ea46 063d
000001d0: 3569 8c3c b8e3 09bd 3210 0ebd 2e26 febc
000001e0: 8fe3 9bbd 9d69 41bc 5300 c7bc 173c de3c
000001f0: ba8c 5f3d f9af b5bc 8119 963c ba7c 513d
0.07583497 0.016738292 -0.040610988 0.062808596 -0.005580173 0.059430216 -0.032904856 0.005652938
0.029657498 -0.08450089 0.007949033 -0.0512349 -0.061528992 0.077445224 -0.03560701 -0.010226344
0.0626304 -0.028457288 -0.018861176 0.09521894 0.034492552 0.028967433 -0.07133014 -0.032493185
0.020468917 -0.042095173 -0.02666373 -0.030479003 -0.0011224614 0.02477559 -0.018825682 0.010671725
0.040011037 -0.085437745 -0.05050336 0.037685137 -0.010250762 -0.050118625 -0.025613662 -0.00262548
-0.055439103 0.045698296 0.022728048 0.036839567 -0.0974427 -0.0146425 0.062401436 0.014063806
0.011651548 0.00073379645 -0.044520184 0.034361627 -0.0914693 0.013232819 0.01208657 -0.1210729
-0.03371931 -0.014843674 0.02782002 -0.03571372 0.05104201 0.0057726246 -0.029811762 0.056069154
-0.008113394 -0.05550007 -0.01899031 -0.038288213 0.13435803 -0.0075631454 0.027133215 -0.035386253
-0.058707092 0.0025530204 -0.040907037 -0.05815566 0.064189665 -0.039207123 -0.06700973 0.06446576
0.034048025 -0.03886191 -0.03844266 0.026509646 -0.015573588 -0.05077425 0.011421016 -0.04883587
-0.02553226 0.06561327 0.026597211 -0.090908766 0.027577188 0.022669174 -0.022335298 0.055446368
-0.021160042 -0.04740665 -0.04121968 0.07237601 -0.07122928 -0.051251568 0.018119901 0.014714499
-0.06946251 -0.04485658 0.0464383 -0.072798 0.035673857 0.030561581 0.05779505 0.007950406
-0.07698912 0.06724646 0.03365797 0.032782473 0.01714001 -0.033664435 -0.034683414 -0.031024065
-0.07611763 -0.011804965 -0.024292147 0.027128262 0.054577567 -0.022178637 0.018322708 0.05114434

fc3.weight f4 [64, 128]
00000000: b2e3 093d d56f 933d e661 123e bc4d f5be
00000010: 102d 1dbe a941 833d fe6d 1a3e c94b ffbd
00000020: 2a79 f4bd 816c 7ebe 901e fd3c 40e1 743d
00000030: 43e7 c73d 228e 10bd 0b49 87bd 095c 243e
00000040: 7996 29bd 6eb3 843d 1182 08bc 4bd3 92bd
00000050: 9f9d d4be 76ae a1bd d2dd 6a3d 099e 2abd
00000060: 58ca e43d d46d 863c add5 b8bd 975c 9abe
00000070: 61ee 8e3d 6242 3cbe 8fb9 063d 8ab5 34be
00000080: 85fc 6d3c ba89 4dbc 2445 863d 2bd0 c5be
00000090: a64f e9bc afd1 12bd 650d a1bc 8ba9 9b3d
000000a0: dd40 bcbd 23b1 0c3e 3080 13be 4967 fd3d
000000b0: 28a5 c6be a1bd 263e cae6 b7bd 845b 59be
000000c0: 48f0 51be 43cf 263e ffd0 8c3b c811 a3be
000000d0: c5aa 6ebd 1dfd 123d b5a3 653d 142a 4d3e
000000e0: c250 c7bc f09c 603d 3b42 6b3e 6658 f83d
000000f0: 1900 c4bd 463c babd 93ec a9bd 3808 f4be
00000100: 8f9a bb3d 4f1b b33e be86 8fbe b6df 7abd
00000110: 214d 5bbe 4267 c73d 9049 07be b1d8 e43d
00000120: ea33 10be 949a 763d de64 44be 6475 88bc
00000130: 3e7a 0cbf 4bfd 3fbd 63c0 1ebd fb6a cabd
00000140: 8142 6abe edbf 7f3c db4a 4e3e b4bd 08be
00000150: e883 aebe af07 29bd 1078 283b d228 a33d
00000160: cca9 cc3d 385c 413d 98bb 7fbc bda5 1b3e
00000170: b42c cebd 35c8 143e 82e0 83bd 8349 82bd
00000180: dcf3 b83c 3d06 d43d 40ac f6bc 0735 d9bc
00000190: 565c d53d 3369 353d e34c 8e3c 37f6 2bbe
000001a0: ac5e 103e 3037 59be bcea 92bd bfab 7abd
000001b0: 32f3 a23d fcf3 453d 3654 033d 36ca e13d
000001c0: 2b85 e8bd bd81 a43c 4d31 18bc 1cae 2dbd
000001d0: b799 f53d 0a5b f7bd 355b 5d3e 951f ecbd
000001e0: 4082 79bd cb6c 8d3d 69a0 533c 3907 02be
000001f0: 6853 b53d 63a6 043e f897 12be 2a78 3bbe
00000200: 1977 5a3d 4458 6ebc a84a b13d 0839 563e
00000210: a073 1e3d 4b94 4dbb 641c 93be 0df8 573d
00000220: 33c0 973f cfbe 44bd 2750 96bf 9808 84bc
00000230: bada 853d 2eaf c73c 874e 073e 13bb ffbd
00000240: 5f3d 08bd 9647 543d 09a3 a3bd 12c2 eabd
00000250: 2735 74be e5d2 ff3d 7396 783c a6af c2be
00000260: 74b8 04bf 12c2 93bd 8405 0fbc 8f87 023a
00000270: a95e fcbc 69c6 a5bd dc0c 0f3e 0107 33bd
00000280: aacb 5ebe 3bc0 ef3d ca7c 5b3c ae45 a43e
00000290: bf07 103e dc15 a33d 7d94 1c3e a768 e43b
000002a0: 8797 02be a0b1 9fbd 548a 0bbe 651c d83d
000002b0: 80ca ad3d 936b 42be 28da 05bd b60a 743d
000002c0: 298b 143e 4e05 853d d3ea 09bf d702 553d
000002d0: d98c a73c 9d21 053e 66f7 a43d cae3 bbbd
000002e0: 095b 9abd 6503 d1bc b085 9ebd 6efe 6a3e
000002f0: e1fc 253d 9a3a 71bd 2564 273e 685f 00bc
00000300: 4feb 8fbd e0d5 053e 9a89 8c3c a28f 0abe
00000310: 46ea 3e3d dc18 793d b4c0 6435 84ae 2e3e
00000320: b14b d43c 9d4b 4cba 1360 e53d 39d4 123e
00000330: 97b0 983c 5b34 2cbd 1262 92ba 1d7f 9b3d
00000340: 7fd3 7abb c3cf 88be a8e6 78bd 702d 5ebe
00000350: b667 e1bb 8738 8abe 953c bd3d b43d b63d
00000360: 822c 85be 7fd2 c2bd c516 e6be db23 e0be
00000370: c607 93bd 034b 463d a320 8dbe 8e4f fdbb
00000380: 4bb3 42be 1aae 803d 627e 92bd c3ea b1bd
00000390: 952a 703d a346 fc3d 5276 47be 03ec 773e
000003a0: 8351 adbd 02b7 a73d 85f7 5abe 4384 d4bc
000003b0: 562c 3a3e e4bc e4be 0b57 bb3d f06e e0bc
000003c0: 1e24 2dbe 5449 32be e8ab 98bd 9dca d13d
000003d0: 7803 0abd 2cb2 123e e5f2 b43c 8c2e 6b3e
000003e0: d599 223e 482c 173d ecff 253e 2101 753d
000003f0: 0195 cfbe 8af3 a4bd b53d 02be 51bf 913d
0.033664413 0.07199065 0.14295158 -0.4791087 -0.15349221 0.06409008 0.15081021 -0.12465627
-0.11937173 -0.24846078 0.030898362 0.059785128 0.097609065 -0.0352918 -0.06605729 0.16050734
-0.041403268 0.06479536 -0.0083317915 -0.07169207 -0.41526505 -0.07894604 0.05734045 -0.04165462
0.111714065 0.016409792 -0.090251304 -0.30148765 0.06979061 -0.18384698 0.032891806 -0.17647377
0.014525537 -0.012545044 0.06556156 -0.38635382 -0.028480362 -0.0358445 -0.019659707 0.07600697
-0.09192059 0.13739447 -0.14404368 0.12373216 -0.3879788 0.16283275 -0.089795664 -0.21226317
-0.20501816 0.16290002 0.004297375 -0.31849504 -0.058268327 0.03588592 0.056064326 0.20035583
-0.0243305 0.054837167 0.22974484 0.12126236 -0.09570331 -0.090935275 -0.08297076 -0.4766252
0.09160339 0.34981772 -0.28032488 -0.061248504 -0.21416141 0.09736492 -0.13211656 0.11174143
-0.14082304 0.06020601 -0.19179103 -0.016657539 -0.54874027 -0.04687242 -0.038757693 -0.09883686
-0.22876932 0.0156097235 0.20145743 -0.13353616 -0.3408501 -0.041267093 0.0025706328 0.0796677
0.09993324 0.047207087 -0.015608691 0.15199943 -0.1006712 0.14529498 -0.06439306 -0.063616775
0.022577219 0.10352752 -0.030111432 -0.026514543 0.10418002 0.04428978 0.017370647 -0.16793142
0.14098614 -0.21212459 -0.07173678 -0.061198946 0.07956542 0.048328385 0.03206273 0.11024897
-0.11353525 0.020081395 -0.009289098 -0.04240237 0.119922094 -0.12077911 0.21616824 -0.11529461
-0.06091523 0.06905516 0.012916663 -0.12698068 0.08853799 0.12954096 -0.14315784 -0.18307558
0.053336237 -0.014547411 0.08656818 0.20920193 0.038684487 -0.0031368907 -0.28732598 0.052726794
1.185553 -0.04803353 -1.174321 -0.01611738 0.065358594 0.024375524 0.1321355 -0.124868535
-0.033261653 0.051826082 -0.07990081 -0.11462797 -0.23848401 0.12491397 0.015172589 -0.38024634
-0.51843953 -0.0721475 -0.008729342 0.0004979306 -0.030806856 -0.08094484 0.13969749 -0.04370785
-0.21757379 0.11706587 0.013396451 0.3208441 0.14065455 0.07963154 0.15291019 0.0069704833
-0.12753116 -0.07797551 -0.13626987 0.10552291 0.084858894 -0.18986349 -0.032678753 0.059580527
0.1450621 0.064951524 -0.5387394 0.05200466 0.020452904 0.13001104 0.08055 -0.09174307
-0.07536895 -0.025514314 -0.077403426 0.2294862 0.040524367 -0.058893777 0.16346796 -0.007835247
-0.070273034 0.13069868 0.017155457 -0.13531354 0.04661014 0.060814723 8.521704e-07 0.1705876
0.025914999 -0.00077932497 0.11199965 0.14338769 0.018638892 -0.042042118 -0.0011168143 0.07592604
-0.0038273034 -0.2672101 -0.060766846 -0.2169702 -0.0068788184 -0.26996252 0.09240071 0.08898488
-0.2601052 -0.09512805 -0.44939247 -0.43777356 -0.07179217 0.04841138 -0.27563962 -0.007730431
-0.19013707 0.06283207 -0.07153012 -0.08687355 0.05863436 0.123181604 -0.1947873 0.24211125
-0.08462813 0.08189203 -0.21383484 -0.025941974 0.18180975 -0.44675362 0.091474615 -0.02739665
-0.16908309 -0.17410785 -0.074546635 0.102437235 -0.033694714 0.1432578 0.022088477 0.22966975
0.15878995 0.036907464 0.16210908 0.05981553 -0.40543368 -0.08054264 -0.12718852 0.07116569

fc3.bias f4 [64]
00000000: 6dbc 7f3d 56ea 883c e756 0d3e 2e3c 813a
00000010: a1dd 313a 1f8e 2c3d db28 293d 5a6d 6d3c
00000020: 1e52 74bc 3f0e 81bd d7bf 87bd 65e4 863d
00000030: 5634 953c abd2 353d 3b0d 9f3d fc4d 92bd
00000040: 18fb 0cbd 3372 c4bd fd9e 5fbd d91a 403d
00000050: 26b6 a73c 23b2 91bd d9fd 673d 43c8 ba3d
00000060: 1818 b3bc f8f2 d2bd 7df2 c6bb 2082 b63d
00000070: 5e6f 4fbd fc5e 713d 615f 453d b7d9 bebc
00000080: 8026 24bd 6b80 e53d ea9a 01bd 97ee bd3c
00000090: c8ed 1f3d 109f 89bd 12d3 823d 33ce 7c3d
000000a0: 1cc1 8bbd c1ab afbc eee8 e43c eb21 893d
000000b0: 633a d13c 0ff2 c9bd 6d34 1a3d a74a 3bbd
000000c0: ef58 25bd 2577 edbb 4011 8f3d 4ae5 4abd
000000d0: 41a8 113d e1b3 d23d f2a2 963d aff8 e43b
000000e0: 90ce 43bb 3935 bc3b e802 a73c 9d95 003d
000000f0: de38 9a3d af94 5ebd c6b5 d8bc 055c a13d
0.062435556 0.016713303 0.13802682 0.0009859854 0.00067850394 0.042127725 0.04129873 0.0144914035
-0.014912156 -0.06301545 -0.066283874 0.065865315 0.018213432 0.04439036 0.077661954 -0.071437806
-0.03441915 -0.09592094 -0.054594982 0.046900604 0.020472597 -0.07114055 0.056638572 0.09120228
-0.021862075 -0.10300249 -0.0060713873 0.08911538 -0.050643317 0.058928475 0.048186664 -0.023297174
-0.04007578 0.112061344 -0.03164188 0.023185058 0.039045125 -0.06719792 0.06387915 0.061720084
-0.06823942 -0.021444203 0.0279431 0.066959225 0.025540536 -0.09860622 0.037647653 -0.04572549
-0.040368017 -0.007246869 0.06985712 -0.049535073 0.03556085 0.102882154 0.07355298 0.006987653
-0.002987776 0.0057436493 0.020387128 0.031392682 0.07530378 -0.054341014 -0.026453864 0.078788795

fc4.weight f4 [2, 64]
00000000: 13f1 133f af61 0dbf 3465 433e e276 ca3d
00000010: 287e 1b3f 2f45 1abe a513 03bd 2e2d 423e
00000020: 93c2 d53c 2cc6 13be 316c 80bd d1dd 0cbb
00000030: 43c9 0cbf 00ac aabc 3eb2 7ebe 2eba 043d
00000040: 4e16 6e3e 62a0 96be 4b52 f93e 74cc 73ba
00000050: b50e a13d e369 12bd 0357 99bc d61f 30bc
00000060: 8da4 723e 9a68 04be d25f 73be 0d92 743d
00000070: e42b 123e 4695 71bd 42f4 d9be 02ff 193f
00000080: 5751 bbbd bd85 683e dad3 e7be a972 d13d
00000090: 3d52 573f 9ba6 93be 609c 5fbe 0dd0 db3e
000000a0: 29dc 943c 0e7c 463d d05b 01be a168 2ebd
000000b0: 8214 22be b3e5 93be 4ab0 28be ce36 13be
000000c0: afde 783c cf49 933e bbc0 d7bd d77c 1f3e
000000d0: 84e2 e23b 50c9 be3c 4e9d 8f3d 5f5a d5be
000000e0: d95e 2c3f 8981 9d3e d193 e03d 8033 3f3d
000000f0: a4e9 5fbd 6706 83be bdb8 f73e c1a5 ab3d
00000100: 861e 04be d0f6 c2be 0186 15be 2434 163e
00000110: a228 0c3f d547 ea3c 7500 5b3f f204 6fbd
00000120: 3183 743e b73c 9abe 9e68 a83e d996 043f
00000130: 53bd 6cbe 984b 1dbe dd9b dbbd 7b06 6f3f
00000140: da97 563e d7b0 0ebe 6352 11be 8037 ac3f
00000150: 6eac 7a3e e288 cdbe 6e51 323f 3d8d d1be
00000160: 4468 bcbe 8e35 8f3e 1df8 0cbd 4621 813f
00000170: 0abf 76be 2e9b 5f3e 15c2 bb3e c56b b13e
00000180: 3df5 8fbe 0e48 87be c466 84be 2dd0 eb3e
00000190: 6af2 143e 2bc8 bd3e 4d9f 26be 5ef7 32be
000001a0: e6d4 df3e b6ce a8be d377 503e 1457 efbe
000001b0: b2b8 d5be c7eb ae3d 17fc 27be 2e11 7bbf
000001c0: 2fea 3a3e 1e7b 9c3e e51d 143e 8477 553f
000001d0: 7b2e 0bbf 8d4a d23e e015 06bf f699 dcbe
000001e0: 9532 41bd a62a 643e 60d4 aabd fae2 87be
000001f0: ef19 f03e 93be b0be 5b03 973e 3a9f 353f
0.57789725 -0.5522718 0.19081575 0.09885956 0.60739374 -0.15065454 -0.032001156 0.18962547
0.026093757 -0.14431065 -0.06270636 -0.0021494518 -0.549946 -0.02083397 -0.24872681 0.032404117
0.23250696 -0.29419237 0.48695597 -0.000930018 0.07864133 -0.035745513 -0.018718248 -0.010749778
0.23695584 -0.12930527 -0.23767021 0.059709597 0.14274555 -0.05898025 -0.42569166 0.60154736
-0.09146374 0.22707267 -0.45278817 0.10226948 0.8410986 -0.28838047 -0.21836996 0.42932168
0.018171387 0.04845815 -0.1263268 -0.04258025 -0.15828136 -0.28886184 -0.16473499 -0.14376375
0.015189811 0.2876725 -0.10534807 0.15574966 0.0069239754 0.023289353 0.07012425 -0.4167051
0.67332226 0.3076289 0.10965694 0.046679974 -0.054666176 -0.25590822 0.48383132 0.083812244
-0.12902269 -0.38078928 -0.146019 0.14668328 0.547495 0.028598705 0.8554757 -0.058354326
0.2387817 -0.30124447 0.32892317 0.51792675 -0.23119096 -0.15360868 -0.10723088 0.93369263
0.20956364 -0.13934647 -0.14191584 1.3454437 0.24479839 -0.40143496 0.696555 -0.4092807
-0.36798298 0.27970546 -0.034416307 1.0088279 -0.24096313 0.2183654 0.3667151 0.34652534
-0.2811679 -0.2642216 -0.25859654 0.46057263 0.14545599 0.3706678 -0.16271706 -0.17477176
0.43717116 -0.32970208 0.2035821 -0.46746123 -0.41742474 0.08541065 -0.16404758 -0.9807309
0.18253396 0.3056268 0.14464529 0.8338549 -0.543678 0.41072503 -0.5237713 -0.43086213
-0.04716738 0.22281894 -0.083412886 -0.26540357 0.46894786 -0.34520397 0.29494748 0.70946085

fc4.bias f4 [2]
00000000: 7515 753d 00f1 8dbd
0.059834916 -0.06930733
