checkpoints/Computer1-0-checkpoint-1.2253-actor.pth (torch, 193711 bytes, 8 tensors)

fc1.weight f4 [256, 24]
00000000: d9b2 bbbd 6901 6d3e b740 fd3c 0bae 6fbd
00000010: a112 473d 7cb3 a8be 2220 1f3e 2c73 713e
00000020: e618 1e3d 2301 2cbe 93fd a7bd 46cd 23be
00000030: a90a db3c 315e 10be 1d2b 9d3d 1875 64be
00000040: b912 a6bd 142e 23bd b396 3abe 1ef4 e2bd
00000050: e4cd d0bd 533c 20bd d7d7 80bc 5e88 26bd
00000060: dea5 5a3d 94af 7f3e 4d9f 513d 0a9e 713d
00000070: d888 00be 212e 433e d6b3 f03d 2b36 35be
00000080: 0fd3 65bd 5bc3 74bd 1025 6abd d7e1 1e3d
00000090: 8e6b 36bd 40ef c53d d43c 843d ce8b a33c
000000a0: 3013 ff3d 0697 103e 024e 2abe d763 e93c
000000b0: ed09 5a3e f5a2 afbd b6ac febd 34a7 81be
000000c0: aee7 5f3e 7cee 28bd 3e8e 30be 4536 15bc
000000d0: 726a f8bd 2a46 b73c d9f0 41bd 9af1 afbc
000000e0: fe25 09be 7d07 5bbe 912f 083d 44ba bfbd
000000f0: 5660 013e 0e9d 05be cf44 96bd 27c3 72be
00000100: 2387 243d 5414 f2bd 9ba4 55bd 4b5f 513e
00000110: cfa5 c53e e593 43be bfe0 bf3d 4882 6e3e
00000120: 7e27 db3d 2372 68be 879b a1bd 0685 a03e
00000130: 6c43 8f3d 0524 4bbe c2a8 1abe ea37 8d3e
00000140: 89dd 143e a830 e5be 1c9c 74bd d776 3c3e
00000150: 2881 1e3d b08c febd 9718 0bbe a7bd 22bd
00000160: eff4 953d 1d8c bebe b9d1 01be 507b 10be
00000170: 8021 1dbd 4c33 aabe 7cbc 08be a09e 433d
00000180: 5e57 d9bc 1c28 1ebe e50b d6bd 2182 acbb
00000190: 35c1 adbe fe99 17be a591 13bd 5bbd 2abe
000001a0: 5c03 7a3d e2ad 4ebd 6676 14be 8c87 933e
000001b0: d1c6 89be e3ec 04be 93db c3bd ae9f 9e3e
000001c0: a3db b6bc 9dac 43bd 00b9 18be 79bc 823e
000001d0: 5c51 e1bd def2 1e3e 5e1f 74bc 81b2 5f3c
000001e0: 800c 28be 7ff7 d6bd e793 15be 8f42 4dbc
000001f0: 28d5 02be 7fe2 703e 550d 383c 346e b23d
00000200: b007 8cbd d26c ef3d def1 033e fdbb 2b3e
00000210: 1900 ff3c 15af 9c3e b3d8 21be d384 0cbd
00000220: 4bf3 753e 23ce c73d 170c 9fbd 9e55 2b3e
00000230: aa61 803e 9978 7f3e 97e2 163d f0b4 e3bd
00000240: 2302 39be 7cb2 563e 0c83 81bd 656c 493c
00000250: 3212 873e 818e 43be 30f6 523d fa6b 7a3e
00000260: faea 7a3b 1f84 243e 8717 81bd f86a b13c
00000270: 6933 073e b437 003c 9466 8a3c 79df 0dbe
00000280: 82e7 90bd c470 a43e be37 dabd aff1 81be
00000290: bf5b 70be 4c73 7fbe 1ba0 173e 5853 94be
000002a0: f81a 763d 20f2 c33d 07e5 d6bd 378f b63d
000002b0: 5d5c 353e ee90 7b3e 16dc ce3d 3ab4 2d3e
000002c0: dd9b 03be 1f3e 2bbe a9b6 a6bc 5e47 06bd
000002d0: cfd2 b8bd 842f 313e a010 d63d 98ab 593d
000002e0: 158d 7bb9 1911 903d 6c79 8cbc 6343 26be
000002f0: 15bc c1be f80d 1f3e a4ff 843d 05d7 11be
00000300: 3f86 43be ca3a c63d b0b4 5a3d 1fcc 963e
00000310: 58c9 eebd 32ae 2dbe 6fa4 6bbd c364 813e
00000320: a8fe cb3c efff 93bd b6ec 14be e6cd 0a3e
00000330: 6fd4 3d3e 934a 7cbd 4aca 0ebe b401 28be
00000340: 9ed2 00be 91be 5c3e 7e07 72be deb9 7ebe
00000350: 745b 963d f937 cbbe 3ef4 ecbd 41d5 88be
00000360: 3109 ca3d a74a 84be 4484 bfbd d5fc eabd
00000370: 5e1e 813e 575d a33d 513c 8c3d 7a6f 49be
00000380: 7f5b b2bd 92e5 603d dba0 0f3d 3107 d13c
00000390: bb8e 603e e0e6 343c 79ca 56bd 443b d4bd
000003a0: 2848 42bd b78e 12be b8c4 2bbe 62a4 c53c
000003b0: 1541 8dbd fe4b 833e b32c 0dbe 66b0 103b
000003c0: 6e37 1f3e ba35 433a 6727 2fbd 5c25 27be
000003d0: 9e56 07be 4032 04bc 0b58 1ebe 2133 2dbe
000003e0: f71d 22bc f84a efbd f87c ecbc 1e3d d6bd
000003f0: a607 0b3e 3cfa 733e 5f32 b7bb 8d44 cc3d
-0.09164972 0.23145069 0.030914648 -0.05851559 0.04860175 -0.32949436 0.15539601 0.23579091
0.038597964 -0.16797309 -0.08202662 -0.15996274 0.026738482 -0.14098431 0.07674239 -0.22310293
-0.0810904 -0.039838865 -0.1822155 -0.11081718 -0.101955205 -0.03912003 -0.01572792 -0.040657394
0.05338084 0.24969321 0.05117731 0.05898861 -0.12552202 0.19060566 0.11753051 -0.17696445
-0.056109484 -0.059756618 -0.05716425 0.038789596 -0.044536166 0.09664774 0.064569145 0.019964125
0.124548316 0.14120111 -0.1663132 0.02848999 0.21292849 -0.085760035 -0.12435286 -0.25322878
0.21865723 -0.04124306 -0.17241761 -0.009107177 -0.12129678 0.022372324 -0.04734883 -0.02147751
-0.13393399 -0.21389575 0.033248488 -0.09361699 0.12634405 -0.13048193 -0.07337343 -0.23707257
0.04016794 -0.118202835 -0.052158933 0.20446508 0.38603064 -0.19099386 0.09369039 0.23291886
0.10700892 -0.2269979 -0.078909926 0.3135149 0.069952816 -0.19837959 -0.15103438 0.27581722
0.14537634 -0.44763684 -0.05971919 0.18404709 0.03869739 -0.12429178 -0.13583599 -0.039731648
0.07322108 -0.37216273 -0.12677659 -0.1410954 -0.038362026 -0.3324226 -0.13353151 0.0477587
-0.026530918 -0.15444988 -0.104514875 -0.005264536 -0.33936468 -0.14804837 -0.03602757 -0.16673796
0.06103836 -0.050458796 -0.1449829 0.28814352 -0.26909497 -0.1298099 -0.09563365 0.309812
-0.022321528 -0.04777204 -0.14914322 0.25534418 -0.11001846 0.15522334 -0.014900057 0.0136533985
-0.16411018 -0.10496425 -0.14607202 -0.012528076 -0.12776625 0.23523901 0.011233647 0.08712426
-0.06837404 0.11690678 0.12885234 0.1677093 0.031127976 0.30602327 -0.1580532 -0.03430636
0.2401859 0.09756114 -0.07765978 0.16731879 0.25074512 0.24948348 0.036837187 -0.111184955
-0.18067221 0.20966524 -0.06323823 0.01229391 0.2638107 -0.1909733 0.051504314 0.24455252
0.003828703 0.16066025 -0.063033156 0.021657452 0.13203205 0.007825781 0.016894616 -0.1385478
-0.070754066 0.32117283 -0.10655163 -0.25379702 -0.23472498 -0.24946326 0.14807169 -0.28969836
0.060084313 0.09567666 -0.10492902 0.08914035 0.17711015 0.24567005 0.10100572 0.16963282
-0.12852426 -0.16722916 -0.020350771 -0.032782905 -0.090245835 0.17303282 0.1045239 0.05314216
-0.00023989782 0.07034511 -0.017147742 -0.16236643 -0.37838808 0.15532672 0.06494072 -0.1424218
-0.1909418 0.09679182 0.053394973 0.29452607 -0.11659497 -0.16960981 -0.057529863 0.25272188
0.024901703 -0.0722655 -0.14543423 0.13555107 0.18538068 -0.061594557 -0.13944355 -0.164069
-0.12580344 0.2155707 -0.2363567 -0.2487559 0.07341662 -0.3969114 -0.11570023 -0.267252
0.09865034 -0.25838205 -0.093513995 -0.11474005 0.2521848 0.079767875 0.06847442 -0.19671431
-0.08708858 0.054906435 0.035065513 0.025516124 0.21929447 0.011041373 -0.052439187 -0.103628665
-0.047432095 -0.14312254 -0.16774261 0.024126235 -0.06897179 0.25643915 -0.13786583 0.0022077798
0.15548488 0.00074466655 -0.042762186 -0.16322845 -0.13216636 -0.008068621 -0.15463273 -0.16914035
-0.0098948395 -0.11684221 -0.028868183 -0.10460876 0.13577136 0.23825926 -0.0055907215 0.099740125

fc1.bias f4 [256]
00000000: ba6e 23be 8c45 bd3d d5b9 77be cd87 c1bc
00000010: 06cd 45be ce5d 0b3d 0908 653e 7661 613c
00000020: df2b fe3d b523 6e3d d66e 7e3d 9a30 103b
00000030: ff40 68be 5267 fdbd ff65 2a3e 1afb d5bd
00000040: 9e31 533e 7e7b 2fbd 0047 8fbd c24e 9dbd
00000050: 08cd b43d 889e f23d 3385 b3bd eb71 103e
00000060: 26bc 403c 9ed8 66bd efab 623d 68a3 96be
00000070: 31bb ea3d 8f04 7bbd e2f5 2b3d 3780 e4bd
00000080: 8a87 113c c142 263d c87d 1ebe 8270 a5bd
00000090: e2f4 f4bd 1521 adbc 82c1 663e 6b30 f7bc
000000a0: 4e02 7dbe a8eb a63d aac1 47bb 8c04 47be
000000b0: 990c 8fbe b328 d33d c0ad 013e 6cd3 84bd
000000c0: 8abb b3bd cdde f7bd 30ad 163d 3954 94bd
000000d0: bf7e 08bd 17c4 e3bd 393d 28bd 0b37 633d
000000e0: 18b1 1e3e 95d8 b5bd 0838 2fbc 8315 833d
000000f0: 5ba7 93bb a855 563e 16a9 fb3c 5f90 053e
00000100: 9090 c4bb b923 dd3d 677e df3c 3855 a13b
00000110: a1a8 20be f5e5 56be c41b 87be 8eeb c03d
00000120: 2eb3 753d a47f 3dbe 1676 5c3c 7e5d 393e
00000130: d05c afbd c057 d9bd bbe4 2ebd edb5 29be
00000140: 2f00 43be 4bb4 423e c2a5 a73d 0247 2cbe
00000150: 7758 72be c2db 453d 9f37 c43d 1bb7 013e
00000160: a818 e5bc 4896 03ba 5527 0fbd d80d c63c
00000170: d2a9 b03d 6a2a 003e de32 3abd c5fe 633d
00000180: fd6a 1e3e 9f7b 363e d4bf 9cbd dcc8 413a
00000190: 09ed d73d 74b7 a03d 68b7 9ebc 90ff fbbd
000001a0: 7eda 76bd e046 583e 2304 15be c7db 6cbd
000001b0: 1bc4 1cbe b7b5 49be b168 7abe 7392 03be
000001c0: 16c9 183e 0b06 24bd bab3 c9bd b47b 823c
000001d0: d2ce b93d d06c d13c 4abe 263d bf64 72be
000001e0: 7a6e 84bd 8d8d 94bc 676d 5a3c 7000 3ebe
000001f0: c099 66bd 5dd2 5e3e e335 92be 2ab2 1abe
00000200: 1ffc 47bd 452f aebc 9d29 183e 1132 463e
00000210: 283b 2a3d a62d 16be 31f3 273e b030 143d
00000220: a770 ea3d 91c2 323e 5f2a 51bb 8714 58be
00000230: e060 c63d 4874 40be 37a9 173e f36e 393e
00000240: cd24 03be 8fc6 443e 1957 18be fbee 1fbe
00000250: 611f 6d3c 5c04 a8bd a6a8 073e 63ee db3d
00000260: 5e01 24be d295 a1bd 8231 173e eb94 ddbd
00000270: 2b35 42bc 930c 083d 292d 18be aaef dc3d
00000280: ab2a ce3d 1bea 053b 495f f83c 4c7e b9bd
00000290: e203 7dbd ee45 6a3e a870 b8bd ade3 45bd
000002a0: 245c 62be d247 4dbe cdbd 2aba 8140 4bbe
000002b0: a512 0abb 0859 fbbd 2f3d c7bd 766e 2639
000002c0: 1e4a dcbd 7e9b 84be 1258 7ebb 792e bd3d
000002d0: 14d3 3cbe 8317 abbd 16ef bebc ae1a b73d
000002e0: ad1e cfbd 0ed6 123e 5195 c7bd db93 fd3c
000002f0: cac8 80bc 437a cb3d df32 0fbb c433 4ebe
00000300: 93bd 46b9 0b68 df3d c2f9 7cbd 7b22 4fbe
00000310: 6fca 23be e793 35be c25b 16be c3c7 87bb
00000320: 9423 bdbd 6db6 bfbd dcab debd 244e d93d
00000330: 48b9 9cbd 3ca2 d03d 7098 22be 76b9 b0bc
00000340: ef28 4abe c8ef 94be 60a2 953d 1f3d 973d
00000350: 3026 683d 02d1 9ebc cca5 183e a5a6 3bbe
00000360: 0a80 12be febf 0bbd 4ccf 0b3e 0135 50be
00000370: 1df9 d73d 4035 5c3e a1dc 623e bb02 55be
00000380: 7a4f 363e 5aa8 803d f73a b13d 79b7 40bd
00000390: d446 ecbb dee5 473c 406e 82be dfed 8bbd
000003a0: d4ed 663e d4f0 603e 34c6 023e 7e44 7fbe
000003b0: a5ef 34bd 78a0 713e f047 a73d 26a8 8bbe
000003c0: 81a1 21bd 08e1 023e 0722 7a3d 15ed 033e
000003d0: f30c b3bd 1dce 38be f173 bdbd d446 fd3d
000003e0: e332 653d 0742 f6bd 5257 d93c 0b5a e2bd
000003f0: 3bdd 283d 77d2 dabc 1ee5 fe3d 498f 1ebd
-0.15960208 0.09241781 -0.24191983 -0.023624325 -0.19316491 0.034025006 0.22366346 0.013756147
0.124107115 0.05813952 0.06211742 0.0022001625 -0.22681044 -0.123732224 0.16640471 -0.104482844
0.20624396 -0.04284238 -0.06995964 -0.076810375 0.08828169 0.11846644 -0.0876564 0.14105956
0.011763608 -0.056358926 0.05533975 -0.29421544 0.11461485 -0.061283644 0.04198254 -0.111572675
0.008882413 0.040591005 -0.15477669 -0.080781 -0.1196077 -0.021133939 0.22534755 -0.030174455
-0.2470791 0.081504166 -0.0030480423 -0.19435328 -0.279393 0.10310497 0.12663937 -0.06485638
-0.087760046 -0.12103043 0.03678626 -0.07242627 -0.033324 -0.111213855 -0.04107401 0.055472415
0.15497243 -0.088792 -0.010694511 0.064005874 -0.0045060343 0.20931113 0.030720275 0.13043354
-0.0059986785 0.10797829 0.027281953 0.004923489 -0.15689327 -0.20986159 -0.2638837 0.094199285
0.059985332 -0.18505722 0.013455888 0.1810207 -0.085626245 -0.1061244 -0.042698603 -0.16573305
-0.19043039 0.19014089 0.08185913 -0.16823962 -0.23666559 0.04830528 0.095809214 0.12667505
-0.027965859 -0.0005019647 -0.03494962 0.024176523 0.08626141 0.1251618 -0.045458667 0.05566289
0.154705 0.17820595 -0.07653776 0.0007392296 0.10543258 0.07847491 -0.019374564 -0.12304604
-0.060266964 0.21120787 -0.1455236 -0.057826784 -0.15309183 -0.19698225 -0.24453999 -0.12848835
0.14920458 -0.040044826 -0.09848733 0.015928127 0.09072651 0.025564581 0.040708818 -0.23671244
-0.06466384 -0.018133903 0.013331748 -0.18554854 -0.05629897 0.21759935 -0.28556737 -0.15107027
-0.048824426 -0.021262774 0.14859624 0.19355036 0.041560322 -0.14665851 0.16401364 0.036179245
0.11447268 0.17457034 -0.0031916124 -0.2110158 0.09686446 -0.18794358 0.14810644 0.1810873
-0.12807007 0.19216369 -0.14876975 -0.15618508 0.014472813 -0.082039565 0.13247928 0.10738828
-0.16016147 -0.07889904 0.1476498 -0.108194195 -0.011853497 0.033215117 -0.14860977 0.107879
0.10066732 0.0020433727 0.030318873 -0.09057292 -0.06177128 0.22878239 -0.090058625 -0.04831283
-0.22105461 -0.20046929 -0.0006513268 -0.19848825 -0.0021068242 -0.12272841 -0.09728467 0.00015872144
-0.10756324 -0.2589988 -0.0038809818 0.092373796 -0.18439895 -0.08354094 -0.023307364 0.089406356
-0.10113273 0.14339468 -0.09745277 0.030954292 -0.015720744 0.09935429 -0.002185039 -0.20136935
-0.00018953373 0.109085165 -0.061761625 -0.20227997 -0.15995191 -0.17732202 -0.1468344 -0.0041436865
-0.092353016 -0.09360967 -0.10872623 0.10610607 -0.07652527 0.10187194 -0.15878463 -0.02157281
-0.19742177 -0.2908919 0.07306361 0.07384705 0.056677043 -0.019386772 0.14906996 -0.18325289
-0.14306656 -0.034118645 0.13653296 -0.2033272 0.105455615 0.21504688 0.22154476 -0.20801823
0.17803755 0.062821105 0.08653825 -0.047049973 -0.007210592 0.012200801 -0.2547474 -0.0683248
0.22551662 0.21966869 0.12770921 -0.24928471 -0.044173855 0.2359637 0.08168018 -0.27276725
-0.039460663 0.12781155 0.061067607 0.12883408 -0.08742704 -0.18047376 -0.0925063 0.12367025
0.055956732 -0.120243125 0.026530895 -0.110523306 0.041226607 -0.026711686 0.124460444 -0.038710866

fc2.weight f4 [128, 256]
00000000: 581e 97ba 8af9 c63c 3d72 cb3d 9dfe f5bd
00000010: 869d 5dbe 8074 07bd 0808 d83d 5d94 793c
00000020: 1726 2bbd ae46 9f3d f3e0 853d 4340 4f3c
00000030: 844a dcba 49ee fb3d 1197 2f3d 3141 0bbe
00000040: d905 163d 6683 4bbc a89f bd3d fece 2cbc
00000050: 150d 69bd dd0d d13d 326b 9bbd cfe7 d13d
00000060: dddb 38bd 5252 47be 5dc3 babd aa0c edbc
00000070: 82d2 ebbd e11d 783d ea01 72bd 41a0 a33c
00000080: 50f8 82be 5232 6bbd 6de7 d3bc 5cd6 8f3d
00000090: e194 6cbc 8ee4 ea3c 2fbd dc3d d3f6 10be
000000a0: cf73 fbbb adff 783d 6abf e6bb 9810 0fbe
000000b0: e482 e53d 3c7c cfbd a479 c03d 1bfd ce3d
000000c0: f846 6fbe f0be f2bd 734f 8f3d 4c86 3b3d
000000d0: 474b 49be d56b 483c 9d59 b13d a41a 34bd
000000e0: 9d9c 903b b8fc d13d f109 c13d dd83 f33d
000000f0: 8d53 e93d 22c7 e3bc 692e 14bd e659 553c
00000100: d8d6 21bc a0da a4bc 9af7 f83d bcd7 d9bd
00000110: e492 4a3c 9ff8 b3bd 3c3d f6bc 46aa 80bd
00000120: de2c 90bd a488 8a3d 8627 0dbe ea37 25be
00000130: 4a9f 853c 20d5 a23d a591 6e3d 9ed2 a9bb
00000140: 4bcc 8fbd 6055 ba3d 7a4e 863d b27a a63c
00000150: d74a 853d b5dc b7bd a64e 0abe 72e2 bcbd
00000160: 657a 073d b097 2ebc d958 963d e3c6 de3c
00000170: eb40 9dbc 1d62 c43d a50a a5bd adda 25bb
00000180: 658c 103e 61d5 8dbc bbc7 05bd 908b c03d
00000190: 31c2 06be 1509 34bd a12d a0bc 6cdf ce3b
000001a0: 41a5 06bd dd52 ab3d 5d23 bdbc 0f4c a3bd
000001b0: 98d8 143e 94a9 963b 17b5 ab3d 8e85 acbd
000001c0: a06a 6ebc 5fc9 c43b 10e4 173d cba0 7f3d
000001d0: 99d6 5b3e 59e5 1ebd dda4 563d 3862 59bd
000001e0: 465f b23d ac40 ae3b 4253 c13d e0ef 5bbd
000001f0: ef05 953d 8c23 323d 1db8 0d3d de4b 9e3c
00000200: 66b2 f6bd 3afa 1cbe 0058 9d3d 1973 b6bc
00000210: e8cf b1bc 163e e5bc f3f6 b13d 86c2 663d
00000220: f0e0 1d3c 4ec6 2d3e d1db 85bd 1369 3cbd
00000230: b162 663d 8f32 d93d c1f5 c1bd 85c7 59bc
00000240: 35ce 123d f203 a2bc 240c 9f3d 563f f4bd
00000250: c79f 253d 185b 653c 0d3a e3be a802 233d
00000260: 67a2 5a3d 2511 7f3d 1ca6 e93c 828b 103e
00000270: 3861 bc3d ea18 353e 4d03 2abe 8e89 783d
00000280: 7015 63be 31b2 61be 784e a63d 2ac5 9e3c
00000290: 245a cb3d 238e 313d d213 9abd 2637 253d
000002a0: c241 91bc 84d8 b7bd c55c 9bbe 461a f93d
000002b0: 4aa5 43bd 5f6c f53d 9195 2b3d 15da ac3d
000002c0: 7382 9a3c 6967 4fbe a113 04be d077 883d
000002d0: 41ee 6fbd c4f5 ec3d 40fb 9f3d 422a 663c
000002e0: 16f2 183e 9494 26bd 123b 513d 9fd7 c3bb
000002f0: 3681 2a3c ef4b 6a3d 8a5a c0bc 4355 bdbd
00000300: 1910 863c f09b f03d 0f65 d6bd ee8d 48be
00000310: cb88 50bd d0d0 6bbd 2c4e 20bd d785 7d3d
00000320: e0fc 043d 932c 16bd 67a8 883d f4d9 a0bb
00000330: ac17 f8bd 5802 aa3b 478e 26bd d807 8cbe
00000340: 7af4 a1bd f871 cbbd 9a6b 873d 1cd1 e73c
00000350: 11b9 5c3c a472 a4bb fcbf 1b3c 8ba8 dd3c
00000360: d245 7cbc e021 ddbd 6d6c a03d 4bf3 dabc
00000370: 2619 16bd 92c7 ea3d 3355 ef3c 9bcc 393d
00000380: e12d 363d 3c22 50bd 64b6 273b 91c7 8e3c
00000390: 7a9a fdbd 835d 12be da35 a3bd fd7d 8abd
000003a0: 7091 d2bd e4ed f43c baaa 74bd 74bd 5dbb
000003b0: fcd4 38bd 13eb 5a3d 3da1 423d d44c 2ebd
000003c0: 9a12 123d 237c 213d 5a1e 78bc f35f e0bc
000003d0: e474 273e 3559 c93c 2c40 083e bf70 d73d
000003e0: 262d 91bd 8c03 0d3d 6490 563e 8269 48bc
000003f0: 9c7f 033d b30f aabd 5c0c 07b9 3545 5c3d
-0.0011529429 0.024288911 0.099338986 -0.12011454 -0.21642122 -0.033070087 0.10548407 0.0152331265
-0.041784372 0.07777153 0.06537046 0.0126495985 -0.0016806875 0.12301309 0.042868678 -0.13599087
0.03662667 -0.012421465 0.09258968 -0.010547398 -0.05689724 0.10207722 -0.07588805 0.10249292
-0.045131553 -0.19464996 -0.09119294 -0.028936703 -0.115147606 0.06057537 -0.059083857 0.019973876
-0.25580072 -0.057421036 -0.025867188 0.07023308 -0.014439792 0.028673436 0.107782714 -0.14156656
-0.0076737176 0.060790706 -0.0070418613 -0.13971174 0.11206606 -0.10131118 0.09398201 0.1010687
-0.23366916 -0.11852825 0.069975756 0.045782372 -0.19657622 0.01223274 0.086596705 -0.04397072
0.004413201 0.102532804 0.09425724 0.11890385 0.11392889 -0.027804915 -0.036177073 0.013021922
-0.009877883 -0.02012378 0.12156601 -0.10636851 0.012364123 -0.08787655 -0.030058496 -0.06282477
-0.07039808 0.067643434 -0.13784608 -0.16134611 0.016311307 0.079508066 0.058244366 -0.005182578
-0.07021388 0.09098315 0.06557937 0.020322178 0.06508415 -0.089776434 -0.13506564 -0.092228785
0.03307571 -0.010656282 0.07341165 0.027194446 -0.019195994 0.09589026 -0.08058671 -0.0025307343
0.14116056 -0.017313661 -0.03266118 0.094016194 -0.13160016 -0.043953974 -0.019553008 0.006313255
-0.032872442 0.08365414 -0.023088152 -0.079734914 0.14535749 0.004597852 0.083841495 -0.08423911
-0.014551789 0.0060054506 0.03708273 0.062409203 0.21468581 -0.03879294 0.05240332 -0.053072184
0.08709578 0.005317768 0.09439708 -0.05369556 0.07276522 0.04349093 0.034599412 0.019323286
-0.120457456 -0.15329829 0.076828 -0.02227168 -0.021705583 -0.027983706 0.0868968 0.056337856
0.009636149 0.16970178 -0.06536067 -0.045998644 0.056246463 0.106053464 -0.09470702 -0.013292198
0.035841186 -0.019777272 0.077659875 -0.11926143 0.04043558 0.013998769 -0.44380227 0.039797455
0.053377535 0.06227221 0.02852159 0.14115718 0.091982305 0.17685285 -0.16602822 0.060678057
-0.22176147 -0.22040631 0.081204355 0.019381125 0.09929302 0.043348443 -0.07523312 0.040335797
-0.017731551 -0.08976844 -0.30344215 0.121632144 -0.047765054 0.11983561 0.041890685 0.08440033
0.018861031 -0.20254292 -0.12898113 0.066634774 -0.058576826 0.115703136 0.07811594 0.014048161
0.14936098 -0.04066904 0.051081724 -0.005976632 0.010406783 0.057201322 -0.023480672 -0.09244778
0.016365098 0.11748493 -0.10468494 -0.19585392 -0.050911706 -0.057572186 -0.03913705 0.061895218
0.032467723 -0.036663603 0.06672745 -0.0049087945 -0.1211389 0.0051882677 -0.04066303 -0.27349734
-0.07907958 -0.09933847 0.0661232 0.028297953 0.013471858 -0.005018549 0.009506222 0.027057907
-0.015397506 -0.10797477 0.078331806 -0.02672734 -0.036645077 0.11463846 0.02921543 0.045361143
0.044477347 -0.0508139 0.002559089 0.017429145 -0.1238298 -0.14293484 -0.07969256 -0.067623116
-0.10281646 0.029898591 -0.05973313 -0.0033834847 -0.045124993 0.05344684 0.04751705 -0.042553738
0.03566227 0.039425027 -0.015143955 -0.027389502 0.16353184 0.02457867 0.1330573 0.105195515
-0.070886895 0.03442721 0.20953518 -0.012232186 0.03210412 -0.08303776 -0.00012879207 0.05377694

fc2.bias f4 [128]
00000000: e767 9c3d 8210 6b3c 30b2 0bbd 9483 833d
00000010: ef79 88bb 3041 4e3d d88a eebc 9f1b 9fba
00000020: fe07 f73c 97c2 adbd 5a0d 203c 66d9 62bd
00000030: 147e 85bd ca32 9b3d 12a7 18bd 10fe fbbb
00000040: 65fe 813d 8451 d8bc f779 71bc da76 bd3d
00000050: ab09 0c3d 2657 f13c e097 98bd 8bd7 f1bc
00000060: cd10 823c 51a1 24bd cd87 f1bc 5b20 e3bc
00000070: 8e1f 93ba 7167 bc3c ddea acbc 7796 203c
00000080: 9c43 2c3d f921 b5bd 08dd 38bd 9efe 163d
00000090: f492 1cbc b831 4abd 2dd5 b0bc 78fd bb3b
000000a0: 63ce 6bbd affb 373d e11f cd3c 636e 0c3d
000000b0: 57df c5bd 50e5 66bc 9a45 843d 3489 8a3c
000000c0: e5e1 573c a7f1 503a 4c0c 2dbd 1d49 103d
000000d0: e802 b4bd 539d 2e3c 4ec8 2f3c 1be4 f9bd
000000e0: b210 08bd 9d96 a4bc 3d6a ef3c 7423 12bd
000000f0: aa5e 583d 791c ad3b 03ca f6bc 3e7a 5a3d
00000100: d8fa 00bc 0789 6abd 7049 8cbc 3d42 fbbc
00000110: a345 053e 0da5 8ebc 69bd 033d 4834 17bd
00000120: 5003 74bd 0cdb 383b 6b6b 2dbd e85e 7cbd
00000130: a8d4 693d 0e3c 10bd be42 87bd e475 893d
00000140: 8eed 0f3d 0721 29bd ae7a 19bd d271 863c
00000150: 408d 29bc 3076 54bd d6ef 423c 061b 3abd
00000160: 9f30 c1bc f6cb 8a3d 0cd6 e03c 8cc3 b3bd
00000170: fad8 e93c 95e2 aa3c 6fa6 5fbc 616e 5b3d
00000180: 3c34 c2bc dd05 44bd 6653 38bd 264d a53d
00000190: 5c0e 92bd 56e9 65bd 3eaf 5c3c 5af8 803c
000001a0: 427c 9cbd 4a55 33bd 7ae9 4a3d aa23 9abd
000001b0: 9b6d 303d 28f1 ff3c b37b 703d c073 c03b
000001c0: 324c 98bd cad9 843d 1f04 fb3c 5e7e 023d
000001d0: 063e 0e3c 044a 0cbd 55aa 13bd 0377 07bd
000001e0: 4be3 9cbd 1d21 54bc b070 bebc 79ba e53c
000001f0: 1fc8 563d 6c40 a0bc 2cd3 9d3c 7f0c 6b3d
0.07637005 0.0143471975 -0.03410548 0.06421581 -0.0041649262 0.050355136 -0.02911894 -0.0012138969
0.030155178 -0.08484381 0.009768808 -0.05538311 -0.06518188 0.075780466 -0.037268706 -0.0076901987
0.0634735 -0.026406057 -0.014738551 0.09251185 0.034188908 0.0294605 -0.07450843 -0.029521724
0.015877152 -0.040192906 -0.0294837 -0.02772539 -0.0011224614 0.022998543 -0.021108085 0.009801499
0.042056665 -0.088443704 -0.045132667 0.036863916 -0.009556521 -0.04936382 -0.021586025 0.005737003
-0.057569873 0.04491776 0.025039615 0.03428496 -0.09661739 -0.014092758 0.06458588 0.016911127
0.013176416 0.00079705793 -0.042248055 0.035225976 -0.08789617 0.010657626 0.010728909 -0.12201711
-0.033219047 -0.02009135 0.029225463 -0.035678342 0.052824654 0.005282935 -0.030125624 0.053339235
-0.007872306 -0.057259586 -0.017124861 -0.030671233 0.13014846 -0.017412687 0.032163057 -0.036915094
-0.05957347 0.0028206734 -0.04233877 -0.061613947 0.05708757 -0.035213523 -0.06604527 0.06711939
0.03513866 -0.041291263 -0.037470512 0.016411696 -0.010348618 -0.051870525 0.011898002 -0.045435928
-0.023582755 0.06777184 0.027445816 -0.08777532 0.028545845 0.020859996 -0.013650521 0.053572062
-0.023706548 -0.047857154 -0.04500141 0.080713555 -0.07131645 -0.05613073 0.013469515 0.015743423
-0.07640888 -0.04378251 0.049539067 -0.07526334 0.043073278 0.031242922 0.05871172 0.0058731735
-0.07436408 0.064868525 0.030641614 0.031858794 0.00868178 -0.034250274 -0.036051113 -0.033072483
-0.0766054 -0.012947348 -0.023247093 0.028043019 0.052436944 -0.019561969 0.019265734 0.057384964

fc3.weight f4 [64, 128]
00000000: dd6c 363d f750 893d c13d 0e3e 414a f3be
00000010: 5014 0dbe 4fa4 7d3d 92dc 223e ee9a 05be
00000020: 9e37 d4bd 48d2 80be 9ae3 023d 8f34 3e3d
00000030: 013f c33d 72ab 0cbd 8146 a3bd 3160 263e
00000040: 0050 49bd 7e70 783d 110c 9c3c 7200 a5bd
00000050: 8ca0 d3be e144 b0bd 181f 723d c5a7 3ebd
00000060: c7cc e43d 1e97 af3c 731e aebd 0279 93be
00000070: 61ee 8e3d a853 39be 3612 203d 5640 17be
00000080: 514b 613c 94f8 39bc cc55 863d b8c8 cebe
00000090: f970 c0bc 00f6 0bbd d9ca 223b b97c a33d
000000a0: 83fa 90bd f0bc 193e 28be febd c007 f33d
000000b0: 8931 c5be 5ca8 1d3e f976 c2bd 01cd 4fbe
000000c0: 1af0 55be d0d3 2b3e e565 02bc abb2 9bbe
000000d0: b8b9 82bd 94f8 f63c dba4 5e3d d30f 473e
000000e0: 9eb0 afbc 6e84 8f3d bccc 6e3e d57a e63d
000000f0: 60c9 c8bd a909 b5bd 8f62 b1bd 904a f3be
00000100: d9c4 d43d 8959 bc3e 96ed 8cbe ae8b 74bd
00000110: 3048 3fbe d52f bd3d be55 07be 2812 de3d
00000120: 901c fbbd 949a 763d e1ff 62be 0ee1 99bc
00000130: 6f70 02bf ce1a 6cbd 1332 fbbc 1d90 d3bd
00000140: 6d42 48be 2833 123c e0f4 533e a091 01be
00000150: c213 a5be c1dd 15bd c8d2 91bc ddfe 953d
00000160: db4f be3d 2192 4b3d fe18 54bc 1ae0 193e
00000170: 521c bdbd 8b0b 193e b999 86bd 3867 8cbd
00000180: 624f c33c ab74 df3d 5e0b cabc dc2e c7bc
00000190: 8a20 df3d 26cf c73c 9695 1f3d d260 24be
000001a0: 7077 123e 17f8 59be f4d3 89bd ee75 3ebd
000001b0: e922 a73d 34ac 3d3d 1591 1c3d 71d8 e53d
000001c0: 31a3 cabd 5560 e43c 8ed3 24bc 6cf8 19bd
000001d0: fe47 0e3e e5c6 edbd 044c 4a3e 5ac3 febd
000001e0: 261e 81bd 3ffa 8f3d 5e9f b93c 31c5 02be
000001f0: f1f4 e33d 19eb 013e 9f81 07be 691f 2abe
00000200: 8abc 3d3d 3b84 79bc 616e a63d f050 5b3e
00000210: 53ad 1a3d 4801 dabb 9f81 7dbe f362 4e3d
00000220: 5650 8e3f c234 24bd 5a57 92bf f880 cbbb
00000230: 79ba 9d3d d5bd ee3c 27d1 143e 32c7 f0bd
00000240: 0608 eabc e76e 6d3d 0a6b a6bd 4a1a c9bd
00000250: 623a 7ebe 0371 013e 4343 193c 2f02 c3be
00000260: 2e4c 01bf e715 94bd b7a4 d3bb 4e87 5e3b
00000270: a95e fcbc fbc5 a4bd a09c 163e 14c4 29bd
00000280: 72e7 62be 6612 f83d 266a a73c 7831 803e
00000290: 000a 163e 9297 a83d 945b 1b3e a6c6 1e3c
000002a0: bbe7 eebd fc1e 9cbd b139 0ebe 298c d83d
000002b0: 8695 ae3d 5221 54be 73b5 11bd 0465 873d
000002c0: 1814 163e f126 8c3d 04c5 05bf 6eeb 5f3d
000002d0: 656a d33c 4e23 df3d 35dc 9e3d 37ed d3bd
000002e0: 77f6 9fbd c7fc e7bc 6ca3 94bd 13c5 693e
000002f0: c989 193d e28d 54bd 0900 173e 0124 f8bb
00000300: dd11 9abd 13c3 073e c63d 943c de97 1abe
00000310: e5fa 463d 08a7 853d 3a8f 0b3c d7a9 363e
00000320: bff3 df3c 558f 50ba e601 be3d 3157 193e
00000330: b7a4 b03c f1bf 14bd 4477 c73b d82f a23d
00000340: 8863 0f3c cd96 89be f455 6bbd bd43 67be
00000350: 7a61 49bc e84a 92be 10ff c53d 5c71 b73d
00000360: 1908 8cbe ab73 bebd 1746 debe af09 e0be
00000370: a95d acbd c9a7 3f3d 5c1d 91be ece0 26bc
00000380: 4bf9 4dbe f404 543d 1462 a6bd 1db9 c1bd
00000390: 1018 903d e4e2 083e 742f 41be be77 803e
000003a0: 22a7 a6bd 66e3 b03d 34bb 6dbe 3ea9 79bc
000003b0: ec65 343e 69ab dcbe 002c b03d 9e68 c9bc
000003c0: a460 11be cd24 2dbe 6de6 9fbd f13c d13d
000003d0: 0ced ffbc 348e d73d d76d 2f3d f86f 5a3e
000003e0: a888 223e 63f4 273d ccd0 273e e05b 913d
000003f0: 3e91 c5be c2f2 a5bd 4701 f4bd 3b57 793d
0.044537414 0.06704896 0.13890745 -0.4751759 -0.1377728 0.061924275 0.15904453 -0.13047382
-0.10362171 -0.25160432 0.03195534 0.046436843 0.095335014 -0.03434319 -0.07972432 0.16247632
-0.04914856 0.060654156 0.019048722 -0.080567256 -0.41333425 -0.086068876 0.059111685 -0.046546716
0.11171871 0.021434363 -0.085019015 -0.2880326 0.06979061 -0.18098319 0.039079867 -0.14770636
0.013750867 -0.01135077 0.06559333 -0.4038751 -0.02349137 -0.03417015 0.0024840145 0.07982773
-0.07079031 0.1501348 -0.12438613 0.118667126 -0.38514355 0.15396255 -0.094953485 -0.20293047
-0.20892373 0.16780019 -0.007958864 -0.3040975 -0.06383079 0.030147828 0.054356437 0.1943963
-0.021446522 0.07007681 0.23320287 0.11253897 -0.09804034 -0.08839733 -0.08661377 -0.47517824
0.10389108 0.3678706 -0.27525014 -0.05970352 -0.18679881 0.09237639 -0.13216302 0.10843307
-0.12261307 0.06020601 -0.22167923 -0.018784072 -0.5095281 -0.05764275 -0.030663526 -0.10330222
-0.1955659 0.008923329 0.20698881 -0.12653208 -0.32241637 -0.036588434 -0.017800704 0.07324002
0.09292575 0.049699906 -0.012945412 0.15026894 -0.09233917 0.1494581 -0.06572289 -0.06855625
0.023841564 0.109109245 -0.024663623 -0.024314336 0.10894878 0.024390768 0.038961016 -0.16052559
0.14303374 -0.21286045 -0.0672988 -0.046499185 0.081609555 0.046306804 0.0382243 0.112229235
-0.098944075 0.027877966 -0.010060204 -0.03759043 0.1389465 -0.11610202 0.1975556 -0.12439604
-0.063045785 0.070301525 0.022659 -0.12770535 0.11130703 0.12687339 -0.1323304 -0.16613545
0.046322383 -0.01522928 0.08126522 0.21417594 0.03776295 -0.006652985 -0.24756478 0.050387334
1.1118267 -0.040089376 -1.1432908 -0.0062104426 0.077015825 0.029143253 0.1453291 -0.117567435
-0.028568279 0.057967093 -0.08125885 -0.09819467 -0.24826959 0.12640767 0.009354415 -0.38087603
-0.50506866 -0.0723074 -0.0064588445 0.003395516 -0.030806856 -0.08045574 0.14708185 -0.04144676
-0.22158602 0.12112884 0.020436358 0.25037742 0.14652252 0.08232035 0.15171653 0.009690916
-0.11665293 -0.07623097 -0.13889195 0.105736084 0.08524613 -0.20715836 -0.035573434 0.06611064
0.14656103 0.06843365 -0.52253747 0.054667883 0.025807569 0.10895406 0.07756845 -0.103479795
-0.07810681 -0.028318776 -0.07257733 0.22829084 0.037484918 -0.051893122 0.14746107 -0.0075726514
-0.075229384 0.13258009 0.018095862 -0.15096995 0.048579115 0.06525999 0.008518035 0.17838226
0.027337907 -0.00079559284 0.09277706 0.14974667 0.021562917 -0.036315862 0.0060872156 0.07919282
0.008751757 -0.26872864 -0.05745502 -0.22584434 -0.012291307 -0.28572774 0.0966779 0.089571685
-0.27349928 -0.09299406 -0.4341285 -0.43757388 -0.08416302 0.04679087 -0.28342712 -0.0101854615
-0.20114629 0.051762536 -0.08124176 -0.09459136 0.070358396 0.13367802 -0.18865758 0.25091356
-0.08137347 0.08637123 -0.23215944 -0.015238104 0.17617005 -0.43099526 0.08602142 -0.024586018
-0.14197022 -0.1690857 -0.07807622 0.10216702 -0.031240962 0.1052517 0.04282936 0.21331775
0.15872443 0.04100455 0.16388243 0.07097602 -0.38587373 -0.08102943 -0.11914306 0.060874205

fc3.bias f4 [64]
00000000: 1905 7e3d 7739 a23c 5f04 0d3e f426 b63a
00000010: 56b2 c5bb 5be0 363d fc29 1c3d ec84 6f3c
00000020: 0e90 42bc 473b 7dbd 25d3 85bd 7734 8d3d
00000030: a7bf 9e3c 646b 243d 0b3f a83d 6751 85bd
00000040: d0d1 f3bc 480a babd 7b55 5abd cf07 3e3d
00000050: e344 a63c a73b 8abd 9aac 6b3d 81e3 b23d
00000060: 5a2f b8bc 4b58 c9bd 74c0 d8bb 5d04 ad3d
00000070: 893a 55bd 7e91 7f3d 60d1 5b3d 6618 33bc
00000080: 84c1 16bd 9f84 dc3d 02dd d5bc 784a c03c
00000090: 8a5f 193d 979e 87bd edd5 7a3d d3ab 823d
000000a0: ac2d 8ebd 4757 9bbc bbe9 db3c 5248 8f3d
000000b0: 11d6 e43c 0b67 bdbd 7106 2b3d 3437 30bd
000000c0: ff4b 18bd 0069 a83a 34b1 933d bd90 56bd
000000d0: 9b83 093d 5a7c c93d f0f2 9b3d db51 eb3a
000000e0: 3ebd afbb a2c5 1c3c c979 cc3c 2674 ed3c
000000f0: 943a 913d 7ef9 69bd 1702 cebc 3e79 a83d
0.06201658 0.019802792 0.13771199 0.0013897107 -0.006033222 0.044647556 0.038125977 0.014619093
-0.011875166 -0.06182411 -0.06534413 0.068947725 0.019378496 0.04014148 0.082151495 -0.06509667
-0.029763132 -0.09083992 -0.053304177 0.046394166 0.02029652 -0.06749659 0.057537653 0.08734799
-0.022483516 -0.09831294 -0.006614739 0.08448098 -0.052057777 0.06239461 0.053666472 -0.01093111
-0.036805645 0.10767483 -0.026106361 0.02347301 0.03744463 -0.066220455 0.06123917 0.06380429
-0.06942305 -0.018962516 0.02684485 0.06996216 0.027934106 -0.092481695 0.04175419 -0.043021396
-0.03718185 0.0012848675 0.07211533 -0.052384127 0.033572774 0.09838171 0.07614696 0.0017953472
-0.0053631356 0.009568604 0.024960415 0.028986048 0.07091251 -0.0571227 -0.02514748 0.0822625

fc4.weight f4 [2, 64]
00000000: 984b 133f 1db7 0dbf 4d6e 4c3e 455e d93d
00000010: 0aa1 183f 273b 1ebe ba32 1fbd 2b9d 463e
00000020: 10eb 0e3d d778 07be 5d32 93bd 1882 893b
00000030: c890 0bbf fc50 24bc be2c 80be 526d fd3c
00000040: f6c1 6d3e 4363 98be 4288 fb3e b9d5 36bb
00000050: 972d b13d ee04 21bd aa60 0ebc 3f00 45bc
00000060: 2393 763e f515 07be 8ec9 7cbe e5ac 723d
00000070: 168a 183e 95b1 8cbd c18f dbbe f91a 183f
00000080: c11a c2bd eef1 643e fd27 e0be 8fb1 ca3d
00000090: fe02 543f d809 90be e753 60be 9ba9 dd3e
000000a0: 2f26 5e3c 24b8 5c3d 8d8e 0abe 16cf 28bd
000000b0: 884f 22be 1370 93be 220f 10be f528 fcbd
000000c0: 7888 ab3c 238b 923e 7882 e4bd e871 1b3e
000000d0: b62c f63b 74e7 f43c 0bd1 9c3d cc3a d8be
000000e0: 1a95 2a3f 37bd 9f3e a0ba f73d 18a0 533d
000000f0: 9986 7cbd 674f 83be e004 f33e ac50 b63d
00000100: 0ee1 d9bd fae0 bfbe e3c2 11be bfe9 103e
00000110: bba0 063f 070b f73c 5997 553f 0302 75bd
00000120: b9ef 773e 957e 9abe fbd0 a53e 2920 033f
00000130: 63b7 64be 99a4 f8bd 87f1 e9bd c313 6e3f
00000140: 45ea 523e 0f10 0ebe 07d4 17be 52c4 a53f
00000150: 0ead 7d3e 8f60 cebe 4437 2d3f 8939 d4be
00000160: 3d1a b9be 22ac 8b3e dadd 2fbd 0d26 7d3f
00000170: b627 6fbe f63a 543e 1b25 bb3e 8cb6 b43e
00000180: 7a25 93be c3f6 8abe 3efb 8abe b1d3 e33e
00000190: 0998 fc3d 3cc5 b83e d60d 26be b7c8 1ebe
000001a0: d844 d93e 3e3a a1be 5a7a 4b3e 71e6 f3be
000001b0: 0f8a cebe 92e2 773d 7d42 2ebe 3157 77bf
000001c0: a0e8 373e 638e a13e 5e6f 0d3e 0d3f 4e3f
000001d0: a552 0cbf cda1 bf3e 557a 05bf 57fb dfbe
000001e0: 4397 2cbd 4082 543e 23b5 abbd a44e 80be
000001f0: 5729 ea3e 1206 b3be 0980 823e b5d9 343f
0.5753722 -0.55357534 0.19963951 0.106136836 0.59620726 -0.15452252 -0.038866736 0.19395892
0.03489214 -0.1322969 -0.071873404 0.0041964166 -0.54517794 -0.010029074 -0.25034136 0.030935917
0.23218521 -0.2976323 0.49127394 -0.0027898385 0.08651274 -0.039311342 -0.008690039 -0.012023984
0.24079566 -0.1319197 -0.24686262 0.059246916 0.14896426 -0.068698086 -0.42883113 0.59416157
-0.09477759 0.22357914 -0.4378051 0.09897148 0.82817066 -0.2813251 -0.21907006 0.4329346
0.013558908 0.053886548 -0.13530941 -0.041213118 -0.15850651 -0.28796443 -0.14068273 -0.123124994
0.020939097 0.28621778 -0.111576974 0.1518017 0.007512654 0.029895522 0.07657059 -0.42232358
0.6663376 0.31199047 0.12096143 0.05166635 -0.0616518 -0.25646517 0.47464657 0.08902106
-0.10638629 -0.3747633 -0.142345 0.14151667 0.52589005 0.030156625 0.83434063 -0.05981637
0.2421254 -0.301747 0.32386002 0.5122095 -0.22335581 -0.121407695 -0.11423021 0.92998904
0.20597179 -0.13873313 -0.14826976 1.2950537 0.24773046 -0.40308043 0.67662454 -0.41450146
-0.3615283 0.27279764 -0.042936184 0.98886186 -0.23354992 0.20725617 0.36551747 0.35295522
-0.2873953 -0.2714139 -0.27144808 0.44497445 0.12333686 0.36087978 -0.16216215 -0.15506254
0.42435336 -0.31489748 0.19870892 -0.4763675 -0.40339705 0.06051881 -0.17017551 -0.9661742
0.17959833 0.31553945 0.13812014 0.8056496 -0.54813606 0.37428132 -0.5213979 -0.43746445
-0.042136442 0.20752811 -0.083841585 -0.25059998 0.45734665 -0.3496557 0.25488308 0.70644695

fc4.bias f4 [2]
00000000: a441 773d c250 8abd
0.060365334 -0.067536846
