checkpoints/Computer1-0-checkpoint-0.6006-actor.pth (torch, 193711 bytes, 8 tensors)

fc1.weight f4 [256, 24]
000000 89 1b c4 bd ab 52 88 3e f8 f9 13 38 af c1 b0 bd
       -0.095755644 0.2662557 3.5280333e-05 -0.08630692
000010 50 fa 41 3d 52 1c a8 be 2e 02 ff 3d d4 fd 54 3e
       0.047357857 -0.32834107 0.124515876 0.20799953
000020 d0 00 13 3d b1 1d 23 be 3f 4b a4 bd 68 0a 3d be
       0.035889447 -0.15929295 -0.080221646 -0.18461001
000030 89 4e d5 3c ae bb 04 be 6e dd a0 3d 37 b2 7d be
       0.026038425 -0.12962219 0.07854734 -0.24775015
000040 a6 62 ab bd 56 8c 16 bd 64 8d 26 be e3 37 03 be
       -0.08368425 -0.03675493 -0.16264874 -0.12814288
000050 fa 6c e6 bd 13 6a c3 3a 9d a0 7b 3b 2d 7f 6d bd
       -0.112512544 0.0014908932 0.0038395294 -0.057982612
000060 21 16 50 3d 0b 2d 4d 3e 48 25 68 3d a8 95 b0 3c
       0.050802354 0.20036714 0.05667618 0.021555737
000070 df 7b fa bd 98 c4 3f 3e 02 f7 fb 3d 24 8b 5b be
       -0.12230658 0.18727338 0.123029724 -0.21439797
000080 f1 6a 6b bd 30 29 d7 bd 99 ab a5 bd a1 9b a6 3c
       -0.057475034 -0.10505903 -0.0808937 0.020337882
000090 01 11 4e bd af c3 be 3d e3 46 27 3d 21 3d c6 3a
       -0.050309185 0.093146674 0.040839087 0.0015124419
0000a0 65 52 fa 3d 14 fe ea 3d 51 88 16 be 0d 0c 00 3d
       0.12222747 0.11474243 -0.14700438 0.031261493
0000b0 51 b0 45 3e b6 77 ab bd 78 21 d7 bd 13 3c 80 be
       0.1930554 -0.083724424 -0.105044305 -0.25045833
0000c0 41 8b 7a 3e cb a5 28 3c 74 77 32 be ea 2b 77 3b
       0.24467184 0.010293434 -0.1742838 0.0037715384
0000d0 06 73 1d be 80 f9 d4 bc 14 96 49 bd d7 e2 0c bc
       -0.15375909 -0.025997877 -0.04921539 -0.008599005
0000e0 f9 87 ee bd 6d b1 2c be 3b a0 5a bb 1e 04 a9 bd
       -0.116470285 -0.16864558 -0.0033359665 -0.082527384
0000f0 2e 12 db 3d b8 de 2d be 05 32 e1 bd dd 67 67 be
       0.10696827 -0.16979492 -0.109958686 -0.22598214
000100 2c 31 6d 3d 6d d9 ba bd 32 6e 9e bd 85 61 36 3e
       0.057908222 -0.09123502 -0.07735862 0.17810638
000110 de 0f b5 3e 47 ea 47 be ad 44 8c 3d 82 84 53 3e
       0.35363668 -0.19522963 0.06849036 0.20656016
000120 b2 bf 8a 3d 6e cd fa 3b d2 73 a6 bd b0 ef 8e 3e
       0.06774844 0.0076538837 -0.0812756 0.27917242
000130 91 d7 87 3d ee 05 1f be 70 15 1d be 28 45 77 3e
       0.06632913 -0.15529606 -0.15340209 0.24147475
000140 01 c8 d7 3d 2c a0 72 be 61 66 72 bd dc 48 e4 3d
       0.105361946 -0.23693913 -0.059179667 0.11146709
000150 26 2f d5 3c 73 d2 bf bd f5 8a 0a be c4 02 e6 bd
       0.026023459 -0.09366312 -0.1352957 -0.11230996
000160 a2 c0 e2 3c 60 02 43 be b2 b3 2d be 24 88 5c be
       0.027679745 -0.19043875 -0.1696308 -0.21536309
000170 87 9e 65 bd 41 af a5 be 75 9e 34 be a4 28 d9 bc
       -0.056059387 -0.3236027 -0.17638572 -0.026508637
000180 96 68 0e bd 43 3d fe bd 89 bd 01 be 64 11 66 bc
       -0.03476771 -0.124140285 -0.12669958 -0.014042232
000190 43 6b b2 be aa 80 e9 bd ca 6e 6e bd 9a ba 33 be
       -0.3484746 -0.11401494 -0.058211125 -0.17551652
0001a0 a3 78 31 3d 29 ca 86 bd de bd 1e be 49 3e 88 3e
       0.04332794 -0.06581528 -0.15502116 0.2661002
0001b0 c0 2a 93 be a0 20 cb bd 82 6a d8 bd 6b 56 93 3e
       -0.28743553 -0.09918332 -0.1056719 0.2877687
0001c0 f9 7a 35 bd 03 da 6e bd e3 1f 2a be 65 40 85 3e
       -0.04430673 -0.05831338 -0.16613726 0.26025692
0001d0 7d 56 0b be af b2 33 3e df a1 02 bd 29 1c 98 3c
       -0.13607211 0.17548631 -0.031892654 0.018568115
0001e0 5a 78 32 be ca b5 cb bd e6 98 20 be 38 40 0a bd
       -0.17428723 -0.09946783 -0.15683326 -0.03375265
0001f0 79 d3 cd bd dc 74 6b 3e 7f 44 f8 39 6e f6 86 3d
       -0.10050101 0.22993797 0.0004735328 0.065899715
000200 e0 1f 9c bd d9 62 9c 3d 69 6c 0d 3e 12 05 1b 3e
       -0.07623267 0.07636041 0.13810886 0.15138653
000210 4a 3c 2a 3d 6b 9c 88 3e 2a 5e 18 be 78 5f 4f bd
       0.041561402 0.26681837 -0.1487967 -0.050628155
000220 e6 b6 6a 3e a0 56 75 3d d6 2a ab bd 30 80 36 3e
       0.22921333 0.059897065 -0.0835778 0.17822337
000230 f8 9f 6f 3e 2f 4d 40 3e ca 48 fd 3c 19 5f cd bd
       0.23400867 0.18779443 0.030918498 -0.10027904
000240 6d cd 34 be db fa 4c 3e 27 3a 2e bd 54 b0 88 bb
       -0.17656489 0.20017569 -0.042535927 -0.0041714106
000250 14 91 87 3e e1 dd 4b be ed e0 93 3d fb 8f 69 3e
       0.26477873 -0.19908859 0.072206356 0.2280883
000260 5d 13 20 3c 8b e9 13 3e e7 4f 10 bd 64 bd 1c 3c
       0.009770242 0.14444558 -0.03523245 0.009566639
000270 79 1a 11 3e b4 bc 41 3d 59 12 37 3d 4a 41 1a be
       0.14170255 0.047299102 0.044695232 -0.15063968
000280 b7 1d 81 bd 78 31 9d 3e c1 a4 c2 bd f7 d4 84 be
       -0.06304496 0.30701804 -0.095040806 -0.2594373
000290 16 06 60 be 9a 67 10 be d8 69 23 3e a0 36 97 be
       -0.21877322 -0.14102021 0.15958345 -0.29533863
0002a0 51 c9 32 3d 83 61 03 3e fc 48 8a bd c0 2f ae 3d
       0.04364902 0.12830167 -0.06752202 0.08505201
0002b0 06 82 0f 3e 36 87 73 3e 26 bc 0d 3e 60 84 29 3e
       0.14014444 0.23782048 0.13841304 0.16554403
0002c0 cd d2 15 be ce 50 0e be 66 5d ed bc 5b 4f 36 bd
       -0.14631195 -0.13898012 -0.0289752 -0.044509273
0002d0 bc 09 d7 bd f9 e1 22 3e 1d 67 c4 3d 9b a3 29 3d
       -0.104999036 0.15906514 0.0958998 0.041415792
0002e0 98 35 9b bc 8a 11 7b 3d 1a 10 e7 bc c6 a0 30 be
       -0.018946454 0.061296023 -0.02820592 -0.1724883
0002f0 79 76 be be 61 ea 0b 3e 74 b3 5c 3d 68 34 1c be
       -0.37199762 0.13663627 0.053882077 -0.15254366
000300 9b 18 3e be e0 29 50 3d d2 df 5d 3d 79 3f 9a 3e
       -0.18564074 0.050821185 0.05416853 0.3012655
000310 92 7b d5 bd 47 94 53 be 58 79 68 bd 1d d8 84 3e
       -0.1042396 -0.20662032 -0.056756347 0.2594613
000320 12 6a fe 3c a2 ed dd bd 11 54 1b be 94 64 20 3e
       0.031056438 -0.108363405 -0.15168788 0.15663368
000330 e7 d0 45 3e 83 92 91 bd a5 31 15 be 06 6b 12 be
       0.19317971 -0.07108023 -0.14569719 -0.14298639
000340 d6 21 f4 bd c5 f1 4e 3e aa ac 86 be c4 38 5f be
       -0.11920516 0.20209415 -0.26303607 -0.21798998
000350 83 34 9c 3d 38 6f bb be da cb 11 be b3 29 72 be
       0.07627203 -0.3660829 -0.1423792 -0.2364872
000360 a7 6a 92 3d b0 d3 1a be a8 70 cb bd 7f 34 c1 bd
       0.071492486 -0.15119815 -0.09933597 -0.09433841
000370 ca e6 7c 3e 7e ad e1 3d df 4f 80 3d 15 8b 34 be
       0.24697414 0.11019419 0.06265234 -0.1763118
000380 ed cc de bd f1 12 1a 3e a4 7c 95 3d 90 43 21 bb
       -0.1087893 0.15046288 0.07299164 -0.002460692
000390 be c3 79 3e ed 1f 1f 3d 7c c7 6d bc 83 c3 06 be
       0.24391076 0.038848806 -0.014512893 -0.1316052
0003a0 f2 f2 91 bd e8 c0 54 bd d2 92 32 be 1a 92 8c 3b
       -0.07126416 -0.051941782 -0.1743882 0.0042898776
0003b0 25 6a 06 bd 56 d2 93 3e cd fa 13 be ac 69 90 bc
       -0.03281607 0.2887141 -0.14451142 -0.017628513
0003c0 fd 71 0f 3e bd b6 8d 3c e0 e0 47 bd 8f 9a 1e be
       0.14008327 0.01729905 -0.048798442 -0.15488647
0003d0 b2 b7 14 be 24 db 5d bc 63 86 24 be 54 a8 24 be
       -0.14523199 -0.013541017 -0.1606689 -0.16079837
0003e0 32 fc d0 bc ce 98 c5 bd 78 db 1b bd ed be a6 bd
       -0.025510881 -0.09648286 -0.0380511 -0.08141885
0003f0 48 4a ff 3d 21 4d 7d 3e c7 0b 72 bc be c2 fb 3d
       0.1246534 0.24736454 -0.014773316 0.122930035

fc1.bias f4 [256]
000000 65 50 1d be 25 2b c0 3d 67 b9 85 be 88 77 4f 3c
       -0.153627 0.09383229 -0.26118013 0.012662776
000010 db 31 2c be 8a 5f 52 3d 7f 44 60 3e 21 32 09 3d
       -0.16815893 0.051360644 0.21901129 0.033495072
000020 74 33 f0 3d 67 71 ae 3d c9 60 a8 3d 90 5c 9c 3c
       0.11728564 0.085177235 0.08221585 0.019087106
000030 15 61 3b be ce 0f e7 bd 6c 78 32 3e ee 23 f8 bd
       -0.18298753 -0.112823114 0.1742875 -0.12116228
000040 c7 ac 4a 3e 07 67 04 bc 64 1f 8e bd 8d ab 11 bd
       0.19792472 -0.008081204 -0.06939581 -0.035563994
000050 a3 79 bd 3d 9c d9 0b 3e 67 93 8d bd b7 51 10 3e
       0.09251716 0.1365723 -0.069128804 0.14093672
000060 ec 09 07 3d f8 7a 44 bd 3b 04 a8 3d b7 96 8e be
       0.032968447 -0.047968835 0.08203932 -0.2784936
000070 eb 73 00 3e 82 99 89 bd 2e e7 b7 3d 13 7a da bd
       0.12544219 -0.067187324 0.08979641 -0.10667815
000080 14 7d 1c 3c f7 4c 80 3d de b4 28 be 71 b4 94 bd
       0.009551305 0.0626468 -0.16475245 -0.07260979
000090 96 df cd bd 98 e0 2b 3b 82 1c 6a 3e e6 5c 4c 3b
       -0.10052411 0.0026226398 0.22862437 0.0031183301
0000a0 dd 63 54 be 2c f9 b2 3d 69 38 e9 bb 55 89 4d be
       -0.2074122 0.08738932 -0.0071173203 -0.2007192
0000b0 57 94 6d be 19 df c6 3d 4a bd 04 3e 62 be 1a bd
       -0.23201118 0.09710521 0.12962833 -0.03777922
0000c0 ff 68 78 bd 1a a8 e8 bd 34 8c 83 3d 92 74 a9 bd
       -0.060647007 -0.11360188 0.06423226 -0.08274187
0000d0 7e 25 68 bc 35 38 d5 bd 46 cb 20 bd b1 1b 8c 3d
       -0.014169095 -0.10411111 -0.039256357 0.06841219
0000e0 e2 bf 24 3e 2b 12 aa bd 18 04 36 bc 5a b9 8e 3d
       0.16088822 -0.083042465 -0.011109374 0.06968947
0000f0 02 76 8c bc 32 a3 41 3e ee 71 98 3d 0d 0c 28 3e
       -0.017146114 0.1890991 0.07443605 0.16410847
000100 af 45 92 bb 94 fe ed 3d b9 db 17 3d 4a 1f 8b 3b
       -0.0044638733 0.116208225 0.03707478 0.0042456733
000110 34 2b 2c be 7a ee 5a be 62 01 88 be b0 ab d4 3d
       -0.16813356 -0.21380034 -0.26563555 0.10384309
000120 e9 56 96 3d 38 bc 3d be 69 48 30 3c ff 4d 3e 3e
       0.073407955 -0.18528831 0.010759451 0.1858444
000130 00 35 96 bd bd 71 e1 bd 8e ba 00 bd a3 92 2a be
       -0.07334328 -0.11008022 -0.031427912 -0.166575
000140 7c b3 4b be 46 74 3b 3e 16 e6 63 3d 04 42 3b be
       -0.19892687 0.18306074 0.05563935 -0.18286902
000150 b3 34 74 be 82 25 80 3d a3 91 eb 3d 80 e1 e5 3d
       -0.23848228 0.06257154 0.115023874 0.11224651
000160 91 51 98 bc dc 36 e6 b9 9e 69 ee bc b3 32 e4 3c
       -0.018593581 -0.00043909892 -0.029103097 0.027856207
000170 62 33 ef 3d b7 df 15 3e 98 fc bc bc da 93 80 3d
       0.11679722 0.14636122 -0.023069665 0.062782004
000180 95 36 27 3e 57 9e 39 3e 48 39 b9 bd 74 99 af 3c
       0.16329415 0.18126808 -0.09044129 0.021435477
000190 45 d4 00 3e 3d e3 93 3d 45 64 a3 bc 66 5b de bd
       0.12580974 0.07221077 -0.019945273 -0.108572766
0001a0 34 c4 22 bd c3 08 6f 3e 04 d6 32 be 54 9c 24 bd
       -0.039737895 0.23343186 -0.17464453 -0.04018815
0001b0 ed fd 25 be 6a 5c 48 be 73 a7 6c be 38 cf c2 bd
       -0.16210146 -0.19566503 -0.23110752 -0.0951218
0001c0 23 77 1d 3e 3f 9f 64 bd 82 49 6a bd c3 d6 88 3c
       0.15377478 -0.05581593 -0.05719901 0.016703969
0001d0 9c dd a9 3d 4d 38 2f 3d 5f 46 09 3d 40 9d 61 be
       0.08294222 0.042778302 0.033514377 -0.22032642
0001e0 4a 25 70 bd b5 c7 20 bc ea 98 d4 bb ab ea 25 be
       -0.05862931 -0.009813239 -0.0064879553 -0.162028
0001f0 b9 f8 89 bd 5c c2 60 3e 03 d6 8e be 66 f7 0f be
       -0.06736893 0.21949142 -0.27897653 -0.14059219
000200 0c 81 f8 bc 75 88 eb 3c de 9c 02 3e f2 57 4f 3e
       -0.030334972 0.028751591 0.12755153 0.20248392
000210 5c 49 b2 3c ef 1e 01 be b3 6c 20 3e 25 36 4a 3d
       0.021763496 -0.12609456 0.15666465 0.049368042
000220 6b 4d f5 3d 2e db 4a 3e 52 51 8f 3c b9 65 42 be
       0.11977657 0.19810173 0.017494831 -0.18984117
000230 13 77 c8 3d d0 c3 37 be 11 c0 2b 3e 49 59 2f 3e
       0.097883366 -0.1794579 0.16772486 0.17123903
000240 14 d0 03 be 14 79 4f 3e 5f b9 18 be 2e f0 20 be
       -0.12872344 0.20261031 -0.14914463 -0.15716621
000250 22 22 8a 3c 97 ef a6 bd ce d5 05 3e f8 36 06 3e
       0.016861979 -0.08151167 0.13069841 0.13106906
000260 72 2c 1f be 00 41 82 bd 6c 12 1e 3e 0b f9 00 be
       -0.15544298 -0.06360054 0.15436715 -0.12595002
000270 22 10 a8 bc c6 9d cd 3c c3 16 0b be f5 76 e6 3d
       -0.020515505 0.025099646 -0.13582902 0.11253158
000280 a3 38 c0 3d 40 be 40 3c 67 24 03 3d 94 9a aa bd
       0.093858026 0.011764109 0.032017138 -0.08330265
000290 2d fc 3f bd 89 1f 68 3e 86 2c c1 bd be 5c 42 bd
       -0.046871353 0.2266828 -0.0943232 -0.047451727
0002a0 17 d7 5b be a9 66 45 be 0f 49 33 3d 3e 72 4e be
       -0.21468769 -0.19277443 0.043770846 -0.20160767
0002b0 b2 72 0d ba f6 85 ea bd fc 9f 92 bd ec 84 20 3c
       -0.0005395814 -0.11451332 -0.07159421 0.009797316
0002c0 17 2b d2 bd 3b ae 79 be 78 2f 66 3b 11 79 76 3d
       -0.10262125 -0.2438287 0.0035123508 0.06017405
0002d0 4f 6e 28 be 6a a0 a3 bd 56 77 31 bc 94 56 ba 3d
       -0.1644833 -0.07989581 -0.010831675 0.09098545
0002e0 4a dc 96 bd fd eb 05 3e 80 f3 6f bd c4 11 fc 3c
       -0.073662356 0.13078304 -0.05858183 0.03077019
0002f0 5f 15 70 bc 5f 05 d1 3d 48 78 23 3b ca 01 2c be
       -0.014653533 0.102061026 0.002494352 -0.16797557
000300 0e 59 08 3d 44 c4 bf 3d 05 07 64 bd c0 60 3e be
       0.033288054 0.093636066 -0.055670757 -0.18591595
000310 0c 4d 03 be 35 cd 3c be e6 dd f8 bd e1 65 2b ba
       -0.1282236 -0.18437655 -0.12151699 -0.00065383135
000320 75 0b 95 bd ba 34 bf bd ca 31 eb bd ba bf f5 3d
       -0.07277576 -0.09336229 -0.11484106 0.119994596
000330 72 c7 92 bd bb 16 cd 3d c5 05 11 be 79 1d 06 3c
       -0.071669474 0.10014101 -0.14162357 0.008185738
000340 3b 8e 37 be 16 13 82 be 69 27 8b 3d 81 08 99 3d
       -0.1792535 -0.25405186 0.06794626 0.07472325
000350 de 0b 82 3d a7 cd 1a bd 2c 2f 1c 3e 82 6f 45 be
       0.0634992 -0.03779378 0.1525237 -0.19280818
000360 a3 e7 09 be 6b 45 0e bd 17 41 17 3e 51 70 3a be
       -0.13467269 -0.03473417 0.14770924 -0.18206908
000370 da 92 ec 3d 03 f1 59 3e 24 9c 54 3e c3 c1 34 be
       0.11551447 0.21283345 0.20762688 -0.17652039
000380 6c 6a 47 3e 6a 04 e1 3d 0b 76 bc 3d cc ca 22 bd
       0.1947419 0.1098717 0.092022024 -0.039744183
000390 ed f6 0d bd 34 77 1c 3a 83 a1 75 be ef 48 76 bd
       -0.034659315 0.00059686904 -0.23987393 -0.06012815
0003a0 3c 25 71 3e 92 17 4d 3e 18 15 fc 3d 91 c0 5e be
       0.2354936 0.20028523 0.12308711 -0.21753146
0003b0 e3 a1 87 bc 76 a7 7a 3e f3 a7 c3 3d 89 9b 83 be
       -0.016556686 0.24477944 0.09553518 -0.257046
0003c0 24 9e b9 bc 22 3f 1d 3e 12 7b 99 3d 9f 85 08 3e
       -0.022658415 0.15356115 0.07494177 0.13332222
0003d0 73 5d be bd 6a 08 2c be 15 13 9d bd b1 70 f6 3d
       -0.09295168 -0.16800085 -0.07669655 0.12033213
0003e0 5a 75 c4 3d 0a b1 c0 bd 50 0c 23 3d ee 20 b5 bd
       0.095926955 -0.094087675 0.039806664 -0.088441715
0003f0 2a ee 4a 3d c8 e3 7d bc 5b 9b 05 3e e0 66 90 bc
       0.049543537 -0.015496202 0.13047545 -0.01762718

fc2.weight f4 [128, 256]
000000 75 39 34 3b 50 0e c0 3c 2b fb db 3d db 29 30 be
       0.0027500067 0.023444325 0.10741266 -0.17203467
000010 ee cf 6a be 94 d3 01 bd 94 3a ed 3d f5 d0 6a 3c
       -0.22930881 -0.031695917 0.115834385 0.014332046
000020 75 e8 c7 3c 3a 63 98 3d bc 43 6c 3d 3e b1 05 3c
       0.024402836 0.07440801 0.057681784 0.008159934
000030 9a ab 8b 3c bb ad e0 3d f3 23 45 3d ff db f2 bd
       0.0170496 0.109706365 0.048129987 -0.11858367
000040 c4 a6 55 3d f0 de a2 bc 9e 27 e1 3d ee 51 74 bc
       0.052160993 -0.019881696 0.109938845 -0.014912112
000050 31 bb 78 bd c5 4e c8 3d 85 d5 2f bd c1 cc db 3d
       -0.060725395 0.09780649 -0.042928237 0.10732413
000060 05 e7 e1 bc ed 89 49 be c5 5e 96 bd 95 b0 5b 3c
       -0.027575979 -0.19681521 -0.073422946 0.0134088
000070 b4 df d7 bd 10 67 4e 3d d5 4f 16 bd 86 54 0d 3c
       -0.10540715 0.050391257 -0.036697228 0.008626109
000080 25 4c 54 be e5 f7 3c bd 72 40 26 bd dc 88 1e 3d
       -0.20732172 -0.04613485 -0.040588804 0.038704738
000090 42 12 83 ba 53 f8 d2 3c 77 e4 e1 3d a8 74 ee bd
       -0.0009999948 0.025753176 0.11029904 -0.11643344
0000a0 5b 06 0e bd 4e 2a c9 3d 7c 41 50 bc 3a 70 ce bd
       -0.03467403 0.09822522 -0.012710925 -0.10079999
0000b0 78 3d d5 3d d5 84 de bd c5 5c 95 3d dd 22 a6 3d
       0.10412115 -0.108651794 0.07293085 0.081121184
0000c0 21 1e 47 be 91 c1 07 be b3 21 81 3d 7f 7e 1c 3d
       -0.19445087 -0.13257433 0.06305256 0.038206574
0000d0 45 7a 12 be 1e f2 72 3c 24 e5 a1 3d 5c fa d4 bc
       -0.14304455 0.014828233 0.07905033 -0.025998287
0000e0 6c e1 1f bd b8 47 cc 3d 93 71 bb 3d 68 8d f8 3d
       -0.03903334 0.09974617 0.09152522 0.12136346
0000f0 87 be d3 3d b6 ce ab bc c0 10 2f bd 39 f9 b8 3c
       0.103390746 -0.02097259 -0.042740583 0.022579776
000100 d4 41 21 bd aa 74 c8 bc 95 9d ce 3d 81 f3 c0 bd
       -0.03936942 -0.024469692 0.1008865 -0.09421445
000110 c4 e8 b2 bc d5 2b c9 bd 77 c9 12 bd ac 91 55 bd
       -0.021839507 -0.098228134 -0.035836663 -0.052140877
000120 a9 01 76 bd 12 7b 80 3d ff 66 ee bd a3 04 0b be
       -0.060060177 0.06273474 -0.11640739 -0.13575988
000130 4e 50 de 3b 21 50 bd 3d 07 10 80 3d 7a ec be 3b
       0.0067844754 0.09243799 0.06253057 0.00582653
000140 db 34 b9 bd fa 1b bd 3d 26 43 8b 3d 08 9f cd 3c
       -0.090432845 0.09233852 0.06799917 0.025100246
000150 a4 d7 05 3d 3d 90 ac bd b9 8d 0a be 3a d8 f0 bd
       0.032676354 -0.08425949 -0.13530625 -0.11759992
000160 44 b9 04 3d a7 c1 40 bc cc 54 13 3d 6c d5 83 39
       0.032403246 -0.01176492 0.03596954 0.0002514528
000170 82 b1 fd bc 15 14 94 3d f0 e7 e1 bd 43 5f a6 bc
       -0.030968431 0.07230393 -0.11030567 -0.020309096
000180 cd 8c c4 3d fb fe 35 bd 30 4b 78 bc 3c 44 9f 3d
       0.09597168 -0.04443262 -0.015154645 0.077766865
000190 83 19 0c be de da 92 bc 8d 7d 07 bc aa 42 2b bc
       -0.13681607 -0.01792663 -0.00826968 -0.010452906
0001a0 cc 7f 4d bd fb 45 9b 3d fb 0c 02 bc 82 0e a3 bd
       -0.050170705 0.07581707 -0.007937665 -0.079617515
0001b0 29 2f dd 3d 2e cd 92 bb 1b 1c f7 3d 14 db 55 bd
       0.10800011 -0.0044800257 0.120659076 -0.052210882
0001c0 d2 a5 78 bb 12 52 1f bc 7f ca e8 3c e6 7f 9b 3d
       -0.0037940633 -0.009724157 0.02841687 0.07592754
0001d0 5d 59 1a 3e 33 cd 2e bd ad d7 3e 3d 76 2d 43 bd
       0.15073152 -0.042676162 0.046592403 -0.047650777
0001e0 6a 3a bc 3d fd 46 9d 3b a8 50 b7 3d 65 7e 0f bd
       0.09190829 0.004799722 0.08950931 -0.03503265
0001f0 83 13 d4 3d 02 b1 0a 3d 8b 93 96 3c d5 8b 33 3d
       0.10355284 0.033860214 0.0183809 0.043834526
000200 20 2e e7 bd 7b 29 49 be a2 70 0f 3d 0d 8c a4 bc
       -0.112880945 -0.1964473 0.035019524 -0.020086313
000210 4c 8e 9b bc 02 b5 09 bd b6 85 cc 3d bc b0 86 3d
       -0.01898875 -0.033619888 0.09986441 0.06576678
000220 2c c8 e3 bc 28 22 22 3e a8 bd 1a bd d3 bb 2b bd
       -0.02780541 0.15833342 -0.037778527 -0.04192717
000230 ec 9d 66 3d 37 b7 b2 3d e5 55 c1 bd ee f6 3c bc
       0.05630295 0.08726352 -0.09440211 -0.011533482
000240 a2 05 4b 3d 16 64 2b bd 3b dd 10 3d 5c a9 b3 bd
       0.04956592 -0.041843496 0.03536723 -0.08772537
000250 59 3e ab 3c 65 9b 8d bb 20 53 e2 be 7d 5e 2f 3d
       0.020903753 -0.004321503 -0.44204044 0.04281472
000260 f3 90 20 3d 54 ca dd 3d fc b3 54 3d be 24 06 3e
       0.039200734 0.10829607 0.05192946 0.13099954
000270 7b 1c b4 3c 9b 1c 15 3e 89 15 1b be b0 4f 81 3d
       0.021986237 0.14561693 -0.15144934 0.06314027
000280 28 96 6a be b1 06 40 be 48 ca 5a 3d 08 35 94 3c
       -0.22908843 -0.18752553 0.053415567 0.018091694
000290 c9 93 d3 3d bc 2c 3c 3d f6 cc 82 bd fa 43 33 3d
       0.10330922 0.0459411 -0.063867494 0.043766
0002a0 bc ef be bc eb 6d 89 bd 73 15 82 be b5 d9 f1 3d
       -0.023307674 -0.06710418 -0.2540699 0.118091024
0002b0 0f 66 64 bd 9e 8c 7a 3c b4 f4 a2 3d 53 02 97 3d
       -0.055761393 0.015292315 0.0795683 0.0737349
0002c0 41 1a 22 bd e4 18 40 be 9e bf 05 be 2a 16 b6 3d
       -0.03957582 -0.18759495 -0.13061377 0.08890946
0002d0 1d 71 87 bd cd 19 0a 3e 67 85 49 3d 4a 17 d1 3b
       -0.066133715 0.13486405 0.049199488 0.00638095
0002e0 0f 84 32 3d f4 06 27 bd da 3a 43 3d 9b 11 44 3b
       0.043582972 -0.040778115 0.047663547 0.002991772
0002f0 0b ad 8e bc 07 50 d6 3d 6a bd ff 39 81 28 b7 bd
       -0.017416498 0.10464483 0.00048778515 -0.089432724
000300 46 e9 99 3c f2 2d de 3d 03 2d f3 bd 1f dd 56 be
       0.018787991 0.10848607 -0.1187382 -0.20982789
000310 14 d3 38 bd ec 20 85 bd 0b f7 fd bc 27 a5 1c 3d
       -0.045123175 -0.0650042 -0.031001588 0.03824344
000320 75 0c ec 3c f8 e9 83 bd b7 df 2b 3d c3 20 8e bc
       0.028814534 -0.064411104 0.041961398 -0.017349606
000330 3c 54 f6 bd 49 0d d3 3b 1b 91 5b bd 0c c6 87 be
       -0.12027785 0.0064407927 -0.05360518 -0.26518285
000340 23 88 88 bd 1f 08 6e bd a0 fc b1 3d 82 cf 7f 3d
       -0.06666591 -0.058113214 0.086907625 0.062453754
000350 c7 e4 60 3c 67 c7 df 3a 84 fe b2 3c 26 c1 12 3d
       0.01372642 0.0017072976 0.021849878 0.035828732
000360 cd ec f2 bc 6c a8 d7 bd 10 89 a4 3d c9 45 6e bd
       -0.029653931 -0.10530171 0.08033955 -0.05817202
000370 2d 4f 8a bc 92 b2 d2 3d 43 03 c2 3c c6 04 53 3d
       -0.016883457 0.10287966 0.023683196 0.051518224
000380 cc f3 0e 3d b8 36 1b bd 2b 28 f9 3c 41 6c e7 3c
       0.03490047 -0.03789398 0.030414661 0.028249862
000390 03 38 09 be 6b 40 2b be 42 50 81 bd 36 e2 d0 bc
       -0.13400273 -0.16723792 -0.06314136 -0.02549849
0003a0 9e bc cf bd 89 30 1a 3d 78 09 8f bd 8a 6c b4 3b
       -0.10143398 0.037643943 -0.06984228 0.005506103
0003b0 90 a9 6f bd da 21 5f 3c c0 3e 5b 3c d0 ea 6e bd
       -0.058511317 0.013618911 0.01338166 -0.058329403
0003c0 dd 06 13 3d 89 3f aa 3c f6 82 e0 bb d5 5b a2 bc
       0.035895217 0.020782249 -0.0068515493 -0.01981918
0003d0 34 a0 ea 3d 6e 3c 11 3c f0 93 5b 3d f0 5d b6 3d
       0.114563376 0.008864505 0.05360788 0.08904636
0003e0 92 d5 78 bd 5d ca 3a 3d 87 71 62 3e e1 68 ea bb
       -0.06075055 0.045603145 0.2211362 -0.007153616
0003f0 fd 93 0a 3d 63 12 e6 bc bd c7 53 bc dc 52 69 3d
       0.03383254 -0.02808494 -0.012926039 0.056963786

fc2.bias f4 [128]
000000 7c bb 8f 3d a7 80 66 3c d0 81 12 bd c2 b3 71 3d
       0.07018182 0.014068759 -0.03576833 0.05900932
000010 d6 ca 65 bb 30 1e 20 3d 42 f2 71 bc 11 d1 71 bc
       -0.0035063527 0.03909129 -0.014767231 -0.014759318
000020 bd 5a bd 3c 13 9d 89 bd 09 1f b3 3c 6a b6 6e bd
       0.023114556 -0.06719413 0.021865385 -0.058279432
000030 ee 80 82 bd a0 d1 a1 3d b6 24 d3 bc 37 78 52 bc
       -0.06372248 0.07901311 -0.025774341 -0.012846044
000040 fe 7d 7e 3d f3 11 13 bc 82 4a 14 bc 04 6d 65 3d
       0.062131874 -0.008976447 -0.009050967 0.05601217
000050 e0 24 17 3d dd ef 26 3d c5 2c 8d bd d2 a8 88 bb
       0.0369004 0.040756095 -0.06893305 -0.0041705156
000060 de f9 51 3d ba ab 0c bd 08 57 0a bc ce 3e d4 bc
       0.051263683 -0.03434346 -0.008443601 -0.025908854
000070 8e 1f 93 ba f0 b6 72 3c 35 d2 70 bc 8a c1 60 3c
       -0.0011224614 0.0148141235 -0.014698555 0.013718018
000080 51 5a 3d 3d 90 c1 82 bd bf ae 31 bd e6 e2 0b 3d
       0.04622871 -0.06384575 -0.04337954 0.034151934
000090 5b 0e c0 bb 75 30 12 bd 22 16 12 bd 27 f1 d8 3b
       -0.0058610863 -0.035690743 -0.03566564 0.0066205445
0000a0 4c 6f 98 bd 1f be 4e 3d e8 6a 04 3d 55 b5 2b 3d
       -0.07443103 0.050474282 0.032328516 0.04192098
0000b0 46 c0 8e bd 66 55 84 bc 2d c6 60 3d eb d0 c5 3c
       -0.06970267 -0.016154002 0.054876495 0.024147471
0000c0 bc 52 be 3c 53 4a 67 bc 5e b1 ef bc 15 ff 0b 3d
       0.02323281 -0.014116841 -0.02925938 0.034178812
0000d0 18 36 a9 bd 95 d3 38 3c 09 c7 2b 3c e1 65 a1 bd
       -0.08262271 0.011280914 0.010484465 -0.0788076
0000e0 5b fb 2f bd 28 9a d8 bc ef 31 d6 3c fb 80 1b bc
       -0.04296432 -0.026440695 0.026146857 -0.009491201
0000f0 17 9f 0d 3d fc 3a 6d 3b b0 d6 c9 bc 1b 76 2f 3d
       0.034575548 0.0036198488 -0.024638504 0.042837244
000100 15 a8 34 bc 40 62 54 bc c3 b3 b8 39 ec 67 00 bd
       -0.011026402 -0.012962878 0.00035229148 -0.031349108
000110 b1 ed d7 3d 46 54 00 bc c2 09 30 3d 0a 6f 31 bd
       0.10543383 -0.007832592 0.042978056 -0.043318786
000120 d6 0c 77 bd 0c db 38 3b 01 ac 82 bd 75 4b c6 bc
       -0.060314976 0.0028206734 -0.063804634 -0.024205903
000130 e9 15 31 3d bc 49 3e bd 19 71 1c bd 02 d8 3a 3d
       0.043233786 -0.046457037 -0.038193796 0.045616157
000140 8a 39 0d 3d 11 3f 10 bd fd 8a 4e bd ea 2b c1 3c
       0.0344787 -0.035216395 -0.05042552 0.02358051
000150 ed 46 3e bc ba 52 39 bd 2e 97 02 3c 9f 81 39 bd
       -0.01161359 -0.04524491 0.007970614 -0.045289632
000160 5b 07 97 bc f6 a3 83 3d 7c df f8 3c 63 6f da bd
       -0.018436125 0.064277574 0.030380003 -0.106657766
000170 13 37 09 3d 37 aa 3e 3c f7 5b eb bc 86 ff 5c 3d
       0.03349979 0.011637262 -0.028730376 0.053954624
000180 aa 27 0b bd f6 c9 65 bd a5 5a 4d bd 5d 51 4f 3d
       -0.033973373 -0.056100808 -0.050135273 0.050614703
000190 f6 ac 85 bd 32 5a 68 bd c2 e2 6f 3c 11 09 27 3c
       -0.0652713 -0.056726642 0.014641466 0.010195033
0001a0 ea cc a1 bd c4 a0 5b bd 34 3c 31 3d e3 7d 6c bd
       -0.079004124 -0.053620115 0.043270305 -0.057737242
0001b0 94 87 2a 3d 0a b6 ed 3c b0 92 47 3d 59 15 92 ba
       0.041633204 0.029017467 0.048723876 -0.0011145278
0001c0 df ef 93 bd af 01 84 3d d2 2b 17 3d 95 6d dc 3c
       -0.07223486 0.064456336 0.036907025 0.026907722
0001d0 ff 5a f1 bc 99 72 1b bd 41 5f 21 bd dc 06 f8 bc
       -0.029462336 -0.037951086 -0.03939748 -0.030276708
0001e0 4e 66 8b bd f0 79 8a bc 62 67 de bc 6c 58 f7 3c
       -0.068066224 -0.016903847 -0.027148906 0.03019353
0001f0 34 1a fc 3c 60 d9 fd bc cf 6f d5 3c 3a 35 f2 3c
       0.030774213 -0.030987442 0.026054291 0.029566396

fc3.weight f4 [64, 128]
000000 eb b3 49 3d 88 bc a6 3d a9 79 2e 3d 76 c0 ba be
       0.04924385 0.08141428 0.042596493 -0.3647496
000010 fd 1c f2 bd ca 37 37 3d 81 7e 09 3e fa 70 cf bd
       -0.11821935 0.04473094 0.13427164 -0.101289704
000020 d6 bf c4 bd ca 16 83 be b5 a4 03 3d ac e4 bd 3c
       -0.09606902 -0.25603324 0.0321395 0.023180328
000030 f9 34 4a 3d f4 76 73 bd 85 32 22 bd 3b 2e 27 3e
       0.049366925 -0.059439614 -0.03959896 0.1632623
000040 b9 ac 76 bd f2 ec 48 3d 30 00 5b 3c 19 40 3f be
       -0.060223315 0.049054094 0.013366744 -0.18676795
000050 01 33 b7 be 84 90 c2 bc 97 1f c0 3d 92 75 64 bd
       -0.357811 -0.023750551 0.09381025 -0.055776186
000060 54 3d d6 3d eb 09 d5 3c d7 37 3d bd f0 cd 49 be
       0.10460916 0.026005706 -0.04619583 -0.19707465
000070 61 ee 8e 3d 55 c6 14 be bf c2 0f 3d b3 7b 02 be
       0.06979061 -0.14528783 0.035097834 -0.127425
000080 ce 17 c2 bb f7 5c 57 bb 1b 4a 2a bd b6 59 50 be
       -0.005923248 -0.0032861808 -0.04157458 -0.20346722
000090 86 09 af bd 7e a9 36 3c 45 c2 9e 3c 80 1b ac 3d
       -0.08546738 0.0111488085 0.019379744 0.08403683
0000a0 70 f7 98 3b 49 19 0d 3e 2f 57 df bd d2 3f be 3d
       0.0046681687 0.13779177 -0.10905301 0.092895165
0000b0 0f 3e c6 be f5 6d 01 3e 30 7b bf bc f7 9f 9d be
       -0.38719222 0.12639602 -0.02337417 -0.30786106
0000c0 cb 70 f1 bd ea e2 b2 3d df e6 cd bc f6 8d 82 be
       -0.11789092 0.08734687 -0.025134502 -0.25498933
0000d0 fe 0b d7 bd 06 51 4b 3b b1 a8 80 3d 21 2f f8 3d
       -0.10500334 0.0031023636 0.06282175 0.12118364
0000e0 03 cb 20 bd 29 18 97 3d 5d cf 5a 3e ba 52 a1 3d
       -0.039256107 0.07377655 0.21368165 0.07877107
0000f0 9e 47 88 bd 1f 1e b4 bd 3c 6b 95 bd ab 8a d8 be
       -0.06654285 -0.08794808 -0.07295844 -0.42293295
000100 37 95 da 3d 19 0a 99 3c 58 70 4e be d5 62 d9 bd
       0.10672992 0.018681573 -0.20160043 -0.10614554
000110 0f 0a a0 bd c0 7d 59 3d 1b 2e 1e be 18 0f ce 3d
       -0.078144185 0.05309844 -0.15447275 0.10061473
000120 f2 b1 0e bd 94 9a 76 3d 1d e5 52 be 08 da 79 bd
       -0.03483767 0.06020601 -0.20595212 -0.060998946
000130 be 01 8c be d5 65 a8 bd 86 0c a4 bc 54 f0 29 be
       -0.2734508 -0.08222548 -0.020025503 -0.16595584
000140 fc d4 b1 bd 93 7b d4 bb ab 68 62 3e d4 c1 cf bd
       -0.08683202 -0.0064844578 0.2211024 -0.10144392
000150 46 8f 27 be 67 d1 03 bd b4 8f b4 3d 97 7a bd 3d
       -0.16363248 -0.032182124 0.08816472 0.09251898
000160 65 c1 ad 3d f2 22 cc 3c f9 ad a2 3c 28 96 07 3e
       0.08484153 0.024919007 0.019858347 0.13240874
000170 e7 ad 0c bd 44 09 15 3e 86 31 c0 bd 21 39 c4 bd
       -0.034345534 0.14554316 -0.09384446 -0.09581209
000180 5d 6d ff 3c cb af 93 3d d9 54 2e bd 19 ab 17 bd
       0.031180078 0.07211264 -0.042561386 -0.037028406
000190 74 ae e8 3d 66 9a 96 38 ed e3 92 3c 7f c8 10 be
       0.11361399 7.181316e-05 0.01793095 -0.14138983
0001a0 c1 b5 90 3d 51 7d 52 be 0d 16 b2 bd 0d f8 2f bd
       0.07065917 -0.20555617 -0.08695612 -0.04296117
0001b0 d1 ea 4f 3d 32 48 3f 3d 20 82 53 3c 43 e0 ea 3d
       0.050761048 0.04669971 0.012909442 0.11468556
0001c0 78 6c 05 be a9 f9 d2 3c c6 d6 89 bc 42 c9 17 bd
       -0.13029659 0.025753813 -0.016826045 -0.03705717
0001d0 42 bb 97 3d c3 f3 78 bd 89 1f 04 3e 34 d2 ec bd
       0.074087635 -0.060779344 0.12902655 -0.115635306
0001e0 31 e1 fe bc 2b e8 66 3d e7 d6 7d 3c 64 53 d5 bd
       -0.031113239 0.056373756 0.015493131 -0.10416296
0001f0 81 da a0 3d 58 ba cb 3d 1d aa 23 be a8 e2 c9 bd
       0.07854176 0.099476516 -0.15982862 -0.098576844
000200 b7 52 f9 3c 80 5b 65 bd 1d 16 85 3d 40 82 5e 3e
       0.03043495 -0.055995464 0.064983584 0.21729374
000210 8b 8b 17 3d a0 ac bb bd ee b0 e4 bd 27 b2 7c 3d
       0.036998313 -0.09163785 -0.11166559 0.061693337
000220 96 c3 c6 3e 1e 4c 86 bc 6d 53 30 bf 5b 6a 59 bc
       0.38821095 -0.016393717 -0.688773 -0.013269986
000230 dc d9 b1 3d 25 96 2f bc 01 cc 23 3e 58 59 36 bd
       0.086841315 -0.01071695 0.1599579 -0.0445188
000240 81 91 09 bd f2 69 a0 3d 13 b3 a7 bd 87 08 17 be
       -0.03358603 0.078327075 -0.081884526 -0.14749347
000250 b0 e8 8c be 4a d5 d0 3d 98 f2 82 bc 1f 3d 5f be
       -0.27521276 0.10196932 -0.015984818 -0.2180066
000260 b9 cb 74 be 4a 64 8b bd 19 78 28 bd 24 32 c6 bc
       -0.23905839 -0.06806238 -0.04113016 -0.02419383
000270 a9 5e fc bc 97 45 bf bc dc 59 07 3e 32 32 5a bd
       -0.030806856 -0.023348613 0.13217872 -0.053270526
000280 d4 6f 54 be b3 0b df 3d 3e 4d ed 3c af 8d bc 3d
       -0.20745784 0.10890903 0.028967496 0.092067115
000290 74 40 0c 3e b6 18 37 3d 4c cd eb 3d 09 09 52 3c
       0.13696462 0.0447013 0.11513767 0.012819537
0002a0 f7 05 f0 bd b9 9d 4b bd ba 95 1b be 65 bc 9f 3d
       -0.11719888 -0.049710963 -0.15193835 0.07799605
0002b0 69 1a a2 3d 17 e9 d3 bd 01 ff 72 bd a7 f7 9c 3d
       0.079151936 -0.10347193 -0.059325222 0.076644234
0002c0 02 97 f7 3d 92 eb 83 3d d5 2b df be d8 64 76 3d
       0.12089349 0.06441416 -0.4358813 0.060154766
0002d0 10 fb 23 bc e0 7c ff 3c 5d 38 b3 3d fa 76 3f bd
       -0.010008588 0.031187475 0.08750985 -0.046744324
0002e0 6b e2 57 bc ed df 89 bc c2 d7 34 bd 50 9d f9 3d
       -0.013176541 -0.016830409 -0.044151075 0.12188208
0002f0 ef e5 0a 3c ac 6d 6b bd e9 82 f6 bb a8 ab 91 39
       0.008477672 -0.057477638 -0.00752293 0.0002778445
000300 0b 0a b2 bd 90 34 08 3e e8 af 68 3c 07 b2 f7 bd
       -0.08693322 0.13301301 0.014202096 -0.12094503
000310 2a 3e ed 3c 7f 9e 4f 3d 40 7a 5d 3d 1a 99 f7 3d
       0.028960306 0.050688263 0.054071665 0.12089749
000320 52 42 99 3c 55 8f 50 ba ea f8 f5 bb 95 d1 08 3e
       0.018708382 -0.00079559284 -0.0075064795 0.13361199
000330 87 88 b4 3c d2 f0 1e bd bc 90 44 3d 9c cd 90 3d
       0.022037758 -0.038803883 0.047989592 0.07070467
000340 d4 86 1f 3d 15 95 48 be 4b 98 46 bd b3 e0 7b be
       0.03894694 -0.1958812 -0.04848508 -0.24597435
000350 f4 91 17 bd 05 fe 50 be 60 a7 b0 3d 65 6a 26 3d
       -0.037004426 -0.20409401 0.08625674 0.04062881
000360 3f a5 8d be 99 0b db bd 3b 73 9c be 51 3d c7 be
       -0.27665135 -0.106955715 -0.30556664 -0.38913968
000370 16 e4 ac bd 8b a1 62 3d 3d 1f 26 be 59 a9 36 bc
       -0.084419414 0.05532984 -0.16222854 -0.011148774
000380 eb 4f 3a be e9 09 19 bc 28 63 d7 bd f0 7d f1 bd
       -0.18194549 -0.009340742 -0.105169594 -0.11791599
000390 54 fd 92 3d 56 14 03 3e 2d ee 0c be 98 08 88 3e
       0.07177225 0.12800726 -0.13762732 0.26569057
0003a0 cc 99 97 bd a0 6d af 3d 0f 5f 89 be fc e8 2d 3b
       -0.07402381 0.08565831 -0.26830336 0.0026536575
0003b0 1b e8 0b 3e c9 38 78 be 61 4d 90 3d eb 80 e8 bc
       0.1366276 -0.24240412 0.07046009 -0.028381785
0003c0 f9 f0 81 bd 86 5b 17 be 99 7f 89 bd e8 d5 d0 3d
       -0.0634479 -0.14781007 -0.067137904 0.101970494
0003d0 69 2f 9b bc 85 24 1f 3d 18 aa 65 3d c8 e3 da 3d
       -0.018943505 0.038853187 0.056070417 0.10687977
0003e0 92 3c 1e 3e f9 b3 71 3d 6e 97 f1 3d 73 35 82 3d
       0.15452793 0.059009526 0.11796461 0.06357851
0003f0 fa ab 82 be 4e 0f 03 be 6c a2 d9 bd 23 d2 d9 3c
       -0.25521833 -0.12798807 -0.10626683 0.026589459

fc3.bias f4 [64]
000000 ac 67 59 3d 6c 08 06 3d e4 16 0b 3e b1 06 17 bc
       0.053077385 0.032722875 0.13582951 -0.009217904
000010 5d bb c0 3a ff a3 7b 3d 94 c6 0a 3d a4 55 9c 3c
       0.0014704276 0.061435696 0.033880785 0.019083805
000020 0f d6 a1 bc 08 23 b6 bc 8e 5c 85 bd 2a 3b fa 3c
       -0.019755391 -0.022233501 -0.06511794 0.03054579
000030 c9 e9 ee 3c c4 11 5d 3d a3 65 d4 3d 12 93 99 bd
       0.029164212 0.05397202 0.10370948 -0.074987546
000040 ab d7 29 bd 9a e0 a6 bd ca d9 66 bd 83 ec c6 3c
       -0.041465443 -0.08148308 -0.056360044 0.0242827
000050 ec 15 a8 3b d9 96 53 bd c5 cc 3b 3d cc b6 ec 3d
       0.0051295664 -0.05165753 0.04584958 0.11558303
000060 2a 81 01 bd f7 c2 ae bd 0c da 22 3a c4 be 9b 3d
       -0.03161732 -0.0853328 0.0006212301 0.07604745
000070 d2 22 47 bd 91 a7 7f 3d 55 04 43 3d b1 ea b0 3c
       -0.04861719 0.062415663 0.047611553 0.021596285
000080 e9 06 9d bc c3 32 d9 3d 8f b0 a3 bc 57 96 99 3c
       -0.019168334 0.10605385 -0.01998165 0.018748445
000090 ff 7f 72 3d 4e df 70 bd df c2 6d 3d 57 27 68 3d
       0.059204098 -0.05880671 0.05804717 0.056678142
0000a0 d8 81 af bd 9a d3 60 bc 4a 86 0c 3d 5a 8f ce 3d
       -0.085696876 -0.013722325 0.034307756 0.10085936
0000b0 39 28 28 3d 44 79 9b bd 79 db 91 3d ae 25 bb ba
       0.041053984 -0.07591489 0.07121939 -0.0014278197
0000c0 b9 9b 3f bd d2 cc 2d 3b 5e 54 9e 3d 46 79 7d bd
       -0.046779368 0.0026519787 0.077309355 -0.061883233
0000d0 7c fd 6b 3d 3b d4 ab 3d a3 be b4 3d c0 b8 9b bc
       0.05761479 0.08390089 0.088254236 -0.019008994
0000e0 d3 18 4c bd 97 96 d9 3b e8 6a 9c 3c 1c c5 ec 3c
       -0.04982836 0.006640266 0.019093946 0.028902583
0000f0 de 06 9a 3d f6 84 5c bd d1 eb c6 bc cc 71 94 3d
       0.07520841 -0.05383774 -0.024282368 0.072482675

fc4.weight f4 [2, 64]
000000 64 ac e7 3e b4 47 f2 be 2c 7b 70 3e 81 21 0c 3e
       0.4524871 -0.4732033 0.23484486 0.13684656
000010 24 e8 e2 3e 92 10 35 be 3c 65 08 bd a4 13 48 3e
       0.44317734 -0.17682102 -0.03329967 0.19538742
000020 e0 12 8e 3d 74 d9 04 be bf d9 f4 bd c4 82 8f 3c
       0.06937194 -0.12973577 -0.11955594 0.017518409
000030 0b 51 0a bf fb 35 ed 3c af 3c 6d be 14 7a b1 3c
       -0.5402991 0.028956404 -0.2316768 0.021664657
000040 59 66 7b 3e a0 9d 90 be 0e 32 e4 3e 3e 96 9a bc
       0.24550761 -0.28245258 0.4456944 -0.01887047
000050 7e 44 04 3e cd 9e 4c bd 29 ad 98 3c af 7a 72 bc
       0.12916753 -0.04995613 0.018637257 -0.014799758
000060 0d 1d 64 3e cb 29 14 be 84 03 83 be a4 e2 d0 3d
       0.22276707 -0.14469068 -0.2558862 0.10199478
000070 75 38 35 3e ae c0 f7 bd 16 c4 d3 be 13 34 d6 3e
       0.17697318 -0.120972976 -0.4136054 0.41836604
000080 91 75 b2 bd 59 c6 47 3e 6f e9 96 be 76 b2 e5 3d
       -0.0871383 0.19509257 -0.2947497 0.11215679
000090 38 61 24 3f 61 e6 60 be ea 2b 56 be 84 5c e1 3e
       0.64210844 -0.21962883 -0.2091519 0.44015896
0000a0 88 ec 3b bd 08 c7 98 3d 83 41 29 be cd 3b 87 bd
       -0.04587987 0.07459837 -0.16528897 -0.06603203
0000b0 e9 58 1f be 8d 79 8b be bc 96 ec bd a0 73 41 bd
       -0.1556126 -0.27241173 -0.11552188 -0.04722941
0000c0 2a a3 4a 3d 0e e5 86 3e a4 ed 25 be 49 6a 0c 3e
       0.04947201 0.2634663 -0.16203934 0.1371242
0000d0 6f 86 f9 3b b7 a0 65 3d 9b 41 9b 3d d4 15 d6 be
       0.0076149027 0.056061473 0.075808726 -0.4181353
0000e0 d7 d1 0d 3f af 51 97 3e a9 0b 23 3e b4 e4 81 3d
       0.55398315 0.29554507 0.15922417 0.0634245
0000f0 62 cb b6 bd 69 43 8b be 69 be ae 3e b6 34 e0 3d
       -0.08925511 -0.27199867 0.34129646 0.10947554
000100 01 94 2d be 5b fb 87 be e6 a2 15 be db ea c0 3d
       -0.1695099 -0.26558957 -0.14612922 0.09419795
000110 35 04 d5 3e 4f 4b d7 3d 3d 2a 07 3f 4e e4 18 bd
       0.41604772 0.10512411 0.52798826 -0.037327103
000120 4b ab 53 3e f3 9b 7a be f2 96 a2 3e a4 59 bb 3e
       0.20670812 -0.24473552 0.31755787 0.36591828
000130 f9 4c 4e be d8 4b 2c bc aa 88 07 be 52 60 47 3f
       -0.2014655 -0.010516129 -0.13235727 0.7788135
000140 dd 2a 2c 3e d1 66 0a be ab 28 54 be 73 5c 82 3f
       0.16813226 -0.13515784 -0.20718639 1.0184463
000150 ff b9 31 3e df 78 b0 be 01 15 fe 3e d9 90 bb be
       0.17356108 -0.34467217 0.496254 -0.36633947
000160 4e ee b1 be f7 83 8a 3e c8 bb 32 bd 6f e8 58 3f
       -0.34752125 0.27053806 -0.043636113 0.84729666
000170 5d 63 53 be f0 00 52 3e 90 18 bd 3e a0 d9 5a 3c
       -0.20643373 0.2050817 0.36932802 0.01335755
000180 ad e9 6e be b5 b0 97 be 3d 23 78 be d0 ef ae 3e
       -0.23331328 -0.29627004 -0.24232192 0.34167337
000190 30 74 52 be 88 d7 ba 3e b1 0c 2e be ec b4 dc bd
       -0.20552135 0.36492562 -0.16997029 -0.107766956
0001a0 08 41 be 3e 93 53 9f be 5f 49 6f 3e 32 3e cd be
       0.3715899 -0.3111845 0.23367833 -0.40086514
0001b0 2a 79 a9 be cd cd 5b 3d 00 42 f6 bd 32 75 57 bf
       -0.33100253 0.053663064 -0.12024307 -0.841632
0001c0 5a fd fb 3d a1 f8 8e 3e 4e eb 11 3e 2e ba 2a 3f
       0.12304182 0.27924064 0.14249918 0.6669034
0001d0 77 8b f1 be 2f 4c 80 3e 69 e8 e7 be 04 69 e0 be
       -0.47176716 0.25058123 -0.45294502 -0.4383012
0001e0 ed e0 b5 bd 76 3f 3f 3e 55 9f c5 bd 6d a2 5d be
       -0.08880792 0.18676552 -0.09649531 -0.21643992
0001f0 27 68 cf 3e 6d a6 b1 be 09 7b 37 3e c1 71 1e 3f
       0.4050915 -0.34697285 0.17918028 0.61892325

fc4.bias f4 [2]
000000 40 f0 60 3d 9e 46 ad bd
       0.05491662 -0.08460735
