checkpoints/Computer2-0-checkpoint-0.5477-actor.pth (torch, 193711 bytes, 8 tensors)

fc1.weight f4 [256, 24]
000000 73 e2 6d bb 5f 0f 5e be 79 6d 15 be 9a a5 9b bd
       -0.0036298304 -0.21685551 -0.14592542 -0.07599945
000010 0d 1a 9c 3e 43 2d 56 3d 14 60 f4 3d ae af 83 be
       0.30488625 0.05228926 0.11932388 -0.2571997
000020 0a cb 8f 3d 3f 33 bd 3d ec 39 36 3e 49 db 17 3d
       0.070211485 0.0923829 0.17795533 0.03707436
000030 48 48 98 3c 53 b6 7e 3e d6 d6 06 be d3 f8 f9 bd
       0.018589154 0.24874239 -0.13167891 -0.122056626
000040 81 5d 8a 3d 0d 57 97 3d aa 5b 8e bd 0d ff f1 3c
       0.06756116 0.073896505 -0.06951077 0.029540563
000050 14 30 4f 3c 9a 09 62 3e e9 c6 6b 3a 59 fb 08 3c
       0.01264574 0.22073975 0.00089941785 0.008360707
000060 41 d4 85 3e 82 74 4c 3d 48 98 e0 3d 83 ec 6e bd
       0.261385 0.049915798 0.10966545 -0.058331024
000070 3c 28 16 3d a2 4d bc be c6 34 28 3e eb 3f aa be
       0.036659464 -0.3677798 0.16426381 -0.3325189
000080 c8 5b 3d bc 24 da 16 3d ed 82 38 3c 80 ed 21 3e
       -0.011557527 0.03682913 0.011261684 0.15813255
000090 bd b6 91 bc ba 6b a1 be 46 5e d0 bd a8 3a 1f be
       -0.017787332 -0.315275 -0.10174231 -0.1554972
0000a0 44 d1 b4 3d 48 6c 25 3d 9c 94 2b 3e c5 f8 0c 3e
       0.08828977 0.04038647 0.16755909 0.13766773
0000b0 7e 0a a5 3e 30 5b fc be 01 fc d0 bd 99 3c e4 bc
       0.32234567 -0.4928832 -0.10204316 -0.027860926
0000c0 41 1e 7b bd 62 d2 92 bd ed 7e 7b bd 23 3d 16 be
       -0.06130815 -0.071690336 -0.061400343 -0.1467176
0000d0 36 88 c5 bd c9 53 08 3d 55 2c bd 3d 5d 2b 94 be
       -0.09645121 0.03328303 0.09236971 -0.28939334
0000e0 da d8 21 3d 72 d5 2f be 81 14 ef 3d 53 c0 6c be
       0.039513446 -0.17171267 0.11673833 -0.23120241
0000f0 4c 8a bb bd b5 28 b4 3e 9c 26 1a be 8c a0 f7 bd
       -0.091572374 0.35187307 -0.15053791 -0.12091169
000100 e0 f8 dd 3d ef 46 05 be c2 18 e1 3d 76 8b 5e be
       0.10838485 -0.1301534 0.1099105 -0.21732888
000110 da 84 90 3c 1e 98 98 3e 0a db 2d bd 08 f5 d6 be
       0.017641474 0.29803556 -0.04244522 -0.4198382
000120 53 fc 0c 3e d5 ae 11 be c6 27 b7 bd 10 3c 5b 3e
       0.13768129 -0.1422685 -0.08943133 0.21409631
000130 a7 90 ba 3d a3 a3 2d 3e e4 7e b5 bc 90 99 41 bd
       0.091096215 0.16956954 -0.022155233 -0.04726559
000140 44 1d 26 3e 41 14 50 3d c5 e5 50 3e 83 42 9a 3e
       0.16222101 0.050800566 0.2040015 0.3012887
000150 90 c7 14 be 3b 71 fb 3d 3c 6c 1f 3d f7 5d 4c 3e
       -0.14529252 0.122774564 0.03892158 0.1995772
000160 35 82 b4 3c 3c 26 b3 bc d4 bc 86 bd be 0c ab ba
       0.022034744 -0.021868818 -0.06578985 -0.0013050062
000170 97 61 5b 3e c8 e0 be 3c 15 26 39 be ba cc 9b 3c
       0.21423946 0.023300543 -0.18080933 0.01901852
000180 4d 01 43 3c 70 49 34 3d 2e 09 92 3d b9 86 31 3e
       0.011902166 0.044015348 0.07130657 0.17336549
000190 09 70 ca be 7d 47 47 3e d8 7a 4b bb 9d 6b 0a be
       -0.395386 0.19460864 -0.0031048562 -0.13517614
0001a0 4c d1 14 3e 9a 68 c5 bd cf 86 65 3d 66 41 5e be
       0.14532965 -0.09639092 0.056036767 -0.21704635
0001b0 09 ba 0f bd d8 87 71 3e 69 71 8a bd b3 93 6e be
       -0.035089526 0.23586977 -0.067599125 -0.2329853
0001c0 3e 9c 3d 3e f3 ef 34 be 24 88 62 be 0e 3b 8a bd
       0.18516633 -0.17669658 -0.22122246 -0.06749545
0001d0 ad 5d a1 be f6 cd 15 bc 23 95 ba 3d 98 20 53 be
       -0.3151678 -0.009143343 0.09110477 -0.20617902
0001e0 c2 0b 14 3e c1 c1 1a be a0 83 2d 3d 3b a1 7b be
       0.1445761 -0.15112974 0.042361856 -0.24573223
0001f0 0d 3b 53 3e e4 7a 16 be 40 84 fa 3d 75 3a 17 bd
       0.20627995 -0.14695317 0.12232256 -0.036920983
000200 a1 e7 fd bd 36 80 e1 bd ce d3 24 3e ad 26 9d 3b
       -0.12397695 -0.110107824 0.16096422 0.0047958703
000210 28 41 6c 3e ac 98 4e be 60 75 58 be 76 f1 9e bd
       0.2307173 -0.20175427 -0.21138525 -0.07760899
000220 9b f9 00 bd ba 1c bd bc 48 52 b1 bd 68 4e 84 bd
       -0.031488042 -0.023084987 -0.08658272 -0.06460267
000230 84 c8 8c 3e 6c 6d 74 3d fc d2 9f 3d da f9 bd bd
       0.2749673 0.059674665 0.07803914 -0.09276171
000240 88 7a 95 bd 47 0b 04 be 7c 66 0e be c2 fb ff bc
       -0.072987616 -0.12894927 -0.13906282 -0.031247977
000250 32 fe 4e be 4b c0 27 be 74 81 0a 3c 1f a1 a8 3c
       -0.20214155 -0.16381948 0.008453716 0.020584641
000260 23 b9 01 3d 2c 0f 22 be bb 4f 7f 3d c3 87 5b be
       0.0316707 -0.158261 0.062331896 -0.21438508
000270 9e 54 5f 3d 34 0e 53 3d 3d 40 f1 3d 8f 58 2d bd
       0.054524057 0.051527217 0.117798306 -0.042320784
000280 d5 1c 48 be ae f9 10 3e be 7e 7e 3d 65 6a 5c 3e
       -0.19542249 0.14157745 0.06213259 0.21524961
000290 76 a2 2a 3b 85 2a d5 be 53 75 8a bd 2a 6a 54 3d
       0.0026036776 -0.41634002 -0.06760659 0.05185906
0002a0 2c 86 76 3e 81 7c 1b be 29 29 fa 3d 4b 28 10 bd
       0.2407462 -0.15184213 0.12214882 -0.035194676
0002b0 6b 17 4b 3e 40 06 ae 3d e7 ac 12 3d 2f 5a 08 be
       0.19833152 0.08497286 0.035809424 -0.13315652
0002c0 72 b3 3f be 2b 79 2e be 47 59 ed bd b6 93 70 be
       -0.18720797 -0.1703841 -0.11589294 -0.23493847
0002d0 0b cf 08 bc d3 34 4f be fc 79 1b 3b 2c 1c 75 be
       -0.008350144 -0.20234995 0.0023723831 -0.23936528
0002e0 c0 3b 66 be 2d 02 c2 bd 55 40 28 be 39 f1 62 be
       -0.2248373 -0.09473071 -0.1643079 -0.22162332
0002f0 fa 53 e8 bd 6d 54 07 3c 9d 96 24 3e f0 40 8c be
       -0.11344142 0.008259875 0.1607308 -0.27393293
000300 50 cb ee bc 0f f5 14 be 0e c2 a6 bd 9b 39 02 3e
       -0.029149681 -0.14546607 -0.08142482 0.12717287
000310 41 cb ce 3c 12 d7 1e be 1b 4c b6 3d 17 0e 1f 3e
       0.025243403 -0.1551173 0.08901235 0.15532719
000320 a9 56 7f 3d c0 f4 3a 3e 65 63 88 3d 13 5f 6f 3e
       0.062338505 0.18257427 0.06659583 0.23376112
000330 ed cf 93 3d cc 2d 20 3e 40 6a 2d 3e 49 fb 85 3e
       0.07217393 0.1564247 0.16935062 0.26168278
000340 dd 59 fe 3c 77 5d 3a be 04 66 29 be 95 a0 2f 3e
       0.03104871 -0.18199717 -0.16542822 0.17151101
000350 4f c4 af bd 7a 0e 49 3e 7f 5b 05 be c2 a1 6c bc
       -0.08582365 0.19634429 -0.13023184 -0.014442863
000360 76 d9 12 3e de 25 62 3d 1b a0 a4 3d d9 88 6c be
       0.14340767 0.055211894 0.0803835 -0.23099078
000370 2c fc a6 3c f5 83 90 3e 56 d4 29 be 0b 89 ec 3d
       0.020383917 0.28225675 -0.16584906 0.11549576
000380 3f fc 2d 3e 98 36 f2 bc 1a e5 11 bd 86 89 81 be
       0.16990755 -0.029567048 -0.03561888 -0.25300235
000390 04 54 f7 3d 4b 22 d9 bd fd ce 91 bd 5a 33 5d bd
       0.120765716 -0.10602244 -0.07119558 -0.05400405
0003a0 dd d1 e2 3d f1 f4 4d bd 25 8b c6 3d 7a 0b 34 bc
       0.110751845 -0.050282422 0.096945085 -0.010989064
0003b0 be 93 a3 bd 1b 0e 5d bd 57 41 20 3e 30 59 f7 3c
       -0.07987164 -0.05396853 0.15649925 0.030193895
0003c0 2b 95 89 3d fb ab ae 3d 0d d2 3f 3d 24 dd 5d bd
       0.06717905 0.085288964 0.04683118 -0.054165974
0003d0 95 6f 78 be 53 b7 15 bb d7 26 a7 3d cc 90 6e 3e
       -0.24261315 -0.0022844865 0.08161705 0.23297423
0003e0 5a b3 8d 3c a4 20 9c bb cc 9a 74 3d 93 07 9c 3d
       0.017297436 -0.0047646333 0.05971794 0.07618632
0003f0 41 eb b4 bd 87 b3 55 bd 2c dc 08 bd 20 a1 bb bb
       -0.088339336 -0.052173164 -0.033413097 -0.0057259947

fc1.bias f4 [256]
000000 72 2b 7b 3d 77 cf 15 bd f3 de 99 3d 8d 8d 4e 3d
       0.06132073 -0.036574807 0.07513227 0.050427962
000010 7b ce 22 3e 55 f7 50 3c 16 d6 ed bd cf 64 5d 3e
       0.15899079 0.012754281 -0.11613099 0.21620487
000020 7c 35 4d 3d 42 1e db bc 62 0c 26 bd e3 6f 68 bc
       0.050099835 -0.026747826 -0.040539153 -0.014186832
000030 c5 d7 1f be de 35 8e bc f1 89 79 be 12 5b 7e bd
       -0.15609653 -0.01735967 -0.24369027 -0.06209857
000040 45 3c 54 be 92 10 81 bc 49 30 8b 3a c2 11 42 3e
       -0.20726116 -0.015754972 0.0010619248 0.18952087
000050 e3 77 3b bd 28 ec 4f 3c a9 66 07 bd 3f ab 03 be
       -0.04576863 0.012690581 -0.03305689 -0.12858294
000060 ae 7e d2 3d ba a4 32 be 71 d2 fc bc a1 4a 82 3d
       0.102780685 -0.1744565 -0.030862065 0.063618906
000070 28 32 e9 bd 4e 6f 03 3e a2 37 4a be 45 6f 45 3e
       -0.1138652 0.12835428 -0.19747785 0.19280727
000080 8e 2b 86 bc 28 6b 46 3b 68 88 cd 3d 40 a6 8b bd
       -0.01637819 0.0030276272 0.10035783 -0.06818819
000090 ae 9a 79 bc cc 39 45 bd d2 e7 9d bd c0 f4 4d be
       -0.015234632 -0.048150823 -0.07710232 -0.20112896
0000a0 cd f5 3c 3e 2a e7 ae bd 00 b5 91 3d 4e 73 9a bb
       0.1845314 -0.08540185 0.07114601 -0.0047134524
0000b0 57 02 b7 bd fa 4e 04 bd 2b 43 93 3d 5e 3c 03 3e
       -0.08935993 -0.03230188 0.07190546 0.12815997
0000c0 46 52 ac bd 82 0d 38 bc 9c cf f0 3d f8 20 30 be
       -0.0841413 -0.011233689 0.11758348 -0.17200077
0000d0 f2 a5 55 3e 63 04 db ba 93 82 54 be ba 20 c0 bd
       0.20864084 -0.0016709681 -0.20752935 -0.09381242
0000e0 d1 ad d7 bd 42 8a 01 be bd 78 1f 3e ee d2 a4 bd
       -0.105312 -0.12650397 0.15573402 -0.08048044
0000f0 c3 b5 dd bd f6 81 88 3d 24 4b 57 bc 43 2d 49 be
       -0.10825684 0.06665413 -0.0131404735 -0.19646172
000100 31 74 0d be 0f f9 91 bd 28 eb 49 3e 87 62 b2 bd
       -0.13813855 -0.07127582 0.19718611 -0.08710199
000110 cb e2 0f bd 86 4c 25 be 3a a4 38 be c8 4c 43 3e
       -0.035128396 -0.16142473 -0.18031397 0.19072258
000120 b2 8b dc 3c 4d 2b 4d 3e 53 a9 72 3d c3 e7 28 3d
       0.02692208 0.20036049 0.05924351 0.04123665
000130 72 72 a2 bc f0 a8 aa 3c 9a b6 f6 3d 4b eb 4a 3d
       -0.019829962 0.020832509 0.12046547 0.0495408
000140 7e ab e8 3d 00 b6 bb 3d bb 80 ae bd 41 7a 31 bd
       0.113608345 0.09165573 -0.08520647 -0.04332948
000150 66 a7 34 be 73 da e2 bc f6 b9 b6 3b 59 72 01 3e
       -0.17641982 -0.027692055 0.0055763675 0.12641276
000160 32 b5 8a bd e4 4c a2 3d e1 ba 65 bd 83 ca 4a 3e
       -0.067728415 0.07924822 -0.056086425 0.19803815
000170 c4 cb 53 3e d8 39 1b 3e d3 cb 03 be a7 a2 d8 3d
       0.20683199 0.15158784 -0.12870722 0.105778985
000180 0c ae 0a bd 5f a0 ba 3d 32 47 9b 3d 09 1e 27 bd
       -0.03385739 0.091126196 0.07581939 -0.040800128
000190 41 55 98 3d 91 64 0c be cb ba 12 3d 65 82 de bd
       0.07438136 -0.13710238 0.03582267 -0.108647145
0001a0 e1 aa 1b bd 81 e1 37 bd df bb 21 bd e0 3f f8 bd
       -0.03800476 -0.04489279 -0.03948581 -0.12121558
0001b0 fb 69 28 be fa 49 55 be 63 b5 d7 bc 9a 9e 13 be
       -0.16446678 -0.20829001 -0.02633161 -0.1441597
0001c0 e0 fe 10 3e e2 b1 c1 bd 77 41 73 be ad 27 53 be
       0.14159727 -0.094577566 -0.23755442 -0.20620604
0001d0 2d 28 17 be 8d 74 2c 3e 88 bf 08 3d 79 40 9f 3d
       -0.1476142 0.16841336 0.033385783 0.07775969
0001e0 0e d6 0c 3e 97 21 2a be 60 f8 6b 3d ce fb 33 be
       0.1375353 -0.16614376 0.057609916 -0.17576525
0001f0 50 c0 ba 3a 18 06 21 bd 22 16 f3 3c 31 23 4e bd
       0.0014247987 -0.039312452 0.02967364 -0.05032653
000200 68 4b c0 bc e9 5a fb 3d 5d 3f 03 be c9 a3 7b 3d
       -0.023473457 0.12273199 -0.1281714 0.061435495
000210 a4 ef 29 bd 86 d9 1c be 83 23 f7 3c 30 db 82 bd
       -0.041488305 -0.15317354 0.0301683 -0.06389463
000220 05 a8 54 be a7 0c 69 3d fe 7e 10 be 9e a4 09 bd
       -0.2076722 0.05689683 -0.14110944 -0.033604257
000230 1a 82 f6 bd be d3 aa bd 3a ad 51 bd c4 5f a8 3d
       -0.12036534 -0.08341168 -0.051190592 0.08221391
000240 de 9d ae bd 4b 39 9d bd 18 e1 7e 3e ac ff 3e bb
       -0.085262045 -0.076769434 0.24890554 -0.0029144092
000250 3f e9 60 3d d9 69 78 be b3 fd 99 bd 6f bf 86 3b
       0.05490994 -0.24259128 -0.075190924 0.004112176
000260 f5 49 13 3e 1b 76 0b 3d 9d 3e 2a be 18 2d 24 3e
       0.14383681 0.03404818 -0.16625448 0.16032827
000270 f9 91 cb bb 22 fa 92 bd 38 a1 0c 3e 21 62 56 be
       -0.0062124697 -0.07176615 0.13733375 -0.2093587
000280 62 b8 0e 3e b2 fd 1c 3e a7 7d 9b 3d 83 01 49 bb
       0.13937524 0.15331152 0.07592326 -0.0030671067
000290 19 86 39 3d d4 0b 05 3e 66 6f 9d 39 f6 11 8e 3c
       0.0452939 0.12992793 0.00030028372 0.017342549
0002a0 9a 0f 16 be 86 31 7e bd 11 dc a5 bd f3 ee e6 3d
       -0.14654389 -0.062058948 -0.08098615 0.11276045
0002b0 45 57 5f 3c 56 6c 11 3e 30 2a 1a be d9 a1 77 bc
       0.0136316465 0.14201483 -0.15055156 -0.015114271
0002c0 8a fb a8 3d 66 1d 2b 3d 4b b9 de 3d 90 8f 9c bd
       0.08251102 0.041776083 0.108751856 -0.0764457
0002d0 b1 76 1a 3e 5f 71 4d be 61 7b 96 3d 12 1d 1d bd
       0.1508434 -0.20062779 0.073477514 -0.0383578
0002e0 f6 84 50 3d ab dd 31 3c b4 e3 66 bb 62 09 93 3b
       0.05090805 0.010856072 -0.0035230936 0.0044872025
0002f0 6e eb 3d 3e 0a c7 d1 3d fa 4f 0d 3d 4c 18 1a be
       0.1854684 0.10243042 0.0345001 -0.15048331
000300 50 3c 5e bd 68 ef e5 3d 2a 2f f3 3d 73 be 79 bd
       -0.054256737 0.11227304 0.1187423 -0.060972642
000310 04 a9 d8 bc f9 91 c0 3d 64 c6 b9 3d f3 9f a2 bd
       -0.02644778 0.09402842 0.09071043 -0.07940664
000320 5e 49 ac bd cf b6 76 bd 33 64 14 bd d3 1c 27 3e
       -0.08412431 -0.060232934 -0.03622837 0.1631959
000330 68 e5 1d 3e 9a 09 81 bc 32 50 6f 3c 93 19 22 3e
       0.15419543 -0.015751649 0.014606522 0.15830068
000340 91 29 8e 3d 06 7e 21 3e 89 bb 73 be ce 22 6f be
       0.06941522 0.1577073 -0.23802008 -0.2335312
000350 77 3f cb 3d 3c 0f ae 3d 69 ac fb bd 20 42 a5 bb
       0.09924214 0.084989995 -0.12288744 -0.005043283
000360 98 bf 34 be 20 67 d6 bd 3f a4 a5 3d fd d3 c5 3d
       -0.17651212 -0.10468888 0.08087968 0.09659574
000370 71 85 d4 bd 1f 7d 1c be 8d 6f 4b be 8e 72 aa bd
       -0.103770144 -0.15282105 -0.19866772 -0.08322631
000380 d2 99 2e be 9b ae 39 3e 70 5a a2 bc 13 c2 d7 3d
       -0.17050865 0.18133013 -0.019818515 0.105350636
000390 0c be 53 3c ad e7 16 3e 1c 53 5e 3e ff 9d f8 bd
       0.012923729 0.14736815 0.21711391 -0.1213951
0003a0 a5 30 d8 bd 93 28 fd 3d 02 b7 ea bc 2f a4 f3 bd
       -0.10556153 0.123612545 -0.028651718 -0.1189655
0003b0 5f 2c ea 3d 39 59 a5 bd 79 e9 80 3d 06 fd ad bd
       0.11434244 -0.080736585 0.062945314 -0.08495526
0003c0 e0 7c c5 3d 44 b5 c9 3d 4e 98 f7 bd cb 4c 96 bd
       0.09642959 0.09849027 -0.12089597 -0.07338866
0003d0 52 61 17 bd eb bc f9 bd d8 a2 40 be 1d f3 aa 3d
       -0.036958046 -0.12194236 -0.1881212 0.083471514
0003e0 37 4f 35 3e 84 92 3a bc 96 f7 51 3e 61 51 16 3d
       0.17706 -0.011387471 0.20504603 0.036698703
0003f0 23 cb 61 be 51 23 e4 3b bc 22 b2 3d 1e 4e 08 3d
       -0.22050147 0.006962218 0.08698031 0.033277623

fc2.weight f4 [128, 256]
000000 4c 41 c3 3c 13 f8 68 3c 29 78 f5 3c fc 0c fb bb
       0.023834847 0.014219302 0.029964523 -0.00766146
000010 8e b3 bc 3b 72 6f d0 3d 0d df 85 bd 87 fe ba bc
       0.0057587093 0.101775065 -0.06536684 -0.022826446
000020 ec 24 fe bc 46 45 2d be ae d3 a8 3d 08 ce 3a bd
       -0.031023465 -0.16920957 0.082435 -0.045606643
000030 12 bd 6a bc 70 62 4f be e0 19 a1 3c 09 87 5b 3d
       -0.014327304 -0.20252395 0.019665658 0.053595576
000040 71 24 6c 3d be 88 61 bd 2f f5 81 3d e6 8c d2 bd
       0.05765194 -0.055062048 0.06345593 -0.102807805
000050 67 0e ff 3b 3d 97 d6 bd 11 24 e4 b9 fb fe e5 bc
       0.0077836993 -0.10478065 -0.0004351442 -0.028075686
000060 55 d7 20 be 10 a5 8f 3b fc 34 c5 bd d3 1d 7f bc
       -0.15707143 0.0043836907 -0.096292466 -0.0155710755
000070 51 33 4d bd ed 1d 91 3c 3d a1 98 3d 35 85 8a 3b
       -0.050097767 0.017714465 0.07452629 0.0042273053
000080 53 f1 76 bc 79 8d 21 3d 61 08 0a bb 5f c0 09 3c
       -0.015072185 0.03944156 -0.0021062123 0.008407681
000090 a0 f9 aa 3d 8c 88 fe 3c 1f 96 08 be ec 66 85 bd
       0.083483934 0.03107097 -0.13338517 -0.065137714
0000a0 5b 34 d8 bc 10 77 92 3d 72 55 2a 3d a9 e3 86 bd
       -0.026392153 0.071516156 0.041585393 -0.065863915
0000b0 93 84 cf bb 11 5f b7 3c db ae c3 3c a7 4f 0b bd
       -0.0063329428 0.022384198 0.023887089 -0.03401151
0000c0 90 03 69 3d 4b a9 e7 bd d1 df 9c 3d 33 8b 57 bd
       0.056888163 -0.11311587 0.07659877 -0.052622985
0000d0 12 d8 53 bd 01 18 10 be 72 ba dd bb 64 61 8a bd
       -0.051719733 -0.14071657 -0.006766611 -0.06756857
0000e0 83 3b db bd 41 05 76 bb 0d b6 95 bd 66 ef d1 bd
       -0.1070471 -0.0037539753 -0.07310114 -0.1025074
0000f0 42 73 24 bd 21 93 69 bd 02 31 b3 3d de aa 1e be
       -0.04014898 -0.05702508 0.08749582 -0.15494868
000100 46 d3 80 3c 78 d4 7b 3d e1 26 28 3b 95 3a 13 3c
       0.015725743 0.061481923 0.002565794 0.008986135
000110 c4 87 82 bd 58 d2 b4 3c 4d 3f fd bc 8c 9d 24 bd
       -0.063735515 0.022072956 -0.030913973 -0.04018931
000120 97 27 06 be 39 50 98 3d 00 19 18 bc ac f9 0a be
       -0.1310104 0.07437176 -0.009283304 -0.13571805
000130 a8 2a a8 bc 2e e3 84 bd cf a7 a1 3d 96 fe c9 3c
       -0.020528153 -0.064886436 0.07893335 0.024657529
000140 18 9c 22 be 28 fe 0d bc 31 b7 a2 3c 46 02 ab 3d
       -0.15879858 -0.008666553 0.019862743 0.08350043
000150 8e ac fc bc 2f 56 03 3d f3 40 1e 3c 1f d0 07 be
       -0.030844 0.032064613 0.00965904 -0.13262986
000160 10 8d c8 3b 30 36 af 3c 59 37 80 bb 7e 8c aa bc
       0.0061203316 0.021388143 -0.003912848 -0.020818945
000170 d9 88 15 3d 5a 5a a0 bc 29 5a 2b be 99 7d 9b bc
       0.03650746 -0.019574333 -0.16733612 -0.018980788
000180 96 ec 9a bd 45 ad 27 bd 3b 49 d6 3c 27 e6 6a 3d
       -0.075646564 -0.040936727 0.026157966 0.057348397
000190 bb 06 40 3d 7e 64 c2 3c 13 56 78 bd aa 2a 8a bd
       0.04688142 0.023729559 -0.06062896 -0.06746419
0001a0 e2 91 3e 3c c5 3d 26 3d 62 7d c1 bc 28 07 ed bd
       0.011631461 0.04058625 -0.023619357 -0.115736306
0001b0 e9 41 de bc 6d 7c 28 bc 19 c1 2a 3d de a6 f2 bb
       -0.027131038 -0.010283572 0.04168806 -0.007405146
0001c0 ea 87 15 bd 2d 6f eb bd 9d 75 a9 3b c1 93 5a 3d
       -0.03650657 -0.114958145 0.0051714913 0.053363565
0001d0 4b 5b 27 be 95 1e 74 bb 1d c5 3f bd c9 1c 86 3d
       -0.16343419 -0.0037249674 -0.04681884 0.06548459
0001e0 04 bc 31 bc 0f a0 d6 bd d4 73 45 3d 92 21 75 3d
       -0.010848049 -0.104797475 0.048206165 0.05984647
0001f0 58 63 93 3c 0e 2e bc 3c 54 22 a8 bc 67 c0 9d bd
       0.017991707 0.02297118 -0.020524181 -0.077027135
000200 79 e8 64 3d 2a 9d 3e 3c 0d 60 e6 bd 56 f8 07 bb
       0.055885766 0.0116341505 -0.11248789 -0.0020747385
000210 d3 a0 81 bd f4 7b d0 3c cf de 58 bd 6f 64 1e be
       -0.06329503 0.02544973 -0.05294686 -0.15468
000220 b6 b6 25 3d b9 1c d3 3c 61 a2 06 be 43 27 fe bd
       0.04045745 0.025770532 -0.1314788 -0.12409832
000230 1a c7 da bc 8b 4c 15 3a e3 23 7d bc c3 24 61 bb
       -0.026706267 0.0005695305 -0.015450451 -0.0034354187
000240 7b d2 b3 3d cf 71 21 3c cf 59 f3 bd 70 7b cc bb
       0.0878038 0.009853794 -0.11882364 -0.006240301
000250 cc bf 6b bc db 4b 71 3d 23 0f 81 bc fb 97 19 bd
       -0.01438899 0.058910232 -0.015754288 -0.037498455
000260 e1 a6 e8 bc 08 23 64 bd 91 1c a8 bd 8f 67 3f ba
       -0.028399887 -0.05569747 -0.082085736 -0.0007301503
000270 7e 15 08 3d 11 dc d5 bc 9b e5 e2 bd e0 b7 c4 bc
       0.03322362 -0.026105912 -0.1107895 -0.02401346
000280 9e 4f f6 bc e2 15 ad 3d 95 9d 48 3d 37 25 02 be
       -0.030067261 0.084514394 0.048978407 -0.12709509
000290 e5 00 16 be 68 fe d9 3c 66 80 17 bd f2 10 ae 3c
       -0.14648779 0.026610568 -0.036987685 0.021248315
0002a0 db 55 21 3d 95 46 36 bc d3 b2 c9 bd a1 ca 44 bd
       0.03938852 -0.0111252265 -0.09848561 -0.048044804
0002b0 e2 f0 7a bd 69 5e 2b 3b 0c 45 3e 3d bc c5 25 3c
       -0.06126488 0.0026148802 0.046452567 0.010117944
0002c0 39 3b 3e bc 72 27 e9 bb 83 6c cc bc 83 7d 75 bc
       -0.0116107995 -0.007115298 -0.024954086 -0.014983538
0002d0 e6 9a 90 ba a7 0c 9d bd 01 d2 9f bd 47 41 38 3d
       -0.0011032491 -0.07668429 -0.07803727 0.04498413
0002e0 aa 47 fc bd 63 80 98 3c 82 2b 67 3c dc 70 96 bc
       -0.12318356 0.018615907 0.014109494 -0.018364362
0002f0 36 49 4d bd 39 be c3 bd c5 0d 86 bd a3 64 d0 bd
       -0.050118648 -0.095577665 -0.06545595 -0.10175445
000300 d0 e5 9f 3d b0 16 e2 bc 1f 1e 34 be 44 a0 9d 3c
       0.07807505 -0.027598709 -0.17589615 0.01924146
000310 42 81 c5 3c 34 7d 86 bd 13 ff 86 3c 22 21 3c bc
       0.024109486 -0.06566849 0.01647905 -0.011482509
000320 98 b4 62 bd 5d 9e 11 bd e3 f3 b9 3c f6 49 13 3d
       -0.05534801 -0.035551418 0.022699302 0.035959207
000330 23 2a c3 bb 6e c7 05 bd f8 4b 10 bd 95 41 e7 bc
       -0.005955951 -0.032660894 -0.0352287 -0.028229514
000340 ad d7 b4 3d e5 0e 21 bd 9c 61 45 3c f5 bf 45 3d
       0.088301994 -0.039320845 0.012047198 0.048278768
000350 20 87 e8 3c 84 97 7f bc 11 31 90 3d 6c 09 ed 39
       0.028384745 -0.015600089 0.07040609 0.00045211182
000360 e5 b7 d5 3d 3f 75 4e be 17 d1 88 bc 4e 22 5e 3d
       0.10435466 -0.20161913 -0.016701264 0.054231934
000370 3e 8d c8 3a 9c d0 05 3d bd 36 78 3d eb d2 2f be
       0.0015300883 0.03266965 0.060599077 -0.17170303
000380 f2 05 c3 bc cb 73 69 3d 08 10 20 bd 3e 6e aa 3d
       -0.023806546 0.056995194 -0.03907779 0.08321808
000390 7f b8 00 3d 4c a3 77 bd d5 5a cd bc 51 7b e5 bc
       0.03142595 -0.060458466 -0.025067726 -0.028012903
0003a0 31 c3 89 bd 4a e3 85 3d 8f b8 34 3d 88 20 1f 3c
       -0.06726683 0.065374926 0.04412132 0.009712346
0003b0 3c cf 40 3d a9 c1 85 bd 89 b1 cb 3d 7f ef 56 3c
       0.047072634 -0.06531078 0.099459715 0.013118624
0003c0 1a 40 8e 3c 67 7b ba bc cf 9f b0 3c 42 56 35 bd
       0.01736455 -0.022763921 0.021560578 -0.044271715
0003d0 86 b6 0d bc a5 e7 0c 3c 6c 01 c3 3c ae b7 80 3d
       -0.008649474 0.00860015 0.023804389 0.06285034
0003e0 16 25 7b 3d 0d ee 2c bc f6 68 86 bd 19 80 93 3d
       0.061314665 -0.010554803 -0.065629885 0.07202167
0003f0 0f eb b3 3c 9c 62 81 3d 5a 3d 4c bc 76 36 1c 3d
       0.02196267 0.06317636 -0.012465799 0.038137875

fc2.bias f4 [128]
000000 c9 be 64 bd 47 f2 96 3d 86 bd d9 3c 5d 92 26 bc
       -0.05584601 0.073704295 0.02657963 -0.010166732
000010 90 87 7a bc 4a 0a 4f 3d 97 7b 86 bb 6e ec 02 3d
       -0.01529111 0.05054692 -0.0041040885 0.03196376
000020 05 25 d6 bb 1d 54 6c bd b2 8b 5d bd 15 9c 92 3c
       -0.006535175 -0.057697404 -0.054088302 0.017896691
000030 af 8a 59 b9 1b a9 ed 3c 5c ee 85 bc 69 63 3c 3b
       -0.00020746396 0.0290113 -0.01634901 0.0028745777
000040 c0 9b d2 3d 76 48 a3 bd 02 31 04 3d ac da d6 bc
       0.10283613 -0.07972805 0.0322733 -0.026227318
000050 19 e8 9e bc 6e 9d a9 3d 86 f0 9b 3c f2 72 8d 3d
       -0.019397782 0.082819805 0.019035589 0.0690669
000060 d8 8f 68 bd a5 1b d9 bd 8d f6 81 3d 43 33 5c bc
       -0.056777805 -0.10600976 0.06345854 -0.013439956
000070 dd d3 84 bc e0 fd 8b bd a6 ef 2a bc a4 be 5c 3d
       -0.016214306 -0.06835532 -0.010433113 0.053892747
000080 f7 b4 a7 bd fc 67 56 3d 18 f0 73 3d 53 f5 0d 3d
       -0.08188813 0.05234526 0.059555143 0.034657788
000090 a7 63 f9 ba 31 cf 90 3d 9c 8a 85 3d 32 fb 0f 3d
       -0.0019026891 0.070707686 0.06520578 0.035151668
0000a0 30 77 18 bc 51 4f 46 3d 17 f8 6e 3d 55 46 40 3d
       -0.00930576 0.048415486 0.058342066 0.046942074
0000b0 55 cb 56 3d 1b 24 e5 bb f1 2a 7f bd 36 53 06 3d
       0.052440006 -0.0069928295 -0.06229681 0.0327942
0000c0 66 91 57 3d 44 0b 7e bd 07 53 69 3d 5c 07 14 3d
       0.052628897 -0.062022462 0.056963947 0.03613983
0000d0 23 26 89 3b db 56 63 bd 19 45 db bc da 19 bc bb
       0.0041854545 -0.055502754 -0.026766347 -0.0057403864
0000e0 33 0a af bc 42 9b 7d bd 42 3e 18 bd 64 cc 1a 3d
       -0.021367168 -0.061915644 -0.03716875 0.03779258
0000f0 50 17 22 3d 0e 79 2e 3d b3 b7 54 3d 44 b0 40 bd
       0.039573014 0.042595915 0.051933 -0.0470431
000100 a0 84 f8 bc 9b a8 21 bc 33 30 77 ba 74 e6 d5 bc
       -0.030336678 -0.009866859 -0.00094294845 -0.026110865
000110 f8 90 28 bd b6 e6 a5 38 68 62 5a bd 85 f5 3f bb
       -0.041153878 7.9107864e-05 -0.053316504 -0.0029290628
000120 2e ce 5b 3c b0 64 82 bd f4 a0 98 3c 25 22 46 bd
       0.013415856 -0.06366861 0.018631436 -0.048372407
000130 13 ef 21 bd 1c 6c 27 3c 91 58 16 bd 48 16 86 3d
       -0.03953464 0.010218646 -0.036705557 0.065472186
000140 c4 f9 5f 3c 9d b7 b3 bc 41 e4 a2 3c dd 67 46 bd
       0.013670389 -0.02193814 0.01988423 -0.048438895
000150 64 23 14 3d fb 76 01 bc 0a dd a2 bd fa d9 6b 3c
       0.036166564 -0.007901902 -0.07952316 0.014395231
000160 fe b4 75 3c e2 a8 65 bc b6 52 68 3d 2c 79 f1 bc
       0.014996765 -0.014017316 0.056719504 -0.029476725
000170 4c 7f 8e 3b 8c e7 b0 bc 53 3f 16 3d e3 20 6c bd
       0.004348671 -0.021594785 0.036681484 -0.05764855
000180 6a 6e c6 bc a5 93 15 bd fa ba a2 3d 1d ac 0b 3d
       -0.024222571 -0.036517758 0.07945819 0.034099687
000190 f4 5d 11 bc bc ec 98 3c 59 f8 27 3d 81 e6 02 bd
       -0.008872498 0.018667571 0.041008327 -0.031958107
0001a0 6c b3 33 3d b7 4d 84 3d cd 13 22 bd cc 48 9b 3c
       0.043872282 0.064601354 -0.039569665 0.01895561
0001b0 0f 7e 47 bd d7 21 bb 3c 3f 53 9b bc 54 3d bb 3c
       -0.048704203 0.022843285 -0.018960593 0.022856392
0001c0 9a 3d f9 3c c3 37 22 3c 9e 39 10 bd 3f 4d fe 3c
       0.030424882 0.00990099 -0.035211198 0.031042693
0001d0 c4 d2 bc bc 69 95 a2 bc 40 d3 38 3c dd 8d f3 3c
       -0.02304972 -0.019846635 0.011280835 0.029730732
0001e0 e3 36 85 bc 1a ba ca 3d 7c c9 09 3d 15 0a 1a 3d
       -0.016261524 0.09898777 0.033639416 0.03760727
0001f0 51 50 03 bc ff 69 88 3d c0 27 d4 bb 0e 93 01 3d
       -0.008014754 0.06660842 -0.006474465 0.031634383

fc3.weight f4 [64, 128]
000000 90 3a 57 3d 09 fb cd bc 00 8c 20 3e 6b 29 31 3e
       0.052546084 -0.025144117 0.15678406 0.17300956
000010 96 75 5b bd 0e e4 9a 3d 3e d8 c3 bc 39 7d 64 bb
       -0.053578936 0.07563029 -0.023906823 -0.0034864678
000020 7b 11 fe 3d dd 29 b2 3d 35 fb 0d be 55 df fd 3d
       0.12405678 0.08699391 -0.13865359 0.12396113
000030 0f 73 01 be 4f b5 cf bc 4a d9 d4 3d 5f e8 c4 3d
       -0.12641548 -0.02535501 0.10393007 0.09614634
000040 9a 6c d6 bd 00 f8 57 3d c7 5c 77 3d 29 47 0a 3d
       -0.10469933 0.052726746 0.060391214 0.03375927
000050 66 b4 2a be e0 d9 ca 3c 7c ad bc 3d e1 41 b2 bd
       -0.16670379 0.024762094 0.09212777 -0.08703972
000060 c7 fc 02 3e 96 84 e6 3c 81 45 2e bd bc 2f 4b 3d
       0.1279174 0.028139394 -0.042546753 0.04960607
000070 7e 61 3a 3d ba 8c 85 3e 8b ef 5e 3d f4 ff 9a bb
       0.045503132 0.26083928 0.054427665 -0.004730219
000080 f6 6e aa bd 79 28 df 3d 6c 18 1d bd 7a b3 d1 3d
       -0.08321945 0.108963914 -0.03835337 0.102393106
000090 cd 2d 5c 3d 78 fd 91 3d 24 a1 8d 3d aa b5 4f 3e
       0.053754617 0.071284235 0.06915501 0.20284143
0000a0 ff 37 7d bd a2 96 13 3d 01 d0 9b 3d 78 48 31 3e
       -0.06182098 0.036032327 0.07608033 0.17312801
0000b0 5b 87 16 bb 15 b7 fa 3c a6 17 e5 bc d6 7b a7 3d
       -0.0022968862 0.030604878 -0.027965378 0.08177917
0000c0 5c 2d e7 bd 12 97 8d 3d 64 99 a6 bd 40 0b 78 bc
       -0.112879485 0.0691358 -0.08134726 -0.015139401
0000d0 6d 9f f6 3d 8a 55 02 3d 27 b7 39 3e 26 b2 14 3e
       0.12042127 0.031819858 0.18136273 0.14521083
0000e0 4a 6d 05 be 21 70 c1 bd 92 35 ef bc 1d 10 d4 3c
       -0.13029972 -0.09445215 -0.029200349 0.02588659
0000f0 ee 4b 45 3d 67 98 1f bd 8c 70 93 bc 3e 1f 0e be
       0.048168115 -0.0389637 -0.017998002 -0.13879105
000100 65 a9 24 3d 83 7a 96 bd 87 5c ac bd 0f c0 07 be
       0.04020061 -0.07347586 -0.08416086 -0.13256858
000110 00 c5 80 3d 2e da 34 3e 30 78 20 3d 85 a9 32 3d
       0.06287575 0.17661354 0.03917712 0.043618698
000120 1b 6a 0f bd 39 e1 31 3e 65 a4 41 be 69 e6 46 3d
       -0.0350133 0.17371072 -0.18910368 0.04855958
000130 40 f1 97 3d 2f 46 ba bc 65 7e 61 3d 2b 93 ea bd
       0.07419062 -0.022738544 0.05505218 -0.11453851
000140 3c 24 30 bd 6e d5 8a bd a0 3a 80 3d e1 51 ff 3d
       -0.043003306 -0.0677899 0.06261182 0.12466789
000150 b1 85 76 3d 8f 47 ac bd ea 43 da bc 8f e2 92 bd
       0.06018609 -0.08412086 -0.026643712 -0.07172119
000160 ad ac 99 3c d1 fc 9d 3d 89 38 ad bd cf c0 86 bd
       0.018759096 0.077142365 -0.08458049 -0.06579744
000170 ab 77 44 3d c7 ca f0 3d 0e ba ae bb 88 8e 09 3d
       0.047965687 0.11757427 -0.005332238 0.033583194
000180 b3 03 1e 3e 8d 53 08 3e 21 4a ca bd 57 52 d8 3d
       0.15431099 0.13313122 -0.0987742 0.1056258
000190 8a 68 ba 3b 26 8d bc bc 75 56 dd 3d dc 8c 29 3d
       0.0056887316 -0.023016524 0.10807506 0.0413941
0001a0 c5 5f 80 3d 53 83 6a bc d1 71 41 3c 31 32 ba 3c
       0.062682666 -0.014313537 0.011806921 0.022729011
0001b0 96 5c 0c be b7 c2 13 3e 82 85 f8 bd f9 4e 89 3d
       -0.13707194 0.14429747 -0.121348396 0.06704516
0001c0 f7 4c fe bd ca fd 86 bc 22 9e dc 3d f7 69 08 3d
       -0.12417024 -0.016478438 0.10772349 0.03330418
0001d0 18 d7 81 3d d1 4a ef 3d 2b 00 23 3e 24 6e 51 3b
       0.06339854 0.11684192 0.15918033 0.0031956518
0001e0 fa 0f e2 3d fd cd 84 bd 4d 46 c5 bd 06 63 0c 3c
       0.110382035 -0.06484602 -0.096325494 0.008568531
0001f0 f7 eb 89 bc 38 cb ba 3d 48 73 5e 3e 66 66 af 3d
       -0.01683615 0.09120792 0.21723664 0.08564453
000200 e0 92 13 bd 14 04 c4 bd 36 e9 fa 3d 4e 5d 39 3c
       -0.036028743 -0.0957109 0.12251513 0.0113137495
000210 d1 88 38 3e 8f 8a 6f 3d 6a 3e ab 3d ac 68 6a 3c
       0.18020941 0.05848175 0.08361514 0.014307182
000220 a1 b1 22 be e6 2d 6a be fe 85 51 3c 12 95 4d bd
       -0.15888073 -0.22869071 0.012788294 -0.050190993
000230 67 13 07 bd c7 d4 08 3d 3a c9 8c 3d 8a 74 7d bc
       -0.032977488 0.033406045 0.068743184 -0.01546968
000240 30 2e 1b bc e4 0c 0c bd 90 6e a8 3c 7d 22 15 3d
       -0.009471461 -0.03419198 0.020560533 0.036409844
000250 99 71 1c 3d fd 93 47 3d d1 3a 0d bd 78 a2 84 3d
       0.038194273 0.048725117 -0.03447992 0.06476301
000260 53 5b c3 3c b2 71 c2 bc 09 57 0a 3d 23 9f ee bd
       0.023847258 -0.023735855 0.03377441 -0.11651447
000270 06 3c 79 3d c1 d0 63 bd 79 32 24 bc 5b c8 50 3c
       0.06084826 -0.055619005 -0.010021799 0.012743081
000280 e4 e0 7e bd 8b 2c 7c 3d 94 77 a7 bc 28 2b 17 3d
       -0.06222619 0.061565917 -0.020442761 0.03690639
000290 1c ba 0c 3d 87 d8 43 bd cc 51 cc bd db 94 e0 bd
       0.034357175 -0.04781392 -0.09976539 -0.10965892
0002a0 01 28 84 3d 5e 1e a5 3d 2b 10 62 bd f0 7b 25 be
       0.06452943 0.08062433 -0.0551912 -0.1616056
0002b0 11 da bb bd e4 e4 e3 3c ff e9 8e 3a ac 48 87 bd
       -0.09172452 0.027819104 0.0010903477 -0.06605658
0002c0 73 2c 3f bd aa 43 b2 bd 9d f4 95 3d 10 4a 8b 3d
       -0.04667325 -0.08704312 0.07322047 0.06801236
0002d0 47 bc 6d 3d 48 5d ab ba f8 e1 9f bc fe 37 73 be
       0.058040883 -0.0013074065 -0.01951693 -0.23751828
0002e0 1c 4a 8a 3c c4 90 10 3e 6d a6 cb 3b 61 04 76 bd
       0.016881041 0.14117724 0.006214908 -0.06006277
0002f0 f5 83 bb 3c ec 8c e0 bd 0f 62 1f bd f8 83 41 3e
       0.02289007 -0.10964379 -0.038911875 0.18897998
000300 64 6b 7a bc f0 e4 f7 bc 74 2c 36 3c e9 24 8b bd
       -0.015284393 -0.030260533 0.011118997 -0.067941494
000310 64 6f 84 bd 48 f6 87 3c 42 18 85 3b 68 83 b6 3c
       -0.064665586 0.016596928 0.0040617296 0.022279456
000320 c0 c2 1f be af bc cb bb cf a5 85 3d 36 f8 82 bc
       -0.15601635 -0.006217561 0.06525766 -0.015987497
000330 33 0e 1c bd 11 b6 f2 bd 1a 1d 2e 3b ab b9 49 3d
       -0.03809948 -0.11851133 0.002656764 0.049249332
000340 aa dc 87 bd 8d 78 a0 bc b7 c6 95 bc 9b 63 9e bb
       -0.06633885 -0.019588733 -0.018283231 -0.0048336512
000350 df af 9f 3c ed cf 84 bd 1d d4 20 3c c1 d5 f5 bc
       0.019493042 -0.06484971 0.009816197 -0.030009152
000360 0e 77 9a 3d 80 69 99 3d 86 f0 73 3d e1 9a 02 3d
       0.07542239 0.07490826 0.059555553 0.031885985
000370 6e a3 7a 3d c6 4a 0d 3c c2 21 d4 3c 8a af 8c 3d
       0.061191015 0.008623784 0.025895003 0.06869419
000380 0e 40 46 3c b4 fa b7 bb 1b ab d2 3d 09 90 ef bd
       0.012100233 -0.005614603 0.10286542 -0.116973944
000390 64 fa 73 3d a8 5a 52 3d 1f cf 01 be f0 f1 e7 3d
       0.059564963 0.051355988 -0.12676667 0.11325443
0003a0 60 54 c8 bd 81 19 fb 3c 9a 23 1c bd 0b b9 80 3c
       -0.09781718 0.03065181 -0.03811989 0.015713235
0003b0 4a a3 83 bc 31 c3 99 3d ff ff 59 3d 3a f3 c3 bc
       -0.016069073 0.07507933 0.053222653 -0.02391969
0003c0 51 ea 77 bb 98 b8 6d 3d 65 9e e5 bd 04 c6 07 be
       -0.0037828872 0.05803737 -0.11211852 -0.1325913
0003d0 24 13 31 bd 4f 86 53 3c 15 3d 45 bd a8 47 7c bc
       -0.043231145 0.01291044 -0.048153955 -0.015397944
0003e0 37 5e a6 bc ef 14 ab bd 6a ca 5a 3d be f9 76 3d
       -0.020308597 -0.08353602 0.053415693 0.060296766
0003f0 09 3f 82 3d 11 a8 92 bd 93 c2 34 bd 6b 0a d6 bc
       0.06359679 -0.071609624 -0.044130873 -0.026128015

fc3.bias f4 [64]
000000 4b fa 4e bb 8a e7 5d bd 65 2a 64 bd bd e6 ba bc
       -0.0031582292 -0.05417589 -0.055704493 -0.022815103
000010 83 7b 7e 3c a5 4b b3 3d 09 03 87 3c 74 3a 72 bd
       0.015532377 0.087546624 0.01648094 -0.059137776
000020 14 fb 50 3d a6 19 8a 3d bd d3 1a 3d ac 1e d7 3c
       0.051020697 0.06743173 0.037799586 0.026259743
000030 40 93 e3 ba c5 f9 9e 3d 36 3f 38 3d 50 bc 8d 3d
       -0.001736261 0.077624835 0.044982158 0.069206834
000040 2c 78 0a 3d 74 40 4f bd ff 4b 08 3d 9a 01 7e 3d
       0.03380601 -0.050598577 0.0332756 0.062013246
000050 9c e7 d9 bc 65 b1 db 3c f7 2b 87 bc e7 4a 27 bd
       -0.026599698 0.026817987 -0.016500456 -0.040842917
000060 f2 e6 ff 3d 9a 18 46 bb 39 af d9 3d 70 2e ed ba
       0.12495221 -0.0030227066 0.10629124 -0.0018095504
000070 0c e1 04 3c ab 41 7e bd f3 ad b0 3d 00 45 22 bd
       0.008110296 -0.062074345 0.08626928 -0.039616585
000080 27 dd aa 3d 2b 27 97 bc cb 36 e5 bc 4a 8f 08 bd
       0.08342963 -0.018451294 -0.027980229 -0.033339776
000090 6b 77 03 bd c6 ed a6 bd 72 b2 a0 bd 0d 85 c4 3d
       -0.032096308 -0.081508204 -0.07846536 0.0959569
0000a0 89 1b 93 bc 16 fd cc bc 9b eb 40 3c 44 30 64 3c
       -0.017957466 -0.025023025 0.011774923 0.013927523
0000b0 0c 4b 8d 3b 6e 27 52 3d 5e 5a 0f 3d 1a fd c0 bd
       0.004311925 0.051307134 0.03499829 -0.09423275
0000c0 78 49 5d bb 80 e4 cc 3d 6d b9 db 3d 79 b5 56 3d
       -0.0033765715 0.100045204 0.107287265 0.05241916
0000d0 10 84 2b bd 30 79 63 3d f8 21 4d 3d a8 9c 9d 3d
       -0.04187399 0.055535495 0.050081223 0.076958954
0000e0 96 f3 c1 3c 4c 7c 97 bc 6b f9 62 3d 81 65 b0 bb
       0.023675721 -0.018491887 0.055413645 -0.005383194
0000f0 14 d8 0b 3c c7 b2 36 b9 32 95 9a bd 48 0e bc bc
       0.008535404 -0.00017423472 -0.07547988 -0.022956029

fc4.weight f4 [2, 64]
000000 43 66 b9 3e 1e 70 90 be 0c c9 13 be 90 0e 6a be
       0.36210832 -0.2821054 -0.14432162 -0.22857118
000010 5c ce 1a bb 3a 32 d4 bd 94 34 8b 3e 72 80 61 3d
       -0.0023621535 -0.103611425 0.2718855 0.055054136
000020 bf c5 83 3e 72 c1 53 be 7b 74 b9 3d fd 14 a3 3e
       0.25736806 -0.20679262 0.0905542 0.3185195
000030 34 62 83 bc ce b9 dc bd dd 22 c7 bd c4 44 ca be
       -0.016038038 -0.10777627 -0.097234465 -0.3950559
000040 fa a1 3d be d0 bf 0b 3e 56 d8 4d be e3 0b 95 3e
       -0.1851882 0.1364739 -0.20102057 0.2911063
000050 7c bc 0b 3e 82 ac 92 be 57 d1 85 3e 9f b0 8b be
       0.1364612 -0.28647238 0.26136276 -0.2728319
000060 d1 7a d4 3d 0b c4 64 be 89 52 7c 3e bb bd 60 3d
       0.10374988 -0.2234041 0.2464086 0.05486844
000070 a6 7b 50 be 48 cb f3 3e 02 c1 d0 3d 8b 49 8b be
       -0.20359668 0.4761603 0.10193063 -0.27204546
000080 4e bc 0a be 84 f8 90 3b 06 a0 d4 3d 06 15 e3 3c
       -0.13548395 0.0044241566 0.103820845 0.027719986
000090 68 30 0f 3e 61 f8 8a 3d b8 90 07 be 83 86 2b 3e
       0.1398331 0.06785656 -0.132388 0.16750531
0000a0 0b 40 27 3e 4f 06 15 3e cc e1 33 be a6 7b 47 be
       0.16333024 0.14553188 -0.17566603 -0.19480762
0000b0 dc 90 64 be 3e e6 45 3a a3 1b 5d be 16 c0 65 3d
       -0.22320884 0.00075492624 -0.21592574 0.05609139
0000c0 7a a3 91 3e 8f 96 d4 3d d4 fc 5d be b3 ee 0d 3e
       0.28445035 0.10380279 -0.21678478 0.13860588
0000d0 27 b0 61 3e 4f e7 6f be cf cb 80 3e cc d9 68 be
       0.22039853 -0.23428081 0.25155494 -0.22739333
0000e0 0d 4b 7f be 92 f2 85 be 92 ce 80 be 2a de 13 b9
       -0.24930973 -0.2616163 -0.251576 -0.00014101775
0000f0 7f e4 86 3d 58 cd 99 3d 07 e9 ef 3d 43 82 be 3e
       0.06586551 0.07509869 0.11714368 0.37208757
000100 25 c5 ee 3d 70 88 d9 3d 3b 50 5a 3e 38 3a 53 3d
       0.11658696 0.106217265 0.21319668 0.051569194
000110 10 4c 31 3e d6 d4 29 be 78 54 4c bd 5b 5a 18 3e
       0.17314172 -0.16585097 -0.049885243 0.14878218
000120 59 df b9 3e 78 b6 39 be b8 f6 43 be c6 73 18 3e
       0.36303213 -0.18136013 -0.19137084 0.14887914
000130 2a e3 6b be 8b b6 34 be b3 e5 88 be 51 c9 89 3b
       -0.23035875 -0.1764776 -0.26737747 0.004204907
000140 ee 33 f0 bd 34 e7 13 3d 3a 13 e0 bb 32 ab 60 be
       -0.11728655 0.036109164 -0.0068382295 -0.21940306
000150 05 26 c3 3d 28 09 ed bd a5 ca 40 3e 78 db 01 bd
       0.09528736 -0.11574012 0.18827303 -0.031703442
000160 d8 29 49 be 5b b2 bb bd 4b c3 d6 be b8 1a 8c be
       -0.19644868 -0.09164878 -0.41945872 -0.27364135
000170 ee cf c7 3d e6 7e 89 bd 63 b8 84 be 2d 05 63 3c
       0.09756456 -0.06713657 -0.25921926 0.0138562145
000180 48 ae 90 be c2 aa 8b be 15 c4 67 3e e8 78 00 3d
       -0.28257966 -0.27278715 0.22633393 0.031365305
000190 02 2b 5c bd d9 b2 bf bd be 63 c1 3d ea 72 a6 be
       -0.053751953 -0.09360284 0.094428524 -0.32509547
0001a0 7c 44 34 be da 48 9f 3d 71 ac 38 3e 7f db 96 3e
       -0.1760425 0.07777567 0.18034531 0.29464337
0001b0 35 b1 74 3e ab 00 fe bd fe 8c 6f 3e 72 95 8c 3e
       0.23895724 -0.12402471 0.23393628 0.27457768
0001c0 d3 5c fd bd 35 df 1b be 0f 88 9f bd 10 6a bd be
       -0.123712204 -0.15221865 -0.07789623 -0.36994982
0001d0 c3 86 b9 3d 13 2c 33 be d6 e5 d6 bd 1c 90 80 be
       0.09058907 -0.17497282 -0.104930565 -0.25109947
0001e0 14 2d 50 3e 0d b7 3e 3e 60 f5 21 be 23 f5 61 be
       0.20329696 0.18624516 -0.1581626 -0.22066168
0001f0 e6 49 93 3e c2 d5 97 3e 58 66 dd bd 19 0e 17 3d
       0.28767318 0.29655272 -0.10810536 0.03687868

fc4.bias f4 [2]
000000 96 c3 f4 3b 74 1a 4c 3d
       0.0074696047 0.049829915
