checkpoints/Computer1-1-checkpoint-1.2275-actor.pth (torch, 193711 bytes, 8 tensors)

fc1.weight f4 [256, 24]
000000 2d 43 2b bd 9f 19 5b 3e 87 02 18 3e dd af 2d 3d
       -0.04181211 0.21396492 0.14844714 0.042404044
000010 45 94 82 3e 4c 19 e2 3d bf 87 6e bd af 5b eb 3d
       0.25503746 0.11039981 -0.058234926 0.11492097
000020 bd 41 42 3e af ae 85 3e 4c f2 35 bd e1 22 3f 3e
       0.1897039 0.26109836 -0.044420525 0.18665649
000030 1d 11 84 3e 20 ee 64 be a4 05 0a 3e 61 4b 42 3e
       0.25794306 -0.22356462 0.13478714 0.18974067
000040 da 00 7d be 98 5f 07 be 8f 61 69 3c 88 50 12 3c
       -0.24707356 -0.1322006 0.014244451 0.008930333
000050 73 d5 ae bd 37 c3 5a be d1 af 34 3e 73 c8 57 3e
       -0.08536806 -0.21363531 0.17645194 0.21072559
000060 00 c6 a7 3d ba 8c ba be 25 d7 48 3c c4 f9 75 bd
       0.081920624 -0.3643549 0.012258326 -0.06005265
000070 fd 61 b3 be 20 3d 68 be f8 e0 8d bc 79 8b 5c bd
       -0.35035697 -0.22679567 -0.017319188 -0.05384395
000080 ae 51 1a 3e f4 85 ce be 1b 71 8b 3d 10 dd 42 3d
       0.15070221 -0.40336573 0.068086825 0.047574103
000090 16 08 9c be 99 dc 07 be 17 16 b8 bc b7 6e 3c 3d
       -0.3047492 -0.13267745 -0.02247147 0.046004023
0000a0 26 88 13 3d 64 e5 28 be a2 ea b2 bc 17 07 d6 bd
       0.036018513 -0.16493756 -0.021840397 -0.10450571
0000b0 c4 b7 54 be a5 0f 7c 3e a7 ff 38 bd ad fb 33 be
       -0.20773226 0.24615343 -0.045165684 -0.17576475
0000c0 30 6c 0a bd 95 15 04 bf e3 94 53 3c f3 53 58 be
       -0.033794582 -0.5159543 0.012913915 -0.21125774
0000d0 a8 71 4c bd 8d f8 a3 3d 80 fc a3 3d d5 5e f4 3d
       -0.04991308 0.08006392 0.08007145 0.1193215
0000e0 ec 8a 8b 3e 3c dc e1 be 58 15 06 3d c3 b9 c8 bd
       0.27254426 -0.44113338 0.0327352 -0.09801056
0000f0 5d 39 7b bd b1 ad 89 be ca 62 c4 3d 0c 37 b0 3d
       -0.061334003 -0.2689033 0.09589155 0.08604249
000100 c8 74 ac 3e ef ba c1 be 0b da c2 bc 9d bd 1d 3d
       0.33682847 -0.37837932 -0.023785612 0.038510907
000110 8b 67 8d 3e aa a4 2e bf 1b 2e 51 3d 4f 7d 55 3c
       0.2761806 -0.6822001 0.05106936 0.013030364
000120 15 aa b2 3d 96 57 bc bd 51 f5 34 3d cd f0 1e be
       0.08723847 -0.09196393 0.044179264 -0.15521546
000130 9b eb 3d bc f8 94 1a be 64 fb 28 bc 9d 49 58 be
       -0.011591817 -0.1509589 -0.010313842 -0.21121831
000140 2c 30 d3 3d 19 46 60 be 9a 33 eb 3d 4f a7 fe 3d
       0.103119224 -0.2190174 0.114844516 0.12434255
000150 4e 08 8f 3e b3 f9 45 be af fd 19 3e f0 8e 88 3d
       0.27936023 -0.19333534 0.15038179 0.06667888
000160 c3 8c 98 bd dd 69 15 be b2 92 2e be 74 47 ce 3b
       -0.07448723 -0.14591165 -0.17048147 0.006295139
000170 4d 17 27 3e 4a fa 13 bf 63 f8 e6 3d f5 0a 7f bd
       0.16317482 -0.57803786 0.11277845 -0.06226631
000180 05 bb 90 3c 46 ad 76 bd 40 1d 01 3e e0 1b 58 be
       0.017667303 -0.06022384 0.12608814 -0.21104383
000190 eb 09 cb 3d 96 39 b3 be 51 02 24 3e 4a 60 09 bd
       0.09914001 -0.35004872 0.16016509 -0.033539094
0001a0 f4 5d 5c 3c a0 ab 37 3e b9 20 5a bd 88 27 dd bd
       0.013450135 0.17936563 -0.053253863 -0.107985556
0001b0 c7 6d 4e be 2a 80 b8 3c 4e c1 39 3e 87 07 32 be
       -0.20159064 0.02252205 0.18140146 -0.17385684
0001c0 78 f2 f2 3d 2d f8 3e bd 16 3c b6 bd 4b c3 53 be
       0.118626535 -0.046623398 -0.08898179 -0.20679967
0001d0 fd c1 9d be 5e 2e c8 3e a4 39 9f 3d e7 f5 ad be
       -0.30812064 0.39097875 0.07774666 -0.3397667
0001e0 49 81 4a 3d 88 e8 c7 be c4 7a 92 3d 98 7c 51 be
       0.049439702 -0.39044595 0.07152322 -0.20457685
0001f0 36 80 1b bd 15 59 8f be d8 6b b3 3d ed 62 8c 3c
       -0.03796407 -0.27997652 0.08760804 0.017137015
000200 a5 6a f5 bd 3f 25 b5 be 88 88 69 bd b0 cc 57 be
       -0.119832315 -0.3537998 -0.057014972 -0.21074176
000210 6a 77 8b bd c8 fa 59 be 39 3f 91 3d ae 67 59 be
       -0.06809886 -0.21287072 0.07092137 -0.21230957
000220 38 58 37 be 96 9a d4 be af 12 a1 bd 86 0d 58 be
       -0.17904747 -0.4152419 -0.07864892 -0.21098909
000230 38 4e 80 3c 07 c3 bc be b1 08 02 3e f9 66 ca be
       0.015662298 -0.36867544 0.12698628 -0.39531687
000240 63 2c 00 3e c4 7b a3 3d 8c eb 70 bb f2 4a 09 3e
       0.12516932 0.07982591 -0.003676149 0.13407496
000250 a0 c7 02 bd bd 2e 67 3d 3c be 3b 3e 57 4f 42 3d
       -0.03192866 0.056441057 0.18334287 0.047438946
000260 a9 f7 84 bc 43 25 cf 3e 3b 31 88 3d e8 f7 bf 3b
       -0.016231375 0.40458116 0.06650015 0.00585841
000270 5c 67 f1 3a d1 63 5d be 60 6e 34 bd 44 8d ec bc
       0.0018417644 -0.21620108 -0.044050574 -0.028875954
000280 f9 4a cd 3d b7 3b 0e 3e ed d7 10 bd 09 64 24 be
       0.100240655 0.13889967 -0.035362173 -0.16053785
000290 2a 19 1e 3e 8a 93 ef be 31 f1 b4 bd 6c c7 14 be
       0.15439287 -0.4679225 -0.08835066 -0.14529198
0002a0 9a d1 aa 3d a9 13 72 3e 5b c8 dd bd 44 9c f6 3b
       0.083407596 0.23640312 -0.108292304 0.0075259525
0002b0 af 00 cb bd ed 97 8a bc ba 25 e3 3d ba d9 8f bd
       -0.0991224 -0.016918147 0.1109118 -0.0702395
0002c0 4b 36 d5 3d ac 53 47 3e 65 6b 64 bd dd 95 e8 bd
       0.10410746 0.19465512 -0.055766482 -0.11356709
0002d0 7b 4c 89 3e 74 9a 28 3e 61 6c 84 bc 10 65 39 3d
       0.26816162 0.16465169 -0.01616496 0.045262396
0002e0 06 45 92 be 90 d8 e1 bb 63 92 a0 bc 5c 6f 26 bd
       -0.28568286 -0.0068922713 -0.019601053 -0.040633544
0002f0 2e dc ca 3e ac e0 7f 3d 25 4d dd bd 6a 53 df bd
       0.3962111 0.062470123 -0.1080573 -0.10904582
000300 2b b3 6e 3d 55 dc c7 3e 8f b5 46 3c 86 ad 99 3d
       0.058276337 0.39035287 0.012128248 0.075038
000310 45 11 28 be 16 27 a2 3d 60 33 0b 3e 51 0b 91 3d
       -0.16412838 0.07917611 0.13593817 0.070822366
000320 b8 a3 db bb 8b 05 3a 3d e4 92 35 3e 3a 61 47 be
       -0.0067028664 0.045415442 0.17731816 -0.19470683
000330 07 a2 0d be 08 99 9d bd d5 37 21 bd 14 bd d3 bd
       -0.1383134 -0.07695204 -0.039359886 -0.10338798
000340 4c 48 19 be 07 7b 0a 3e 6a 4b 6d 3d 34 85 45 be
       -0.14968985 0.13523494 0.05793325 -0.19289094
000350 8f 78 dd bc c4 12 ef bd 4e 43 bc bd c5 67 3f 3d
       -0.027035026 -0.11673501 -0.09192525 0.04672982
000360 1b 1d 99 3e 8a 10 a9 be 37 60 f9 bd 58 15 8a bd
       0.29905018 -0.3302043 -0.12176555 -0.06742352
000370 ef 9e 8a bd 75 6e ac be 95 a0 4e 3e db 00 2c be
       -0.067685954 -0.33678022 0.20178445 -0.16797201
000380 d1 40 41 3e 4d e2 c5 be 29 22 02 3e 35 03 82 be
       0.18872382 -0.38649216 0.12708344 -0.25393072
000390 29 47 bb 3d b3 93 8a 3c 4c 5c 2b 3e ab 9e 44 3d
       0.09144432 0.016916132 0.16734427 0.04800288
0003a0 4b 55 87 3e e3 95 e9 be 47 9b fc bd 7a 86 d0 3c
       0.2643226 -0.45622167 -0.12334304 0.025454748
0003b0 31 0f bf bd 39 8d 9d bd b8 18 88 3c 12 a8 ac 3d
       -0.093290694 -0.07692952 0.01661335 0.08430494
0003c0 18 f7 39 be e9 fd 4f 3e c0 78 1d be f8 3a 4c be
       -0.18160665 0.20311703 -0.15378094 -0.1994437
0003d0 2b 50 35 be 35 8e 19 be 38 fe 89 bd 37 18 3c be
       -0.17706363 -0.14995654 -0.067379415 -0.18368612
0003e0 e2 5b 0c be 5b 1b af 3e 6e a7 a7 bd fa 92 ef 3c
       -0.13706926 0.34200558 -0.081862316 0.029244889
0003f0 50 37 21 be aa 92 b2 bc ea fb 0e be e3 c3 23 be
       -0.15743756 -0.02179845 -0.13963285 -0.15992694

fc1.bias f4 [256]
000000 05 61 12 3d 1d f6 6f 3d 16 d2 19 3c 39 fd 13 be
       0.035737056 0.05858432 0.009388467 -0.14452066
000010 d8 bb 01 be 89 06 34 3c 73 dd d2 3d a3 9e 72 3e
       -0.12669313 0.010987886 0.10296144 0.23693328
000020 e6 84 9f bd 41 f9 0d 3e 1c 9e b5 3d b4 17 90 bb
       -0.0778902 0.13864614 0.088680476 -0.004397357
000030 22 ee 13 be 9c e3 c3 bd 8c 43 f1 bd 41 e7 ce bc
       -0.14446309 -0.095648974 -0.11780462 -0.025256755
000040 ab 90 35 be a9 3a c3 3d 69 fc 16 3e d8 e0 32 3e
       -0.17730968 0.09532673 0.14744724 0.17468584
000050 1a ea 7f bd 0d 54 df bd 1f 5d 2c be af eb 31 3e
       -0.062479116 -0.10904703 -0.16832398 0.17375062
000060 2f 3c 16 3e 52 2d 46 be 85 95 15 bd 45 46 dc 3b
       0.14671396 -0.19353226 -0.036519546 0.006722244
000070 a1 3c 86 be 02 14 46 be 41 aa c4 3d 0f 58 1c be
       -0.2621813 -0.1934357 0.09602786 -0.15267967
000080 32 90 a0 3c 6f 92 53 be 4b d2 26 3e 80 7b e1 ba
       0.019600008 -0.20661329 0.16291158 -0.0017202944
000090 9b 93 33 be 44 d2 ba ba f0 56 df 3d 15 49 42 bd
       -0.17536776 -0.0014253338 0.10905254 -0.047432978
0000a0 d8 f7 5c 3d 24 fa 1b 3e f2 05 85 be e1 8c 32 3b
       0.0539473 0.1523214 -0.25981098 0.0027244615
0000b0 f1 98 5e bd ff 0d 56 3d 94 a2 2e be 2c 0d 33 3e
       -0.054345075 0.05225944 -0.17054206 0.17485493
0000c0 39 3b 19 be 26 df 6b bd 6f 70 15 be ca da f4 3d
       -0.14963998 -0.057585858 -0.14593671 0.11955793
0000d0 6a f2 7f be 56 7d dd bd 1a 58 c4 bd c0 d5 88 bd
       -0.24994817 -0.108149216 -0.095871165 -0.066813946
0000e0 e5 57 e7 bd 49 8c 3b be 02 f7 3a be 79 18 56 3d
       -0.112960614 -0.18315233 -0.18258289 0.052269433
0000f0 2a 80 9a be 04 6f 3c 3e 79 f1 66 3d 3d 54 04 3e
       -0.30175906 0.18401724 0.05638263 0.1292276
000100 a4 7b 1d be 24 d6 d2 3d d9 1c cf bd a3 d4 58 3d
       -0.15379196 0.1029475 -0.10112924 0.05293716
000110 83 99 4a 3e 27 a0 82 3c 7e 8b 35 be d3 ad 19 3c
       0.19785123 0.015945507 -0.17728993 0.009379822
000120 41 f1 92 bd cb 2d 60 be ec db 2c be 05 cf 04 3e
       -0.07174922 -0.21892469 -0.16880769 0.12969597
000130 bb fb 58 bd 3b ea 38 be 88 42 32 be 33 44 15 3e
       -0.052974444 -0.18058102 -0.17408192 0.14576797
000140 cb b2 48 be fa 5f 03 3e 27 c9 cd 3d 52 b5 ec 3d
       -0.19599454 0.12829581 0.100481324 0.115580216
000150 4d eb 18 3d 14 f1 c8 3c 76 a3 11 be 54 59 6d be
       0.037333775 0.024529018 -0.14222512 -0.23178607
000160 56 fe 74 be f8 d6 90 bd d6 08 53 be 8e 52 1e be
       -0.23925146 -0.07072252 -0.2060884 -0.1546118
000170 63 42 48 3d 12 c1 4e be dc f4 de bd ab 34 1c 3e
       0.048891436 -0.20190838 -0.10886547 0.15254466
000180 e1 41 bc 3d 43 95 13 3e ca 48 6b 3d bc 48 01 be
       0.09192253 0.14412408 0.057442464 -0.12625402
000190 a6 26 76 3d 2c 43 f8 3d f5 28 c4 3d ca d7 c0 bd
       0.06009545 0.12122187 0.095781244 -0.094161585
0001a0 7e b3 88 bd aa d2 59 bd 36 2a 8e bd f6 04 a0 bc
       -0.066748604 -0.05317942 -0.06941645 -0.019533616
0001b0 42 21 59 3e 15 6a 29 be 33 a6 8c be bf d0 b5 bc
       0.21204093 -0.16544373 -0.2747055 -0.022194264
0001c0 3c 9d 27 bc db 91 8d 3d 78 c2 64 be f9 07 8f 3e
       -0.010230359 0.06912585 -0.22339809 0.2793577
0001d0 03 3b 39 be 3a eb 10 be d9 fd 83 3c 0c e5 8e bb
       -0.18088917 -0.14152232 0.016112255 -0.0043608006
0001e0 a7 e5 19 be 34 4a 5c 3d 7f 72 09 bd 90 d5 34 be
       -0.15029012 0.053781703 -0.033556458 -0.17659593
0001f0 d2 9c 24 3e 93 b3 01 3e bb 4c 3d be 71 c9 84 3e
       0.16075447 0.12666158 -0.18486302 0.25934938
000200 cc 8d be 3d 4b 35 3f be 5a 00 42 be a2 74 83 3e
       0.09304389 -0.18672673 -0.18945447 0.2567492
000210 c8 92 25 be a7 4e 6d be 70 a1 51 3e 91 2c 67 3e
       -0.16169274 -0.23174535 0.2047174 0.22575594
000220 17 fa d2 3d e8 71 d9 3d 1a 41 07 be 6b 69 1c be
       0.10301607 0.10617429 -0.13208428 -0.15274589
000230 0d 66 95 3e 68 39 be bd f0 99 3c bd 46 1e 01 3e
       0.2917942 -0.09288293 -0.046045244 0.12609205
000240 6f f0 38 be 68 1f c3 bd 08 4a a9 bd 01 17 38 be
       -0.18060468 -0.09527475 -0.082660735 -0.17977525
000250 7d 56 8c be 00 f0 94 be 27 ef 09 be 63 5b 8a 3d
       -0.27409735 -0.29089355 -0.13470136 0.06755712
000260 8e b4 c4 bd 72 83 b4 3c e4 1c 82 be 56 d6 97 3d
       -0.096047506 0.022035334 -0.25412667 0.07413928
000270 d5 0e 47 bd ed 7b 98 bc 22 fb 76 be d5 65 8b 3d
       -0.04859813 -0.01861378 -0.24119237 0.06806532
000280 12 9d 69 3d 4e fc 38 3c d5 45 4a be 43 79 02 3e
       0.05703456 0.011290623 -0.19753201 0.1274157
000290 da f1 b5 bb bb 8a 90 be 09 74 ed 3d d1 0e 38 bd
       -0.0055525126 -0.28230843 0.115943976 -0.044936005
0002a0 dd d2 db bd a1 8e d2 bd e8 11 42 be 36 20 9d 3c
       -0.10733578 -0.102811106 -0.18952143 0.019180398
0002b0 77 df 9b 3e 0b 1d 48 be df 5a 85 be 3f 38 5f be
       0.30443928 -0.19542329 -0.26045892 -0.217988
0002c0 7c 30 48 be 43 12 21 3c 1f 10 52 3d ca fe cd 3d
       -0.19549745 0.009831014 0.051284906 0.10058363
0002d0 f7 e7 50 bc ee 43 19 3d 24 ca 5c 3c 59 b6 18 3c
       -0.012750617 0.0374183 0.013475928 0.009320819
0002e0 d1 55 8a 3d 84 0b 1a bc 00 d1 e9 bd 68 0e ac be
       0.067546494 -0.00940216 -0.11416817 -0.3360474
0002f0 e8 ab 36 3e 41 14 19 3e 0f 8a 21 be 42 a0 48 bd
       0.17839015 0.14949133 -0.15775321 -0.04898096
000300 73 d4 db bd d3 ff 4b be 2d b3 fe bd d8 27 10 be
       -0.10733881 -0.19921808 -0.12436519 -0.14077699
000310 41 3d 44 3e 3b b4 a3 bd fd a0 08 be e8 7c ee bd
       0.19163992 -0.079933606 -0.13342662 -0.11644918
000320 e3 da 82 bd 1d 8a d0 bc 6a 6d e2 3c 6e 44 8c be
       -0.063894056 -0.025456483 0.027640063 -0.27395958
000330 a1 27 a6 b9 aa ca b4 bd 02 35 1b 3d 6d 85 00 3b
       -0.00031691513 -0.088277176 0.03789235 0.0019610778
000340 ff 0d 3f bc 0e ab 73 be 84 17 c7 3d 70 ca bf bd
       -0.011661052 -0.23795721 0.09721282 -0.09364784
000350 f1 79 a5 3c 69 dc 6a be 67 b2 2c be e1 1a 30 3e
       0.020199748 -0.22935642 -0.1686493 0.17197753
000360 6f 9f 44 3e d8 9e a8 bc bb 57 60 3e 7c 6d 33 be
       0.19201444 -0.020583555 0.21908467 -0.17522234
000370 cb ec 49 3e bd 8f 6d bd 5a 69 8c be f8 bb 60 be
       0.19719236 -0.057998408 -0.27424127 -0.21946704
000380 46 2c 9f bc 2d f4 30 bd 71 17 16 bc dd cc 3b 3e
       -0.01943029 -0.043201614 -0.009160862 0.18339868
000390 df 03 13 bd 8f 24 db 3d 98 73 4f 3d db ff 22 3e
       -0.035892364 0.107003324 0.05064735 0.15917914
0003a0 1b 29 02 be d2 98 34 3e 8b 56 01 3d 16 1c 00 be
       -0.12710993 0.17636421 0.031576674 -0.12510714
0003b0 e4 bf 48 bb 34 fb 52 3c 4f 18 8d 3d de 4a 48 be
       -0.0030631954 0.012877274 0.06889402 -0.1955981
0003c0 77 42 25 be 9c ef 60 be 76 1b 27 be 03 9e 22 be
       -0.16138636 -0.21966404 -0.1631907 -0.15880589
0003d0 3e 0d 82 be 72 96 04 be f0 1e 02 be bf 8c 33 3e
       -0.25400728 -0.12948015 -0.12707114 0.17534159
0003e0 19 65 74 3c 72 7f 86 be 62 e0 b0 bd dc 95 40 3e
       0.014916682 -0.26269108 -0.086365476 0.18807167
0003f0 31 43 87 3d ca 0c 9a bd 99 09 8c 3d 63 79 5e 3e
       0.066046126 -0.075219706 0.06837768 0.21725993

fc2.weight f4 [128, 256]
000000 a0 6b 2e bd 7a e6 53 3c dd 33 6d 3e 45 95 3e bd
       -0.042583108 0.012933368 0.23164316 -0.046529073
000010 bc 5c cc bc fb 92 1b bd 31 cf 82 3d b3 cc 05 3e
       -0.024946563 -0.03798197 0.06387175 0.13066368
000020 f5 d5 83 bd d6 a2 1e bd 84 d6 85 bd 55 65 95 3d
       -0.064372934 -0.03872951 -0.06535056 0.07294718
000030 05 09 c0 3d cb bf 94 bd 09 3a 01 3d fa 51 18 3d
       0.0937672 -0.07263144 0.031549487 0.037187554
000040 98 ca 48 3d db 3b 2c bd 61 80 81 3c 22 d1 d6 bc
       0.049021333 -0.04204927 0.015808286 -0.02622277
000050 e4 f2 2e bd e8 60 75 bd df 0f 71 3c 08 c9 98 3c
       -0.042712107 -0.05990687 0.014713257 0.018650547
000060 e2 ca 0d 3d 73 46 e7 bc 0c 67 35 bc 5f a6 cc bc
       0.034617312 -0.028231835 -0.011071932 -0.024981676
000070 cf 98 ac 3d 19 f6 51 3c c5 b1 0b 3b b3 44 21 3d
       0.084275834 0.012815022 0.0021315676 0.039372157
000080 2f 75 2e bd 26 93 af 3c 35 56 ad 3d a1 53 38 3d
       -0.042592224 0.02143247 0.08463708 0.04500163
000090 f3 e7 af bc 10 07 58 3d 33 3c 21 3d 49 db 45 bd
       -0.021472907 0.05274111 0.03936405 -0.04830483
0000a0 c7 c3 7b bd cc b6 74 3d 40 87 1e bd fd 04 72 3c
       -0.061466005 0.05974464 -0.038703203 0.014771697
0000b0 57 18 0a 3e e3 63 4d bd f9 4d 79 3d 1b a8 12 3d
       0.13485847 -0.050144088 0.060865376 0.03580485
0000c0 e2 13 8c 3d 64 74 ac bd 7c 9b e7 bd e4 02 63 bc
       0.0683973 -0.08420637 -0.11308953 -0.01385567
0000d0 a5 2a c1 bc f1 5b bd bd da ef a5 3d 26 71 1a 3e
       -0.023579905 -0.09246052 0.08102389 0.15082225
0000e0 55 b0 55 3c 42 48 36 3d 72 76 d9 bd 14 c3 46 bc
       0.013042529 0.044502504 -0.10618295 -0.012131471
0000f0 35 bd 6e 3c 1d 82 c6 bc 76 b5 d5 3c 00 ea 14 bc
       0.014571478 -0.024231965 0.026087504 -0.009088993
000100 9a 8c 4c bd 8e af 4e bd 69 ef 51 3d b8 96 22 3d
       -0.049938776 -0.05046039 0.05125371 0.039694518
000110 26 4f 91 bc 9c b1 ab 3d ab f5 74 bd 74 e4 b2 3c
       -0.017737936 0.08383486 -0.0598046 0.02183745
000120 4c 01 66 bd 45 2c 80 bc ae 43 94 ba f3 24 94 3d
       -0.05615358 -0.01564611 -0.0011311674 0.0723361
000130 23 d6 65 bd e2 3d 25 3d 00 88 2a bd e1 7c 41 bd
       -0.05611242 0.04034222 -0.041633606 -0.047238234
000140 77 a3 65 be 66 52 ae bd b4 af 98 3d 25 c5 bb bd
       -0.22425638 -0.0851181 0.07455388 -0.09168462
000150 98 9b aa bd 4f 63 b8 3d 07 cb 87 3d c5 36 da bb
       -0.083304584 0.090033166 0.06630521 -0.006659361
000160 ec 73 84 3d 3d 20 fd 3c 8a 7d ae bd 0a 34 5d bd
       0.06467423 0.030899161 -0.085200384 -0.054004706
000170 dc c3 11 3d b6 b9 ec 3d 8f 2e 9a 3b 4f 4d 62 3d
       0.035587177 0.11558859 0.0047052572 0.05524951
000180 97 00 3b bd 3e 9d 0b 3e d0 d8 a0 3c 08 c1 af bb
       -0.04565486 0.13634202 0.019634634 -0.0053635873
000190 67 e9 19 bd 33 af d1 bc da d9 3d 3c da cd 81 bd
       -0.037576105 -0.025596237 0.011587584 -0.06338091
0001a0 fa 74 13 bd 47 0f 58 bd d0 ce 2c 3e 8c 4c db bc
       -0.03600023 -0.052748945 0.16875768 -0.026769899
0001b0 e9 a9 53 ba a0 6c 86 bd b7 5c 4e bc 7d 18 0f 3e
       -0.000807433 -0.06563687 -0.012595347 0.13974185
0001c0 9d c7 81 bb 84 93 b2 be 8c a3 a0 3b 92 1a 93 bd
       -0.0039605633 -0.3487817 0.004902309 -0.07182802
0001d0 81 44 18 3c 54 2e c9 bc 5a 2a 0f bd 8e a6 1d bd
       0.009293676 -0.024558224 -0.0349525 -0.038488917
0001e0 9c 57 e8 bb 8e bb 1a be f6 5c 34 bd b0 92 97 3d
       -0.007090522 -0.15110609 -0.044033967 0.07401025
0001f0 a3 37 a0 3d d0 8f 4a 3d b0 42 05 3d 2d a8 95 3d
       0.07823112 0.049453557 0.0325343 0.073074676
000200 6a 13 2d 3d 88 9f c5 bc 8d 16 48 3c 7a ac 15 3e
       0.042254843 -0.024123922 0.012212408 0.14616576
000210 c2 88 5c 3d 68 8c 96 bc 57 84 e4 bd b7 2a e0 3d
       0.05384136 -0.018377498 -0.11158054 0.10945647
000220 ee 3a 57 ba 8a 7f 97 bd 60 12 a3 3d 5a 1f 91 bd
       -0.00082103803 -0.07397373 0.07962489 -0.07086058
000230 47 5e 06 be 8f ad c0 3c e8 1a b4 be 07 cb 27 3d
       -0.13121901 0.02352026 -0.35176778 0.040965106
000240 0f e2 08 be eb 01 28 bd 63 13 8a bd 59 cc 68 3d
       -0.13367485 -0.041017454 -0.06741979 0.056835506
000250 2c 4d a4 3d 3b ad df 3c 02 40 e5 bb 88 bc 55 be
       0.08022532 0.027304282 -0.0069961557 -0.208727
000260 b1 ad 70 3d 4b 1f 4f 3d 0d 94 65 bc fd 48 8f 3d
       0.058759395 0.050566953 -0.014012349 0.06996343
000270 5a 76 8f bd 24 e6 71 3d c4 ac 7a 3b 18 ee 0a bb
       -0.07004996 0.05905737 0.003824995 -0.0021199044
000280 9c bc f6 3c aa cc 4f bb 8d a9 4a bd 01 28 a7 3c
       0.030119233 -0.0031707683 -0.049478102 0.020404818
000290 3a cd 06 bd 56 e7 a8 bc ce ae a8 3c 78 c5 19 3d
       -0.032910563 -0.020618122 0.020591166 0.037541837
0002a0 c7 cd 86 bd 67 05 e7 bb b2 da 9d 3d a3 a5 94 bc
       -0.06582218 -0.0070502046 0.077077284 -0.018145388
0002b0 1b 10 2a 3d 18 b8 22 bd 68 cd 19 bc 0d b0 8f bd
       0.041519266 -0.039726347 -0.009387352 -0.07016001
0002c0 79 73 f8 bc 77 15 17 3e b7 2f 98 3a 32 fd 2f 3d
       -0.0303285 0.14754282 0.00116109 0.042966075
0002d0 8c af 9b 3c 0c 1a 7e 3d 82 f7 18 3b fc 37 df bc
       0.019004606 0.06203656 0.0023340886 -0.027248375
0002e0 a2 b2 1c be 73 27 b2 3b 69 10 8d 39 72 aa 31 3c
       -0.15302518 0.0054368316 0.00026905842 0.01084386
0002f0 a9 6a 3c be f6 8c a3 3d 09 1d d6 bc 76 b0 ec bc
       -0.18400063 0.079858705 -0.026136892 -0.028892737
000300 b8 36 4c bd 6d 7b 07 3d 4d 83 ab 3d 51 ab 15 bd
       -0.04985687 0.033076692 0.08374653 -0.036540333
000310 89 36 74 be 32 06 5a 3c c0 71 8a 3d 88 c2 ca bd
       -0.23848929 0.013307141 0.06759977 -0.09900385
000320 30 8c f8 bc a0 fc c6 3d 23 a9 9c 3d 0f eb bb 3c
       -0.030340284 0.09716153 0.07649448 0.022939233
000330 52 56 86 bd 9f b7 97 3d e7 a9 00 be e7 19 a6 3d
       -0.06559433 0.0740807 -0.12564813 0.08110409
000340 50 51 25 bd 0c d1 1d bd 17 8c dc bc 74 a5 dd bc
       -0.04036075 -0.03852944 -0.026922269 -0.027056433
000350 42 3f 79 bd b8 71 46 bb 48 64 6c 3d e3 31 28 3d
       -0.060851343 -0.0030280184 0.057712823 0.0410632
000360 db ea fe bc 15 ce 3e be 9c de c6 3c 05 f1 78 bd
       -0.031117847 -0.18633302 0.02427607 -0.06077673
000370 25 8f a5 3d f2 3a f4 bd 67 f4 0c 3d 0b 2f c2 3d
       0.08083943 -0.119253054 0.034412768 0.09481629
000380 0e 8d 5e bd df f1 8e bd 41 06 49 bc 6a 41 33 be
       -0.05433374 -0.06979727 -0.012269557 -0.17505422
000390 59 9f 66 3d ec 5f fa bc 91 1b 81 3d a3 4b 48 bd
       0.05630431 -0.030563317 0.06304086 -0.048900258
0003a0 9b ad 86 bd bb 0f cd bd 77 70 0c 3e e0 97 a9 bd
       -0.06576081 -0.10012766 0.13714777 -0.08280921
0003b0 d3 e9 d7 bc f4 0d 7c bd bd f3 3b 3d 47 4b 8d 3d
       -0.026356613 -0.061536744 0.045886744 0.06899124
0003c0 57 43 85 bd 10 6c ba bd fa dd 81 bd 75 bd 13 3b
       -0.06506985 -0.091026425 -0.06341167 0.0022543345
0003d0 5c 34 b4 3c 5d 86 68 bc f4 af 11 3e 51 bd 92 bc
       0.021997623 -0.014192191 0.14227277 -0.017912539
0003e0 2c 7d 47 3d 24 c0 90 bd fb be 6d 3c d5 73 a4 bc
       0.048703358 -0.07067898 0.014510865 -0.020074764
0003f0 9a f7 49 3d 6f aa 49 bc 8a 90 98 3c 52 98 12 be
       0.049308397 -0.012308701 0.01862361 -0.14315918

fc2.bias f4 [128]
000000 89 9c ab bc 4b 3c ab bd ba 58 4b bd c2 f7 bf 3c
       -0.020948665 -0.08361109 -0.049645163 0.02343357
000010 48 dc 0f bd 98 b1 6c bd c7 c1 13 bb c1 d3 20 bd
       -0.035122186 -0.057786554 -0.002254592 -0.039264444
000020 12 92 d9 bc d6 8d 23 3c 92 15 db 3c 46 27 31 bd
       -0.02655891 0.009982547 0.026743684 -0.043250345
000030 7f 3d 1d 3a 6b 3c f4 bc 8b cc ae bc 19 0f b3 bc
       0.00059982383 -0.029813966 -0.021337768 -0.021857785
000040 00 7d 79 3d 47 df 2a bd d0 91 32 bd d6 59 83 bc
       0.060910225 -0.04171684 -0.04359609 -0.016034048
000050 4f ee 9f 3c cd 37 f0 3a 7f 81 97 3b 33 58 67 bd
       0.019522814 0.0018327177 0.0046235914 -0.056480598
000060 03 27 ff bb ce 5d 8b bc 0a 8a 96 bc f9 d7 69 3b
       -0.007786633 -0.017012503 -0.018376369 0.0035681708
000070 58 35 b5 3c bd 98 98 bd f5 fb 96 3d 60 b4 ff bc
       0.022120163 -0.074510075 0.07372276 -0.03121394
000080 df af ad bd b4 2b 47 3a b4 2b 33 3d 6f 03 e1 bc
       -0.084808104 0.000759776 0.04374285 -0.027467458
000090 e5 da fd 3b 1c ba 9d 3d 14 ba 99 3c 24 d1 a7 bd
       0.0077470415 0.07701513 0.018765487 -0.08194187
0000a0 40 1d a4 3c 1c 85 3b 3c 14 12 2d bc 0d 7a 29 bd
       0.020033479 0.01144531 -0.010563392 -0.041376162
0000b0 ab a2 e0 3d f8 96 97 bd f7 21 64 bd 12 57 9b 3c
       0.109685265 -0.07401842 -0.055696454 0.018962417
0000c0 6e 53 d1 3c 1b 01 3a 3d 66 2d 02 3c 46 2d 02 bd
       0.025552478 0.04541121 0.007945394 -0.031781457
0000d0 e7 f5 00 3d 9b b8 96 3d 6b 58 b1 bc d2 1f f4 3b
       0.03148451 0.073594294 -0.021648606 0.0074500823
0000e0 ae da ab 3c a1 fa 50 3d 5b d4 47 3d 6b 9f a6 bc
       0.020978298 0.05102027 0.048786502 -0.020339688
0000f0 89 d0 54 3d e0 89 df bd bc 53 4b bd 51 35 42 bc
       0.051956687 -0.109149694 -0.049640402 -0.011853532
000100 42 b3 9d bc e1 d1 82 bd 89 1c b6 bd d3 75 94 bd
       -0.019250516 -0.063876875 -0.088921614 -0.07249036
000110 fe 65 6b 3d 43 44 ab bd 1e 95 9b bb 95 51 e3 3d
       0.057470314 -0.08362629 -0.0047480008 0.11099545
000120 5d 9e c4 bd b7 ec 08 bc a7 c4 ef bc 75 2e dc bb
       -0.09600518 -0.0083572185 -0.029268576 -0.0067194053
000130 5d d9 70 3c af 4f c6 bc 4f ad 3e bd 36 1a d5 3d
       0.014700261 -0.024207918 -0.046552 0.1040539
000140 37 3c 82 3d 1b bc 52 3c c7 7b e0 bd 12 a7 b0 3d
       0.06359141 0.012862231 -0.10961109 0.08625616
000150 20 59 25 3c 4f bd bc 3c d7 34 8b 3c 01 9a 98 3c
       0.01009205 0.023039488 0.01699297 0.018628122
000160 5a bf 99 3c 5b 2e 79 bd 08 fe be 3c 68 b7 cf 3d
       0.018768001 -0.060835224 0.02331449 0.10142404
000170 20 21 06 bc cf 6c cc bd e4 bf 3a bd 62 74 99 bc
       -0.008186609 -0.09981691 -0.045593157 -0.018732253
000180 62 14 7f 3d 18 25 0b 3d de 5f 6c bd 52 e5 99 bd
       0.062275298 0.033970922 -0.057708614 -0.075144425
000190 33 64 09 bd e1 72 66 bc a1 c5 82 bd 59 66 91 bd
       -0.033542823 -0.014065475 -0.06385351 -0.070995994
0001a0 05 6e d2 3c 90 e6 74 bb 4d 74 6b 3c af 89 0d bd
       0.025687227 -0.0037368871 0.01437099 -0.034555133
0001b0 b0 9b 07 3c b7 38 7a bc ec 5c 6c bd 96 74 e3 bc
       0.008276865 -0.015272311 -0.057705805 -0.027765553
0001c0 a6 dd 90 3d 4c 6b 0d bb 7c d7 05 be 7f 27 94 bd
       0.07073526 -0.0021578846 -0.13070482 -0.07234096
0001d0 26 8e 74 bd fa 1e 5f 3d 8a 5e 34 3d 54 3a cd bc
       -0.059705876 0.0544729 0.044035472 -0.025052227
0001e0 0b 51 21 3d d9 8f 02 bd 7b 5c af bd 8b c4 b1 3d
       0.03938393 -0.031875465 -0.08562561 0.08680066
0001f0 e1 d3 a6 bc c8 f9 86 bd 9c 02 22 bd 94 64 e1 3a
       -0.020364704 -0.06590611 -0.03955327 0.0017196112

fc3.weight f4 [64, 128]
000000 49 b1 e7 3d 42 9e 0e 3e fc 5d 0c 3e 3d c2 8b 3e
       0.11313111 0.13927558 0.13707727 0.2729663
000010 45 0a 62 bd c5 98 9c bc 4c be 83 be ec 00 54 3d
       -0.055185575 -0.019115815 -0.25731122 0.05175869
000020 6b 39 0a 3d 8c 84 3d be 3c 3c c6 3d 4e 2a 5a 3d
       0.033746164 -0.18507594 0.096794575 0.053263
000030 7d 9f e0 3d 4c 2e eb bc 2d 14 22 3e 6b 7a b9 bd
       0.1096792 -0.0287086 0.15828009 -0.090565525
000040 17 6f f7 bd d9 b9 35 3d 6a c6 0c 3e 4c a8 b7 3d
       -0.120817356 0.04436669 0.13747564 0.08967647
000050 23 20 76 3d 85 0e 2b be 92 93 14 3e 24 c6 09 be
       0.06008924 -0.16704758 0.14509419 -0.13454491
000060 eb d2 16 be 57 0c e1 bc 2d 02 18 3e b9 c5 27 be
       -0.14728896 -0.027471704 0.1484458 -0.16384019
000070 40 15 8f bd 82 f0 a6 3b 61 88 13 3d e5 88 b0 bc
       -0.06986475 0.0050945887 0.036018733 -0.021549651
000080 2e 66 3b 3e 4b 51 de be 60 80 67 3d 06 60 43 3d
       0.18300697 -0.43421397 0.056518912 0.047698997
000090 45 55 23 3e 92 44 c9 bd 53 32 12 3e 4d 2e 8e 3d
       0.15950496 -0.09827532 0.1427701 0.06942425
0000a0 9f 16 3f 3d 9e 6e 7b be c4 5b ac 3d cb 5a 7e 3d
       0.046652433 -0.24553916 0.084159404 0.062098306
0000b0 47 1d 2f be 94 aa 13 3d a5 e9 de bc 05 89 3d bc
       -0.17101012 0.036051348 -0.02721102 -0.0115683125
0000c0 19 63 03 3e 2c bb cc bd 06 d5 e2 bc b9 4d 2b 3d
       0.12830772 -0.09996638 -0.027689468 0.04182217
0000d0 7c 87 a8 3c 72 a8 43 3d 71 df f0 bd 99 ff 1c 3c
       0.020572416 0.047768064 -0.11761368 0.009582424
0000e0 6f c0 68 bb d1 5b 68 3c 4c 51 b1 be 23 8d 53 be
       -0.003551509 0.014182047 -0.34632337 -0.20659308
0000f0 3e b6 a9 bd 40 4e 71 3d 54 80 a2 bd f3 c1 05 be
       -0.08286713 0.058912516 -0.07934633 -0.13062267
000100 39 ae 46 be 47 bd 05 bc 1e b3 37 3e 08 18 0a 3e
       -0.19402398 -0.008162803 0.17939422 0.1348573
000110 16 67 99 bd 0f 64 59 3e 9e 71 05 3d ee dc fe bd
       -0.07490365 0.21229576 0.032579057 -0.12444483
000120 2f f6 92 3e 3e 9a 75 3c b7 a6 1f be 3c 29 45 bd
       0.28703448 0.0149903875 -0.1559094 -0.048135027
000130 a3 05 c3 bd cd 5f 21 bd cc 37 be 3d a2 89 c2 be
       -0.095225595 -0.039398003 0.09287986 -0.3799563
000140 33 f0 88 bd da bb cf 3d 1d ee bc 3d bf 21 1a be
       -0.06686439 0.10143252 0.09225104 -0.15051936
000150 48 ba 66 bd 78 08 fd 3d 30 6e ea 3d c3 3f 34 be
       -0.056329995 0.12355131 0.11446798 -0.17602448
000160 9a d4 62 be 2f 4a fd bb 58 40 bd bd c9 0d 89 bd
       -0.22151414 -0.0077297906 -0.09240788 -0.066920824
000170 d3 ec 15 3d ad 3a 05 3e ed d3 81 bc 92 c6 e2 3d
       0.036602806 0.13010664 -0.015848124 0.110730305
000180 71 04 dc 3c 67 1f 2a be ae 8d 2f 3e 7c 6d af 3d
       0.026857587 -0.16613542 0.1714389 0.08565804
000190 ce 7f 2a be 8e f4 a4 3b fe 35 1e 3e 2b 46 85 3e
       -0.16650316 0.005034036 0.15450284 0.26030096
0001a0 b4 dc 0b bc b4 3d 09 3d f0 a5 31 3e 3f 79 a0 bd
       -0.008536506 0.03350611 0.17348456 -0.07835626
0001b0 21 97 9f 3c 0d 6c 26 be fe 07 11 3e 31 19 38 be
       0.019481244 -0.16252156 0.14163205 -0.1797836
0001c0 02 2c 94 bb 02 b5 fb 3c 2c 13 0b be 33 41 37 3d
       -0.0045218477 0.03072596 -0.13581532 0.044739913
0001d0 44 4b c1 3d 9b b3 83 3d 30 b5 ed 3d 35 1f 0f 3d
       0.09438184 0.064307414 0.116068244 0.03494187
0001e0 b5 12 f4 bd 5a 08 e0 3d c0 a2 ed 3c 12 65 57 bc
       -0.119176306 0.10939093 0.02900827 -0.013146656
0001f0 33 d4 00 3e cf 09 b0 3d cf aa 91 3b d9 99 88 3b
       0.12580948 0.08595621 0.004445411 0.0041687307
000200 7b 9e d5 3d 68 99 99 3d 86 9c a8 3d f0 0f ce 3d
       0.104306184 0.07499963 0.082329795 0.100616336
000210 c2 38 62 3d 40 41 2e bd ed d4 29 be 12 5b 1f 3c
       0.05522991 -0.042542696 -0.16585131 0.009726303
000220 4d 58 08 3e 02 89 89 bd cf b8 19 3e 3e 7d a1 3d
       0.13314934 -0.06715585 0.15011905 0.07885216
000230 9d 3e f1 bb 1a 65 9c bd b5 34 0c 3e 75 ef f5 3d
       -0.0073622004 -0.07636471 0.13691981 0.120085634
000240 d2 15 e2 bd 2f 05 8a 3c 9a fb 8c 3d 28 8d 9a 3c
       -0.11039318 0.016848175 0.06883927 0.018866137
000250 64 e3 b1 bd 0c cb a3 be 7a b4 e9 3d 6d bc e9 3c
       -0.086859494 -0.3199085 0.11411376 0.028532231
000260 f8 af 88 bc e3 e1 42 bd 42 f9 fe 3d fa 82 16 bd
       -0.016685471 -0.047578704 0.12449886 -0.036746003
000270 27 c0 e3 3d 8b b4 99 bc a3 1a 72 bd e6 e3 82 bd
       0.111206345 -0.018762847 -0.059107434 -0.063911244
000280 4c 44 9e 3d ca b8 e8 be df 44 dc 3d 3e a9 42 bd
       0.0772787 -0.45453483 0.107553236 -0.047524683
000290 8a 38 8f 3d c9 f4 f6 bd 77 8b 2e 3e a6 8d e5 3d
       0.06993206 -0.12058408 0.17045389 0.11208658
0002a0 0f e3 15 be 16 7e 30 bf e6 f3 e8 bc 28 46 7f 3c
       -0.14637397 -0.6894239 -0.028436612 0.015580691
0002b0 29 98 99 3d 27 8d 31 3e 5b 30 b3 3d ec dc ab 3d
       0.07499725 0.17339002 0.087494574 0.08391747
0002c0 61 d8 ef 3d cd 92 1a 3e 87 f6 e9 bc c4 d2 82 be
       0.11711193 0.15095063 -0.028559936 -0.25551426
0002d0 2c 2c 82 3c de 89 80 be 68 63 b7 bd 02 1b 15 bc
       0.015890203 -0.25105184 -0.08954507 -0.009100677
0002e0 d3 2c b3 3c dd 70 a2 bd 15 10 9e be ce 02 25 be
       0.02187196 -0.07931683 -0.30871645 -0.16114351
0002f0 20 9c 70 bc b8 6d 88 3a 54 ec e5 bb 2f 51 6e bd
       -0.014685661 0.0010408675 -0.007016698 -0.05818289
000300 1e cb 89 bc 8d ea a2 bd b2 99 08 3e 1e 19 cd 3c
       -0.016820487 -0.07954893 0.1333988 0.02503639
000310 7b 6f bf bd c4 20 42 3d 09 76 28 bd 0f 43 11 be
       -0.09347435 0.04739453 -0.041128192 -0.14185737
000320 fd 77 2a 3d 19 a5 09 bd fc 99 17 bc 0e be 57 bd
       0.041618336 -0.033604715 -0.009253021 -0.052671485
000330 2f dd 57 be 1c 50 ca bd 69 08 35 3e f7 50 be bc
       -0.21080469 -0.09878561 0.1767899 -0.023231966
000340 78 54 00 3c e5 a4 0e 3e 07 bd 4f 3e 46 cc 80 bd
       0.007832639 0.1393009 0.20286952 -0.06288962
000350 a8 63 22 bd ab b4 5b 3d 8c bc a2 3d 34 81 d3 be
       -0.03964582 0.053639095 0.07946119 -0.41309512
000360 4c fe af bd a1 d4 f1 3d 3a 89 ce bd 42 27 0b 3e
       -0.08593425 0.11808134 -0.10084768 0.13589194
000370 89 e8 02 3e 7b b1 f3 3d 0b 06 a6 bd 5d 77 4c 3d
       0.12784018 0.11899086 -0.08106621 0.04991852
000380 5a af c0 3c 19 0a c2 bd 6b 4b 87 3c b6 cd a0 3d
       0.023521114 -0.09474582 0.016515454 0.07851736
000390 1d 66 57 be 16 95 f9 3d 35 65 65 bd 1b 4d 6d 3e
       -0.21035047 0.12186639 -0.05600472 0.23173945
0003a0 b6 8d fb bc 31 1a ef 3b 84 27 d7 3d 99 14 79 be
       -0.030707221 0.0072968234 0.10505584 -0.24324264
0003b0 00 6d 1f 3e 4b 97 06 be ca c9 5b 3d a6 84 56 3d
       0.15568924 -0.13143651 0.053659238 0.052372597
0003c0 c7 4c 13 bd bf b3 fb 3c a2 ab 28 be 82 f7 b4 bb
       -0.035961892 0.030725358 -0.16471723 -0.0055226693
0003d0 b2 7d 4f 3d c4 8f b3 3d 2f 01 02 3c c0 24 21 3d
       0.05065698 0.087676555 0.0079348525 0.03934169
0003e0 58 18 79 be 3a 2c ce 3d 69 93 95 3e c4 cf 98 bd
       -0.24325693 0.10067029 0.29214028 -0.07461503
0003f0 5e 7c a8 3c 6f 90 c4 bc 70 c2 88 bd a2 07 6a 3c
       0.020567115 -0.023994653 -0.06677711 0.014284046

fc3.bias f4 [64]
000000 e6 43 ab bd fe f0 97 bd 6b 15 1f 3c da 08 9f bc
       -0.0836256 -0.074190125 0.009709696 -0.0194134
000010 55 5b 98 bd 18 05 3c 3d 67 3a b6 bd b7 74 e7 3c
       -0.07439295 0.045903295 -0.08897858 0.028253896
000020 a4 f2 c7 bd 2c a5 4e bd d7 d3 34 3d 8c 5c 1c bd
       -0.09763077 -0.05045049 0.04414734 -0.038174197
000030 c8 9e c9 3c 7e e0 99 bd 2d c0 3c bd 76 9e a4 bd
       0.024611846 -0.075135216 -0.04608171 -0.080380365
000040 a9 19 65 bd 90 27 38 3b d9 5a e8 3d 71 f4 46 bc
       -0.055932675 0.0028099753 0.11345453 -0.01214324
000050 11 17 d1 bd 53 2d 5f bc c7 3c 7b bc f6 fa 40 bd
       -0.10209478 -0.013621646 -0.015334315 -0.047114335
000060 cd e0 a2 3c d5 39 e4 3c e3 38 80 3c 65 21 b1 bd
       0.019882584 0.027859608 0.015652126 -0.086489476
000070 d3 99 0e 3d c4 e7 6f bd fb c8 37 3d 16 66 92 bd
       0.034814667 -0.05857064 0.044869404 -0.071483776
000080 a7 e7 1a bc b9 ea 02 be f4 80 ba bd 89 55 8a 3d
       -0.009454644 -0.12784852 -0.09106627 0.06754596
000090 cd de 8a 3c 75 9a 46 3d 7a f0 85 bc 3a 42 9f 3a
       0.016951943 0.048487145 -0.01635002 0.0012150474
0000a0 3e 3f 92 bd 4e 76 d6 bd 05 f6 37 3d eb d5 12 3d
       -0.07140969 -0.104717836 0.044912357 0.03584854
0000b0 7c 46 0b 3d e0 4c 0f 3d c8 f1 c9 bd 72 7a e5 bc
       0.034002766 0.034985423 -0.09860569 -0.028012488
0000c0 92 cc 85 3d fd 54 b3 bc 8f 82 8c 3c 68 e5 a6 3d
       0.06533159 -0.021891112 0.017152099 0.081492245
0000d0 64 09 19 3d d9 0f 84 3c 62 bf f3 bc 16 52 28 bd
       0.03736247 0.016120838 -0.029754344 -0.04109391
0000e0 d3 d4 b8 3d b4 98 40 3c e9 56 d4 bd d7 1e 39 3c
       0.09024968 0.011755157 -0.10368139 0.011298857
0000f0 0b c1 f5 bc ee 77 ec 3c 98 9b c6 3c 81 5b c9 bd
       -0.029999277 0.02886578 0.024244115 -0.09831906

fc4.weight f4 [2, 64]
000000 25 e1 7a be a5 1b c8 bd f2 a4 c2 3e 0d 7c a0 3e
       -0.24499948 -0.09770898 0.38016468 0.31344643
000010 c6 02 5f 3c c8 c0 b2 be 3b 52 ae 3e 84 1e 85 3e
       0.013611501 -0.34912705 0.34047112 0.25999844
000020 cd 5b 07 bf c0 95 f7 bd c9 b6 ca be a9 87 0b be
       -0.5287445 -0.120891094 -0.3959258 -0.13625969
000030 9e ec bd 3e 95 48 50 be 23 b0 ca 3e bc 2d 2f 3e
       0.37094587 -0.20340188 0.39587507 0.1710729
000040 95 df c8 be 81 52 d1 3c 05 8a 63 3e 4d 62 53 be
       -0.3923308 0.025552036 0.22220619 -0.20642968
000050 8a 27 06 3e 5c f9 c9 3d 95 dd 78 3d a3 95 ad 3e
       0.1310102 0.09862015 0.060758192 0.33903226
000060 c2 90 db bc 17 3c a8 bc c9 45 fc 3e 91 8f ca bd
       -0.026802424 -0.020536466 0.49271992 -0.09890664
000070 5a 58 84 3c 9d 16 a1 3e c1 1a b8 bc ba b2 00 3d
       0.01615541 0.31462565 -0.022473695 0.031420447
000080 2b e0 99 3e 95 03 9e be 76 31 df be 56 d1 c0 3d
       0.3005384 -0.30862108 -0.43592423 0.09414928
000090 ad 8e 04 3f 12 5b 00 3e c7 ff b8 bd db 76 f8 3d
       0.51780206 0.1253474 -0.09033161 0.12132045
0000a0 26 8c f0 be 7a 1f 59 be e7 ef 40 bc 4f 76 23 be
       -0.46981925 -0.21203414 -0.011775947 -0.159631
0000b0 c7 0f 88 3e 38 7e 3d 3d a3 b7 b6 be de c6 93 bd
       0.26574537 0.04626295 -0.3568698 -0.07215665
0000c0 97 c8 97 bd 3d 1e 54 bf 2d 0c f2 be 39 7c 69 3e
       -0.07411306 -0.8285864 -0.47274914 0.22801293
0000d0 a8 5c 5f 3f d0 18 ae be 48 de 0a 3e 79 b7 8b 3e
       0.8725076 -0.34003305 0.13561356 0.27288416
0000e0 38 c0 db 3d 95 ef a8 be 35 0c 2c bc 16 a4 3c bd
       0.10730022 -0.32995287 -0.010500957 -0.046054922
0000f0 3b 9c ad be c8 54 42 3e 6e 8f 2a bf b8 38 62 be
       -0.33908257 0.18977654 -0.66625106 -0.22091949
000100 2d 78 d4 3e d4 8d a6 3e 4b 3c a2 be b9 4e c3 3d
       0.41497937 0.3253008 -0.31686625 0.095364995
000110 60 91 8c 3e 48 24 89 be 46 26 93 be 96 d3 1a bf
       0.27454662 -0.26785493 -0.28740138 -0.60479105
000120 01 05 aa 3e e1 72 23 3e 89 a4 0d bf 3a 5f cf 3d
       0.33206943 0.15961792 -0.55329186 0.10125585
000130 4c 78 2f be b0 58 6c 38 8c 24 f9 be 62 cf 8d bd
       -0.17135733 5.634938e-05 -0.48660696 -0.06924321
000140 9f 15 f2 be c5 b1 dd 3e 5f 46 13 be 1b 74 bd be
       -0.4728212 0.4329969 -0.14382313 -0.37002644
000150 6e 22 fc 3e 56 28 df 3e 6e 77 10 bf 2b f8 66 bd
       0.49245018 0.4358546 -0.56432235 -0.056389015
000160 fa c8 8c 3e 03 bd 1a bf 02 c4 10 3e 2c 08 3e 3c
       0.27497083 -0.6044466 0.14137271 0.011598628
000170 11 68 1a 3f 38 5c 85 bd f2 3f 43 3f 38 35 52 bc
       0.6031504 -0.0651173 0.7626945 -0.012830071
000180 15 57 a9 be 46 68 35 3c a1 2c a6 bd 93 03 e8 3d
       -0.3307425 0.011072224 -0.08113981 0.11328807
000190 9f 27 10 3f fa 0b 39 bf 16 8c 95 3e ec a8 fe 3c
       0.56310457 -0.722839 0.2920844 0.031086408
0001a0 c8 14 0f be 10 b1 a7 be fd 5f af 3d 7d 51 5e 3e
       -0.13972771 -0.32752275 0.0856323 0.21710773
0001b0 a2 b9 dd 3e ed c4 49 bf d0 b7 b8 be ef b1 cb 3d
       0.4330569 -0.7881611 -0.36077738 0.099460475
0001c0 36 cf d9 be 74 8c c9 3e 41 ea 34 bd ef 56 ca bd
       -0.42540902 0.3936497 -0.044168714 -0.098798625
0001d0 44 35 70 be a2 aa 47 be 24 2b 9f 3d 4f f8 98 bd
       -0.23457819 -0.19498685 0.077719 -0.07469236
0001e0 5d 3b 2c 3e 04 37 f7 be b5 d3 44 3e db 04 8a 3e
       0.1681952 -0.4828416 0.19221385 0.2695683
0001f0 1f 08 58 be 4e 04 8e bd 9d b3 81 bd 54 7d 60 be
       -0.21096848 -0.06934415 -0.06333087 -0.21922809

fc4.bias f4 [2]
000000 06 67 fb bb bd 9f 16 be
       -0.0076721935 -0.14709373
