checkpoints/Computer1-0-checkpoint-2.4790-actor.pth (torch, 193711 bytes, 8 tensors)

fc1.weight f4 [256, 24]
00000000: 4df7 ebbd 702a a33e ae67 d3bb 2abd 99bd
00000010: a3a7 ca3d e15e bdbe b7ba f13d ed81 603e
00000020: 9b55 ac3c cef0 04be fed2 adbd f6cb 6abe
00000030: 491f b93d e104 37be 0d55 973d 5fb9 95be
00000040: 8ed3 dbbd 0fc8 39bd 24a1 fbbd 678c eebd
00000050: ed2b 3abd 9c12 53bd 83a9 323d f3b7 3dbd
00000060: ae4b e43d 58f3 973e c217 403c 7103 eb3b
00000070: 31e1 81be 6352 593e b4e7 9f3d d345 6abe
00000080: bfdb 2e3c 468d 11be adec 48bd 7182 583d
00000090: 5030 9bbd 792b 413d e2d7 943d 8a66 0b3d
000000a0: 8088 413e b663 073e 8918 2dbe d835 8d3d
000000b0: ad72 813e c303 2abe 9120 02be 8ce1 59be
000000c0: 1036 813e 13dd bcbc f8f7 4fbe 4901 173d
000000d0: 9a9a 1cbe 7685 97bc 82cd 9fbd 62ad c83c
000000e0: d49e e5bd 1553 79be 28f1 413d 7eff 09be
000000f0: 30ba 1c3e 56f1 18be d8c7 72bd 0c73 8ebe
00000100: f310 933d e226 c3bd d93f 52bd ffc2 453e
00000110: 1f4a f43e 5301 6ebe 7f93 c13d fce5 623e
00000120: 2fe2 f63d 59e3 d3be 80d3 133d 5a55 703e
00000130: fab4 4cbd de88 95be a496 13bd 35ba 493e
00000140: ee96 1a3e 8e3d 1fbf 72cc ecbd 90af 943e
00000150: 18d6 39bd 859f 43be bd57 44be 4d70 883d
00000160: 601a b73d 64cb eabe 5251 ebbd cb5e 81bc
00000170: 2918 b2bd 3f88 cdbe 0f27 f9bd 3137 313e
00000180: 5b44 6db9 5efa 8cbc f7bb afbd 73ec abbd
00000190: 7e51 adbe e4a1 52be eee0 8dbc 9c4f 7bbe
000001a0: 22e9 f43d 1a8a 8e3d dce9 e5bd a3a1 673e
000001b0: 4ad0 89be 5b65 e2bd 20d7 80bd 3cd1 7d3e
000001c0: bb04 773d 237e fc3c 843e acbd b8ea 283e
000001d0: 1f80 eabd 82ab 893e 455e 4d3d 7625 9dbd
000001e0: d10f 14be d032 39bd 2949 b7bd db23 6bbc
000001f0: a273 31be 5e4e 6d3e 4ae0 8a3d 77b2 ae3d
00000200: e33e 32bd a3f2 353e f02f 213e 1ec8 0b3e
00000210: a7d2 a23c 359b c63e 1d9a 04be f12b 86bd
00000220: 682a 893e b1e8 003e 5e96 4bbd 0388 393e
00000230: bb4d 893e 5914 cc3e 71b0 843d 4c50 c7bd
00000240: 8de3 3abe 25a4 373e 82a0 c7bd 05a7 113d
00000250: d178 893e d60f 43be ff7a 8d3c 011f 893e
00000260: 11a1 8dbb 7ad1 1e3e 301a 09bd b0e8 253d
00000270: 7f64 073e 1efd 89bd be47 3e3d 5825 f5bd
00000280: 352b c3bd 1ccb 983e e069 aebd 2cf7 7fbe
00000290: d0f8 75be cf6f ccbe e585 2d3e 7c5c 92be
000002a0: 8032 8e3d 9120 753d f09e e2bd 2ca2 5a3d
000002b0: 380d 863e fc51 883e 2d22 c33d 7915 093e
000002c0: 0981 e1bd f2c7 56be dbf0 19bd 81f4 58bd
000002d0: 7a31 96bd f901 713e d5c5 b23d 54fe 063d
000002e0: 4951 b43c b126 1e3d c997 23bd 3dda 02be
000002f0: 0ccb d3be 7b62 843e 53a3 2c3d c0da dcbd
00000300: 1e95 2ebe f02a 0f3e f4a6 d33c 241f 8b3e
00000310: 220f 1abe 9842 1abe cd42 aebd c06d 6b3e
00000320: f9e3 e13c fc53 41bd 04e3 debd eca1 103e
00000330: d13f 2d3e b2fb 0abe 2b9f d2bd a72d 22be
00000340: e622 07be 3ea2 7d3e 868d 01be 4926 86be
00000350: 16a3 953d f81e 1fbf 73f5 bfbb 9c9e 8fbe
00000360: 47b9 173e 073e bbbe 86d6 a7bd 55da 91bd
00000370: 5899 cd3e 3232 a73d b9e9 a33d bfde 1cbe
00000380: f363 7bbc a7c7 983d 69db 1a3d a5d8 4c3d
00000390: 1a0d 853e b3ab d93c 268f 4bbd f111 a2bd
000003a0: f91b 8a3c d63a 96bd 757d 08be e22a 353d
000003b0: 33e6 00be 3613 9d3e ffc9 d3bd bcc7 b63c
000003c0: d69e 833e aaed 263c c333 473c 189f 7dbe
000003d0: 3211 e7bd 57c4 c0bd 2537 ccbd d2d6 81be
000003e0: 6b7d d13d 269c 46be 7f4e 7fbc 4021 3bbe
000003f0: 7062 043e 4954 0a3e d21d fc3b 3fff b03c
-0.11521778 0.31868315 -0.0064515686 -0.07506783 0.098952554 -0.3698645 0.11803191 0.21924563
0.021036914 -0.12982485 -0.08487509 -0.22929367 0.0903917 -0.17872955 0.07389269 -0.2924299
-0.1073371 -0.045356806 -0.122865945 -0.11647873 -0.045452047 -0.05153142 0.04361869 -0.046318006
0.11147247 0.29677844 0.011724414 0.007172041 -0.2536712 0.21222834 0.07807866 -0.22878198
0.010672509 -0.14214048 -0.049053837 0.052858774 -0.07577574 0.0471606 0.07267739 0.034033336
0.18899727 0.1322163 -0.1690389 0.068950355 0.25282803 -0.16602997 -0.12707736 -0.21277446
0.2523656 -0.023054635 -0.20309436 0.03686646 -0.15293351 -0.018496256 -0.078028694 0.024496738
-0.11211935 -0.243481 0.047349125 -0.13476369 0.153054 -0.14935812 -0.059272617 -0.2782215
0.07180967 -0.09528901 -0.05133042 0.19312666 0.477128 -0.23242693 0.09451961 0.22158045
0.1205486 -0.4138439 0.036090374 0.23470059 -0.04997728 -0.29205984 -0.036032334 0.19699939
0.15096638 -0.622033 -0.11562432 0.29040194 -0.04537019 -0.1910382 -0.19174094 0.06662045
0.089405775 -0.458583 -0.1149012 -0.015792271 -0.086960144 -0.4014301 -0.12165653 0.1730621
-0.00022627546 -0.017209228 -0.08580773 -0.083947085 -0.33851236 -0.20569569 -0.017319169 -0.24542087
0.11958529 0.069599345 -0.11226246 0.22620253 -0.26916724 -0.11054488 -0.06291032 0.24786848
0.060307246 0.030821865 -0.084103614 0.16495788 -0.114502184 0.26888663 0.05013873 -0.07673161
-0.14459158 -0.045214474 -0.08949501 -0.01435181 -0.17329267 0.23174426 0.06781061 0.08530133
-0.043517005 0.1776834 0.15740943 0.13650557 0.019875837 0.3879029 -0.12949415 -0.0655135
0.26790166 0.12588765 -0.04970395 0.1811829 0.26817116 0.39859274 0.06478966 -0.09732112
-0.18250866 0.1793371 -0.09747411 0.035559673 0.26849988 -0.1904901 0.017270563 0.26781467
-0.004322179 0.15509596 -0.03347224 0.04050511 0.1322193 -0.067377314 0.046455137 -0.119700134
-0.095297255 0.2984246 -0.08516288 -0.24996632 -0.24020696 -0.39929053 0.16945608 -0.28586185
0.06943226 0.05984551 -0.11065471 0.053377315 0.2618196 0.2662505 0.09528003 0.13387097
-0.1101094 -0.2097471 -0.037583213 -0.052967552 -0.07333656 0.23535909 0.0872914 0.03295739
0.022011416 0.038611118 -0.039939675 -0.12778564 -0.4136585 0.25856385 0.042147946 -0.10783911
-0.17049071 0.13981223 0.025836445 0.27172196 -0.15044835 -0.15064466 -0.08508835 0.22991085
0.027574526 -0.047199234 -0.108831435 0.14124268 0.16918875 -0.13572577 -0.10284265 -0.15837727
-0.13196906 0.24768922 -0.12651643 -0.26201084 0.07306497 -0.6215663 -0.0058581172 -0.28050697
0.14816771 -0.3657076 -0.08195214 -0.07121722 0.40156054 0.08163871 0.080035634 -0.15319346
-0.015343654 0.07459956 0.037806902 0.050011296 0.25986558 0.02657113 -0.049697064 -0.07913578
0.016859042 -0.07335441 -0.13329108 0.04423035 -0.12587814 0.3067872 -0.10341262 0.022312038
0.2570712 0.010188499 0.012158337 -0.2476772 -0.112825766 -0.09412449 -0.099714555 -0.25359207
0.10229 -0.19395503 -0.01558268 -0.18274403 0.12928176 0.13508715 0.0076939845 0.021606086

fc1.bias f4 [256]
00000000: d3a0 07be 94b5 093b 334e 91be 3630 34bd
00000010: 951d 8bbe c390 babb 7e1b 833e 6ca0 d8bb
00000020: 4e14 f53d b0e9 af3b cc67 2fbd dbdb 0fbd
00000030: d031 6abe 4d34 1bbe 8e99 713e a841 29be
00000040: 8735 603e 9bd4 aabd 13c2 8dbd 5354 54be
00000050: 0dd6 323d 1fd0 023e 69a2 93bd bfc9 ac3d
00000060: 021b 61bc cd3f a1bd 443a ea3c ecc2 c4be
00000070: 9ede b73c ef45 16be 3f3e 09bd f3f1 61be
00000080: ab43 79bc 3a72 733b 5dab f4bd 51f8 e8bd
00000090: ff58 55be 7669 3f3c acc4 3e3e 58b5 04be
000000a0: c922 75be e806 6dbb 03b7 06bd d63e 88be
000000b0: f430 bebe d60e db3d 1f71 213e e574 91bd
000000c0: bb47 4fbd 9551 1bbe b83c ddbc c763 49bd
000000d0: 056b 4bbd ad5d b3bd 89bb 41bb db21 b33d
000000e0: acf4 1d3e 96a2 f8bd 06ee 9cba 608f 383d
000000f0: 4f0f 493c 3ebe 623e fe76 22bb 44a2 173e
00000100: 17ab 22bd dd85 283d b0ad 28bd fd10 863b
00000110: 950f 69be daba 71be a82f 9dbe 4d73 b4bc
00000120: d643 603d 8148 50be c036 39bd b293 fb3d
00000130: cf67 81bd fcf8 52bd 343d aebd 9947 fbbd
00000140: c427 47be 0c3d 163e cbde 8fbd 4ab6 1abe
00000150: 4515 61be 0ced 783d 1d81 043d 7b26 103e
00000160: a281 21bd 069a e83c e322 9cbd 7208 163d
00000170: e00d 143d bb84 153e c5d0 abbd 4fe5 843d
00000180: 2816 3c3e 8549 3b3e 8280 d5bd df2b b2bd
00000190: ecc5 a03d 9de9 573d 71a9 8bbc b389 59be
000001a0: 3bd7 d9bc 88d0 503e fabb 0abe d731 f4bd
000001b0: 8444 2fbe 9889 86be de97 3ebe 45b4 61be
000001c0: f3f8 0d3e b17f 213d ecc7 d0bd f24b 0dbd
000001d0: 9837 9d3d 7810 5b3c 347e 683d aa5b 82be
000001e0: 5555 21be d6b4 77bd 22c5 34bd 0775 7abe
000001f0: 9c3b 40bd 2525 5b3e 72af 9fbe 494f 41be
00000200: 6a3d d1bd 2d32 60bd 7f99 163e b4a6 5f3e
00000210: f21b 5c3d 9044 48be e957 813d 1040 013d
00000220: 01ee 1d3e 1f8f cd3d b932 b43c 8a9f 6abe
00000230: 4511 c63d 6fd4 3ebe da2c 363e b055 4c3e
00000240: d65b 28be 8f46 273e cfec 27be 4979 6bbe
00000250: c440 493d 0bd7 21bd 7e18 023e 054c c53d
00000260: 3bee 2ebe 2939 49be 79a0 fa3d 23f0 65bd
00000270: 80c7 44bd e460 e43c fb9b 4fbe 5033 2cbb
00000280: 0a71 f93d 98c9 653c 6314 803d 1b73 b0bd
00000290: 38db f8bd 12d4 323e 9803 09be 8a63 c0bc
000002a0: e885 8bbe a012 3abe 8e2c bf3c 0586 72be
000002b0: 1821 9bbd e559 fdbd b1e0 18be 6169 32bd
000002c0: 96a8 36be 9dc0 8fbe c8b8 21bd c4b6 ee3d
000002d0: ac6e 71be 1183 c2bd 6f80 fdbd fd73 383d
000002e0: bb11 4ebe 9186 203e 3786 b3bd eb45 f33c
000002f0: bd09 58bd 7bf1 b53d bfd7 de3c c05a 84be
00000300: bea8 0dbd ed00 f83d b740 01be 96e9 3fbe
00000310: 7b96 47be 8084 50be b2b6 80be 97b5 99bb
00000320: 8b3b 1ebe 1c2b c8bd 84ab 06be a358 f63d
00000330: caa9 e5bd e6ec 013e 6bf3 63be 89e0 fdbd
00000340: f0cd 07be 1f33 adbe b621 b73d 00fa 8d3d
00000350: 745f f1bb dc9a e2bd 4b81 ea3d 3d3d 43be
00000360: ea8e 0cbe 3d55 ecbd f3eb 063e 87a6 4ebe
00000370: 3099 013e 9057 6f3e 2df1 823e c1e7 48be
00000380: 50e5 2b3e 957f 0cbc f260 de3d cd4b 49bd
00000390: df8f 5dbd 8d1c 3c3d a708 8bbe 5531 9abd
000003a0: 6d85 323e 1fa9 1d3e f7e8 0b3e 4007 82be
000003b0: c070 b8bd b394 473e d87a f73d 253e 92be
000003c0: 1a03 9fbd 5c1b cf3d d6c1 4b3d 456a ff3d
000003d0: eff0 35bd fc92 42be 88e9 b1bd 444b 913d
000003e0: 081f 543d 1cac 19be fca4 ddbc d1a9 22be
000003f0: 94c2 683d 2f20 d9bc 9d88 3c3d c0a4 b2bd
-0.13244943 0.002101277 -0.28379974 -0.04399129 -0.27171007 -0.0056935265 0.25606912 -0.0066109207
0.119667634 0.005368434 -0.042823598 -0.03512178 -0.22870564 -0.1515667 0.23593733 -0.16528952
0.21895419 -0.083413325 -0.06921782 -0.20735292 0.043661166 0.12774704 -0.07208712 0.084369175
-0.013739349 -0.07873497 0.028592236 -0.38429964 0.02244502 -0.14675115 -0.033506628 -0.22064953
-0.015213887 0.0037146942 -0.119467475 -0.113754876 -0.2083473 0.011682859 0.18629712 -0.12959802
-0.2393905 -0.0036167447 -0.032889377 -0.2661044 -0.37146723 0.10696189 0.15765809 -0.07102374
-0.050605517 -0.1516784 -0.027006492 -0.04916742 -0.04966261 -0.087581016 -0.0029561243 0.08746692
0.15425366 -0.12140386 -0.0011972792 0.045058608 0.012271716 0.22142884 -0.0024790163 0.14807993
-0.039713945 0.041143287 -0.041181266 0.0040913806 -0.2275985 -0.23606434 -0.3070042 -0.022027636
0.054752193 -0.20340158 -0.04521823 0.1228403 -0.06318628 -0.05150698 -0.08507767 -0.122695155
-0.19448763 0.14671725 -0.07024916 -0.151086 -0.2198077 0.06077294 0.032349695 0.14077179
-0.039430268 0.028393757 -0.076238416 0.036629148 0.036146045 0.14601414 -0.08389429 0.0648905
0.18367827 0.18289764 -0.104249015 -0.08699774 0.078502506 0.052713025 -0.01704857 -0.21243934
-0.026591888 0.20392048 -0.1354827 -0.11923569 -0.1711598 -0.2627685 -0.1861262 -0.22041424
0.13864498 0.039428417 -0.10194382 -0.034496255 0.07676619 0.013370626 0.05676098 -0.2546056
-0.15755208 -0.060475193 -0.044133313 -0.24458705 -0.046931848 0.21400888 -0.31188542 -0.18877901
-0.10216792 -0.05473535 0.14706992 0.21840936 0.05373759 -0.19557405 0.06315596 0.031555235
0.15422823 0.10037064 0.021996843 -0.22912422 0.09671263 -0.18635724 0.17790547 0.19954562
-0.16441283 0.1633551 -0.16398929 -0.22995485 0.04913403 -0.03951172 0.12704656 0.0963364
-0.17083065 -0.19650711 0.12237639 -0.056137215 -0.04804182 0.027878232 -0.20274346 -0.0026275702
0.121797636 0.0140251145 0.062538885 -0.086157046 -0.12151188 0.17463711 -0.13380277 -0.023484964
-0.272506 -0.18171167 0.023336675 -0.23683937 -0.075746715 -0.12370662 -0.14929463 -0.04355753
-0.17837748 -0.2807664 -0.03948286 0.116559535 -0.23577374 -0.09497655 -0.123780124 0.04503249
-0.20123951 0.15676333 -0.08765834 0.029696425 -0.052743662 0.08883949 0.027202485 -0.25850487
-0.034584753 0.121095516 -0.12622343 -0.1874145 -0.19490997 -0.20363045 -0.25139385 -0.0046908366
-0.15452401 -0.097738475 -0.13151366 0.12028625 -0.11214025 0.12688026 -0.22260825 -0.12396342
-0.13262153 -0.33828065 0.08941977 0.06932449 -0.007366115 -0.11064693 0.11450442 -0.1906633
-0.13726392 -0.115396954 0.13175945 -0.20180713 0.12656093 0.23373246 0.25574628 -0.19619657
0.16786695 -0.00857534 0.108583346 -0.049144555 -0.054092284 0.045925666 -0.2715504 -0.075289406
0.1743371 0.15396546 0.13663088 -0.25396156 -0.0900588 0.19490318 0.120839775 -0.28563038
-0.077642635 0.1011264 0.049745403 0.12471441 -0.044419225 -0.19001383 -0.08687121 0.07094434
0.051787406 -0.15007061 -0.02705621 -0.15885092 0.05682619 -0.026504604 0.046028722 -0.0872283

fc2.weight f4 [128, 256]
00000000: 7731 ebbb b6be c73c 691b c93d f539 81bd
00000010: cfff b0be 8b70 f3bc b7f9 623d b9ea 263c
00000020: 7350 78bd 4638 bc3d dc46 d23d 2e44 9a3d
00000030: 3b46 cb3c b7c9 cd3d 37bb 9d3c 9fc4 2ebe
00000040: e6dd 1e3d ccdb d7bd 221d 723d 1db4 f83c
00000050: cdde 18bd bded 2e3e 28d4 70bd b396 883d
00000060: a2f4 02be bdbb 8cbe ccc9 0ebe 1a5b 9c3c
00000070: 31c0 5cbe 04f0 1f3e a9b6 3abe e96b ddbd
00000080: 8b0d 9cbe 2663 11be b4b1 3c3d 11c2 bf3d
00000090: 66f4 6b3c d35c d03d 6e9b 223e 114c 2ebe
000000a0: a1c8 bcbc 14a3 913d 4153 0d3d 5b82 8dbe
000000b0: 9c34 e73d 75fa 67bd 4d99 4b3e 22ee 303e
000000c0: bd29 92be 4fec 61be 7632 e0bc 2967 043e
000000d0: f9eb 84be b5a9 863d 5c03 a33d 228b f8bc
000000e0: 1fe8 b83d 5ff0 aa3d b7f5 a83d 05b8 4d3d
000000f0: b22d 103e 864c 00bc 9c20 fe3c 7807 c6bc
00000100: 0565 883c 503f d0bc 8786 ec3d 9345 08be
00000110: 2e63 72bd 378c 843c 55d8 1abd 6e95 6cbb
00000120: 960d 68bc 7a14 fd3d 7383 25be 9a50 8dbe
00000130: 9990 a4bc cafd 153e 0d12 9a3d 450a bb3d
00000140: aab4 92bc 6678 e53d 3606 afbc 114c c9bc
00000150: 4820 833d 60f6 cabd f9dd 41be 4740 37be
00000160: cba7 473b 6a26 9abd 48fa 393d 1e78 ec3c
00000170: 7145 88bb 4625 ee3d 36be 6ebe e9f0 793d
00000180: 17e5 a33c 558d d2bd d9eb 613b af3e 1b3e
00000190: f2e1 4abe b869 bfbd 40d6 22bd 3663 cc3c
000001a0: 492a b1bd 37a6 ac3c 1007 bfbc e9a3 d83a
000001b0: 2a22 393e 8cf8 643c 8977 cd3d 9e62 8ebd
000001c0: a8d6 a7bd 19f5 a13c 422c fd3c a8f6 ba3d
000001d0: a68d 923e 5ef9 c7bb 0eae ac3d 9458 10be
000001e0: dc35 48bd 48dc b7bb f9ee c33c 9c37 4ebe
000001f0: 455d 873d 5d07 86bc 0d9c 64bc add5 d63d
00000200: 5d1f 32be ad90 1bbe a940 eb3d bddb 4a3d
00000210: d709 11be 5997 3cbe 9d41 f03d 1645 b03d
00000220: d9c8 463d 46df 643e 02ab e7bd 3a61 48bd
00000230: 302b 3c3d f941 7a3e ca2d 1bbe 8e38 72bd
00000240: 304b 673d 6008 523c a063 f9bd cad9 9bbe
00000250: face a13d d3a2 2a3d 4c58 febe 1d35 b33d
00000260: b3cf 123e cb21 cd3d e4c7 103e 12ac 6b3e
00000270: 3278 103d 49d2 4f3e 6a3f f9be a641 d93d
00000280: 1f2d 73be ed7e c3be 4c4c d53d 349e 673b
00000290: 84f8 c23d 687a 733d 539f 05be 83cd 6f3d
000002a0: 20ea 1c3d 3546 ecbd f4b8 b0be 6a28 5f3e
000002b0: fc75 0abd bbfd 473e 04b7 af3d d6b7 fc3c
000002c0: 4794 80bd d32f b4be f709 3ebe 4dc3 f43b
000002d0: fdeb aebd 4517 2f3e fe46 203e af71 693c
000002e0: 8d4f 493e 6e06 263d 64e2 b3bc da9d e038
000002f0: 9355 f6bd 52fb 823d 0350 6bbd 0062 73bd
00000300: a25a 34bd ccd6 e63d 2ed5 483d b1cf 0cbe
00000310: 3082 e4bd b775 f2bd 0e8d d7bd c981 b33d
00000320: 7b3c f13c 3d24 1b3d 53cb b63d 5617 173d
00000330: 0765 78be f8c6 c33c 041f 11bd c695 64be
00000340: df66 b1ba 4a79 6cbd 42e9 debc 49b6 bbbd
00000350: e27e 643d 6a82 34bd 64fc b3bd dfe3 c63c
00000360: 4657 3f3d c5a4 e4bd 5b17 673d ff72 f63c
00000370: b563 aebd 21cb ca3d 05f5 3bbd 9136 6d3d
00000380: 5b58 cc3d 545a 80bc d86c edbd a1e7 63bc
00000390: a75a 69bc db31 48bd b69b dcbd b204 f9bd
000003a0: d781 cdbd af73 9c3d cce2 b0bd 10e5 9bbd
000003b0: e009 0dbb 0a58 b33d d363 bf3d e345 45bd
000003c0: 100e 49bc d14b 2ebd a50f cb3a 73bd 90bc
000003d0: 2f0f 703e dead c23d 1c4f 423e 733a 873d
000003e0: a142 62be 311d bc3b b820 7c3e 6d23 adbc
000003f0: 53f9 4a3b c417 763d ef3f a83c dbe5 793d
-0.0071775275 0.02438293 0.09819681 -0.063098826 -0.34570166 -0.02971675 0.055413928 0.010187798
-0.060623597 0.09190421 0.102674216 0.075325355 0.024813762 0.1004824 0.01925431 -0.17067192
0.038785838 -0.1053997 0.059109814 0.030359322 -0.037321854 0.17082877 -0.058796078 0.066693686
-0.12788633 -0.27486983 -0.13944167 0.01908641 -0.2155769 0.15618902 -0.18233742 -0.10811598
-0.30479082 -0.14197978 0.04606791 0.09363187 0.014401531 0.10173955 0.15879604 -0.17021205
-0.023044886 0.07111183 0.034503225 -0.27638516 0.11289331 -0.05663534 0.19882698 0.1727834
-0.2854747 -0.22062801 -0.027367812 0.12929977 -0.25961283 0.06575338 0.07959625 -0.030339781
0.090286486 0.083466284 0.082499914 0.050224323 0.14079931 -0.007830745 0.031021409 -0.024173483
0.016649732 -0.025420815 0.115490966 -0.1330779 -0.059176616 0.01618014 -0.037803967 -0.003609981
-0.014163395 0.12357421 -0.16163425 -0.27600557 -0.02008848 0.14647594 0.07522974 0.09132818
-0.017908413 0.11204605 -0.021365266 -0.024572404 0.064026415 -0.099102736 -0.18932332 -0.17895614
0.0030465003 -0.07526858 0.045404702 0.02886587 -0.0041586687 0.11628203 -0.23314747 0.061020765
0.0200067 -0.10280863 0.0034472852 0.1516063 -0.19812754 -0.09346336 -0.039755106 0.024949651
-0.086506434 0.021075351 -0.023318797 0.0016528341 0.18079439 0.013975274 0.10032565 -0.069524035
-0.08195239 0.019770192 0.030904893 0.09129077 0.28623694 -0.006102725 0.08431636 -0.1409629
-0.04887949 -0.0056109764 0.023917662 -0.20138401 0.066095866 -0.016360933 -0.013953221 0.10489974
-0.17394777 -0.15191908 0.11486942 0.049525965 -0.1416391 -0.1841711 0.11731265 0.08606927
0.048531387 0.22350797 -0.11311914 -0.048920847 0.045939624 0.24439229 -0.15154186 -0.059135966
0.05646819 0.01281938 -0.12177205 -0.30439597 0.07900806 0.041659188 -0.4967674 0.08750365
0.14337043 0.10016211 0.14138752 0.23014858 0.035270877 0.20295061 -0.48681194 0.106082246
-0.23747681 -0.38182774 0.10414943 0.00353421 0.09520057 0.059442908 -0.13049059 0.0585456
0.038309216 -0.115368284 -0.34516108 0.2179276 -0.033803925 0.19530384 0.08579829 0.030849379
-0.06278282 -0.35192737 -0.18558489 0.0074695707 -0.08541105 0.1709872 0.15652081 0.014248296
0.19659252 0.040533476 -0.021958537 0.000107105545 -0.12028041 0.06395592 -0.057449352 -0.059419632
-0.044031747 0.11271438 0.04903143 -0.13751103 -0.11157644 -0.118388586 -0.10524951 0.08764989
0.029447785 0.037876356 0.089255 0.03688749 -0.24257289 0.023898587 -0.03542997 -0.22322759
-0.0013534686 -0.057732858 -0.027210835 -0.091656275 0.055785067 -0.044069685 -0.08788374 0.02427858
0.04671409 -0.1116424 0.056418758 0.030084131 -0.08515111 0.09902025 -0.045887966 0.057913367
0.0997779 -0.015668072 -0.11593026 -0.013910205 -0.014242805 -0.04887567 -0.10771887 -0.12159099
-0.100345306 0.076392524 -0.08637008 -0.076120496 -0.0021520779 0.087570265 0.09345212 -0.048162352
-0.012271419 -0.042552773 0.0015492333 -0.017668461 0.23443292 0.09505819 0.1897549 0.06602945
-0.2209573 0.0057407846 0.24621856 -0.021135056 0.0030971363 0.06008126 0.020538298 0.061010223

fc2.bias f4 [128]
00000000: 24c8 803d f1d2 253c bafe cc3c 42b1 8c3d
00000010: c80f b33c ccee 5f3d b9e5 65bd 09fd 3b3d
00000020: 5790 223c a43b 8abd 5eab 81bd 8d59 59bd
00000030: 9c66 dabc 349c 783d 3809 1ebd 9091 aabc
00000040: 0dd3 8c3c 0cf1 48bd e76b b2bd c032 ae3d
00000050: 79b3 d13c 5cb8 78bd e466 74bd f93c 4ebd
00000060: ecec 2b3c 55bb 99bd 80e0 a7bd 9d64 b9bd
00000070: 3376 26bb 124b 203d ce79 f5bb 6c65 c2bc
00000080: 0493 013d 94fe e0bd 374f 89bd bdb1 373c
00000090: 6714 9dbb bd36 cabd da09 febc f45b 923c
000000a0: 0ff1 e6bd 7e83 663d 4203 e839 875c 943d
000000b0: e728 b6bd a8f0 41bd 13e2 f83c 57b5 cf3b
000000c0: 0123 b13c 891e c13c 67f7 86bd da5a a83d
000000d0: 9049 bcbd 6b36 843c b813 c4bd d401 91be
000000e0: a7d1 03bd 7ca5 a23b 5a1d 16bd 94a2 963c
000000f0: fab3 db3d c7b3 033d 7069 283c 29d2 b03d
00000100: 478c b3bc 838b 01be 5682 243d 939e 89bc
00000110: ed92 f93d c14a 283a 5b9a 463d 542f 33bd
00000120: 0d91 cfbd f29f 23bd 605e c0bd 9e4f 8abd
00000130: 41b4 de3d fae9 3cbd ab8f bbbd 32d1 c03d
00000140: fa2d 663d c77f 353d 70f8 26be dbe0 45bc
00000150: 0efd 88bb 14ea 10bd ca0c d93c f6e8 06be
00000160: 1623 80bd 3895 e93c 228a 34bd fcc6 e3bd
00000170: 0377 5d3c 06f8 c2bd a96a 69bd eeb4 803d
00000180: 808c d8bc 3ff4 febc 807b 1ebd af74 cf3c
00000190: daa9 d9bc 6971 12bd 0aec 2a3d 6994 533d
000001a0: 5eaa 343b d7b9 2ebd ccdb a43c c5f4 94bd
000001b0: 80d0 b93d 4e24 efbc 04b5 ac3d e52f 8bbd
000001c0: 8b5e 8bbd 5f1d a33d abbf 153d 7e94 0a3d
000001d0: c3ee 623d eef9 79bc 8607 ffbb 98fb f7bc
000001e0: 04de 84bd 17ca 7d3c fd63 bd3c e6b5 303d
000001f0: f94a 9a3d 59d3 e9bd d50b 92bc a00e 2e3d
0.06288174 0.010121093 0.025023807 0.06869747 0.021858111 0.054671094 -0.056127284 0.04589561
0.009922109 -0.06749657 -0.06331514 -0.053063918 -0.026660256 0.060695842 -0.03858301 -0.020821363
0.01719048 -0.049058005 -0.08711987 0.085057735 0.025598275 -0.060722694 -0.059668437 -0.050351117
0.010493498 -0.07506434 -0.08197117 -0.090523936 -0.0025400042 0.039134093 -0.007491327 -0.023730002
0.031634346 -0.10986057 -0.06704562 0.01121181 -0.004793692 -0.09873722 -0.031010557 0.017866112
-0.11276447 0.056277744 0.00044252916 0.07244211 -0.0889452 -0.04734865 0.030381238 0.006338756
0.021623136 0.02357413 -0.06590157 0.082204536 -0.091937184 0.01613923 -0.095740736 -0.28321707
-0.032182362 0.004963575 -0.036649086 0.01838807 0.10727687 0.03215387 0.0102790445 0.08633835
-0.021917475 -0.12650876 0.04016336 -0.016799247 0.12186227 0.00064198306 0.04848705 -0.043746307
-0.10135088 -0.039947458 -0.093930006 -0.06753467 0.108742245 -0.046121575 -0.09158262 0.09414901
0.05619619 0.04431131 -0.16305709 -0.0120775355 -0.004180557 -0.035379484 0.026495356 -0.13174805
-0.06256692 0.028513536 -0.044077046 -0.11121938 0.013517144 -0.09519963 -0.056986485 0.062845096
-0.026434183 -0.031122325 -0.038691998 0.025324194 -0.02657025 -0.035752688 0.04172901 0.051655207
0.0027567367 -0.0426577 0.020124339 -0.072732486 0.09072971 -0.029192116 0.084329635 -0.067962445
-0.06805142 0.079645865 0.036559742 0.03383302 0.055403482 -0.015257342 -0.0077828793 -0.030271336
-0.064876586 0.0154900765 0.023118967 0.043142222 0.07533831 -0.114172645 -0.017827908 0.042494416

fc3.weight f4 [64, 128]
00000000: 8628 16be e3d6 283b 20fd fe3d 6722 4ebf
00000010: b57c 28be 5675 9c3e 3ea7 8a3e 20ee 553e
00000020: 1c38 cabe 0dd3 fdbd 4e20 7bbd 03e1 df3d
00000030: 0227 173e 9437 10bd c284 803c 28c4 0e3e
00000040: f017 293d b1fa d4bd b425 ca3d 0bb2 583e
00000050: 3054 09bf 6b52 153b 1592 4c3d ecaa 1abd
00000060: d29a 1e3e 052e 233d 40ba 56bd a8ae 07bf
00000070: 5db3 8e3d ecfc f4bd fdc3 f3be bf7d 02bf
00000080: 108a d1bc 1cf7 eb3d 9e6b 5f3d 03d9 93be
00000090: 13fc edbc 7394 19be 9080 af3c c8ca 1e3e
000000a0: 9a20 f5bd 6819 393e cc05 c6be fdaf 8b3d
000000b0: d409 2cbf 0357 8d3e 1770 aebd 5c7f 86be
000000c0: d3f1 1cbd 83c5 0c3e d9cc c8bd f7a8 9abe
000000d0: 2107 86bd 54df 5e3d d2b5 5b3e 28c6 603e
000000e0: 2116 1a3d dcd7 823d fc5e 1a3e 3e84 183e
000000f0: f20d dd3c b95d 04bd 8f4b 2abd 9d30 2fbf
00000100: 26be c23d e94d fc3e 6a5d 10be ca49 7fbe
00000110: 457e e4be 0cc4 fc3d 7608 b6bd 9488 003e
00000120: e361 4bbe a42d 8f3d 77d4 c3bd d70c 6bbd
00000130: 4fc0 24bf d719 0abe 098f a13d 7830 c4bd
00000140: b379 cabe b865 6d3d 83ac af3e ee4a d2bd
00000150: 24eb 94be 4d28 86bd 4c95 913b 0e4c 763d
00000160: b78c a43d 5364 14bd cc03 9c3d dca5 213e
00000170: d5c6 17bf 68c9 823e 4d78 a2bd f289 15bd
00000180: 9a60 59bd d516 ea3d b7fb 40be 33a4 fd3b
00000190: 77b9 793d d3fa 233a d978 76bd 97b3 a6be
000001a0: 173a 063e 4efd 1bbe 7448 ea3b a7fd 5fbd
000001b0: 7df6 423e 6307 053d 8d53 683e d567 5c3d
000001c0: 4566 4fbe 3367 40bd b6d5 9dbd cd06 78bd
000001d0: 7af5 c23d 5573 b1be a9b0 c43e 14f0 d8bd
000001e0: b3af a43b fa0e d63d 4ea5 1dbd 5ae2 23be
000001f0: a0fe 86bd 2937 1a3e f449 62be f969 1cbe
00000200: 1868 093e d07f 4e3d 5ee5 0d3e c5e7 303e
00000210: 483c eb3d 4f9e dcbb 3c5c b1be 7c83 d63d
00000220: 4b99 e93f 3763 c0bd 3d29 a6bf c990 98bb
00000230: 4d53 343e 68ed a9bd 5059 013e c677 1abe
00000240: 7223 c9bc a6f4 d4bb 4ab6 56bc 5ad0 7fbe
00000250: 891a 31be e8b8 a33c 09eb 92bc b603 33bf
00000260: c3a1 19bf 3d46 d4bd f5ed dd38 5fed c6bd
00000270: a95e fcbc 347b 9bbd fca6 4e3e 41e3 93bd
00000280: 0c6d d5be 48ab ac3d c000 433d 2156 933e
00000290: 2225 2f3e 6c60 d13d 8cf8 103e da08 193d
000002a0: 8f51 54be e52d ffbd 10bd d7bd 1229 423d
000002b0: 3112 dc3d 54ad 8cbe 0eea 0b3d 9742 513d
000002c0: 927b 2d3e 4b45 a53d 34f5 75bf 60c7 0f3d
000002d0: 6ca1 2abd 252a 363d fd83 a43d 27c7 7c3c
000002e0: fb8a 4cbd 5aa6 88bd 1a16 8abd ff50 5f3e
000002f0: 1648 2d3e db6d 96bd 6b0a 2a3e 6480 0fbd
00000300: b9de a53b 56bf 603e d150 d8bc d11e 7fbe
00000310: e023 b53d 5b96 8b3d 3794 533d 9a9d ec3e
00000320: b512 583d de3e 373d 8b7d 693e 97a9 ed3d
00000330: bd16 35bd 539f 39bd f121 a5bd b785 8c3d
00000340: 02af 0b3e 5651 00bf bc13 de3b 2e21 2bbf
00000350: fa63 463b 8b6a 0dbf 8b3a 053e 732a 183e
00000360: 6b7f 34be 2c6a e1bd 272b 2ebf fbff e7be
00000370: 6f64 24be eec4 8c3c c596 0abf bdec 913c
00000380: fd2d b2be 892c d53d 0e6f 553d 1471 87be
00000390: 04f9 f43a e9b5 e53d 1e37 30be df51 b63e
000003a0: 7641 a0bd 373b 053d 76ec 36bd 86a3 dabd
000003b0: ff0c 313e 024e fbbe 44e1 133e 290c 7fbd
000003c0: d885 5fbe a7b3 6fbe 93ad 63be 4f52 213e
000003d0: ea11 20bd 82f2 453e d691 163e 0888 bc3e
000003e0: 63cc fc3d 424f ff3d ee8e 183e af5b f13d
000003f0: ecdd 28bf d5ff f1bb 3965 a53d 0fd5 c43c
-0.14663896 0.0025762848 0.124506235 -0.80521244 -0.16453822 0.3055827 0.2708072 0.20891619
-0.39495933 -0.1239377 -0.061310105 0.109315895 0.14760974 -0.035209253 0.015688304 0.13942015
0.041282594 -0.10399378 0.098704726 0.21161668 -0.53644085 0.002278472 0.049944002 -0.03776066
0.15488747 0.03983881 -0.052423716 -0.5300088 0.069678046 -0.119623035 -0.47610465 -0.50973123
-0.025578529 0.11521742 0.05454599 -0.28876504 -0.029050862 -0.14998035 0.021423608 0.15507042
-0.11969109 0.18076098 -0.38676298 0.068206765 -0.67202497 0.27605447 -0.08517473 -0.26269042
-0.03831656 0.1374722 -0.098046966 -0.30207035 -0.065443285 0.0544122 0.21456078 0.2195059
0.03761876 0.06388828 0.15075296 0.14894196 0.026984189 -0.032315943 -0.041575965 -0.68433553
0.09508924 0.4927819 -0.14098135 -0.24930492 -0.44627586 0.123420805 -0.088883325 0.125521
-0.1986156 0.06991127 -0.09562009 -0.057385292 -0.6435594 -0.1348642 0.0788861 -0.09579557
-0.39545974 0.057958335 0.34311303 -0.10268198 -0.29085648 -0.065506555 0.0044428464 0.060131125
0.08034652 -0.03622849 0.07617912 0.15785927 -0.5928777 0.25544286 -0.07933102 -0.036508508
-0.053070642 0.11430136 -0.18846022 0.0077405213 0.06096789 0.0006255332 -0.060173843 -0.3255889
0.13108097 -0.15233347 0.0071497504 -0.05468526 0.1903934 0.032477748 0.22688122 0.05380996
-0.20253856 -0.04697342 -0.07706778 -0.06055336 0.09519477 -0.34658304 0.3841603 -0.10592666
0.005025828 0.10452075 -0.038487725 -0.16004315 -0.065915346 0.15060104 -0.22098523 -0.152748
0.13418615 0.05041486 0.13857028 0.17275913 0.11486107 -0.006732739 -0.34640682 0.104742974
1.8249906 -0.09393924 -1.2981335 -0.0046559316 0.17609902 -0.08297235 0.12631726 -0.15084752
-0.024553034 -0.006498891 -0.013104985 -0.24981824 -0.17295279 0.019985631 -0.01793434 -0.6992754
-0.60012454 -0.103649594 0.00010582424 -0.09713244 -0.030806856 -0.075918585 0.20180887 -0.072210796
-0.4168476 0.08431107 0.047608137 0.2877665 0.17104009 0.10223469 0.14157313 0.037361957
-0.20734237 -0.124599256 -0.10534108 0.04740245 0.10745657 -0.2747599 0.03415876 0.051088896
0.1694167 0.08069857 -0.96077275 0.03510225 -0.04165785 0.044473786 0.08032987 0.015428341
-0.04993723 -0.06672354 -0.06742497 0.21808241 0.1692203 -0.07345172 0.16605537 -0.035034552
0.005061951 0.21947989 -0.026405724 -0.249141 0.08844733 0.068157874 0.05165502 0.4621399
0.052752215 0.04473769 0.22801797 0.11604612 -0.044211138 -0.04531796 -0.080631144 0.068614416
0.13640979 -0.5012411 0.006777255 -0.66847503 0.0030271993 -0.55240697 0.13010614 0.14859943
-0.17626731 -0.11006579 -0.68034595 -0.45312485 -0.16053937 0.017183747 -0.54136306 0.01781308
-0.3480071 0.10408885 0.052107863 -0.2645346 0.0018689935 0.11216337 -0.17208526 0.35609338
-0.07824986 0.032527175 -0.0446591 -0.10675721 0.17290114 -0.49082953 0.14441401 -0.062267456
-0.21828401 -0.23408376 -0.22234182 0.15754054 -0.039079584 0.1933079 0.1470407 0.36822534
0.12343671 0.12466289 0.14898273 0.117850654 -0.65963626 -0.007385234 0.08075947 0.024027376

fc3.bias f4 [64]
00000000: 18e5 393d fa26 0f3d 6364 2c3e 5945 a8bc
00000010: 76dd b9bd cca3 71bc b77f 793d 67dc 9d3c
00000020: 35f5 d5ba c464 99bc ccaa 09be a3bf 383c
00000030: 1f5a d03c 0d94 9e3d 292e d53d d28b 0ebe
00000040: fd1d febc 7c13 cfbd 53fc cabd 4712 aa3d
00000050: 1cda 13bd 3d3e 8cbd a470 013d 3e71 263e
00000060: 5d4d 8bbd bad4 8ebd 9f63 ae3b 10f7 6c3c
00000070: 9323 45bc 1a24 003d 900b a9bc 2791 1cbe
00000080: 91fe a2bd 5d7d 023e 2f57 79bd 774b 243a
00000090: 730c c8bc 6fd4 44bd b514 593d ab52 953c
000000a0: f0fd d0bd 26b3 633d 9233 9b3c ae8f 8b3d
000000b0: 5524 1e3d 6022 d8bd eae6 cb3c 7eca 1bbd
000000c0: 295a 9cbd 1aaa 6bbd b15d af3d 6d02 00be
000000d0: d6a7 bf3d ad8d 9f3c 3e39 e03d 1d06 3c3d
000000e0: bc3d 02bd 6acf 56bd 0ff5 cc3c 75da f73b
000000f0: 0f11 a13d 4624 3cbd 77f6 f8bc 2bb2 7e3d
0.045384496 0.03494928 0.1683517 -0.02054088 -0.090754434 -0.014748525 0.060912814 0.019270135
-0.0016323688 -0.018724807 -0.1344406 0.0112761585 0.025433598 0.07743082 0.10409195 -0.13920525
-0.031020159 -0.10111138 -0.09911408 0.083042674 -0.036096677 -0.068478085 0.031601563 0.16254136
-0.06801865 -0.06974168 0.0053219344 0.014463201 -0.012032407 0.03128443 -0.020635396 -0.15289746
-0.07958711 0.12743135 -0.06087416 0.00062673487 -0.024419999 -0.048054155 0.052998263 0.018227896
-0.10204685 0.05559077 0.01894549 0.06814514 0.038608868 -0.105534315 0.024890382 -0.03803491
-0.07634384 -0.05753527 0.08562792 -0.12500925 0.09358184 0.019476736 0.10948418 0.045904268
-0.031797156 -0.0524439 0.025019197 0.007563884 0.07864582 -0.04593303 -0.030390961 0.062181633

fc4.weight f4 [2, 64]
00000000: 2864 3c3f d2ae 5cbf 160b 4e3e d8d2 973d
00000010: de4e 453f 309f dfbe abd1 4abe 6e74 3e3e
00000020: 83b5 28be 5c5d 0dbf cf59 973c c8ca debd
00000030: 0c30 21bf 3056 f3bd a49e c5be cf59 ce3d
00000040: 5eba 923e bf7f b6be 7093 173f 2c1b 8dbd
00000050: 235a 473d e4ab 31be 0333 67be ead2 c1bb
00000060: de27 323f 00ce 42bf d484 33be 477e 6f3e
00000070: 5c56 ea3d 6a29 293d d667 29bf 92ef 8e3f
00000080: 6902 27be 4dab 063f d1a2 0fbf e0a8 813e
00000090: 9bbf 903f 0656 b7be c179 43be 67f5 d63e
000000a0: 73f0 583d 40f1 8e3c 85f1 b4bd f60e ad3c
000000b0: a97e 1cbe 18d1 b8be 7e61 3fbf 1286 a6be
000000c0: c8c1 eabb 9ce1 cb3e 01a8 62be 8f69 8a3e
000000d0: 8d21 babc f4a8 8d3d 50d7 653d 7331 09bf
000000e0: e611 4b3f 1d6d d73e f3de b03d 32b1 e53d
000000f0: 9c08 57be 22e7 86be 8ed3 2b3f f949 f13d
00000100: 1b67 d1be ec8d babe 50b1 22be 37ee d83d
00000110: b537 163f cc40 11bd 4126 9d3f ac0a dfbd
00000120: 6ff9 1e3f ddb8 aabe 6483 023f 0c22 463f
00000130: 3bc5 77be 6fc3 f0be 690e adbd 2e0a 983f
00000140: 5bbf a53e 869a 67bd a700 67be aade 0040
00000150: d45b 033f 7f6a d6be 9c11 773f 2c07 fbbe
00000160: d34c 85be f866 ee3d bd5f 943c 08f1 d13f
00000170: 2c6c dabe f992 1e3f cd44 fd3e 4cdc 4c3e
00000180: 3be0 acbe c698 c4be fdab f8bd 308a 1a3f
00000190: 4526 183e 96ee 1b3f 49d2 35be 0e4f a1be
000001a0: 3177 323f f1ad 20bf e5b1 8f3e 5b39 08bf
000001b0: 0037 36bf 4783 a13d 953d 6dbe 3997 8bbf
000001c0: f522 203f 9a9d 9b3e 51d3 b43e 2903 6f3f
000001d0: 6b68 1ebf 0a5f 5e3f 2d79 1fbf d512 1ebf
000001e0: 2d7e 3bbd 006d 9e3e 5e3b 1fbe d8cf f1be
000001f0: eb0d 3e3f dec1 cbbe 854b 093e 76d2 863f
0.73590326 -0.86204255 0.20121416 0.07413262 0.77073467 -0.43676138 -0.19806544 0.18599102
-0.16475491 -0.5522058 0.018475441 -0.10878521 -0.6296394 -0.11881673 -0.38597596 0.100757234
0.28657812 -0.35644338 0.59209347 -0.06889948 0.048669945 -0.17350727 -0.22578053 -0.0059150355
0.6959208 -0.7609558 -0.17531139 0.23388015 0.11442253 0.04129926 -0.66174066 1.1166861
-0.16309513 0.52605134 -0.56107813 0.25324154 1.1308473 -0.35807818 -0.19089414 0.41984102
0.052963685 0.017449021 -0.08835129 0.021125298 -0.15282692 -0.36097026 -0.74758136 -0.32524163
-0.007164214 0.39820564 -0.22134401 0.2703366 -0.022721076 0.06916991 0.05611354 -0.5359108
0.79324186 0.42075434 0.08636274 0.11215438 -0.20999378 -0.26348215 0.6711968 0.11781687
-0.40898976 -0.36436403 -0.15887952 0.10592311 0.5867875 -0.035462186 1.2277299 -0.108907074
0.62099355 -0.33344164 0.50981736 0.773957 -0.24196331 -0.47024104 -0.08450014 1.1878107
0.32372555 -0.05654385 -0.22558843 2.0135903 0.51311994 -0.41878125 0.96511245 -0.4902891
-0.26035175 0.116407335 0.018112058 1.6401682 -0.42660654 0.6194301 0.49466553 0.20005912
-0.33764824 -0.38397807 -0.12142179 0.6036711 0.14858349 0.6091093 -0.17755999 -0.31505626
0.6971312 -0.62765414 0.2806541 -0.5321252 -0.71177673 0.07886367 -0.23168023 -1.0905524
0.6255334 0.30393678 0.35317472 0.93364197 -0.6187808 0.8686377 -0.62294275 -0.61747485
-0.045774627 0.30942535 -0.1554999 -0.47228885 0.7423999 -0.39796346 0.13407715 1.0532978

fc4.bias f4 [2]
00000000: 72e4 983d 271f 2bbe
0.074654475 -0.16711102
