checkpoints/Computer2-0-checkpoint-0.5248-actor.pth (torch, 193711 bytes, 8 tensors)

fc1.weight f4 [256, 24]
00000000: 8e8d 62bb 03a3 5dbe 64d2 16be 012f 9abd
00000010: 2f6c 9b3e a4a2 583d 3996 f13d 0252 83be
00000020: 21fe 8f3d d11e be3d 38d8 353e 2f96 193d
00000030: 5ec9 8f3c 1738 7f3e 8a38 07be 5f1b f9bd
00000040: 509f 8a3d 7990 983d c19d 8dbd c2fd fb3c
00000050: 7e9f 443c bb5e 623e ff5d a53a c1f8 1c3c
00000060: da18 853e c64e 4f3d 8976 e23d 4c90 69bd
00000070: b096 143d 8fc6 bbbe ef23 293e 6494 a9be
00000080: 9a5f 4fbc 6632 1a3d 73c4 363c 14a6 223e
00000090: 3749 97bc 0fec a0be 1396 d0bd 1482 1ebe
000000a0: b219 b23d 5896 283d 3c96 2b3e 0f43 0c3e
000000b0: 1a8f a43e 0a17 fcbe c4f8 d0bd 42ea e9bc
000000c0: a922 7abd 352b 90bd b270 79bd 4081 16be
000000d0: 9566 c5bd 039e 093d 7a33 be3d 734d 94be
000000e0: 965e 233d 4787 2ebe a1b6 f03d aa52 6dbe
000000f0: b2ee babd 490b b43e 8a55 19be 3ac5 f8bd
00000100: 4e0e df3d b4e9 03be 6990 e23d 6266 5ebe
00000110: c568 943c 161f 983e cbeb 2abd 75e2 d6be
00000120: 4894 0c3e dcaa 0ebe 11e1 b9bd a116 5b3e
00000130: 4f46 bc3d ac3b 2e3e 2c64 c0bc 4f2f 42bd
00000140: f9a6 253e feba 5a3d 6536 513e b788 993e
00000150: 58c7 13be aff3 fc3d d7ae 203d 5fea 4a3e
00000160: caf0 b13c 9063 a0bc dffc 85bd 09e3 3ebb
00000170: cda8 5c3e 3a60 c43c 1cc6 38be 1da1 8e3c
00000180: 8c52 453c 6b01 2f3d 07b1 933d 0093 313e
00000190: 9225 cabe e141 473e ec7f 16bb 565f 0abe
000001a0: 53e9 143e 9414 c8bd 048b 663d a306 5ebe
000001b0: 21d9 0cbd 60aa 713e 4def 89bd f058 6ebe
000001c0: acb3 3d3e c920 36be 04a4 62be 4446 89bd
000001d0: 74eb a0be fd5c 12bc 655d ba3d 2ea6 52be
000001e0: 4524 123e 428f 1bbe 8c51 313d e081 7cbe
000001f0: 3267 533e ed34 15be 376b fc3d 08bd 1abd
00000200: 1790 00be 9138 e3bd 5c8f 253e ecf2 883b
00000210: 7f40 6c3e 5c25 4dbe d2b9 57be b034 a0bd
00000220: ac65 08bd 9e02 c6bc dcfe b1bd d463 87bd
00000230: 70ae 8c3e 51d8 7b3d 6826 9f3d 460f c1bd
00000240: ecc8 96bd ca38 05be 3af1 0dbe becc 04bd
00000250: d5ab 4dbe d5d5 27be 92d5 113c 6403 9f3c
00000260: 90ab fe3c e96d 23be 7ac4 7f3d d780 5cbe
00000270: 0593 633d fed9 523d 9a7a f13d df3c 31bd
00000280: b8c4 48be f33f 0f3e 471f 7c3d a1eb 5a3e
00000290: fcb8 5a3b 8912 d5be 0ea5 8bbd 226f 4e3d
000002a0: 71e6 763e 26d6 1abe f0b8 fa3d a8ab 11bd
000002b0: 83c8 4a3e befa ac3d 72cc 133d 0abb 08be
000002c0: 2e50 3fbe c9b8 2dbe 5ec1 edbd dbb5 70be
000002d0: 2732 0dbc 63a1 4fbe 8c77 0e3b 513e 75be
000002e0: fda9 65be 2c9f c0bd 1f7e 27be b301 63be
000002f0: afed e8bd 265c 073c d358 253e 2749 8cbe
00000300: da51 f0bc 13e2 14be 420e aabd 2886 023e
00000310: d166 d03c eddf 1ebe e7ff b23d a45a 1f3e
00000320: bd51 7e3d 6bf2 3a3e 4e3f 873d 74a2 6e3e
00000330: 5246 943d 23f0 1f3e 36d8 2c3e f89c 853e
00000340: 9024 fc3c 8e74 3abe f60d 2abe bfb7 2e3e
00000350: ee60 afbd a504 493e 7103 06be a92f 7bbc
00000360: 866d 133e 2a44 5b3d c9b5 a53d bf0b 6bbe
00000370: b659 a63c 3f3e 903e 7a49 29be 3583 ef3d
00000380: 9d20 2e3e 2c9b febc 28da 13bd 9e03 81be
00000390: 2a15 f73d ef2e d9bd 86c9 92bd 0704 59bd
000003a0: 230d e33d 5ac4 53bd fc49 c63d 1037 26bc
000003b0: 8dfb a3bd 6903 5abd c520 203e 6643 fe3c
000003c0: 663d 893d eae9 ae3d 1750 413d 2003 5fbd
000003d0: caa0 77be 6125 feba e2e5 a73d 4a47 6e3e
000003e0: 1799 8c3c 99c5 99bb 5cfb 743d fd67 9a3d
000003f0: 2c1c b3bd 1c6d 54bd 9c7b 08bd 3d9a d5bb
-0.0034569236 -0.21644215 -0.14728695 -0.075284965 0.30355975 0.05288948 0.11796231 -0.25648504
0.07030893 0.092832215 0.17758262 0.03749674 0.017552074 0.2492374 -0.13205162 -0.12163424
0.06768668 0.07449431 -0.06914855 0.03076065 0.0120009165 0.2210645 0.0012616514 0.009580792
0.25995523 0.050612234 0.11057765 -0.057022378 0.03627652 -0.36674926 0.16517614 -0.33121026
-0.0126570705 0.03764572 0.011155236 0.15883666 -0.018467529 -0.31430098 -0.101848744 -0.15479308
0.08696307 0.041159004 0.16756529 0.13697456 0.32140428 -0.49236327 -0.10203698 -0.028554086
-0.06106821 -0.07039491 -0.06089849 -0.14697742 -0.096387066 0.033597957 0.09287162 -0.2896534
0.039885126 -0.17043792 0.11753584 -0.23176065 -0.09127559 0.3516486 -0.14974037 -0.12146993
0.108914 -0.1288212 0.110627 -0.21718743 0.018116364 0.29711217 -0.041728776 -0.41969648
0.1372844 -0.13932365 -0.09076131 0.21395351 0.09193098 0.1701495 -0.023485266 -0.0474084
0.16176976 0.053400986 0.20430906 0.29987118 -0.14431512 0.123511665 0.03922924 0.19815968
0.021721262 -0.019578725 -0.06542372 -0.0029127023 0.21548767 0.023971666 -0.18044323 0.01741081
0.0120436065 0.04272596 0.072115 0.17341232 -0.3948179 0.19458725 -0.002296443 -0.1351293
0.14542131 -0.0976955 0.05628492 -0.21682219 -0.034386758 0.23600149 -0.06735096 -0.23276114
0.1852557 -0.17785944 -0.2213288 -0.06702855 -0.31429636 -0.008933303 0.09099845 -0.20571205
0.14271648 -0.15191367 0.04329066 -0.24658918 0.20644835 -0.14570971 0.12325137 -0.03777793
-0.12554966 -0.110947736 0.16167969 0.004179349 0.23071478 -0.20033783 -0.21066979 -0.07822549
-0.033300087 -0.02417117 -0.08691189 -0.066108376 0.27476835 0.061485592 0.07770997 -0.09426741
-0.073625416 -0.13009945 -0.13861552 -0.03242182 -0.2008508 -0.16390164 0.008901017 0.019410796
0.031087667 -0.15959896 0.062443234 -0.21533523 0.05556013 0.051477425 0.117909625 -0.04327094
-0.19606292 0.13989238 0.061553266 0.21378948 0.003337442 -0.41615704 -0.06818591 0.050398953
0.24111344 -0.15120754 0.12242305 -0.035564095 0.19803052 0.08446263 0.036083646 -0.133526
-0.1868293 -0.16965021 -0.116091475 -0.23506872 -0.008617914 -0.20276408 0.0021738736 -0.23949553
-0.22428127 -0.094053596 -0.16356705 -0.22168617 -0.113734595 0.008261716 0.16147165 -0.2739956
-0.029335905 -0.14539365 -0.08303501 0.12746489 0.025439652 -0.15515108 0.08740216 0.1556192
0.06208967 0.18256538 0.06603871 0.23304158 0.07239975 0.15618949 0.16879353 0.2609632
0.030779153 -0.18208525 -0.16606888 0.17062281 -0.0856341 0.19630678 -0.1308725 -0.015331187
0.14397249 0.053531803 0.080913134 -0.229537 0.02030645 0.2817249 -0.16531935 0.11694948
0.17004628 -0.031079851 -0.036096722 -0.25198072 0.120645836 -0.10604655 -0.07167344 -0.052982356
0.1108649 -0.051700927 0.0968208 -0.010144964 -0.08006964 -0.05322591 0.156375 0.031037997
0.06701164 0.08540709 0.04719552 -0.05444634 -0.2418243 -0.0019389802 0.081981435 0.23269382
0.017162843 -0.004692745 0.059810027 0.075393654 -0.08745608 -0.051861867 -0.033321008 -0.006518631

fc1.bias f4 [256]
00000000: 167a 7a3d 191b 12bd aca2 993d 8f14 503d
00000010: d79f 223e 8932 6a3c 9fef ecbd 843b 5d3e
00000020: b4f6 4d3d af43 debc 2f40 25bd 72b6 66bc
00000030: e287 1fbe d2a7 86bc b59f 79be 9e63 7cbd
00000040: 8751 53be 6d1c 71bc 2bdf a93a e0e8 413e
00000050: 29fa 3abd 79e3 4d3c 1e3c 08bd 6cbf 03be
00000060: b8ab d23d 27e0 32be 329f fbbc 86c4 813d
00000070: e560 e8bd af4d 043e 3790 4abe 5545 463e
00000080: d0fb 84bc 30d7 483b a32b cd3d 19df 8bbd
00000090: bfcf 81bc 9e55 48bd fb70 9dbd 7b40 4ebe
000000a0: b0f3 3c3e b7f0 afbd b068 913d 0f14 91bb
000000b0: c98e b5bd 4347 05bd 2775 953d 3a58 033e
000000c0: 1f13 adbd 5a8b 40bc d9b3 ef3d 868f 2fbe
000000d0: c3e1 553e 6898 08ba 918d 53be d4fa bfbd
000000e0: def9 d6bd 4d9b 00be cd30 203e 0e6f a4bd
000000f0: 41b6 debd 9e76 8a3d 2270 52bc b5ca 48be
00000100: 21df 0cbe f222 91bd 98c1 493e 7a47 b4bd
00000110: 0f18 0ebd a8bb 25be b885 39be b796 433e
00000120: 4742 d93c c830 4d3e 9fb9 733d 8914 2b3d
00000130: 4917 a0bc 7bfe a73c 467c fa3d 9bec 443d
00000140: 884d e73d 5cec ba3d 1fd6 aebd e4f4 32bd
00000150: 9278 34be 3b77 e2bc 5620 b43b de8c 013e
00000160: 152b 8cbd 3bf1 a13d 1043 68bd 99d8 4a3e
00000170: 3ba3 543e be05 1b3e 29e1 02be 4ddb d93d
00000180: 62a1 07bd ac5a ba3d cd4e 9c3d 9aa8 27bd
00000190: b5b5 9b3d 3749 0dbe c501 1a3d 5190 debd
000001a0: 85f4 1dbd 01d2 3abd 9c5d 21bd 2ae6 f6bd
000001b0: 3c76 28be 7130 55be c890 d1bc 6b87 13be
000001c0: a385 113e f5c5 bfbd 654d 73be 8408 52be
000001d0: 0931 16be 0e01 2c3e 2962 0c3d 483f a13d
000001e0: d230 0c3e d0e4 28be 380a 6c3d 6f49 34be
000001f0: 9ed9 dd3a d11d 1fbd 5ceb ef3c db75 49bd
00000200: 6bf1 b5bc 23f6 fc3d 9aea 02be 0fa9 7b3d
00000210: de86 23bd 3bed 1bbe 4bfb fa3c 61b0 81bd
00000220: 934f 54be 1449 6d3d 5089 10be a1c4 08bd
00000230: 78f0 f4bd bd2a aabd 78e2 51bd 2623 a73d
00000240: a3e1 b0bd ea9d 9ebd ec65 7e3e 1f3d 3bbb
00000250: 889f 603d 6c8e 78be a8fb 95bd c9f1 843b
00000260: 7f6d 123e e42e 0d3d 6da1 29be 75ae 253e
00000270: b2fb c3bb b298 8fbd 4b7c 0d3e 1747 55be
00000280: 5341 0f3e 8ae2 1b3e 42be 9c3d 119f 7abb
00000290: ad9e 393d 0f7b 043e 0867 8fb9 6043 913c
000002a0: 00a4 15be a1de 7fbd 8f76 a5bd f867 e63d
000002b0: 9987 623c fc76 103e fe12 1abe 1471 77bc
000002c0: b488 a83d f36e 2e3d 55ce de3d a043 9cbd
000002d0: c11a 1b3e 29e8 4bbe ef48 953d c8d9 1abd
000002e0: 7594 533d f111 303c 2548 81bb 07a9 963b
000002f0: 5482 3e3e 6af2 d53d 4807 103d ee3f 1abe
00000300: 5318 5dbd ac83 e53d 4e1a f53d 4d5a 79bd
00000310: 1809 d7bc 2e4c bf3d d376 ba3d dcc1 a2bd
00000320: c74a aebd 1057 74bd b0a8 14bd 17d0 263e
00000330: 012b 1d3e afd8 87bc c833 7b3c 923b 213e
00000340: 410d 8f3d a786 213e 88be 71be 9f8d 6ebe
00000350: 5c48 cc3d 7c69 b23d 2d71 fabd 00af bebb
00000360: b818 35be 4145 d5bd 14a3 a53d fbb6 c53d
00000370: 949c d5bd 82b4 1cbe 22d1 4bbe 8ee5 a9bd
00000380: ad37 2fbe 2099 3a3e 1ff5 9cbc 760c d93d
00000390: 8cc2 633c df32 183e ebff 5f3e 95ee f7bd
000003a0: 993e d8bd 662f fc3d ed72 ebbc 23b0 f3bd
000003b0: 267c ec3d 5bdc a5bd ecfe 813d f66e aebd
000003c0: e3b2 c63d aeba ca3d 0027 f7bd 548e 96bd
000003d0: 27a8 18bd 2318 f8bd cd3a 40be ff10 ac3d
000003e0: e5f6 343e 56c3 40bc 4422 533e 9962 153d
000003f0: be75 60be 6e4e ec3b 64db b23d ccf0 093d
0.061151586 -0.035670374 0.0750173 0.050800856 0.15881287 0.014294275 -0.115691416 0.21604735
0.050284103 -0.027131883 -0.040344413 -0.014081584 -0.15579179 -0.016437445 -0.2437733 -0.06161844
-0.20636569 -0.01471625 0.0012960186 0.18936491 -0.045648728 0.012566441 -0.033260457 -0.1286599
0.10286659 -0.1746832 -0.030715559 0.06336312 -0.11346606 0.12920259 -0.19781576 0.19362386
-0.016233355 0.003064584 0.10018089 -0.06829662 -0.015846131 -0.048909776 -0.07687565 -0.20141785
0.18452334 -0.085908346 0.07100046 -0.00442744 -0.08865125 -0.032538664 0.07297736 0.12826625
-0.08450913 -0.011751974 0.11704225 -0.17144594 0.20886903 -0.00052106986 -0.20659472 -0.093740135
-0.10496877 -0.12559243 0.15643616 -0.080289945 -0.10874606 0.06760906 -0.012844117 -0.19608577
-0.13756992 -0.070867434 0.19702756 -0.088026956 -0.034690913 -0.16184866 -0.18117416 0.19100462
0.026520861 0.2003814 0.059503194 0.04176763 -0.019542353 0.020507088 0.122307345 0.048077207
0.11294085 0.09127113 -0.08536934 -0.043690577 -0.17624119 -0.027644744 0.005497019 0.12651393
-0.06844155 0.07907339 -0.05670458 0.19809188 0.20765392 0.15138909 -0.12781204 0.106375314
-0.03311289 0.090993255 0.076322176 -0.040932275 0.07603017 -0.1379746 0.037599344 -0.1086737
-0.03856327 -0.04561043 -0.039395913 -0.12055619 -0.16451353 -0.2081926 -0.025581732 -0.14407127
0.14211135 -0.09363929 -0.23759992 -0.20511061 -0.14667143 0.16797277 0.0342733 0.07873398
0.13690498 -0.16493535 0.057626933 -0.17606138 0.0016925817 -0.038846795 0.029287033 -0.04918466
-0.022209844 0.12351634 -0.12784806 0.061440524 -0.03992354 -0.15227215 0.030637404 -0.0633247
-0.2073348 0.05793102 -0.1411488 -0.033390645 -0.11959928 -0.08308933 -0.051241368 0.08161001
-0.08636787 -0.077449635 0.24843568 -0.0028570367 0.05483964 -0.2427308 -0.0732339 0.0040571433
0.14299582 0.034468547 -0.16565485 0.16179831 -0.005980932 -0.07011546 0.13816945 -0.208279
0.13989763 0.15223137 0.07653476 -0.0038241784 0.04531734 0.12937568 -0.0002735185 0.017732322
-0.14613342 -0.062468175 -0.08079254 0.11250299 0.013826274 0.14107889 -0.15046307 -0.0151026435
0.08229199 0.04258628 0.108791985 -0.07630086 0.15146925 -0.19912781 0.072893016 -0.03780535
0.05165525 0.010746465 -0.003945368 0.0045977863 0.18604404 0.104466274 0.035163194 -0.1506345
-0.053978276 0.11206755 0.11967908 -0.060877133 -0.026249453 0.09340702 0.09104695 -0.07947132
-0.085103564 -0.05965334 -0.036293685 0.16290317 0.15348436 -0.016582815 0.01533217 0.1574538
0.0698495 0.15774022 -0.23607838 -0.23296212 0.09974739 0.08711526 -0.12228618 -0.0058192015
-0.1768521 -0.104136 0.08087745 0.096540414 -0.104302555 -0.15303233 -0.19903997 -0.08295737
-0.17111082 0.18222475 -0.019159852 0.1059808 0.013901364 0.14863156 0.21874969 -0.12106053
-0.105588146 0.12313728 -0.028741324 -0.1189883 0.11547117 -0.0809867 0.063474506 -0.08517258
0.09702089 0.098988876 -0.120679855 -0.07351366 -0.037269738 -0.12113979 -0.1877243 0.08401679
0.17672308 -0.011765322 0.2061854 0.036470983 -0.21919915 0.007211498 0.08733252 0.033676907

fc2.weight f4 [128, 256]
00000000: 6bca b83c 174b 6d3c 6751 f23c 5eb1 dbbb
00000010: 6804 cb3b d247 ce3d 399f 84bd cfe8 bebc
00000020: d82d fdbc d7c4 2dbe cba2 a73d d11c 38bd
00000030: d9d1 60bc 8439 4ebe b15d a73c d00e 5e3d
00000040: 5e8a 613d eae3 6bbd a1e1 813d f926 d1bd
00000050: 1bfe ef3b c7cd d4bd 20f2 aa39 9f3c dabc
00000060: 859c 1fbe bf09 b93b 224f c5bd df83 66bc
00000070: 0051 4bbd a983 a03c c63e 9a3d 791a 803b
00000080: 87c3 77bc d81d 203d 0ee4 a6ba 2b41 ef3b
00000090: b111 a93d 4473 003d ac72 09be 29d4 84bd
000000a0: 11a3 d2bc 74a8 903d d30d 2d3d 3d45 85bd
000000b0: beac 03bc afea be3c 4712 c63c ada4 08bd
000000c0: 964c 683d 43c3 e2bd 5bfd 983d dea0 50bd
000000d0: 326e 57bd 68fb 0ebe 7c10 eabb 95fc 87bd
000000e0: 93be d8bd 51f3 38bb 2080 96bd 5d11 d5bd
000000f0: 883d 21bd a511 65bd 3b3d b13d bd0f 1ebe
00000100: 8a15 8b3c 94de 7e3d 565f 873b 2586 0a3c
00000110: 60ce 81bd ca4b b63c 2eeb f8bc a210 21bd
00000120: 131a 08be 4ea6 983d aa8f 0cbc 00fe 0bbe
00000130: 3a3d 98bc a3fb 83bd b1c8 a23d 9587 cb3c
00000140: 2e22 23be 8d4b 06bc ee55 a63c ceb7 ac3d
00000150: fb33 05bd 31f3 043d 2c8c 113c 847d 07be
00000160: aab1 d23b 2460 a53c 459a 1fbb cf73 b0bc
00000170: 2619 1a3d ada1 9dbc af85 2dbe 0431 87bc
00000180: 1a23 99bd d1b4 2bbd f5e3 c73c e0f0 713d
00000190: c814 483d a726 ba3c 335c 81bd 2645 8abd
000001a0: 6e8a 533c 8c16 1e3d d116 c9bc 7a62 efbd
000001b0: 3e69 dabc 97be 24bc 1a56 283d 4717 febb
000001c0: d1bc 17bd 7e81 e8bd f826 c83b cba6 5c3d
000001d0: 4b5b 27be b2e3 93bb c5a6 43bd 3fb8 833d
000001e0: 9d23 1dbc 7d2e d9bd 1613 4a3d cb1c 6e3d
000001f0: 4817 9e3c aae0 c13c c1ee a4bc 684d 9ebd
00000200: 8d71 633d bf0a 523c ee73 e5bd 259b cbba
00000210: 4ce2 81bd 0532 d13c 6f76 53bd 07bb 1ebe
00000220: 6be1 213d 338e ce3c 4049 06be b190 00be
00000230: 9add d8bc a75f 7d3a 41f0 8cbc 63e7 98bb
00000240: c8c7 b43d c141 2c3c 3f47 f8bd 5f9d acbb
00000250: 0f99 83bc 16ee 713d eefa 87bc 3123 14bd
00000260: 3bb9 d9bc bdfb 64bd 5b5b a8bd b968 00ba
00000270: 42b3 0a3d 934f d5bc 7b34 e3bd 7570 cabc
00000280: 73ef f5bc da05 aa3d 183e 463d d5f2 04be
00000290: 4785 15be de25 d63c 4ade 12bd 9006 aa3c
000002a0: 24fc 233d 8e77 25bc bc91 cbbd 3f11 44bd
000002b0: 9b46 75bd b360 233b 6ee1 443d 5d00 1b3c
000002c0: a8ca 2ebc d6eb 12bc b5af d5bc 2026 74bc
000002d0: b048 94ba bbb6 9bbd 44c5 a2bd 5e2f 3c3d
000002e0: db03 f8bd ed81 9b3c f791 6a3c cb00 9ebc
000002f0: d6e4 5abd ca02 c3bd 75bd 86bd adae d0bd
00000300: 95ff 9b3d a9be e2bc ecc6 33be 8aaf a23c
00000310: 5def c93c 9819 86bd 2f5a 923c 12a7 2abc
00000320: 5c3b 62bd b915 0ebd deec b33c 8193 153d
00000330: 043b 9fbb e4fa fabc e7a6 13bd bfa2 ddbc
00000340: 1e16 b63d b085 21bd ffa7 443c 4621 453d
00000350: d66f f53c 3154 85bc 76a5 903d 5f9b 91b9
00000360: f6f4 cc3d 90ac 4fbe 632d 81bc d2ba 623d
00000370: 6da8 563b 9bb3 063d d08e 7c3d d226 32be
00000380: cdda c1bc fda3 6a3d 6a74 19bd f9a4 a73d
00000390: d1a9 f73c b1f9 76bd 7945 d0bc fadf ddbc
000003a0: 1b20 8abd c972 863d a687 313d cd51 173c
000003b0: 8437 4b3d 0c02 86bd 2ca6 c83d a5cb 5c3c
000003c0: c52f 933c 0d19 c2bc 828e b43c fbae 32bd
000003d0: e66c 12bc aa47 223c 05b8 ca3c 7f0c 773d
000003e0: 99d3 793d 4f86 3ebc 6faf 8cbd c3f4 903d
000003f0: cc1e bd3c 6465 813d f668 51bc 8b6b 1c3d
0.022557458 0.014483235 0.029579831 -0.0067044934 0.0061955936 0.100722924 -0.06475682 -0.023304371
-0.030905649 -0.1696962 0.08185347 -0.044949356 -0.013721907 -0.20139128 0.020430418 0.054213345
0.055063598 -0.057590403 0.063418634 -0.102125116 0.007323993 -0.103908114 0.00032605324 -0.026640235
-0.15587051 0.005646914 -0.09634234 -0.014069526 -0.049637794 0.01959403 0.07531504 0.003909406
-0.015122301 0.03909096 -0.001273276 0.00730147 0.082553275 0.031359926 -0.1342265 -0.06485779
-0.025712522 0.0706338 0.042249512 -0.06507347 -0.00803679 0.023305265 0.024178637 -0.033360172
0.056713663 -0.110723995 0.07470199 -0.050934665 -0.052595325 -0.13963091 -0.0071430784 -0.06639973
-0.10583224 -0.00282212 -0.07348657 -0.104037024 -0.03936532 -0.05592503 0.08654257 -0.15435691
0.016978044 0.062223986 0.004131238 0.008454834 -0.06338191 0.022252936 -0.03038558 -0.039322503
-0.13291197 0.07453595 -0.008579174 -0.13671112 -0.018583883 -0.0644448 0.07948435 0.024844924
-0.15931007 -0.008196724 0.020304646 0.084334955 -0.032520276 0.032458488 0.008883517 -0.13231474
0.0064298706 0.020187445 -0.0024353426 -0.021539597 0.03762164 -0.019242132 -0.16945527 -0.016502865
-0.07477398 -0.041920487 0.02440069 0.059067607 0.048847944 0.022723509 -0.06316414 -0.0675147
0.012911422 0.03859572 -0.024547013 -0.11688705 -0.026661512 -0.010055206 0.041097738 -0.0077542397
-0.037045304 -0.11352824 0.006108161 0.053870004 -0.16343419 -0.0045132274 -0.047766466 0.064316265
-0.00959101 -0.1060457 0.049334608 0.058132928 0.01929821 0.023666698 -0.020133378 -0.07729608
0.055528212 0.012819945 -0.112037525 -0.0015533908 -0.06341991 0.025536546 -0.05162662 -0.15501033
0.039521616 0.02521429 -0.1311388 -0.12555195 -0.026472855 0.00096654374 -0.017204406 -0.0046662553
0.08827168 0.010513724 -0.12122964 -0.0052677835 -0.016064195 0.059064947 -0.016599145 -0.036166374
-0.026577583 -0.05590414 -0.0822055 -0.00048984174 0.03386236 -0.02603892 -0.11093994 -0.024711827
-0.030021405 0.08301897 0.04839906 -0.12983258 -0.14601623 0.026141103 -0.035856523 0.020755082
0.040035382 -0.010099305 -0.09939906 -0.04786801 -0.059881788 0.0024929463 0.04806655 0.009460536
-0.010668434 -0.0089673605 -0.02608476 -0.014901668 -0.0011313166 -0.076032124 -0.07947782 0.04594361
-0.1211011 0.018982852 0.014317027 -0.019287487 -0.05344089 -0.09522016 -0.06579105 -0.10189567
0.07617108 -0.027678804 -0.17556351 0.019859094 0.02465027 -0.0654785 0.017865269 -0.010415809
-0.05523239 -0.034688685 0.021963533 0.036517624 -0.00485933 -0.030637212 -0.036047842 -0.027055142
0.08890937 -0.039434135 0.012002944 0.048127435 0.029960554 -0.016275497 0.07062809 -0.00027772316
0.1000766 -0.20280671 -0.015768712 0.055353947 0.0032754198 0.03288613 0.061659634 -0.17397621
-0.023663903 0.057285298 -0.037464537 0.08185763 0.030232342 -0.060296718 -0.025423752 -0.02708434
-0.06744405 0.06564862 0.043342255 0.009235811 0.04961349 -0.06543359 0.0979732 0.013476287
0.017967114 -0.023693586 0.02204061 -0.043623906 -0.008937096 0.009904781 0.02474595 0.06031465
0.06099281 -0.011628701 -0.06869399 0.070779346 0.023085974 0.06318167 -0.012781372 0.0381885

fc2.bias f4 [128]
00000000: 1215 64bd a4cd 963d 96e4 e23c 0e01 2abc
00000010: 023c 78bc 4a0a 4f3d a4ac 86bb e2f5 003d
00000020: 170e dabb 176b 6bbd 53e9 5fbd 1951 903c
00000030: 925b 06ba 1ba9 ed3c 9e2f 84bc 9fbe 3e3b
00000040: c4bc d13d 7648 a3bd 4cef 013d 56a1 d1bc
00000050: d21c 97bc 1d9e a93d 54ea 943c 2f60 8c3d
00000060: 484b 68bd 84a2 dabd ea82 813d 3e53 61bc
00000070: 8529 85bc 7bb3 8bbd 6446 2bbc 93b4 593d
00000080: 35d8 a7bd 5f60 573d 5a52 723d 5a33 0e3d
00000090: 672a 12bb 260c 8f3d 36c8 853d 13e5 0e3d
000000a0: b08e 19bc 514f 463d 8808 6d3d 3851 453d
000000b0: 7b4a 573d b756 d9bb 2248 80bd 8a94 063d
000000c0: a6a1 533d b7e2 7ebd 43d0 673d e368 143d
000000d0: e7be 8b3b fb52 63bd cf5f dbbc 588d c7bb
000000e0: de84 b0bc 5384 7bbd ee37 18bd d56d 1b3d
000000f0: fae6 203d 9efc 303d 87d6 553d 46cb 42bd
00000100: 13c8 f7bc b212 2fbc e1fc b1ba d8df d9bc
00000110: e3be 29bd 2cba 953a 5a08 5bbd 8999 1fbb
00000120: e852 643c 9011 81bd f93f a43c a1d1 46bd
00000130: 6bec 1dbd 7e35 283c 9158 16bd 1107 863d
00000140: a1bf 593c 9db7 b3bc 266e a13c a61e 48bd
00000150: 69d1 173d 9fbb 08bc d5ac a2bd fad9 6b3c
00000160: 7cfb 4f3c 610c 65bc 62fc 6c3d 09af f5bc
00000170: ad31 8a3b f09f b4bc 859b 173d d2be 6cbd
00000180: 9b6b c3bc ab5b 17bd 11a9 a23d 640d 0c3d
00000190: f29a 12bc e46d 923c 761d 293d cfde 03bd
000001a0: 971f 313d 7cd1 833d fda9 22bd 84ce a03c
000001b0: 3d9b 47bd 5a8b c03c eeba a5bc 2ad6 bb3c
000001c0: eb13 023d fd67 1b3c f8e8 0ebd fe7b 013d
000001d0: a99c b7bc f0c9 a3bc 44e6 3c3c 2c28 f03c
000001e0: 08e2 83bc daf4 c93d 90d7 093d f47e 193d
000001f0: 2ffa f7bb 0f9f 883d 9b90 dbbb 06da 013d
-0.055684157 0.073634416 0.027696889 -0.010376228 -0.015151026 0.05054692 -0.004109936 0.031484492
-0.0066545117 -0.057475176 -0.054665875 0.017616795 -0.00051253394 0.0290113 -0.016135987 0.0029105318
0.10241082 -0.07972805 0.031722352 -0.025589626 -0.01844636 0.08282111 0.018178143 0.06854283
-0.05671242 -0.10675529 0.06323798 -0.013752757 -0.01625515 -0.068213426 -0.010453794 0.053150725
-0.08195535 0.05258214 0.059160568 0.03471694 -0.0022303106 0.06984739 0.06532328 0.03488643
-0.009372398 0.048415486 0.057869464 0.04817316 0.052561264 -0.0066326517 -0.06263758 0.0328565
0.05166783 -0.06222793 0.0565951 0.03623284 0.0042647007 -0.05549906 -0.026779084 -0.0060898475
-0.021547731 -0.06140549 -0.037162714 0.03794654 0.039282776 0.043209665 0.052206542 -0.047557138
-0.03024677 -0.01068561 -0.0013579392 -0.026595995 -0.04144181 0.0011423281 -0.05347476 -0.0024352989
0.013935782 -0.06302178 0.020050036 -0.04853976 -0.038555544 0.01026666 -0.036705557 0.065443166
0.013290317 -0.02193814 0.019705843 -0.048857354 0.037064943 -0.008345514 -0.07943121 0.014395231
0.012694236 -0.013980002 0.05785788 -0.02999069 0.0042173476 -0.02204892 0.03701355 -0.057799168
-0.023855021 -0.036952656 0.07942403 0.034192458 -0.008948075 0.017874666 0.04128786 -0.03219491
0.043243017 0.0643644 -0.039712895 0.019629724 -0.04873203 0.023503948 -0.020230737 0.02292927
0.031757277 0.009485242 -0.034890145 0.03161239 -0.022413569 -0.019993752 0.011529509 0.02931603
-0.016098991 0.09861155 0.033652842 0.037474588 -0.007567666 0.06670963 -0.006700588 0.031702064

fc3.weight f4 [64, 128]
00000000: 8a07 5d3d 6284 c7bc 5852 213e db8b 313e
00000010: cc18 58bd 0ee4 9a3d 992e bfbc 5f59 47bb
00000020: 04b6 fd3d 39fc b23d 6e9f 0dbe cc37 fe3d
00000030: ae03 01be 4fb5 cfbc a0aa d53d 9592 c43d
00000040: 99ae d4bd 00f8 573d 50b8 773d afe0 0c3d
00000050: da39 2abe b621 cd3c 3dfe bc3d 1486 b1bd
00000060: 2874 033e 02b9 e73c a5e8 2cbd 33f3 4f3d
00000070: da68 3f3d 63a9 853e d8ff 603d 2ff8 90bb
00000080: 31bd a8bd 9cb0 e03d 7e28 1bbd ea22 d33d
00000090: 2801 5d3d e362 923d cca2 8e3d 632e 4f3e
000000a0: 3373 7bbd a296 133d d41f 9c3d cfc4 303e
000000b0: 71fa ffba ea91 fd3c 8289 ebbc 9a19 a83d
000000c0: 0e26 e7bd ef3a 8e3d f230 a5bd ea46 72bc
000000d0: 910d f83d b271 023d 3b52 393e 4dfe 133e
000000e0: 8298 05be f641 c1bd c292 ecbc 571e d73c
000000f0: c9e8 463d a9fd 1ebd 0408 8ebc d02c 0dbe
00000100: f5c1 263d 2da5 95bd e3dd aabd f54f 07be
00000110: 8ba4 803d 3411 353e 2345 233d 23a5 363d
00000120: 0456 12bd 83b0 313e 9099 41be b97b 483d
00000130: 730e 993d 662f b8bc 657e 613d 2e08 eabd
00000140: dec9 2fbd 6ed5 8abd 3e45 813d b4c0 ff3d
00000150: 7245 783d 5950 abbd c1fc d4bc 8fe2 92bd
00000160: a73b 9e3c c425 9f3d 3f5a adbd f8e8 87bd
00000170: befa 473d cef9 f13d a642 a4bb 5df7 0a3d
00000180: cc80 1e3e 8caa 083e ad4c cabd f69b d73d
00000190: 97fb c43b 5424 b6bc 116c df3d 2f02 2c3d
000001a0: 801b 7d3d 1edc 5fbc aa19 493c d0a8 be3c
000001b0: b1b6 0bbe 9f35 143e 28c9 f7bd 473e 8a3d
000001c0: ee4e ffbd 963c 83bc a471 dc3d 46ae 083d
000001d0: 61f6 823d 2bb3 f03d 1e99 233e a293 573b
000001e0: a0d5 e23d ff8a 83bd b716 c4bd 6229 183c
000001f0: f171 89bc 6032 be3d 7ba0 5e3e 7e0c af3d
00000200: fa29 15bd eb53 c7bd 7b2b f83d 6557 2c3c
00000210: a785 353e 8f8a 6f3d 7019 a73d 0b58 393c
00000220: 9850 23be 6f41 6cbe 50be 363c da13 50bd
00000230: eea1 0fbd c7d4 083d aa1c 8a3d 04ea 84bc
00000240: 7e3e 3dbc e40c 0cbd ca49 a43c c3ba 103d
00000250: 5a26 1a3d 1381 413d 55c9 10bd e547 823d
00000260: 1131 b93c 52fb c3bc 392b 043d 06cc eebd
00000270: 29fe 733d d6f0 64bd 63d2 32bc d416 3b3c
00000280: ac3a 81bd 6fc6 763d 5f6d b6bc 8bca 133d
00000290: f4d0 063d ed68 44bd c8bf cfbd 536b e0bd
000002a0: 0c30 823d 5e1e a53d 3e54 66bd 0246 26be
000002b0: c74c bebd 161d df3c 27d7 b83a be9c 8bbd
000002c0: e204 43bd b4e3 b2bd 1b23 923d 1b33 883d
000002d0: 4116 683d ae33 70ba a095 9fbc 601c 72be
000002e0: d86c 853c 3550 0f3e f99d 843b b2b8 7ebd
000002f0: fb5d af3c 72f8 e5bd 2601 28bd 22b8 3f3e
00000300: 0a28 85bc b583 02bd 07b7 2f3c 2072 8cbd
00000310: 4c43 85bd 8db9 8e3c 8661 913a 0493 a93c
00000320: b897 1fbe cceb f0bb 0029 843d 7d2e 9cbc
00000330: ef09 23bd bd58 f4bd 1a1d 2e3b 00f9 443d
00000340: bf2a 8bbd 8d78 a0bc 01fc a1bc 4983 cabb
00000350: 3db8 843c 9ed6 88bd f40e 023c c1d5 f5bc
00000360: 3282 973d fe94 973d 7a77 703d 9376 fe3c
00000370: 7ac7 723d e727 e33b 7c7d cd3c 8b57 893d
00000380: 8db8 1c3c 2bc5 dfbb fb4f d23d 759e f1bd
00000390: 7ed2 6f3d 83db 4e3d 557e ffbd b1d3 e43d
000003a0: d083 c5bd a1a8 f13c 71d6 26bd c8ec 723c
000003b0: e440 96bc cfa4 923d 4318 573d c7f0 cabc
000003c0: 03c8 53bb 3cf6 653d fa67 e8bd 3d28 09be
000003d0: 707d 38bd 9007 303c 40cd 4bbd 3a04 76bc
000003e0: f05c b0bc aede aebd a0d0 533d 6fac 6e3d
000003f0: b609 7f3d 5666 95bd 90cf 3cbd 3d51 d5bc
0.053962268 -0.024355117 0.15754068 0.17338507 -0.052758023 0.07563029 -0.02333765 -0.003041826
0.12388232 0.08739514 -0.13830349 0.12412986 -0.1259906 -0.02535501 0.10432935 0.09598271
-0.10384864 0.052726746 0.06047851 0.034393962 -0.16623631 0.025040489 0.092281796 -0.086681515
0.12837279 0.02828646 -0.042214055 0.050769042 0.046730854 0.26105794 0.05493149 -0.004424117
-0.082392104 0.109711856 -0.037880413 0.10309394 0.05395618 0.071477674 0.06964645 0.20232539
-0.06138916 0.036032327 0.07623258 0.17262577 -0.0019529593 0.030953366 -0.028752092 0.08208008
-0.11286555 0.069448344 -0.08065976 -0.014787415 0.121119626 0.03184671 0.18097775 0.14452477
-0.13046458 -0.09436409 -0.028878573 0.026259584 0.048561845 -0.038816128 -0.017337807 -0.13786626
0.040712316 -0.073068954 -0.08343103 -0.13214095 0.06281384 0.17682344 0.039860856 0.04459108
-0.035726562 0.1735249 -0.18906236 0.048946116 0.07473459 -0.022483539 0.05505218 -0.114273414
-0.042917125 -0.0677899 0.06312035 0.12487927 0.060613103 -0.083649345 -0.025999429 -0.07172119
0.019315554 0.07770875 -0.08464479 -0.06636232 0.04882311 0.118152246 -0.005012828 0.03392731
0.1547882 0.13346308 -0.09877906 0.10527794 0.006011437 -0.02223412 0.10909284 0.04199427
0.061793804 -0.01366332 0.012274185 0.023273855 -0.1364391 0.1447358 -0.120989144 0.0675016
-0.124662265 -0.0160201 0.10763863 0.033369325 0.06394649 0.117529236 0.15976378 0.0032894392
0.11075902 -0.06422996 -0.09574645 0.00928721 -0.016777964 0.09286952 0.21740906 0.085473046
-0.036416985 -0.09732803 0.12117668 0.010518883 0.17726766 0.05848175 0.08159149 0.011312495
-0.15948713 -0.23071836 0.0111537725 -0.050800182 -0.035066538 0.033406045 0.067437485 -0.016224869
-0.011550544 -0.03419198 0.020054717 0.03533436 0.03763423 0.047242235 -0.035348255 0.06361369
0.022606404 -0.02392355 0.032267783 -0.11660008 0.059568558 -0.05589374 -0.010914418 0.011419017
-0.06310019 0.060247835 -0.02226895 0.036081832 0.032914117 -0.047951628 -0.10144001 -0.109579705
0.063568205 0.08062433 -0.056232683 -0.16237643 -0.09291988 0.027235549 0.0014102206 -0.068170056
-0.04761208 -0.08734837 0.07135602 0.066503726 0.056661848 -0.00091629743 -0.019480526 -0.23643637
0.016287252 0.1399544 0.004047152 -0.062187858 0.021407118 -0.11229028 -0.04101672 0.18722585
-0.016254444 -0.031863887 0.010724789 -0.06857705 -0.065069765 0.017422462 0.0011091686 0.020699985
-0.1558522 -0.007352328 0.06453133 -0.019065136 -0.039804395 -0.11930988 0.002656764 0.048089027
-0.067952625 -0.019588733 -0.019773485 -0.006180201 0.016201133 -0.0668156 0.007938135 -0.030009152
0.0739788 0.07401465 0.05870769 0.0310624 0.059272267 0.006932247 0.02508425 0.067061506
0.009565485 -0.006828924 0.10269161 -0.117978014 0.05855035 0.05050231 -0.12475268 0.111731894
-0.09644282 0.029499354 -0.04073185 0.014826961 -0.01834149 0.07160341 0.052513372 -0.024773015
-0.0032315261 0.05614303 -0.11347957 -0.13394256 -0.0450415 0.010743991 -0.04975629 -0.015015656
-0.021528691 -0.085385665 0.051712632 0.058269914 0.06226512 -0.0729491 -0.046096385 -0.026039714

fc3.bias f4 [64]
00000000: 72f6 2abb 5e89 63bd c21d 65bd e610 bfbc
00000010: 837b 7e3c f210 b23d 026a 8a3c 743a 72bd
00000020: ffbd 513d 4948 893d a763 1b3d 1a65 db3c
00000030: 3ce4 17bb b3b4 9f3d 2599 353d fd7a 8e3d
00000040: ac26 093d 096f 4dbd 5d8b 063d 6d74 7e3d
00000050: 379d d7bc 8da9 dc3c dd54 81bc 737f 29bd
00000060: b41e 003e a069 63bb 06a3 da3d 757f 05bb
00000070: 45a2 e83b 63f4 80bd 4451 b03d 3907 20bd
00000080: 4977 a63d 6da9 86bc d7f2 dfbc 4a8f 08bd
00000090: b2c2 01bd c6ed a6bd bf5b a1bd 24e9 c43d
000000a0: 41bd 90bc 5fb4 c8bc 44e3 3b3c 1f62 6d3c
000000b0: f0c2 843b 6e27 523d a1f8 0d3d 1638 bfbd
000000c0: dd7c 79bb 3e5e cd3d 8288 da3d efe2 563d
000000d0: 59c7 2dbd 776d 663d bb38 4f3d 77ff 9c3d
000000e0: 993e be3c 191e 9bbc 93fd 633d 13fb bfbb
000000f0: 9949 173c 15d4 293a 3295 9abd 0adb b6bc
-0.0026086834 -0.055550925 -0.055936582 -0.023323487 0.015532377 0.08694638 0.016896252 -0.059137776
0.051206585 0.067032404 0.037936833 0.026781607 -0.002317681 0.077981375 0.044335503 0.06957052
0.033484146 -0.05015472 0.03284775 0.06212275 -0.026320083 0.026936317 -0.015787536 -0.04138131
0.12511712 -0.0034700409 0.106756255 -0.002037016 0.007099422 -0.06296613 0.0860925 -0.039069388
0.081282206 -0.01643821 -0.027337475 -0.033339776 -0.031679817 -0.081508204 -0.07878827 0.096147805
-0.017668368 -0.02450007 0.011467759 0.014488726 0.0040515587 0.051307134 0.03466094 -0.093368694
-0.003806881 0.10027741 0.10670568 0.052462514 -0.04242644 0.056256738 0.05059121 0.076659136
0.023223208 -0.01893525 0.05566175 -0.005858788 0.009233856 0.0006478441 -0.07547988 -0.022321243

fc4.weight f4 [2, 64]
00000000: e8ae b93e 82f3 8fbe 6b62 13be 229f 69be
00000010: 5cce 1abb cba5 d3bd 8765 8b3e 7280 613d
00000020: fda9 813e 06cc 53be b1ee b93d 764b a33e
00000030: 7e97 7fbc 9303 dcbd 785a c6bd 83e3 c9be
00000040: 8de0 3cbe 1f74 0c3e 25ae 4dbe 8bd1 943e
00000050: 9a4b 0c3e fb69 92be a3c6 853e 705b 8bbe
00000060: 2c58 d53d 45bf 64be 638a 7b3e 9b80 613d
00000070: 737e 4dbe cf2c f33e f3d8 d03d a211 8bbe
00000080: a828 0abe 3504 933b 42a4 d53d 0615 e33c
00000090: b5cc 0f3e 61f8 8a3d a51d 07be a754 2b3e
000000a0: c98c 273e 992e 153e 9f4e 33be 0f17 47be
000000b0: 09eb 63be 3ee6 453a 2bba 5cbe fd8e 683d
000000c0: b468 913e 9e58 d53d 5ad3 5dbe f80b 0e3e
000000d0: 36ea 613e 6e91 6fbe a121 813e b470 68be
000000e0: e619 7fbe 5397 85be bdaf 80be 125d 8a39
000000f0: 5aea 873d 86d6 9a3d 07e9 ef3d 7e7a be3e
00000100: 6fb1 ee3d 9c44 d83d 5267 5a3e fe7a 553d
00000110: 104c 313e 2ca6 29be 8812 4cbd 5b5a 183e
00000120: e5da b93e 199c 39be 3ef6 43be acf6 173e
00000130: 589c 6bbe 0ec4 33be 8676 88be 9d5c 813b
00000140: 0b2f f0bd 46ec 123d ecfd ebbb aa4a 60be
00000150: 7377 c23d 6c23 eabd bee6 403e 9b1d febc
00000160: 40b4 48be 31a4 bbbd 4eba d6be 230a 8cbe
00000170: db79 c13d 97fa 88bd bf91 84be 7713 713c
00000180: f32b 90be 9660 8cbe b0cd 663e e878 003d
00000190: f70b 5dbd d9b2 bfbd eed7 c13d 339b a6be
000001a0: 158f 34be 2009 a03d bfdb 383e 2431 973e
000001b0: a6bb 743e ab00 febd 7063 6f3e 220f 8c3e
000001c0: aeb4 fcbd a69e 1bbe eb32 9fbd 5be0 bcbe
000001d0: 9967 ba3d 7fe9 32be 3ea9 d7bd 4bfd 7fbe
000001e0: ccdd 4f3e 7fbc 3e3e 6346 20be fb76 61be
000001f0: 2edd 923e 503e 973e 5866 ddbd 9675 173d
0.36266255 -0.2811547 -0.14393012 -0.2281461 -0.0023621535 -0.10334357 0.27225897 0.055054136
0.25325003 -0.20683298 0.0907873 0.3189351 -0.015600083 -0.10742869 -0.09685224 -0.3943139
-0.18445034 0.13716172 -0.20085962 0.2906612 0.13700715 -0.28596482 0.2612811 -0.272182
0.10417208 -0.22338589 0.24564509 0.05505429 -0.20067768 0.47495124 0.1019763 -0.2716189
-0.13492072 0.0044865855 0.1043172 0.027719986 0.14042933 0.06785656 -0.13194902 0.16731511
0.16362299 0.14568557 -0.1751046 -0.1944239 -0.22257628 0.00075492624 -0.21555392 0.05677699
0.28400195 0.10417293 -0.21662655 0.13871753 0.22062 -0.23395321 0.2522097 -0.22699243
-0.24912223 -0.26092014 -0.25134078 0.00026390754 0.06636496 0.07560448 0.11714368 0.3720283
0.116549365 0.10559961 0.21328476 0.052119248 0.17314172 -0.16567296 -0.04982236 0.14878218
0.36299816 -0.18125953 -0.19136903 0.14840192 -0.23008859 -0.17555258 -0.26652926 0.003947808
-0.11727723 0.03586986 -0.0072019007 -0.21903482 0.094954394 -0.114325374 0.18838021 -0.031019976
-0.1960001 -0.091621764 -0.41939014 -0.27351484 0.0944707 -0.06688421 -0.25892445 0.014714113
-0.2815853 -0.2741744 0.22539401 0.031365305 -0.05396649 -0.09360284 0.094650134 -0.32540283
-0.17632706 0.078142405 0.18052576 0.2952968 0.23899707 -0.12402471 0.23377776 0.27355295
-0.123391494 -0.15197238 -0.07773384 -0.3688992 0.09101791 -0.17471884 -0.10530327 -0.24998967
0.20299453 0.18626593 -0.1565185 -0.22018044 0.28684372 0.29539728 -0.10810536 0.036977373

fc4.bias f4 [2]
00000000: 5a70 013c fc1c 4e3d
0.007900322 0.05032061
