checkpoints/Computer1-1-checkpoint-2.0576-actor.pth (torch, 193711 bytes, 8 tensors)

fc1.weight f4 [256, 24]
-0.0062089083 0.26377535 0.18913046 -0.037030887 0.31225872 0.17216992 -0.017549014 0.035486583
0.20317504 0.29880357 -0.067627735 0.14628084 0.25781044 -0.19568594 0.11158162 0.14936502
-0.24731867 -0.09057971 0.001118185 0.05514469 -0.12827316 -0.26285183 0.16332564 0.25693884
0.039876804 -0.47694632 -0.014464125 -0.046912722 -0.47847322 -0.2948828 -0.044041388 -0.040703814
0.12383548 -0.52210325 0.056854323 0.08782845 -0.37862697 -0.11098983 -0.033704177 0.08625836
0.05190884 -0.29060918 0.010287002 -0.04472751 -0.21758878 0.39741117 -0.013038446 -0.11598295
-0.012482772 -0.53059226 -0.0052182083 -0.1916571 -0.095717974 0.11290225 0.06193972 0.13892074
0.28704634 -0.45693395 0.048871532 -0.11253457 -0.0591325 -0.26242334 0.11202856 0.07151857
0.320525 -0.39602822 -0.030420264 -0.012154043 0.32475555 -0.7211107 0.044435084 -0.03763501
0.07899159 0.036772095 0.016334137 -0.24931778 -0.01903814 -0.13989413 -0.03815868 -0.30531877
0.10606043 -0.1440321 0.11418302 0.118976034 0.30032983 -0.2141191 0.14972202 0.06131149
-0.06582743 -0.06851716 -0.17619213 -0.037754167 0.22508264 -0.71993303 0.10706657 -0.106315866
0.018587817 0.05711397 0.12541524 -0.11284523 0.08966737 -0.4178698 0.15949385 0.064655825
0.0128731765 0.34171262 -0.057724096 -0.07406593 -0.2031142 0.0036730296 0.17693256 -0.13993564
0.14375153 0.11994381 -0.07855717 -0.07710483 -0.2916233 0.45354977 0.08817128 -0.2100678
-0.008929727 -0.35331297 0.080443025 -0.15532824 -0.016936252 -0.2520478 0.0965282 0.06638443
-0.13994752 -0.29979482 0.0096641 -0.1240917 -0.024185607 -0.21602342 0.13759948 -0.12565947
-0.20818818 -0.33888862 -0.09718845 -0.22920936 0.08210457 -0.4241133 0.10844732 -0.41354418
0.13371079 0.010004786 0.00977734 0.15836366 -0.008109811 0.094519034 0.19679844 0.07172856
0.008712698 0.40420383 0.078791186 0.06340068 0.010010752 -0.2570086 -0.03175955 0.028666157
0.10651931 0.1773227 -0.016254826 -0.12760466 0.15467443 -0.59809005 -0.06924419 -0.112360016
0.1201731 0.17122617 -0.11713554 -0.029198779 -0.063339844 -0.06390767 0.10206968 -0.10696504
0.13542122 0.115933105 -0.031084115 -0.2043334 0.3264923 0.12480675 0.008517322 -0.045500983
-0.25558618 -0.13162792 0.019372655 -0.121612884 0.45504746 0.060683765 -0.06908274 -0.19002251
0.12248076 0.4362457 -0.028465843 0.11481541 -0.18045318 -0.016650569 0.09534342 0.11059978
0.074931614 0.09700205 0.18455961 -0.19266392 -0.13004778 -0.16199605 -0.03211612 -0.10134517
-0.078780726 0.18506537 0.04215606 -0.14483312 0.0060816733 -0.19640358 -0.107700825 0.09478783
0.3166299 -0.24051991 -0.1961071 -0.12535782 -0.064608775 -0.34368673 0.12744446 -0.22590274
0.21053992 -0.2873525 0.15204622 -0.23844713 0.07359858 0.01826598 0.19230647 0.0634872
0.27867696 -0.3751654 -0.12196211 0.04187379 -0.11246143 -0.055658206 0.017994458 0.100722715
-0.2005655 0.2185859 -0.12778376 -0.20693031 -0.18754698 -0.02706174 -0.041380893 -0.19117273
-0.16660044 0.36877486 -0.059971455 0.041559182 -0.16198327 0.026507871 -0.1177446 -0.14761494
00000000: 1974 cbbb 900d 873e 6aab 413e b3ad 17bd
00000010: 60e0 9f3e 504d 303e f3c2 8fbc 615a 113d
00000020: 1e0d 503e c8fc 983e 6980 8abd a5ca 153e
00000030: bbff 833e e561 48be e884 e43d 25f3 183e
00000040: 1b41 7dbe db81 b9bd 1090 923a 66df 613d
00000050: 0a5a 03be 8494 86be d63e 273e 7d8d 833e
00000060: dc55 233d 4f32 f4be f0fa 6cbc 8e27 40bd
00000070: 71fa f4be e1fa 96be be64 34bd 0bb9 26bd
00000080: 759d fd3d 8fa8 05bf 14e0 683d 67df b33d
00000090: 65db c1be a34e e3bd 640d 0abd 39a8 b03d
000000a0: 5d9e 543d baca 94be d08a 283c 3234 37bd
000000b0: 98cf 5ebe 7a79 cb3e 359f 55bc 7888 edbd
000000c0: 8a84 4cbc e5d4 07bf 81fd aabb c241 44be
000000d0: c907 c4bd 4b39 e73d 81b4 7d3d 3d41 0e3e
000000e0: bdf7 923e 3ff3 e9be 842d 483d 8678 e6bd
000000f0: ec34 72bd 5a5c 86be 3b6f e53d 5478 923d
00000100: da1b a43e 36c4 cabe eb33 f9bc c021 47bc
00000110: 5c46 a63e b69a 38bf 9001 363d 2b27 1abd
00000120: 58c6 a13d 569e 163d 2bcf 853c 294d 7fbe
00000130: e0f5 9bbc 6840 0fbe 474c 1cbd be52 9cbe
00000140: 3636 d93d 277d 13be cad8 e93d b5a9 f33d
00000150: d5c4 993e 0a42 5bbe bb50 193e c221 7b3d
00000160: 88d0 86bd ba52 8cbd b66b 34be 1da4 1abd
00000170: 107c 663e 884d 38bf b845 db3d 22bc d9bd
00000180: 7a45 983c 57f0 693d da6c 003e 661b e7bd
00000190: 87a3 b73d 08f3 d5be 5b52 233e 466a 843d
000001a0: 04ea 523c f5f4 ae3e 1a70 6cbd e1af 97bd
000001b0: 2bfd 4fbe 36b7 703b cf2d 353e 4a4b 0fbe
000001c0: 9a33 133e 1aa5 f53d 95e2 a0bd 23e9 9dbd
000001d0: a64f 95be ad37 e83e 2593 b43d 031c 57be
000001e0: fd4d 12bc 70e5 b4be 50bf a43d 5e0e 1fbe
000001f0: e5bd 8abc 690c 81be 94b0 c53d 8ff4 873d
00000200: 674e 0fbe b57e 99be 2c56 1e3c ca23 febd
00000210: e520 c6bc 3e35 5dbe e1e6 0c3e e0ac 00be
00000220: 482f 55be cf82 adbe bd0a c7bd dcb5 6abe
00000230: 7126 a83d 6125 d9be a119 de3d 10bc d3be
00000240: 7beb 083e 1deb 233c 2331 203c 152a 223e
00000250: 03df 04bc 3293 c13d 8885 493e 6ce6 923d
00000260: b4bf 0e3c cef3 ce3e 465d a13d 37d8 813d
00000270: 2304 243c a296 83be 4d16 02bd 4ad5 ea3c
00000280: cc26 da3d 1594 353e d728 85bc ccaa 02be
00000290: f962 1e3e 6e1c 19bf e6cf 8dbd 021d e6bd
000002a0: 501d f63d ea55 2f3e c2e4 efbd 4732 efbc
000002b0: 52b8 81bd 06e2 82bd e909 d13d 7d10 dbbd
000002c0: dcab 0a3e 566e ed3d 1da4 febc c63c 51be
000002d0: 002a a73e ae9a ff3d 3d8c 0b3c 3d5f 3abd
000002e0: 31dc 82be 78c9 06be 67b3 9e3c 2d10 f9bd
000002f0: fbfb e83e 8a8f 783d 407b 8dbd 4395 42be
00000300: 31d7 fa3d 995b df3e 3331 e9bc 5724 eb3d
00000310: b8c8 38be c666 88bc 6943 c33d 2382 e23d
00000320: bf75 993d 03a9 c63d 32fd 3c3e b149 45be
00000330: 3f2b 05be 4be2 25be 318c 03bd 0e8e cfbd
00000340: ca57 a1bd c781 3d3e d5ab 2c3d 224f 14be
00000350: c648 c73b 051e 49be 4092 dcbd 1f20 c23d
00000360: 501d a23e da4a 76be 4dd0 48be cd5d 00be
00000370: 9b51 84bd b5f7 afbe cd80 023e 0c53 67be
00000380: c797 573e de1f 93be 01b2 1b3e 7c2b 74be
00000390: daba 963d 89a2 953c fdeb 443e 9405 823d
000003a0: bfae 8e3e ae15 c0be 45c7 f9bd da83 2b3d
000003b0: 2e52 e6bd dcf9 63bd 1d69 933c b647 ce3d
000003c0: 0b61 4dbe fbd4 5f3e bfd9 02be 8ae5 53be
000003d0: 510c 40be 95b0 ddbc 037f 29bd c9c2 43be
000003e0: 4e99 2abe 0fd0 bc3e a1a4 75bd f639 2a3d
000003f0: f1de 25be 0927 d93c 1524 f1bd 5f28 17be

fc1.bias f4 [256]
0.049373537 0.021836894 0.055207923 -0.1406415 -0.18107757 0.044690453 0.1337247 0.20673919
-0.16865586 0.12537846 0.1825671 0.015705483 -0.15661582 -0.040268146 -0.151178 -0.003220076
-0.17224556 0.09085336 0.14426176 0.19036518 -0.076445006 -0.070270635 -0.20556489 0.23653638
0.08213356 -0.1283362 0.024446473 -0.021990916 -0.2564467 -0.22675046 0.090541795 -0.1518342
-0.024285045 -0.21482855 0.12597951 -0.05726501 -0.22780795 -0.059096836 0.17115906 -0.08695811
0.06404464 0.13945857 -0.30346122 -0.036189843 -0.044488207 0.032655697 -0.22502117 0.20714663
-0.170125 -0.06314088 -0.15913375 0.07650691 -0.30210423 -0.19584697 -0.08020951 -0.034784406
-0.17331629 -0.23264 -0.20110554 0.120218866 -0.31635708 0.1279965 0.06028083 0.2000974
-0.15734881 0.005305216 -0.1422081 0.06893952 0.23722248 0.029066065 -0.121926196 0.016750867
-0.09565759 -0.23394966 -0.27491412 0.15639079 -0.065975666 -0.23629816 -0.20622757 0.12330251
-0.26285082 0.08998575 0.09514177 0.13770212 0.045647535 0.021776248 -0.14547884 -0.25192118
-0.15114902 -0.038757406 -0.1890501 -0.14953738 -0.0910978 -0.16577983 -0.16942304 0.1642126
-0.0047562965 0.15259117 -0.015217958 -0.19956137 0.090749614 0.052379973 0.12551557 -0.14235006
-0.12385059 -0.035182685 -0.08772521 -0.026372561 0.17595948 -0.20337345 -0.31195235 -0.08691908
-0.0099952 0.11844427 -0.22556455 0.3249981 -0.19413824 -0.18810476 -0.0021076626 -0.03846922
-0.18804479 0.07991043 -0.018261924 -0.17639476 0.11061381 0.13448995 -0.2019022 0.26917338
0.058144547 -0.16743033 -0.25076762 0.26951608 -0.19144279 -0.30127823 0.21190514 0.18826373
0.037797514 0.18406141 -0.1606702 -0.109067455 0.32164082 -0.067752086 -0.0624023 0.103287324
-0.13008785 -0.19878711 -0.045525085 -0.18337409 -0.31015083 -0.32591057 -0.11846915 0.078402594
-0.13080727 -0.059703983 -0.2979608 0.091093525 -0.10409702 -0.018077293 -0.25352603 0.11521157
0.07494396 0.013211587 -0.24763978 0.15988848 -0.019491786 -0.30114052 0.13695405 -0.05682303
-0.14081897 -0.106489465 -0.2327501 -0.021703389 0.35796648 -0.22440848 -0.32438755 -0.27823278
-0.20707425 -0.00026598774 0.0037330918 0.12448679 -0.06225778 0.02452794 -0.03080814 -0.010975291
0.012015585 -0.09827032 -0.14708617 -0.3986783 0.12762004 0.17131491 -0.12614386 0.00053718523
-0.07382363 -0.2611646 -0.1803553 -0.19662106 0.18223083 -0.093068734 -0.1425574 -0.08481758
-0.10453171 -0.049987476 0.069341354 -0.30594063 -0.03007591 -0.08647356 0.024487954 -0.07271968
0.006414917 -0.2794086 0.06842409 -0.12346321 0.050158683 -0.22425444 -0.24190368 0.1741665
0.20527704 0.014036506 0.23378493 -0.18498485 0.24474487 -0.10763693 -0.3170754 -0.21071209
-0.021390373 -0.059656985 0.008522432 0.15205564 -0.011257974 0.13037466 0.029209787 0.12206801
-0.13552243 0.14353016 0.011659136 -0.14908029 -0.048802752 -0.041789114 0.07859033 -0.23329893
-0.19238283 -0.27644396 -0.2050639 -0.13808827 -0.28843656 -0.11688952 -0.1826559 0.21268281
-0.048951644 -0.2902451 -0.13535024 0.2409794 0.006147686 -0.13440554 0.041950416 0.25733802
00000000: e83b 4a3d 49e3 b23c b421 623d 5304 10be
00000010: 666c 39be 560d 373d 21ef 083e 70b3 533e
00000020: 1fb4 2cbe 3663 003e dff2 3a3e c9a8 803c
00000030: e65f 20be 36f0 24bd 68ce 1abe e907 53bb
00000040: 2461 30be 5411 ba3d 5bb9 133e 17ef 423e
00000050: 338f 9cbd 0dea 8fbd 9a7f 52be 9836 723e
00000060: a435 a83d 916a 03be f843 c83c 4b26 b4bc
00000070: fb4c 83be 4631 68be fa6d b93d 6d7a 1bbe
00000080: 6ef1 c6bc 04fc 5bbe c600 013e b78e 6abd
00000090: 7d46 69be 860f 72bd 5244 2f3e 1817 b2bd
000000a0: d629 833d 3ace 0e3e 455f 9bbe cd3b 14bd
000000b0: 4439 36bd fbc1 053d f36b 66be 3f1e 543e
000000c0: 3f35 2ebe 0150 81bd f5f3 22be a8af 9c3d
000000d0: 68ad 9abe 1c8c 48be e244 a4bd 187a 0ebd
000000e0: d379 31be 2e39 6ebe 9cee 4dbe 4f35 f63d
000000f0: 8ef9 a1be 8411 033e 08e9 763d 55e6 4c3e
00000100: 0c20 21be 61d7 ad3b 009f 11be 2a30 8d3d
00000110: 73ea 723e f51b ee3c 71b4 f9bd 1d39 893c
00000120: 20e8 c3bd 8090 6fbe 8bc1 8cbe e824 203e
00000130: 401e 87bd 25f8 71be 522d 53be 0786 fc3d
00000140: 6294 86be 734a b83d b0d9 c23d c901 0d3e
00000150: e9f8 3a3d 1a64 b23c 68f8 14be d0fb 80be
00000160: cfc6 1abe 16c0 1ebd 5996 41be 5420 19be
00000170: 7c91 babd 30c2 29be 3c7d 2dbe 5927 283e
00000180: b5da 9bbb dc40 1c3e be54 79bc d159 4cbe
00000190: efda b93d 628c 563d 2787 003e 37c4 11be
000001a0: 61a5 fdbd b81b 10bd 46a9 b3bd 450b d8bc
000001b0: b92e 343e 2141 50be 38b8 9fbe a102 b2bd
000001c0: e8c2 23bc e992 f23d 65fa 66be 2766 a63e
000001d0: 2dcc 46be 899e 40be b620 0abb e791 1dbd
000001e0: d08e 40be 14a8 a33d 089a 95bc d4a0 34be
000001f0: 7e89 e23d bcb7 093e 73bf 4ebe 18d1 893e
00000200: fa28 6e3d db72 2bbe 9d64 80be 03fe 893e
00000210: 9409 44be 2441 9abe a9fd 583e 35c8 403e
00000220: 91d1 1a3d 987a 3c3e bb86 24be c25e dfbd
00000230: 1bae a43e 9bc1 8abd 8e99 7fbd 4e88 d33d
00000240: c035 05be d98e 4bbe 8378 3abd 6bc6 3bbe
00000250: 17cc 9ebe c0dd a6be f49f f2bd 8a91 a03d
00000260: 57f2 05be 2a8c 74bd 518e 98be 3e8f ba3d
00000270: d230 d5bd d516 94bc 2ace 81be 0bf4 eb3d
00000280: 387c 993d 6a75 583c 4895 7dbe ceb9 233e
00000290: 3dad 9fbc 172f 9abe af3d 0c3e 44bf 68bd
000002a0: d932 10be 2617 dabd 0b56 6ebe 4ecb b1bc
000002b0: 6247 b73e 56cb 65be 2016 a6be 8774 8ebe
000002c0: 460b 54be 4574 8bb9 e3a6 743b eef2 fe3d
000002d0: 0402 7fbd d2ee c83c 5a61 fcbc b5d1 33bc
000002e0: 04dd 443c f341 c9bd c29d 16be 901f ccbe
000002f0: d4ae 023e 2d6d 2f3e db2b 01be e4d1 0c3a
00000300: d830 97bd 5eb7 85be 0faf 38be 0857 49be
00000310: b89a 3a3e d29a bebd 91fa 11be d7b4 adbd
00000320: b914 d6bd abbf 4cbd d702 8e3d 40a4 9cbe
00000330: c161 f6bc 0d19 b1bd f69a c83c 0eee 94bd
00000340: 3934 d23b a50e 8fbe ee21 8c3d 48da fcbd
00000350: 3173 4d3d f5a2 65be 99b5 77be b458 323e
00000360: 2534 523e 60f9 653c 5165 6f3e ab6c 3dbe
00000370: 669e 7a3e c070 dcbd b557 a2be e9c4 57be
00000380: dd3a afbc e25a 74bd aca1 0b3c 79b4 1b3e
00000390: 5e73 38bc ef80 053e 5d49 ef3c cbfe f93d
000003a0: 64c6 0abe 92f9 123e f605 3f3c 81a8 18be
000003b0: 65e5 47bd 102b 2bbd f8f3 a03d eae5 6ebe
000003c0: 0100 45be 108a 8dbe 45fc 51be 0367 0dbe
000003d0: f5ad 93be c663 efbd 260a 3bbe 86c9 593e
000003e0: 8581 48bd 019b 94be 4199 0abe 4ec3 763e
000003f0: 8772 c93b 9ba1 09be 33d4 2b3d cfc1 833e

fc2.weight f4 [128, 256]
-0.09548369 -0.044227645 0.18099621 -0.100784555 -0.0020300946 -0.033708774 0.010166022 0.15217298
-0.096391805 0.019430611 -0.06282427 0.07093137 0.091673136 -0.19274807 0.045356106 -0.000698167
0.0752693 -0.04247904 0.018644026 -0.053233143 -0.042137172 -0.058249235 -0.013172458 0.06900763
0.045581754 -0.054654095 -0.06583417 -0.012443878 0.0705396 0.041956134 -0.08915074 0.08205039
-0.06513053 -0.012676701 0.113489516 0.066359974 0.0020851565 0.060009796 0.020317521 -0.058271967
-0.10259652 0.07168671 -0.13758807 0.010982865 0.1547944 -0.05952936 0.047957525 -0.0061680665
0.081091784 -0.11219717 -0.18981594 0.002595223 -0.033755224 -0.11229564 0.08269951 0.151964
0.01202873 0.042744275 -0.12242829 0.021179354 0.041482143 -0.008436308 0.05723854 -0.017912444
-0.076692164 -0.04233639 0.038934257 -0.054555528 -0.006869009 0.093877316 -0.16017592 0.00015289358
-0.0441551 -0.0033809696 -0.0062593585 0.12036801 -0.042479604 -0.010210725 -0.0029250002 -0.08101974
-0.28471208 -0.041868318 0.0939936 -0.17149475 -0.10003248 0.09305295 0.12591575 -0.02383773
0.14292894 0.057328124 -0.14696668 -0.11860112 0.004936784 0.12573968 -0.007435758 -0.03521157
-0.026015278 0.15726689 -0.0008082306 -0.013806911 -0.064066805 0.052487094 -0.0153452065 -0.0835783
-0.014640336 -0.08540588 0.14714666 -0.052000243 0.0076957424 -0.18186888 0.009919834 0.15216985
-0.034233265 -0.3712009 -0.18217586 -0.073184125 -0.06496649 -0.0069201463 -0.018961914 -0.019418951
-0.06721242 -0.12296032 -0.09241505 0.081760824 0.07266977 0.08509196 0.030662622 0.068686254
0.044618 -0.0036658659 0.025568342 0.1546824 0.039822042 -0.016672792 -0.1690825 0.1192986
-0.004847418 -0.093281746 -0.018759428 -0.14716187 -0.083288245 0.08906851 -0.58637166 0.05205766
-0.18330175 -0.06244774 -0.012583505 0.066098265 0.047210578 0.053112343 -0.001989378 -0.22622085
0.072004564 0.05111203 0.02605111 0.04652956 -0.064632416 0.056979172 0.0014222942 -0.012404889
-0.007504871 0.08034041 -0.050886277 0.016593099 -0.11417516 -0.06646385 0.011082495 0.011838747
-0.073667884 -0.020579457 0.06480568 -0.015932128 0.07793564 -0.01855373 -0.002731634 -0.10441854
-0.07107268 0.22388682 0.032168265 0.0097547965 0.02330355 0.05849468 0.026156506 -0.0072574187
-0.15014912 -0.00932661 0.085363075 0.026490826 -0.23253357 0.09972767 -0.024978887 0.061349202
-0.12049285 0.07197608 0.11219664 -0.11281588 -0.22062168 -0.030660668 0.047356617 -0.1440158
0.020065602 0.10649866 0.06957514 0.026327742 -0.04562469 0.088029884 -0.16566497 0.09960478
-0.0677807 0.0045965617 -0.15981469 -0.082111955 -0.0184767 -0.007811011 0.045011215 0.006124617
-0.048105206 -0.23173648 -0.015592115 -0.06448153 0.07311311 -0.09180653 0.05654574 0.0942075
-0.044505388 -0.019880189 -0.004913923 -0.13443018 0.026835568 -0.00084669876 0.07166923 -0.070763566
-0.098442554 -0.10705781 0.13882582 -0.08595186 -0.0825191 -0.10852605 0.0093169 0.06917484
-0.0511029 -0.10074277 -0.026487188 0.09823041 0.020421127 0.015487527 0.08589018 0.034245774
0.011923144 -0.09183576 0.06979931 -0.016974013 0.020085018 0.036926996 -0.002551198 -0.17615816
00000000: f48c c3bd 0c28 35bd 1257 393e 2268 cebd
00000010: 560b 05bb 3612 0abd 638f 263c 3cd3 1b3e
00000020: 1169 c5bd f22c 9f3c 03aa 80bd 7744 913d
00000030: 20bf bb3d c05f 45be 53c7 393d 3205 37ba
00000040: ca26 9a3d 80fe 2dbd 5bbb 983c ff0a 5abd
00000050: 0798 2cbd c096 6ebd 4bd1 57bc df53 8d3d
00000060: efb3 3a3d f9dc 5fbd 11d4 86bd 68e1 4bbc
00000070: 1177 903d 32da 2b3d aa94 b6bd 090a a83d
00000080: 2863 85bd f0b1 4fbc 316d e83d bde7 873d
00000090: 1fa7 083b d5cc 753d ee70 a63c 96ae 6ebd
000000a0: 201e d2bd 7bd0 923d e3e3 0cbe 79f1 333c
000000b0: 6c82 1e3e 0fd5 73bd 1c6f 443d 7e1d cabb
000000c0: 7313 a63d a1c7 e5bd 1c5f 42be 9e14 2a3b
000000d0: eb42 0abd 42fb e5bd 5c5e a93d 739c 1b3e
000000e0: 2614 453c 9f14 2f3d afbb fabd 5380 ad3c
000000f0: 2ee9 293d 7138 0abc f672 6a3d 1ebd 92bc
00000100: c810 9dbd ec68 2dbd 8779 1f3d 9e75 5fbd
00000110: 6d15 e1bb c042 c03d 2805 24be 0f52 2039
00000120: fadb 34bd 4293 5dbb 4e1b cdbb 8183 f63d
00000130: 18ff 2dbd e24a 27bc 5cb1 3fbb aded a5bd
00000140: c8c5 91be 1d7e 2bbd b77f c03d 529c 2fbe
00000150: d4dd ccbd 8c92 be3d 0ff0 003e 5847 c3bc
00000160: f75b 123e e5d0 6a3d 6f7e 16be 25e5 f2bd
00000170: bfc4 a13b e7c1 003e a9a7 f3bb 023a 10bd
00000180: fe1d d5bc 920a 213e 70df 53ba 6236 62bc
00000190: 7535 83bd b5fc 563d 766a 7bbc 1a2b abbd
000001a0: 05de 6fbc 47e9 aebd 9dad 163e 35fe 54bd
000001b0: 912c fc3b d63b 3abe cd86 223c 6ad2 1b3e
000001c0: 2e38 0cbd 0b0e bebe 4f8c 3abe 8fe1 95bd
000001d0: 270d 85bd 65c2 e2bb 0456 9bbc 7e14 9fbc
000001e0: aaa6 89bd 9fd2 fbbd 1a44 bdbd 3872 a73d
000001f0: e3d3 943d b244 ae3d 2e30 fb3c 61ab 8c3d
00000200: 5dc1 363d 063f 70bb b374 d13c 1065 1e3e
00000210: 701c 233d 6195 88bc f623 2dbe d352 f43d
00000220: 17d7 9ebb 800a bfbd 5fad 99bc 9ab1 16be
00000230: 0793 aabd 8d69 b63d 741c 16bf 6a3a 553d
00000240: 74b3 3bbe 34c9 7fbd 0c2b 4ebc 875e 873d
00000250: e15f 413d 548c 593d 3960 02bb 70a6 67be
00000260: 2177 933d d95a 513d 2369 d53c c895 3e3d
00000270: 005e 84bd fe62 693d 466c ba3a e03d 4bbc
00000280: 6ceb f5bb 8389 a43d 216e 50bd 40ee 873c
00000290: abd4 e9bd 331e 88bd 5a93 353c 4ef7 413c
000002a0: 30df 96bd 4096 a8bc d7b8 843d 1884 82bc
000002b0: b99c 9f3d fefd 97bc 3705 33bb 63d9 d5bd
000002c0: 8e8e 91bd 9642 653e dfc2 033d 95d2 1f3c
000002d0: 16e7 be3c 1e98 6f3d 2b46 d63c a4cf edbb
000002e0: b1c0 19be a3ce 18bc d6d2 ae3d 4a03 d93c
000002f0: 481d 6ebe 053e cc3d 86a0 ccbc 4d49 7b3d
00000300: f5c4 f6bd 3268 933d 5ac7 e53d 030c e7bd
00000310: a6ea 61be 152c fbbc 03f9 413d e178 13be
00000320: 9e60 a43c f81b da3d 697d 8e3d 47ad d73c
00000330: f4e0 3abd 0349 b43d 14a4 29be 97fd cb3d
00000340: 9cd0 8abd c19e 963b 76a6 23be 502a a8bd
00000350: 735c 97bc 82f3 ffbb ae5d 383d 03b1 c83b
00000360: f709 45bd 544c 6dbe 1276 7fbc e40e 84bd
00000370: 54bc 953d 1005 bcbd 829c 673d ddef c03d
00000380: 484b 36bd c7db a2bc f904 a1bb 11a8 09be
00000390: 44d6 db3c fef4 5dba 51c7 923d 7dec 90bd
000003a0: 409c c9bd 2041 dbbd 5b28 0e3e 8707 b0bd
000003b0: c6ff a8bd e842 debd e9a5 183c 8aab 8d3d
000003c0: 4651 51bd 3a52 cebd a9fb d8bc 062d c93d
000003d0: 354a a73c 65bf 7d3c 31e7 af3d 4c45 0c3d
000003e0: 4a59 433c 6314 bcbd f1f2 8e3d 160d 8bbc
000003f0: 5689 a43c c340 173d 0032 27bb ce62 34be

fc2.bias f4 [128]
-0.025891233 -0.08144575 -0.052891187 -0.03670828 -0.019802805 -0.049770568 -0.010344294 -0.05346022
-0.026064314 -0.0015972719 0.014030876 -0.101863205 0.06707457 -0.058062144 -0.008918362 -0.012316909
0.08099867 -0.019311545 -0.025688218 -0.023340393 -0.0030262733 0.0010866456 -0.00895039 -0.09044114
0.007989172 -0.024390193 -0.017616978 -0.0060699796 0.01763415 -0.081879206 0.08279318 -0.07873075
-0.11803096 -0.025796756 0.023546334 -0.059981927 0.010250729 0.04559397 0.026292793 -0.076127596
0.04125183 -0.0073545882 -0.014708906 -0.059123836 0.13790865 -0.05524578 -0.021434128 0.00589952
0.0313259 0.041336346 0.0007438569 -0.047560085 0.05552949 0.084342636 -0.03399405 0.01672693
0.041682124 0.055630095 0.053266857 0.0044371746 0.032650277 -0.15159406 -0.08066626 0.042744536
-0.022606026 -0.062131017 -0.07927133 -0.06140683 0.029169636 -0.07535652 -0.0073686894 0.1251024
-0.082195975 0.00076471886 -0.03837219 -0.017903253 -0.02331125 -0.029169282 -0.075300924 0.121320724
0.0581478 -0.022448245 -0.1063114 0.071081735 -0.016756758 0.018750697 0.0077893334 -0.03359369
0.016914316 -0.05243575 0.030538976 0.10319902 -0.0510711 -0.0563927 -0.039631244 -0.030897489
0.07321754 0.04753291 -0.043535832 -0.08695111 -0.030505933 -0.050236735 -0.062899284 -0.08111114
-0.00063634827 -0.020943874 0.037603144 -0.008819932 0.032305587 -0.015272311 -0.044825807 -0.023707522
0.054573048 0.00794379 -0.15945914 -0.094831176 -0.07887204 0.064259745 0.04815271 -0.047451157
0.027666872 -0.010835153 -0.11330245 0.10026499 -0.019671906 -0.074357815 -0.093445055 -0.029552214
00000000: da19 d4bc 08cd a6bd 6ea4 58bd 6c5b 16bd
00000010: 7e39 a2bc 39dc 4bbd 1d7b 29bc 1bf9 5abd
00000020: d484 d5bc 8d5b d1ba c2e1 653c a89d d0bd
00000030: 645e 893d 92d2 6dbd 521e 12bc dccc 49bc
00000040: a1e2 a53d 3f33 9ebc 1970 d2bc 5a34 bfbc
00000050: 7154 46bb c76d 8e3a a8a4 12bc 3439 b9bd
00000060: 04e5 023c f1cd c7bc 7b51 90bc aee6 c6bb
00000070: 7e75 903c 49b0 a7bd 798f a93d 963d a1bd
00000080: 37ba f1bd b853 d3bc 3ee4 c03c 9caf 75bd
00000090: acf2 273c bec0 3a3d fc63 d73c c9e8 9bbd
000000a0: aef7 283d c2fe f0bb a0fd 70bc d62b 72bd
000000b0: ed37 0d3e 6649 62bd a096 afbc c350 c13b
000000c0: 964f 003d 4d50 293d 64ff 423a 5dce 42bd
000000d0: e472 633d d5bb ac3d 583d 0bbd ea06 893c
000000e0: e0ba 2a3d 62dc 633d 592e 5a3d b865 913b
000000f0: 4cbc 053d 793b 1bbe 5a34 a5bd e514 2f3d
00000100: 4630 b9bc 187d 7ebd 0259 a2bd ba85 7bbd
00000110: 29f5 ee3c 8554 9abd 0c75 f1bb d81a 003e
00000120: 5d56 a8bd 6a77 483a 282c 1dbd d8a9 92bc
00000130: 3cf7 bebc 6bf4 eebc 5f37 9abd 0077 f83d
00000140: 632c 6e3d 62e5 b7bc cbb9 d9bd 4d93 913d
00000150: 7845 89bc 109b 993c aa3d ff3b 8999 09bd
00000160: e48f 8a3c dec6 56bd e02c fa3c 025a d33d
00000170: ee2f 51bd 08fc 66bd 5f54 22bd bb1c fdbc
00000180: 14f3 953d deb1 423d a152 32bd 6c13 b2bd
00000190: 94e7 f9bc 09c5 4dbd 57d1 80bd 991d a6bd
000001a0: 9cd0 26ba 7d92 abbc c105 1a3d 7a81 10bc
000001b0: dd52 043d b738 7abc 449b 37bd 4736 c2bc
000001c0: fd87 5f3d ac26 023c 4249 23be d936 c2bd
000001d0: aa87 a1bd 9d9a 833d c73b 453d 255c 42bd
000001e0: a3a5 e23c ed85 31bc 1d0b e8bd bb57 cd3d
000001f0: fa26 a1bc e948 98bd 1f60 bfbd 7c17 f2bc

fc3.weight f4 [64, 128]
0.22983222 0.21729222 0.3477324 0.27326167 -0.012198941 -0.013707916 -0.20898327 0.046995312
0.059431598 -0.20584203 0.19261004 0.05855733 0.18800026 -0.15070052 0.10877999 -0.13488863
-0.10633328 0.027377846 0.1316969 0.037110418 0.09518363 -0.095610335 0.15943344 -0.10208659
-0.016444806 -0.063069455 0.109064944 -0.26988924 -0.13954812 -0.032329716 -0.14327888 0.009022857
0.21906579 -0.34583265 0.07981542 0.04505723 0.089254856 -0.072427794 0.0040187496 0.090483226
-0.098408855 -0.22909984 -0.01832597 0.11502986 -0.2633525 0.048930045 0.047110837 -0.13194868
0.14064245 -0.24301006 -0.08833633 -0.11549981 0.062598534 0.10560414 -0.06612316 0.039154008
-0.012421958 0.039560866 -0.31490964 -0.053736374 -0.19060259 0.13587749 -0.3454506 -0.23667617
-0.26565993 -0.13080914 0.033908337 0.19651657 -0.078322895 0.18113592 0.03239649 -0.25142375
0.32076505 0.006715106 -0.23678176 0.02952621 -0.39991635 -0.0616259 0.22710109 -0.34668803
0.0022134443 0.07999019 0.15727358 -0.37433523 -0.09993846 0.17236875 0.19357322 -0.15989496
-0.35519484 0.04511812 -0.04121011 0.021404402 0.2271499 0.22273946 -0.09019449 0.17984155
-0.06007752 -0.19927298 0.08380272 0.009836067 -0.2597094 0.027242117 0.18397917 0.15536803
0.05727153 0.03582877 0.22041848 -0.1505347 0.094155945 -0.16252156 0.07652993 -0.16677113
-0.042354934 0.16268148 -0.19811939 0.02622112 0.07926544 -0.04632098 0.28697652 0.12077851
-0.066511296 0.121568374 0.18681301 -0.07850456 0.19297 0.17778815 -0.006936532 -0.004302242
0.14728779 -0.03141663 0.1397427 -0.03354924 0.024588376 0.024934093 -0.4318758 0.0061059226
0.14652191 0.004159886 0.14716892 0.107631065 -0.027126016 -0.49455053 0.17631581 0.11992581
-0.056319837 -0.019891467 0.077930495 0.1598061 -0.08953484 -0.23929247 0.10722312 0.024646927
0.025958741 -0.06992858 0.09234728 -0.113080345 0.14508164 -0.022948228 -0.1454257 -0.12069698
-0.11614649 -0.5483138 0.19129217 0.01716378 0.1421059 -0.039405815 0.14057082 -0.029142782
-0.27990645 -0.8237226 0.0089667775 0.08912949 0.1443517 0.24738732 0.07306522 0.17888813
0.016448125 0.041977916 -0.0043898523 -0.15013193 -0.05036318 -0.25536135 -0.13695993 -0.01917333
0.0834809 -0.061860472 -0.3980104 -0.19452125 -0.08788558 -0.038217735 -0.25612676 -0.05643999
-0.028183494 -0.11228515 0.08052344 -0.03663724 -0.15251671 0.050788686 -0.041191973 -0.24185991
0.12180022 -0.05195095 -0.06004687 -0.08999525 -0.5205392 -0.12867002 0.18716791 0.03177872
0.12240381 0.109858595 0.20744313 -0.001988732 -0.090341985 0.059387133 -0.024188336 -0.3780589
-0.017378828 0.13407171 -0.04473714 0.17970768 0.021494716 0.11502667 0.031085856 0.07388588
0.029442571 -0.001141807 0.060081504 0.056891233 -0.2550784 0.15011941 -0.1339206 0.12177751
-0.11547232 -0.02025788 0.00824502 -0.37456682 0.29026958 -0.13143651 0.11330016 0.0750532
0.14117938 0.049838148 -0.29309088 -0.0465121 0.06655528 0.08423236 0.15081823 0.05708239
-0.32785088 0.09895934 0.3659534 -0.1997675 0.028079445 0.04223295 -0.16956438 -0.04720696
00000000: 2359 6b3e da81 5e3e fb09 b23e f4e8 8b3e
00000010: 11de 47bc 2b97 60bc b6ff 55be 287e 403d
00000020: 8c6e 733d 41c8 52be 913b 453e d0d9 6f3d
00000030: 2483 403e 3d51 1abe 0bc8 de3d 3f20 0abe
00000040: 43c5 d9bd 8147 e03c 8ddb 063e 1801 183d
00000050: a3ef c23d 5acf c3bd 8542 233e c612 d1bd
00000060: 42b7 86bc 8f2a 81bd 715d df3d ec2e 8abe
00000070: b4e5 0ebe 2a6c 04bd b3b7 12be 9bd4 133c
00000080: c852 603e fa10 b1be 4476 a33d ee8d 383d
00000090: 40cb b63d 0655 94bd b7af 833b 454f b93d
000000a0: 958a c9bd 2699 6abe 5820 96bc c694 eb3d
000000b0: 24d6 86be df6a 483d 4bf7 403d 8e1d 07be
000000c0: 9304 103e a1d7 78be aee9 b4bd 2a8b ecbd
000000d0: a933 803d fc46 d83d 946b 87bd f45f 203d
000000e0: 7885 4bbc 930a 223d d63b a1be ac1a 5cbd
000000f0: 532d 43be 7823 0b3e e7de b0be 3d5b 72be
00000100: 9404 88be d5f2 05be 78e3 0a3d a43b 493e
00000110: c167 a0bd b27b 393e 2fb2 043d 9dba 80be
00000120: 513b a43e 640a dc3b eb76 72be f3e0 f13c
00000130: d6c1 ccbe 716b 7cbd 308d 683e 1881 b1be
00000140: 6f0f 113b e6d1 a33d 530c 213e dea8 bfbe
00000150: 89ac ccbd 6f81 303e 0f38 463e 81bb 23be
00000160: 19dc b5be c7cd 383d efcb 28bd 4958 af3c
00000170: fc99 683e d015 643e e4b7 b8bd 6228 383e
00000180: d813 76bd 370e 4cbe c3a0 ab3d 7527 213c
00000190: a1f8 84be dc2a df3c 0965 3c3e cc18 1f3e
000001a0: 8d95 6a3d 30c1 123d 62b5 613e c525 1abe
000001b0: d5d4 c03d 0d6c 26be b9bb 9c3d 0dc6 2abe
000001c0: 5e7c 2dbd f995 263e cfdf 4abe adcd d63c
000001d0: eb55 a23d 11bb 3dbd 96ee 923e b95a f73d
000001e0: 1337 88bd d7f8 f83d e94b 3f3e 00c7 a0bd
000001f0: ed99 453e 190e 363e d94b e3bb d2f9 8cbb
00000200: 9cd2 163e b9ae 00bd b618 0f3e ee6a 09bd
00000210: 906d c93c 9542 cc3c d31e ddbe 3114 c83b
00000220: d709 163e a74f 883b 73b3 163e ad6d dc3d
00000230: 6137 debc ba35 fdbe 228c 343e aa9b f53d
00000240: a1af 66bd 6ef3 a2bc 069a 9f3d 36a4 233e
00000250: 0b5e b7bd 1609 75be cc97 db3d 5ae8 c93c
00000260: 6da7 d43c b736 8fbd 9220 bd3d ab96 e7bd
00000270: 4890 143e ecfd bbbc 7aea 14be fa2f f7bd
00000280: 36de edbd 4b5e 0cbf 18e2 433e 0e9b 8c3c
00000290: 3684 113e fe67 21bd ccf1 0f3e d8bc eebc
000002a0: e64f 8fbe 7cdf 52bf 64e9 123c 8689 b63d
000002b0: efd0 133e 1a53 7d3e 38a3 953d 732e 373e
000002c0: 38be 863c 09f1 2b3d c0d8 8fbb 2fbc 19be
000002d0: 9f49 4ebd b9be 82be 393f 0cbe 6311 9dbc
000002e0: 09f8 aa3d 6861 7dbd 05c8 cbbe 9430 47be
000002f0: 5bfd b3bd 338a 1cbd 0c23 83be 9e2d 67bd
00000300: 12e1 e6bc c2f5 e5bd 79e9 a43d ee10 16bd
00000310: 572d 1cbe cc07 503d eab8 28bd 20aa 77be
00000320: 6572 f93d 85ca 54bd b5f3 75bd 6e4f b8bd
00000330: 0f42 05bf 13c2 03be f2a8 3f3e 672a 023d
00000340: d9ae fa3d 8bfd e03d f96b 543e 6355 02bb
00000350: 3805 b9bd ec3f 733d 9e26 c6bc f090 c1be
00000360: 0b5e 8ebc 184a 093e 4b3e 37bd 4a05 383e
00000370: b015 b03c 1a93 eb3d c4a7 fe3c 7b51 973d
00000380: 8c31 f13c afa8 95ba 0618 763d c806 693d
00000390: a399 82be e7b8 193e 7b22 09be 7d66 f93d
000003a0: c07c ecbd dbf3 a5bc 1f16 073c 39c7 bfbe
000003b0: 379e 943e 4b97 06be ea09 e83d 7eb5 993d
000003c0: 5491 103e 1623 4c3d 0210 96be 7983 3ebd
000003d0: 224e 883d 0482 ac3d 1870 1a3e 39cf 693d
000003e0: 12dc a7be 32ab ca3d 3e5e bb3e da8f 4cbe
000003f0: dd06 e63c 75fc 2c3d 49a2 2dbe 165c 41bd

fc3.bias f4 [64]
-0.116158985 -0.066837884 -0.024283562 -0.010776476 -0.03902246 0.038762156 -0.13592115 0.035450727
-0.089678265 -0.087331004 0.035542507 -0.06678345 -0.009990462 -0.15528375 -0.094448164 -0.16258554
-0.04580819 -0.0120484 0.12708725 -0.016837053 -0.101150475 0.018217087 -0.040948287 -0.07560045
0.015339551 0.07930853 -0.0194432 -0.11560918 0.03829431 -0.12189431 0.10265819 -0.08369249
-0.0056042015 -0.18088591 -0.07138677 0.07724147 0.0039749416 0.064511076 -0.017335873 0.028473109
-0.092393905 -0.1482053 0.053352196 0.03638622 0.035040144 0.0086514875 -0.11127269 -0.03828215
0.0102477195 -0.028128983 -0.03541537 0.06586539 0.013674454 -0.015637523 -0.051459465 -0.08770971
0.07191768 -0.03507631 -0.039817177 0.008942517 -0.027625004 0.017069934 0.005378155 -0.14677219
00000000: c3e4 edbd 4de2 88bd 52ee c6bc d18f 30bc
00000010: 04d6 1fbd 11c5 1e3d ea2e 0bbe c834 113d
00000020: 3da9 b7bd 99da b2bd 0595 113d c3c5 88bd
00000030: 09af 23bc b402 1fbe 0a6e c1bd d37c 26be
00000040: 5ea1 3bbd a766 45bc 2923 023e dced 89bc
00000050: fb27 cfbd 003c 953c 64b9 27bd 69d4 9abd
00000060: bd52 7b3c 836c a23d 5947 9fbc 81c4 ecbd
00000070: 7fda 1c3d b9a3 f9bd 753e d23d f866 abbd
00000080: 73a3 b7bb 283a 39be 3a33 92bd c730 9e3d
00000090: 3a40 823b 621e 843d f603 8ebc 7040 e93c
000000a0: 0439 bdbd 21c3 17be d587 5a3d b809 153d
000000b0: 4186 0f3d f8be 0d3c f0e2 e3bd becd 1cbd
000000c0: 0de6 273c c16e e6bc b50f 11bd 6fe4 863d
000000d0: d10a 603c 431a 80bc 29c7 52bd 26a1 b3bd
000000e0: 9449 933d 2dac 0fbd 5617 23bd a383 123c
000000f0: d54d e2bc 3fd6 8b3c 3c3b b03b 734b 16be

fc4.weight f4 [2, 64]
-0.49374688 -0.15411086 0.54205805 0.36702362 0.049820613 -0.38227665 0.43962148 0.6086856
-0.4330829 -0.21260375 -0.865748 -0.20535332 0.43101394 -0.22559045 0.5714474 0.33484793
-0.5639417 0.09022137 0.20243286 -0.20479101 0.12322259 0.07029941 0.014614023 0.40991083
0.028478298 -0.02231556 0.58020383 -0.14342044 0.033528663 0.55544174 -0.012853741 0.25143614
0.30562934 -0.4994329 -0.646045 0.06003144 0.79694176 0.18613572 -0.054071687 0.13899763
-0.57765096 -0.18705052 -0.13296689 -0.20081833 0.31778756 0.06925703 -0.45746565 -0.086403415
-0.16427507 -1.3679959 -0.87868834 0.22473863 1.0662782 -0.37302127 0.1833941 0.4100069
0.17969966 -0.6956074 0.04629853 0.0100617735 -0.4184883 0.115573935 -1.0334731 -0.6554798
0.6536803 0.5657755 -0.5214976 0.28404722 0.49107012 -0.5624375 -0.44159886 -0.8175379
0.40351608 0.18264079 -0.4535513 0.0690687 -0.21314818 0.025956834 -0.6612278 -0.22600578
-0.60079664 0.5055183 -0.21925937 -0.37158343 0.5206386 0.53063333 -0.83409554 -0.21299048
0.5314315 -0.81605333 0.18172559 -0.04063126 0.7037116 -0.088386334 0.9046905 -0.12324725
-0.39672172 0.09343027 -0.100035205 0.07356118 0.69131345 -0.9531667 0.33552814 0.1604338
-0.15288457 -0.39290565 0.3792763 0.30319944 0.5134879 -1.0038565 -0.4527599 0.29437065
-0.44500518 0.4422079 -0.020905143 -0.16724049 -0.31297734 -0.23595782 0.22167315 -0.092590235
0.21494836 -0.49902454 0.3550937 0.5021155 -0.250959 -0.10156546 0.014796986 -0.13447489
00000000: 64cc fcbe 3dcf 1dbe 51c4 0a3f 85ea bb3e
00000010: b310 4c3d c4b9 c3be 1116 e13e d2d2 1b3f
00000020: 0bbd ddbe ccb4 59be a9a1 5dbf 2448 52be
00000030: dcad dc3e 2f01 67be 604a 123f 3071 ab3e
00000040: 7c5e 10bf fbc5 b83d 8f4a 4f3e bcb4 51be
00000050: 205c fc3d 23f9 8f3d a86f 6f3c d5df d13e
00000060: 524b e93c 1fcf b6bc 3d88 143f cfdc 12be
00000070: 5a55 093d 6e31 0e3f 7f98 52bc 3dbc 803e
00000080: 737b 9c3e abb5 ffbe 3563 25bf 87e3 753d
00000090: 6004 4c3f 5d9a 3e3e 467a 5dbd 6555 0e3e
000000a0: efe0 13bf 2c8a 3fbe 7928 08be 52a3 4dbe
000000b0: 0db5 a23e a1d6 8d3d f038 eabe 46f4 b0bd
000000c0: b937 28be 7d1a afbf b8f1 60bf e221 663e
000000d0: ce7b 883f a5fc bebe aacb 3b3e 6dec d13e
000000e0: 3003 383e 5413 32bf 87a3 3d3d 23da 243c
000000f0: 1944 d6be 07b2 ec3d d948 84bf 86cd 27bf
00000100: 9857 273f aad6 103f de80 05bf a36e 913e
00000110: 8b6d fb3e e7fb 0fbf 3f19 e2be 2a4a 51bf
00000120: a999 ce3e 3006 3b3e e037 e8be e473 8d3d
00000130: 8443 5abe 6da3 d43c 3a46 29bf 0f6e 67be
00000140: cfcd 19bf a669 013f 8785 60be 2f40 bebe
00000150: 9248 053f 96d7 073f 4987 55bf 2d1a 5abe
00000160: e50b 083f dfe8 50bf 4616 3a3e f76c 26bd
00000170: 7226 343f e503 b5bd cc99 673f 0e69 fcbd
00000180: 1c1f cbbe 5f58 bf3d 42df ccbd 3ea7 963d
00000190: ebf9 303f bc02 74bf 58ca ab3e c248 243e
000001a0: c68d 1cbe ee2a c9be 8130 c23e f53c 9b3e
000001b0: f173 033f 5f7e 80bf 25d0 e7be c0b7 963e
000001c0: b8d7 e3be 1369 e23e 4341 abbc 1741 2bbe
000001d0: 913e a0be ed9e 71be 49fe 623e f39f bdbd
000001e0: 6c1b 5c3e 2580 ffbe d7ce b53e a48a 003f
000001f0: b37d 80be 8d01 d0bd 0f6f 723c c9b3 09be

fc4.bias f4 [2]
0.009447965 -0.1275899
00000000: a3cb 1a3c eda6 02be
