models/model-1-checkpoint-2.1639-actor.pth (torch, 193711 bytes, 8 tensors)

fc1.weight f4 [256, 24]
00000000: 8ca3 0c3e 7274 78be 014c b1bd 640f 8c3d
00000010: de87 9ebd d9e7 62be aa0f 713d 5455 e4bc
00000020: 029c 983e 41ca e0be 3e2d 1abe 5af9 293e
00000030: 0b70 a43d 4672 b6bd 40ad 173d 735a af3d
00000040: c65b a5bc 4fd6 a7bd 40c8 a83c a703 8e3e
00000050: 9318 b63e c0c0 25be e7c8 473d a1a7 753e
00000060: 3f36 9b3e 8398 f1be 4032 863d ef1a d63d
00000070: a6cb 4bba c429 0c3e e616 06be cbbd 09be
00000080: 0727 a4bc c4b0 15bf fa31 823d ddf3 b13e
00000090: a9a6 42be 93b8 ee3b 33be 09be f2a8 e0bc
000000a0: 170e 9ebd 059e d6be e81a eabd 9c33 283e
000000b0: 6aa9 a3bc d8dd c4be e864 e2bd 7276 9f3e
000000c0: 11c7 6cbc b563 7abc 78d5 8abd 420f 813e
000000d0: 124a babe f6d9 a13e e607 1a3e 2172 01bd
000000e0: 0d2e 5ebe f034 743d 4230 ca3d f74f 26be
000000f0: f1d6 75be 1e70 7d3c 7899 0ebc 2e58 a53d
00000100: 91df 39be e38c 983c 4779 463d 2e08 a3bd
00000110: 3c1a 9c3e 08f1 b9be 8880 18bd 439e 0ebe
00000120: 0e06 f13d ebb5 9f3e 9b5c 2ebd b6bb 72be
00000130: 2331 8bbd 83b9 94be 74db 9d3d 203c 0bbe
00000140: f68a 5f3e f454 f0bc 1908 1c3e 3c88 5c3d
00000150: ff0d abbe 73db 913d a063 35be f8ac fd3d
00000160: b9ac 783e d40d 48bc 97a6 253e e9b2 593d
00000170: b288 84be 71c2 903e 6721 103e a045 0f3e
00000180: 53d2 5ebd ab8a eabd fdbb 9bbd ac1d 773e
00000190: d994 9c3e 8323 213e 09c8 5b3d 1105 8a3e
000001a0: 5f9e b8ba a8aa 49be 10c7 563e e5b1 0b3c
000001b0: 90e6 81be 1500 a03e acfb 11be 7d89 d23d
000001c0: faf6 ae3c 77a3 9cbe befd a33c 2db1 0a3e
000001d0: aa2e 03bf 6c7b d63e 8a89 b1bc 88b2 933d
000001e0: 6e53 a03e fca3 cfbd cf32 093e 229f 90bd
000001f0: 8d27 4fbe 8729 a33d 90a9 34be 9c92 fb3d
00000200: 66de bb3d 4011 8abe b3ee 23bd 54cb 8c3c
00000210: 95c3 293e a2dc 083e 486c 543d 49d5 86bd
00000220: 3af8 7cbd 086f 59be c95f c9bd 51ec d7bd
00000230: c7ab 7e3e f8f9 b53e b313 5b3e b309 22bd
00000240: 7529 6abd c51d 1ebe 0735 b53d 840c 043e
00000250: 7f11 683d 1728 843e 100d c3bd f60a 513e
00000260: 403b d53e 297a 543c 62ef 16be 3624 5c3e
00000270: 82a3 c83e e02b d73d 36d0 be3d 2753 713e
00000280: cb5e 5d3e c6c7 b9bd 0105 953d fda1 cf3d
00000290: 2e40 163f da8d 033f 73f4 52bd 6860 883e
000002a0: 7ebf 4d3e eb80 943e b4b2 9f3d 5ca5 18be
000002b0: 50d5 fe3d d3ae 203d 9a0c e03d 4797 0b3e
000002c0: de0c 023e 5269 363e 101f 55bd 99d8 8ebd
000002d0: e94e 67be 4565 a23e b750 8f3d c8e7 673c
000002e0: 5ba9 5b3e c534 b43b 900f 183e 9e76 4abd
000002f0: e3e7 cebd 80bd 0b3f 82d7 8bbd a951 a3bd
00000300: 8acd 37be cbc1 863b 5408 8d3d 2f12 11be
00000310: 9b30 70be 3bb2 bbbc 1608 34bd 0ede 0fbe
00000320: feea 513e 608e 273e 7d07 95bd 66b0 9d3d
00000330: 1d27 a9bc 46c1 a53e 12d8 5d3d d737 733d
00000340: a5e0 10bd 36db 89bd 5904 d23c 5698 66be
00000350: b539 9b3e c39d 2d3f 69f2 583a afa9 80be
00000360: 15b4 883d 5ca7 273e f25e bcbd 57ac a93e
00000370: d31a 06be 57c9 85bd 7d05 873d 6b3f b83e
00000380: 8a74 8a3e b80f 003f a2f4 0b3e 0d53 2abb
00000390: 8583 e5bd 6b95 7d3e 70d2 b3bd d2f4 673e
000003a0: 018b 833d 9f03 dd3e 5ff2 503d dc4d 523d
000003b0: e2f8 b13e cfa5 d13e ea19 08bd dc06 bd3d
000003c0: 7c04 043e 1a2c 06bf dcbf d3bc 3623 43be
000003d0: a90b 843e d3e8 113e c170 943d 2bf9 9bbd
000003e0: 33a2 b53e 93d7 4dbd d5e0 843d 66ce 8d3e
000003f0: 1ebf 6dbe 345b 903e faf9 28be a68d 083e
0.13734263 -0.2426317 -0.08657075 0.06838873 -0.07740758 -0.22158755 0.05885283 -0.027872719
0.29806525 -0.43904307 -0.15056321 0.16599026 0.08029183 -0.08908515 0.03703046 0.08562174
-0.020185363 -0.08195173 0.0206033 0.27737162 0.35565624 -0.1618681 0.04877558 0.23989727
0.30314824 -0.4718667 0.06552553 0.10454356 -0.00077741814 0.13687807 -0.13094673 -0.13451307
-0.020038141 -0.5847285 0.063571885 0.34756365 -0.19008888 0.0072851866 -0.13451461 -0.02742431
-0.07717531 -0.41917434 -0.11430913 0.16425937 -0.019978244 -0.38450503 -0.110544026 0.31145054
-0.014451758 -0.015282561 -0.06778997 0.25206953 -0.36384636 0.31611603 0.15042076 -0.031602982
-0.21697254 0.059620798 0.09872486 -0.16241442 -0.24007775 0.015468625 -0.008703582 0.080734596
-0.1815169 0.018621868 0.048455503 -0.079605445 0.30488765 -0.36316705 -0.037231952 -0.1392756
0.11768733 0.3119348 -0.042568784 -0.23704419 -0.067964815 -0.29047784 0.07707873 -0.13597155
0.21830353 -0.029337384 0.15237464 0.05384086 -0.33409116 0.07121935 -0.17713785 0.12386507
0.24284638 -0.012210328 0.1617683 0.053149138 -0.2588554 0.28273347 0.14075242 0.13991404
-0.0543998 -0.1145223 -0.07604215 0.24132413 0.30582312 0.15736203 0.053657565 0.2695699
-0.0014085284 -0.19694006 0.20974374 0.0085263 -0.25371218 0.31250063 -0.14256161 0.1028013
0.021358002 -0.30593464 0.020018455 0.1354415 -0.5124308 0.41891038 -0.021672029 0.072117865
0.31313652 -0.101386994 0.13398288 -0.07061602 -0.20229931 0.07966905 -0.17642808 0.12283823
0.091732785 -0.26966286 -0.040022563 0.017186798 0.16578515 0.13365415 0.051861078 -0.0658365
-0.061760165 -0.21233761 -0.09832723 -0.10543121 0.24870215 0.35542274 0.21394233 -0.03956003
-0.057168443 -0.15441044 0.08848005 0.128954 0.05665731 0.25811836 -0.09523976 0.20414338
0.41646767 0.012968578 -0.14739755 0.21498188 0.39187247 0.10506415 0.09317057 0.23566876
0.21618192 -0.09071307 0.07276345 0.10138319 0.5869168 0.51388323 -0.051502656 0.26636052
0.2009258 0.29004607 0.07797757 -0.1490683 0.1244303 0.039229225 0.109399036 0.13631926
0.12700221 0.17813614 -0.052031577 -0.069749065 -0.22588696 0.31717888 0.06997817 0.014154382
0.21451323 0.0054994547 0.14849687 -0.04942953 -0.10102823 0.5458603 -0.06828214 -0.0797456
-0.179495 0.0041124574 0.06886354 -0.14167093 -0.23456042 -0.022912135 -0.043953024 -0.14049551
0.20499799 0.16362906 -0.07276819 0.07699661 -0.020648533 0.32374018 0.05416114 0.059379425
-0.035370488 -0.06731264 0.025636839 -0.22519049 0.30317464 0.6781885 0.0008275868 -0.25129458
0.06674973 0.16372436 -0.09197797 0.33139297 -0.1309617 -0.06532543 0.06592844 0.35985884
0.27042037 0.50023985 0.13667539 -0.0025989444 -0.11206726 0.2476403 -0.08780372 0.22651985
0.06422997 0.43166825 0.051012393 0.051343784 0.34760195 0.40946814 -0.03322784 0.09229824
0.12892336 -0.52411044 -0.025848322 -0.190564 0.25790146 0.14248972 0.072480686 -0.076158844
0.3547531 -0.050254416 0.06488196 0.27696532 -0.23217437 0.28194582 -0.16501608 0.13335285

fc1.bias f4 [256]
00000000: 8e01 a5bc 0616 84bd c426 0abe c4a1 68be
00000010: 3f45 d83d 30dd 033e ad91 02bf fd1e ecbd
00000020: 658b babd 740b ccbc 7d38 3a3e 5a17 0abe
00000030: d3a5 81be 618f 88bc 20f0 c1bd aa7e 6cbe
00000040: 30bf 83be 14fa 07be c165 9abc db33 edbd
00000050: 43e0 13be e070 4dbd 2507 023e 1e49 f5bb
00000060: 3a90 0d3d 0432 d53d 0f4a 72be f4b5 913c
00000070: 3cc0 113c 3f45 303e 3482 31be 422b 43be
00000080: 9c53 d3bc fa2d a9be bdb1 593d 79c4 febd
00000090: b535 8fbd 4bf5 59be d647 87be c48b f0bd
000000a0: e8af 49bd 1a56 48be a9a8 cabb 570f 633d
000000b0: af6a 67be ccd3 81be bc9b 14bc fbd9 e8bd
000000c0: 671c 81be b7c1 663e 2759 a5be 1f68 a1bd
000000d0: f77c 98bc f639 1fbd 0c06 353e 7ef9 8a3d
000000e0: 3d17 ff3d 6e85 48be d5c8 f5be 8bb3 a6be
000000f0: 4d33 89be 91e2 9cbd 6191 49bc cc05 57bd
00000100: af21 abbe f621 293e 05e5 bfbd 1cd6 98bd
00000110: 1a20 db3d 5571 84be 2259 4a3e ddcd 99bc
00000120: ab75 a2bd f849 293d ca7e 13be a94f 5ebe
00000130: 1cc4 05be b61a 0abc 02ce 10be aa43 8b3e
00000140: c44c c1bd 2a14 cdbd cf20 593d db4c bdbe
00000150: 959f 70bd 6542 d7bb 7797 efbd 5240 62be
00000160: 6615 a6bc 4115 a5bd f6e7 fe3d 4043 d8bc
00000170: 6c2a 9dbd d83d d1be 3eef 0dbe 8aa8 49bd
00000180: 5883 543e b829 bebd 9173 a0be d281 a63d
00000190: 4605 04bf 60ca 84bc 3cf2 f33d 1684 a73d
000001a0: 4d50 2d3e bb15 aebd 6a95 cbbe a306 0c3e
000001b0: 5874 ad3d 2870 a43c 8eb1 dcbe 1222 1d3c
000001c0: 5eef dfbd a5a8 cebe 4e2b 06bd c053 a2bc
000001d0: b213 81be 812d 83bd 6545 e33d 97af 8fbe
000001e0: ad55 17be c360 b1bd 7588 b53d 0ffe 8c3d
000001f0: 8550 b4be 63ed d0bd ce01 f33d 9764 ebbc
00000200: 6bda bbbc aaa5 dbbb d861 843d aec5 56bd
00000210: a321 87be d7e0 7fbe ed84 12be 36ac 823e
00000220: 8f9f 593e 3742 01bf 0784 f03d 7bc8 643e
00000230: 74f0 abbd 4431 5dbe bdf5 d8be 90f9 90be
00000240: 0b5a d73d 3ba3 73bd 24c5 66be 35c6 113e
00000250: 6b08 c33c 82b9 b83d ed66 57be c5e7 6a3a
00000260: 0a42 45be 2c5b bbbd aabd 82be a131 9bbe
00000270: 08ef 253d 009c 27be 0a68 e0be 3b76 0abe
00000280: c13d 9dbe d81a 46be fdd3 723e 53f8 b6be
00000290: 32ff fa3d 58e5 8ebe 14c2 88bd 1666 65be
000002a0: e2f0 673d 067c 6e3e f5d3 3abd bf9a c8bd
000002b0: 0a85 e6bc 592f 51be 83ed 39bd d1b6 363e
000002c0: 2ac6 433e 0267 8a3e 90c4 82bd 00b7 84be
000002d0: 6f98 e5bd 2367 9dbb ce10 cdbb 5c2d 7abe
000002e0: f75c f5bd cb24 243e b7aa a83d 9357 45bd
000002f0: 12ba bcbd a9d5 08be 00cb be3d d1ed 383e
00000300: 3def 913d c3b4 8bbb 60f1 12bd 0af8 aabe
00000310: 0408 063e b575 98be 0571 f73b 9218 8ebb
00000320: 35d8 293d d255 00be 4e99 97be 282c 6cbc
00000330: f3be 563e df3f 0cbc 0b2a 93bc f1b6 f4bd
00000340: 7107 be3d fbc2 6abe 5bc3 98be 5c53 a0bd
00000350: 60ae 16be 67a3 9bbe c460 72be d9f9 55be
00000360: 8d51 1bbe 124c 84be d2c1 eabd e031 21be
00000370: 31ff 933d 7dfa 753e bd1f 063c 8e4b 73be
00000380: 86ec 54be d5b6 c6be 2974 2cbe d23d 3c3e
00000390: c3b9 933e 8561 60bd 7d09 a9bd 69aa a03e
000003a0: b3fc d7bd 09cf 8a3d 9b91 0e3e 358b b03d
000003b0: e309 a83e eec8 30be e719 753e 9327 70be
000003c0: cb6a 86be 8018 ff3e 49dd e93b 4949 5c3e
000003d0: ed40 12be 5eda 96be affa 5dbe c425 4b3e
000003e0: 9160 b9be f688 b3bd b362 523d 7d6c 09be
000003f0: 69fd 47be a385 a93d 33fa 6d3e 47f2 64bd
-0.020142343 -0.06449513 -0.1349135 -0.22717959 0.10560083 0.12877345 -0.51003534 -0.11529348
-0.09108619 -0.024907805 0.18185611 -0.1348547 -0.25321826 -0.01666993 -0.09469628 -0.23095194
-0.25731802 -0.13278991 -0.018847348 -0.11582156 -0.14441018 -0.050156474 0.12698038 -0.007485523
0.034561373 0.1040993 -0.23661064 0.017786957 0.00889593 0.17213915 -0.17334825 -0.1905947
-0.025796704 -0.3304289 0.05314802 -0.12439818 -0.06992666 -0.21284978 -0.26421994 -0.11745408
-0.049240023 -0.19564095 -0.0061846566 0.05543455 -0.2259929 -0.253569 -0.009070333 -0.113697015
-0.25216982 0.22534834 -0.3229458 -0.07881188 -0.018614275 -0.038873635 0.17678088 0.06785868
0.12455604 -0.1958215 -0.48004785 -0.32558855 -0.26796952 -0.076604016 -0.012302727 -0.052495763
-0.33424136 0.16516861 -0.09369854 -0.07462713 0.10699482 -0.25867715 0.19760564 -0.018774921
-0.079326 0.041330308 -0.14403835 -0.21710075 -0.13063091 -0.00842922 -0.14141086 0.2720006
-0.0943847 -0.100136116 0.053009804 -0.369727 -0.05874594 -0.006569194 -0.116988115 -0.22094849
-0.020273875 -0.080606945 0.12446587 -0.026399255 -0.07674107 -0.40867496 -0.13860795 -0.049232997
0.20753229 -0.09285301 -0.3133817 0.0813023 -0.51570547 -0.016209781 0.11911437 0.0817949
0.16925164 -0.085002385 -0.3976243 0.13674407 0.084694564 0.020073012 -0.43104213 0.0095906425
-0.109343275 -0.4036304 -0.032756142 -0.019815326 -0.2521034 -0.064051636 0.1109722 -0.28063652
-0.14778776 -0.08661034 0.08863918 0.06884395 -0.35217682 -0.10201528 0.118655786 -0.028734488
-0.022931298 -0.0067030983 0.06463975 -0.052434616 -0.2639285 -0.24988113 -0.1430852 0.25522012
0.21252273 -0.5049166 0.11743932 0.22342102 -0.08395472 -0.21600825 -0.42374983 -0.283154
0.10515221 -0.05948184 -0.2253614 0.14235766 0.023807725 0.09019758 -0.21035357 0.0008960928
-0.19263473 -0.09148249 -0.25535327 -0.303113 0.04051116 -0.16368103 -0.43829376 -0.13521664
-0.30711177 -0.19346178 0.2371368 -0.3573633 0.12255706 -0.2790935 -0.066776425 -0.22402224
0.056626208 0.23289499 -0.045612294 -0.097951405 -0.02813961 -0.20428218 -0.045392524 0.17843176
0.19118562 0.27031714 -0.063851476 -0.25920868 -0.11210715 -0.0048035546 -0.006258107 -0.24431366
-0.11980622 0.1602966 0.08235686 -0.04817922 -0.092151776 -0.13362755 0.09316063 0.1805947
0.07125709 -0.004263492 -0.035874724 -0.33392364 0.13088995 -0.29777303 0.007551315 -0.004336425
0.041465957 -0.12532738 -0.2960915 -0.014414825 0.20971279 -0.00856015 -0.017964384 -0.11948956
0.09278763 -0.22925942 -0.29836544 -0.078283995 -0.14714956 -0.30398104 -0.23669726 -0.2089609
-0.15167828 -0.25839287 -0.114627495 -0.15741682 0.07226408 0.24021335 0.008186278 -0.2375929
-0.20793352 -0.38811365 -0.16841187 0.18382958 0.28852662 -0.054780502 -0.08253763 0.31380013
-0.105462454 0.0677777 0.13922732 0.08620302 0.32820043 -0.17264149 0.23935662 -0.23452596
-0.26253352 0.4982338 0.007136975 0.21512331 -0.1428258 -0.29463476 -0.2167766 0.19838625
-0.36206487 -0.087663576 0.05136366 -0.13420291 -0.19530262 0.08277442 0.23239975 -0.055895116

fc2.weight f4 [128, 256]
00000000: 393f a0bd 6066 873d 3b43 ac3d b49e 24bd
00000010: 1ea6 a13c ade1 0d3d df92 083e 5ace f0bd
00000020: a374 363e b58f 6b3d e0ef debd 2cb2 493e
00000030: 5e98 5cbd 12f4 5ebc 2672 5a3e 8361 77be
00000040: 14c7 873e e1ce 3fbd c971 3e3d 6e40 3bbe
00000050: 2ee3 8d3d a684 d83c faf1 c13c d8fb 8dbe
00000060: 3516 bf3d aa27 f23d 2e48 f2bd a568 64be
00000070: c3f5 903d 9841 143d d848 e9bd 5d6c 02be
00000080: 2323 12be 7410 72bd 2bbe 08bd 64dc 293d
00000090: 9157 583d 6d0f d4bc f374 0fbe 72ba 623e
000000a0: 64ac 8b3d 3aa6 d9bd 0b46 b6bb 5afe d43d
000000b0: ad39 1d3e 2a31 853d 4c78 973d 63f6 40be
000000c0: 6c89 32be 4535 9bbc 4137 f13b 6f06 bbbd
000000d0: bbb6 173d a2e2 8fbe f16e 793d 78d1 01be
000000e0: 7ed1 cebc 6dc4 9b3c a78d 53bb ecb5 803d
000000f0: ceb4 533e fbdb d0be ae75 1cbd 94f9 293e
00000100: 8818 143e 2412 1bbe 2b49 b6be c505 febd
00000110: a8ea 00be f4f6 3dbd 505f 403d 6062 423e
00000120: b98b 15be 1460 143d 7fdc 2bbd bfbd b1bd
00000130: 5748 863c 4473 f1bd cc97 1b3e 2036 b5bb
00000140: c871 0c3d 72c8 74bd b0d7 bb3d 664f 78bd
00000150: 2aa3 99bd eaed 653d c17e d2bd 0588 a43d
00000160: 36f4 bc3d 35b7 c6bd 6ef8 973d 7643 5abc
00000170: cd7a e23d 3508 113e bb7a fe3c 3be2 fc3c
00000180: 54e6 33be e55e 2b3e d88f dd3c fd73 1bbe
00000190: 1615 293e 3f66 313c a38c 593d 61d9 33bd
000001a0: 1e65 c1bd 8608 793d 6ffc 64bd 7d89 2cbc
000001b0: 125f 053c 2bc8 8cbe 9633 853d 9661 17bd
000001c0: 79f7 cdbd 9740 2e3e 0cdc 54be bb44 89bd
000001d0: 1c79 55bd 272b 1dbd dd4f c4bd 2362 963d
000001e0: 1992 89bc d1c7 82be eb44 0d3e 2aa7 a03c
000001f0: 1915 373e 3639 763c f7fd 57bd 2f07 af3e
00000200: b742 803d e92a 903e 4a53 04be 0ed2 87bd
00000210: ae51 81be 79dc b6ba 0ed0 693c 1ddb 753d
00000220: ffb8 51be 470f 58bb 6b65 653d df60 d2bd
00000230: f494 94bd 4e68 e2bd d07d 79bd 7358 983d
00000240: 1749 f7bc 75f4 033e ee15 8f3d 4a98 463d
00000250: acfa 42bd 42ac bf3d 3204 ae3a dd63 e93d
00000260: 4dd7 a4bd 6894 d5b8 047f bdbd 6ca9 6f3d
00000270: 5465 42be a7a0 8c3e e8d8 c73d 3bce db3c
00000280: fbcc 253d 4dd0 783d f709 05be a066 ab3d
00000290: 3c4e 63bd 0132 06be 26f5 95bc 378a 1c3d
000002a0: f721 8f3d 8edd a7be d046 903d d5e9 83bd
000002b0: 2eab 093e ddb1 cbbe 45bb e9bc a353 933d
000002c0: de5e 7abe 4b92 523e 1fb3 3f3d 7481 193e
000002d0: 8200 00bd 1fb8 aabd c90c 30bd 5f30 66be
000002e0: f38a 1a3d c475 9ebe 2053 20be 4782 173e
000002f0: 35ab 91bd b4db dbbb 13bb 8fbe 9ec2 b9bc
00000300: cc82 883c b77c 10be d16f a8bd abaa 043e
00000310: 350e 00be 178b 03bd 602d aebd 2373 02bd
00000320: 9132 e03c c45f 423e 44e3 97bd ea60 953c
00000330: 1d90 a7bd ed12 1b3d 4212 463d 9db4 1fbe
00000340: 324e ecbd bde3 56bd b794 a53d 5c4a dcbd
00000350: fd86 40be e001 2bbc 63aa 9abe abd7 b43d
00000360: f3e8 e83d 6223 63be f709 0c3e 9e9a 2ebe
00000370: 9cff 9ebc 96fc 8bbd 89f7 cabb 26a1 87bd
00000380: 6599 583d c85c e63c a5e4 f23c ae54 f03e
00000390: bc35 2ebe 8784 0dbe adda a1be c05d adbb
000003a0: 463a 153d b984 9abd e309 9bbd cde7 35bd
000003b0: aa98 3abc 5ef9 febc d751 eb3d 691b 173e
000003c0: 5d1b b83d 42d4 f33c 04c1 21be 60d3 62bb
000003d0: 9568 913b f44f a9bc b444 4dbe c882 5abd
000003e0: 61f2 2bbc e45c 28bd 70d3 c03d dfce c2bb
000003f0: 92ab c33c d499 80be 0f13 2ebe 21f2 25bd
-0.07824559 0.06611323 0.08411261 -0.040190414 0.019732531 0.03463905 0.13337277 -0.117581084
0.17817931 0.057510097 -0.10885596 0.19696873 -0.053856246 -0.013607996 0.21332607 -0.24158292
0.26519072 -0.046828154 0.046495233 -0.18286297 0.06928097 0.02643044 0.023674954 -0.27731204
0.093304075 0.118239716 -0.118301734 -0.22305544 0.07078125 0.036195368 -0.11390847 -0.1273665
-0.14271216 -0.059097722 -0.033384483 0.041469947 0.052817885 -0.025886262 -0.14009456 0.22141436
0.0681999 -0.10627408 -0.005562549 0.10400076 0.15354033 0.06503518 0.07395992 -0.18843989
-0.17435235 -0.0189463 0.007361323 -0.091320865 0.0370395 -0.28102595 0.060896818 -0.12677562
-0.025246378 0.019014562 -0.0032280476 0.06284699 0.2067444 -0.40792832 -0.038198166 0.16599113
0.14462483 -0.15143639 -0.35602698 -0.12403444 -0.12589514 -0.04637809 0.046965897 0.1898284
-0.14604081 0.03622444 -0.04195833 -0.08678769 0.016391916 -0.11789563 0.15194625 -0.005530134
0.034288198 -0.059761472 0.091719985 -0.060622595 -0.07501824 0.056135096 -0.10278083 0.08033756
0.09226267 -0.09702913 0.07420431 -0.013321748 0.11058579 0.14163287 0.031064382 0.030869594
-0.17568332 0.16735418 0.02704613 -0.15180965 0.1651195 0.0108276 0.053112637 -0.04390848
-0.09443115 0.060799144 -0.055904802 -0.010530827 0.008140342 -0.27496466 0.0650398 -0.0369583
-0.10056967 0.17016827 -0.20787066 -0.067025624 -0.052117452 -0.03837123 -0.09585545 0.07342937
-0.016793298 -0.25543073 0.13795821 0.01961096 0.17879142 0.015028289 -0.052732434 0.34185168
0.06262725 0.28157738 -0.12922397 -0.066318616 -0.2525763 -0.0013951204 0.0142707955 0.060023416
-0.20480727 -0.003296809 0.056004923 -0.10272383 -0.07254973 -0.11055051 -0.060911 0.07438745
-0.03018622 0.12886222 0.06986605 0.048485078 -0.04760234 0.093590274 0.0013276397 0.113960005
-0.08048878 -0.00010184274 -0.09252742 0.058511183 -0.18983966 0.27466318 0.097581685 0.026831737
0.040478688 0.060745526 -0.12992083 0.083691835 -0.055494532 -0.13105012 -0.018305372 0.03821775
0.069889 -0.3278622 0.070447564 -0.06441084 0.13444206 -0.39784136 -0.02853168 0.07193687
-0.24450251 0.20563619 0.046801683 0.14990789 -0.031250484 -0.083358996 -0.042980943 -0.2247939
0.03773017 -0.30949223 -0.1565671 0.1479579 -0.07112733 -0.0067095403 -0.28072414 -0.022675809
0.016663931 -0.14110075 -0.08224452 0.1295573 -0.1250542 -0.03211507 -0.08504748 -0.031848084
0.027367862 0.18981844 -0.07416394 0.018234689 -0.08181784 0.037859846 0.048357256 -0.15596242
-0.11538352 -0.052463282 0.08085006 -0.107563704 -0.18801494 -0.010437459 -0.3020812 0.08830198
0.113725565 -0.22181466 0.13675676 -0.1705117 -0.019408993 -0.06835286 -0.0061940593 -0.066225335
0.052880663 0.028120413 0.029650042 0.46939605 -0.17012686 -0.13820086 -0.3161215 -0.005290717
0.036432527 -0.07544846 -0.07570245 -0.044410516 -0.011388937 -0.031124767 0.11490219 0.1475655
0.08989594 0.029764298 -0.15796286 -0.0034610853 0.004437516 -0.020668007 -0.2004574 -0.05334738
-0.010494799 -0.041104212 0.094153285 -0.005945071 0.023885522 -0.25117362 -0.16999458 -0.040514115

fc2.bias f4 [128]
00000000: 1c65 4bbd f14f 423d f8d6 fdbd 75e3 cd3d
00000010: 4c56 ecbd 8aa3 393d c297 1cbe b336 16be
00000020: 4ffc 4d3d 4a3f 19bd 559d f7bd aef9 0ebc
00000030: e6f8 453e c93f 05be 30f1 c1bc 1d3e df3d
00000040: 9454 a5bc 2044 72bd 7c59 28be b56c e6bd
00000050: 2807 c73d 267e 62bd b1fe f3bd a178 a0bc
00000060: 4793 ab3d a596 d8bb d0c8 34be 57cf 42bd
00000070: cd4b aa3b f46b f53a 0707 93bd 41cf 193d
00000080: fda5 e4bc 5cc4 28be 090c cebc 4624 1dbe
00000090: 19a9 d13d 2fe3 353d ae16 4e3d 8c47 34bd
000000a0: e1e8 ab3d fd64 75bd 7b42 b83d c315 9c3c
000000b0: c9d1 0ebd 51b7 55bd 7dca a2bd c515 b73b
000000c0: a832 d8bb 2303 503e 692c 323d 7833 60be
000000d0: 3d90 3e3d bd7b 19bd 7f44 a0bc 1c9c e53c
000000e0: 7556 a23d 2bfe 22bd b017 453e 0c0d cbbd
000000f0: ed06 11be 3c31 49ba 7d84 c63d 9851 1b3c
00000100: e5a8 81bd b0ec 3c3e dc1b 853c 5d0f f73d
00000110: 6bb7 5a3d 1989 79bd 3ab4 43bc 2354 52be
00000120: 4ae5 c5bd 1fad 1f3d be3e e6bc c83d 2fbd
00000130: 84e3 103d 9907 89bd f9db ce3d c455 87bc
00000140: 4dd0 64bd da71 f6bc 02bc a53d f492 e53d
00000150: b3e1 a93d d07a 75bd 3995 1f3d 0c02 093e
00000160: 25bf b7bd 4757 0cbc 6891 c3bd 4845 98bd
00000170: 3a35 e6bc 7e8a 03bd a5bd 5d3d 4cdb ac3a
00000180: 20e5 0bbe 98d2 39bd 6931 00bd 45a1 17bd
00000190: 6332 5fbd 8cba 06be a840 2d3d 22b0 983d
000001a0: 7f4c e23c 8786 23bd 403a a0bc 1090 8abc
000001b0: 6b75 2f3b d468 dbbb f26e 143d 455c 6c3d
000001c0: 0458 c13d 79e2 0b3e 594a 053e eb4a 3fbd
000001d0: 62e1 89bd 074b a5bd a551 93bb 7017 aebd
000001e0: 2e85 94bd 0ea1 0fbe 2465 50bd 1145 2b3c
000001f0: cefd c23d 6f86 473b 8c8b e0bc 9db0 6ebd
-0.049656972 0.04743952 -0.12394518 0.100531496 -0.11539897 0.04532198 -0.15292266 -0.14669304
0.05028945 -0.037413873 -0.120905556 -0.00872652 0.19333228 -0.13012613 -0.023674577 0.10900519
-0.020181932 -0.059147 -0.16440386 -0.11251203 0.09718162 -0.055296086 -0.11913813 -0.01958877
0.083777 -0.006609755 -0.17654729 -0.047561016 0.0051970244 0.0018724189 -0.07179075 0.03755117
-0.02791118 -0.16481155 -0.025152223 -0.15345868 0.10237331 0.044406112 0.050314598 -0.044013545
0.083940275 -0.059910763 0.08997055 0.019053346 -0.034868035 -0.052176777 -0.07948778 0.005587312
-0.0065978356 0.20313697 0.043499384 -0.21894634 0.046524275 -0.03747152 -0.019563911 0.02802854
0.079266466 -0.039793175 0.19247317 -0.09914598 -0.14162798 -0.0007674878 0.09693239 0.009479903
-0.06331042 0.18449664 0.016248636 0.12063477 0.053397577 -0.060921762 -0.011944825 -0.20539908
-0.09662874 0.03898346 -0.02810609 -0.04278353 0.035373226 -0.06690902 0.1010055 -0.016520388
-0.055862714 -0.030083586 0.080925 0.1120967 0.08295002 -0.059931576 0.03896067 0.13379687
-0.08972005 -0.00856573 -0.095492184 -0.07435089 -0.028101552 -0.0321145 0.054135937 0.0013187914
-0.13661623 -0.045366853 -0.03129712 -0.037019033 -0.054491412 -0.131571 0.04229799 0.0745547
0.027624367 -0.039923217 -0.019559026 -0.016914397 0.0026772867 -0.006695846 0.03623862 0.057705183
0.09440616 0.13660611 0.13016643 -0.046702307 -0.067324415 -0.08070951 -0.004495817 -0.08500564
-0.072519645 -0.14026281 -0.050877705 0.010453478 0.09521066 0.003044512 -0.027410291 -0.0582739

fc3.weight f4 [64, 128]
00000000: d453 603d f960 12bd 023f df3d 3b6f a13d
00000010: f8d5 b8bd 3483 8dbd ece4 003e fa41 9cbd
00000020: 2fc2 283e 3d64 74bd 3ee4 7b3e 743c a23b
00000030: e33a 87bd 492f eb3d a331 b8bd 95f4 963e
00000040: c3c1 0cbe a36d f73c c5e2 1cbd 57c9 e93d
00000050: 0967 683e 90c3 2c3e 4f1f 85be bed7 023c
00000060: 49d0 3fbd 2100 e63c 798c b83e 5ca0 ae3d
00000070: 84d5 8b3b abd7 94be 06bd f83d 3ee2 8bbd
00000080: ee00 873d 96b5 e43d bef6 be3d 0370 3e3d
00000090: dc7e f1ba 8982 f0bd ffad 49bd e1df e6bd
000000a0: 8f4d 47be b674 d93d 0f32 55bd d613 3cbe
000000b0: 35ad a53d dd2f 3e3d 5631 913e bb7a 39bb
000000c0: a507 b53d c246 e13c edc1 cc3c 8e36 583d
000000d0: fca3 423e 76f5 7a3d c025 5a3e 2d7d aabd
000000e0: 3d8f 26bd 4bab b0be c2cc 5cbd aa51 4dbe
000000f0: 2556 e83b a833 68be 69b9 1dbb b998 5cbe
00000100: 5676 cbbd 640a c7bc 3a8f 16be cb56 62be
00000110: 007b b6be 6fe2 783d 7d21 97bd 2deb 5e3d
00000120: 7ca5 2d3e 576e ed3d 2831 7f3c 65c1 8d3d
00000130: 491b 56bd 5ce6 973e f2b1 c5bd a1b3 4f3e
00000140: 9fda 46be d6ee 983d 971a 8bbc 8c1c d43c
00000150: 7e37 6bbd 691b 683e cbf4 e63d c63f 83bd
00000160: 6e8d 3dbd 474f 173e b009 023d e81c 753e
00000170: 1e9d 0a3e 19c0 3ebd 0ddc 94bd aa14 723d
00000180: 8755 fa3e 8f9e 9ebc 83ba a83d 186a 243c
00000190: 6552 bdbe 74fc 30be 617a 813d c699 95bd
000001a0: 3af8 e9bc 98d5 0eba 551c 6dbe 36af 1cbd
000001b0: 994c 643e ec3e 32bd 4b2f 6abd 4a08 0a3d
000001c0: b4d6 0cbe 93dd 963d 46f4 2bbe ccb5 acbd
000001d0: aaf5 b43e 019f 37be 6e97 293c 84e3 49bd
000001e0: 464e 063d e331 c53d 506a d13e d94a b0bd
000001f0: b2c3 9d3d 3762 fdbc 33c4 243e a427 ad3a
00000200: 9959 62bc b49e 9e3d d18e 4ebe 53c6 86bd
00000210: 49ba d7bc 13db 38be 34c7 3b3e 64a3 0cbe
00000220: 293f ff3c a286 89bd ce83 3e3e a636 ad3d
00000230: 124e fbbd bb4f d73d e16f de3d f32d fa3d
00000240: d96f f6bd b9de bd3d 6198 2d3e f911 ae3c
00000250: 4fc3 203e cd8b ad3d 97a8 1dbe e182 033e
00000260: 4bcf a2bc e9db 8f3d 5f9a b23e 1a2d 12be
00000270: 725c 94bb 93a6 8c3d 1167 cc3c e607 0fbe
00000280: 366b afbd 7c7d 803e 51cc e93b bafa 1b3e
00000290: 9920 4abe b04a 67be 6bcd 9b3d 67f3 2cbc
000002a0: 5d03 07be f7a3 e73d 7cf4 d7bd 522a 0ebe
000002b0: f74f 9b3d a4d7 1d3e 94c6 1b3e 787b c7bc
000002c0: 150a 9dbd 37a4 b7bd 1ea2 a1bb 4cc0 1e3e
000002d0: 3d15 893d d191 0c3d 7e2f da3c 8aa9 bbbd
000002e0: 342c b7bd 418d e6bb db10 b73c 2a3b 0e3e
000002f0: cefd 9d3d aa05 3bbe 2941 da3c 52e3 2bbe
00000300: e307 c1bd 76ad a23d 3f83 17be 2ed9 8fbc
00000310: c598 c5bd 03fc 4b3d 9190 353c 6e25 c73c
00000320: 6bc1 6b3d b4ee f63c 541f 82be 74ac 3fbe
00000330: 36aa 7abd e3d2 3f3e b8fb d1bd ac39 c6bc
00000340: c8d3 5abd 4232 78be 63eb 0c3e aa3e 9b3e
00000350: 35ac ddbd 1129 d1bb cb55 e53b 661b bf3c
00000360: b481 9fbc 7801 943b 4320 5abc 4d60 b03e
00000370: 37c2 2a3e d169 31bc a40c 923d 6151 86bc
00000380: d2af 833e 810c cf3c d8ef 91bd 100c b13d
00000390: 0df1 9dbe c8e0 1e3e 692e 00bd cd54 e3bc
000003a0: 0849 9b3c f401 e63d a837 0d3e 370b e9bd
000003b0: af71 023e 94d3 3fbd dd3a 30bd 7748 963d
000003c0: 6a0c 4fba 06e2 42be 097e 38be 28a2 153e
000003d0: c9f3 bd3e 121a 81bb 61c0 c93d 1a46 39bd
000003e0: d022 93bd f076 9fbe ce3e 753e 5c8f 253c
000003f0: e32b 113c cf28 0e3e 1a61 813c 1d2e 5bbe
0.054767445 -0.03573701 0.1090069 0.07882544 -0.09025186 -0.06909791 0.12587327 -0.076297715
0.16480325 -0.059665907 0.24598786 0.004951054 -0.066030286 0.11483628 -0.089938425 0.29483476
-0.13745789 0.030203646 -0.0383022 0.11415356 0.22695555 0.16871476 -0.2600045 0.007986007
-0.046829496 0.028076233 0.36044672 0.0852668 0.0042673964 -0.29070792 0.12145428 -0.06830262
0.06591974 0.11167447 0.09324406 0.04649354 -0.0018424648 -0.117436476 -0.0492382 -0.1127317
-0.1946318 0.10617964 -0.052049693 -0.18366942 0.08089677 0.046432365 0.28357953 -0.0028301913
0.08839349 0.02749956 0.024994815 0.052786402 0.19007868 0.061269246 0.21303463 -0.08324657
-0.040663946 -0.34505686 -0.05390621 -0.20050684 0.0070903474 -0.22675955 -0.0024066812 -0.21542634
-0.0993468 -0.024296947 -0.14703074 -0.22103421 -0.35640717 0.06076282 -0.07379434 0.0544235
0.16957659 0.11593311 0.015575685 0.06921653 -0.052272115 0.29667938 -0.09653081 0.20283367
-0.19419335 0.07467429 -0.016980452 0.025892518 -0.05742597 0.22666706 0.11277159 -0.06408648
-0.046277456 0.14776336 0.03174752 0.23936808 0.13536498 -0.046569917 -0.07268534 0.059101738
0.48893377 -0.019362716 0.08238699 0.01003506 -0.36976925 -0.17283803 0.0632217 -0.073047206
-0.028560746 -0.0005448698 -0.23155339 -0.03825303 0.22294845 -0.04351704 -0.05717401 0.03369931
-0.13753778 0.07366481 -0.16792402 -0.084331125 0.35343677 -0.17931749 0.010351045 -0.04928924
0.03278949 0.09628656 0.40901423 -0.08608026 0.077033415 -0.030930622 0.16090469 0.0013210666
-0.013815307 0.07745114 -0.20171668 -0.06580796 -0.026333945 -0.1805232 0.18337709 -0.13734204
0.031158047 -0.06715132 0.18604967 0.08457689 -0.1227075 0.10513254 0.10861183 0.12215795
-0.12033052 0.092709966 0.16952659 0.021248804 0.15699504 0.084739305 -0.15396343 0.12842895
-0.019874236 0.070243664 0.348834 -0.14275017 -0.004527622 0.06867709 0.02495149 -0.13967857
-0.08565371 0.25095737 0.007134952 0.15232363 -0.19738998 -0.22587085 0.0760754 -0.0105560785
-0.13184877 0.11310571 -0.105446786 -0.13883331 0.075836115 0.15414292 0.1521247 -0.024350867
-0.076679386 -0.08966868 -0.004932656 0.15503043 0.06693504 0.03431875 0.026633974 -0.091631964
-0.08943978 -0.0070358817 0.022346905 0.13889757 0.07714425 -0.1826388 0.026642399 -0.16785935
-0.094253324 0.07943241 -0.1479616 -0.017559614 -0.09648279 0.049800884 0.011081831 0.02430984
0.057557505 0.03014312 -0.25414526 -0.1871813 -0.061197482 0.1873279 -0.1025309 -0.024197422
-0.053424627 -0.24237922 0.13761668 0.30321246 -0.108238615 -0.0063830693 0.0069987527 0.023328494
-0.019471027 0.0045167767 -0.013313356 0.34448472 0.1667565 -0.010828451 0.07131317 -0.016396226
0.25720078 0.025274517 -0.07125825 0.08644879 -0.3084797 0.15515435 -0.03129426 -0.027750397
0.018955722 0.11230841 0.13790762 -0.11379092 0.1273868 -0.046832636 -0.043024886 0.0733804
-0.0007898273 -0.19031534 -0.18016829 0.14612639 0.37100056 -0.0039398754 0.098511465 -0.04523287
-0.07184374 -0.3114543 0.2394974 0.01010498 0.008860561 0.13882755 0.015793372 -0.2140431

fc3.bias f4 [64]
00000000: 3f73 f3bd 90b0 eebd b5f6 e13b 3c36 dd3c
00000010: d6c9 c63d 508e d0bd 5a7d 34bd 335f bcbd
00000020: 0107 8abc 1584 fab9 1c3d 43bd b26c acbd
00000030: 78b6 0b3c c568 663d bc73 b2bc 6188 4e3d
00000040: a610 84bd 468d 0ebd 2ae1 91bd f946 683d
00000050: 8683 07be c4b4 c7bd b189 c5bd 0236 bdbc
00000060: 5760 e63c ca77 5dbd 28b8 13bd f0cd ccbd
00000070: 64dd 353e 9637 51bb 3165 bebd 45d6 8abc
00000080: aa2f 33bc a110 c03d f982 6ebd 07f5 be3d
00000090: 77d6 bfbd 2141 6abc f6a9 86bd 2e9d 2e3d
000000a0: 6099 cd3c 61e7 8ebd 73e3 b13d 1932 2bbe
000000b0: d599 bfbd 87f5 023d b022 283d 2dbd c83c
000000c0: 7643 7fbd 0de2 97bd 9c71 c03c ec47 28bd
000000d0: 74e7 ec3c 2fe7 d43d 73e6 62bd 2698 adbd
000000e0: 8745 b5bd 9bb4 cd3c 3389 413d 1731 503d
000000f0: 9dd9 8fbd c338 b23b 51df 0f3e b28d 653d
-0.11887216 -0.116547704 0.006895865 0.0270034 0.09706466 -0.10183394 -0.044064857 -0.09197845
-0.016849043 -0.00047782125 -0.0476657 -0.084191695 0.008527391 0.05625226 -0.021783702 0.05042303
-0.06448488 -0.034802698 -0.07123025 0.05670831 -0.13233766 -0.09751275 -0.09645403 -0.023097042
0.02812211 -0.054069318 -0.036064297 -0.10000217 0.17760235 -0.0031924 -0.092966445 -0.016947875
-0.010936657 0.09378172 -0.058230374 0.09324079 -0.09367078 -0.0142977545 -0.06575386 0.042630367
0.025097549 -0.06977726 0.086859606 -0.1671833 -0.09355513 0.031972434 0.041048706 0.024504269
-0.062320195 -0.07416163 0.023491673 -0.041084215 0.02891896 0.10395657 -0.055395555 -0.08476286
-0.08851152 0.025110533 0.047249984 0.050828066 -0.07023928 0.0054388954 0.14050032 0.056043334

fc4.weight f4 [2, 64]
00000000: c6c2 b63e a088 a43e a25c 5bbd e883 80bf
00000010: 5933 b3bd f615 c03d 8a37 a13d 73f5 9d3e
00000020: 74f8 98bd e8c6 b2bd 726e 2a3d 5708 473d
00000030: cd2d 863e 947e d2be 243e 37be 2bcc 63be
00000040: 8f95 fc3d dcdb 66bf 4839 05bd 35b3 923e
00000050: 2cc2 cbbe 8f0c 0ebf 4bd5 5b3d 483e 32be
00000060: b132 593f d383 f8be 7c88 06be 51b4 bbbe
00000070: af30 eebc 87c8 efbd 8ccb 113f 95ea 90be
00000080: 7b4e 503e 8180 413e b054 f6be 3ad6 853f
00000090: 9304 2dbf f632 893e 30a6 7d3d 764f 40be
000000a0: 2b0f 5b3f b895 aabd e318 7f3d 1f19 ef3e
000000b0: 1ea5 7cbf 1288 07bf 15e1 f73c 9a7d 313e
000000c0: a787 ffbe 44d0 a4be d7e1 f93b 7bb1 7cbf
000000d0: dc43 353c 483e d93e aa23 d53d 3547 0cbd
000000e0: d0d1 2c3f fe2e 9ebd 8b5a b5be f5d4 4ebf
000000f0: 7571 443e 0e63 a4bf 42b2 fc3d 8bf4 1ebe
00000100: 25ea 01be ab11 40be e190 2a3e ff93 193e
00000110: a577 35bf 10cf 0dbf 9b65 8bbe dc03 05bf
00000120: 7fcb bc3e 7933 37bf dc33 523f c44f df3e
00000130: 370d 8b3c fc4c 23bd 7d50 9abb 596b 2d3f
00000140: 809c b1be 06eb 9d3e 1ab6 82bf a10e 693d
00000150: 0deb 99bd 8192 8bbe 88ce 173e 2c25 003f
00000160: 529f bfbe 2408 49be 9ca3 f9be ea16 0d3e
00000170: e59c 1d3f 968f 3f3f 1f6d cfbd 742b 283f
00000180: df61 0c3d 55dc f13e c573 99be 4224 6fbe
00000190: a553 56be 7255 a8bd 7873 523f 9866 d4bd
000001a0: 4090 b93d 0be8 31be 5d44 f53e 9ac7 dd3e
000001b0: beb6 01be 8bf4 64bf 7400 133f 269b 513f
000001c0: bd57 523e 0f30 3d3e f4f8 e1be 119b 313e
000001d0: f522 07bf c909 39be 220a 14bf aa27 0dbf
000001e0: b81b ef3e d767 823d 73a6 a93e 0d55 423f
000001f0: 72a3 66bf 7dd0 f03b f32e d33d 8f05 f53d
0.35695475 0.32135487 -0.05355514 -1.0040255 -0.08750028 0.09379189 0.07871921 0.30851325
-0.07469264 -0.087293446 0.041609235 0.048591938 0.26206818 -0.41112196 -0.17894799 -0.22245853
0.123332135 -0.9017923 -0.03252533 0.2865235 -0.3979658 -0.5548791 0.05367021 -0.17406571
0.84842974 -0.48538074 -0.13138002 -0.36661008 -0.029075949 -0.117081694 0.5695121 -0.28303972
0.20342438 0.18896677 -0.48111486 1.0456002 -0.67585105 0.26796693 0.061926067 -0.18780312
0.8557002 -0.08329338 0.062279593 0.46698853 -0.9868945 -0.52942 0.030258695 0.1733307
-0.49908182 -0.32190144 0.007625799 -0.98708314 0.011063542 0.4243033 0.10407193 -0.034247596
0.6750765 -0.07723807 -0.3542064 -0.80793697 0.19183905 -1.2842729 0.123386875 -0.15522973
-0.12686975 -0.1875674 0.1665683 0.14997862 -0.7088569 -0.5539408 -0.27225956 -0.51959014
0.36874005 -0.71562916 0.8211038 0.43615544 0.016974075 -0.03986834 -0.004709302 0.67741925
-0.34689713 0.3084337 -1.0211823 0.056898717 -0.075155355 -0.2726021 0.14824879 0.5005672
-0.3742624 -0.19632012 -0.48757637 0.13778272 0.6156753 0.7482847 -0.10128235 0.65691304
0.034273025 0.47238412 -0.29971138 -0.23353675 -0.20930345 -0.082194224 0.8220744 -0.10371131
0.09060717 -0.17373674 0.4790372 0.43316346 -0.12667367 -0.8943564 0.57422566 0.8187736
0.20541282 0.18475364 -0.4413525 0.1734431 -0.52787715 -0.18070139 -0.5782796 -0.5513865
0.46700835 0.06367462 0.33134803 0.7591103 -0.9009315 0.0073490725 0.10311689 0.11963951

fc4.bias f4 [2]
00000000: ecf9 14bd ad94 3bbc
-0.036371157 -0.011449021
